rl/models/best_model_run9.pth (torch, 79477 bytes, 6 tensors)

net.0.weight f4 [128, 13]
0	0x3e2b021f	0.16700028
1	0xbd121872	-0.035667844
2	0xbf93ced2	-1.1547492
3	0x3de8b8a0	0.113633394
4	0xbd88ba26	-0.0667613
5	0xbb1c9e9f	-0.0023898256
6	0x3e26b227	0.16278897
7	0x3ea3ff8a	0.32030898
8	0xbe1aa9f6	-0.15103897
9	0x3de8beb6	0.113645
10	0xbe7be2df	-0.24598263
11	0x3e0c0163	0.13672404
12	0xbebfec50	-0.3748498
13	0xbe055deb	-0.13024108
14	0xbd91cf63	-0.07119634
15	0x3e8dbda2	0.2768374
16	0x3e51d689	0.20491995
17	0xbd246205	-0.04013254
18	0xbe7098a3	-0.23495726
19	0x3ce3e167	0.027817441
20	0x3e02d9b2	0.12778357
21	0xbe8dc7bf	-0.27691457
22	0xbdcf6210	-0.10126126
23	0x3e1e8868	0.15481722
24	0x3e6275d3	0.22115259
25	0xbe0443fc	-0.12916559
26	0xbe89cfd4	-0.26916373
27	0x3e4c1b8e	0.19932386
28	0x3e2a538d	0.16633435
29	0x3f57f63f	0.84360117
30	0x3f1458fd	0.57948285
31	0xbe902029	-0.28149536
32	0xbd213a3d	-0.03936218
33	0xbe1775b3	-0.14790992
34	0xbe23f172	-0.16010073
35	0x3e64d7c2	0.2234793
36	0x3e813e16	0.2524268
37	0x3d64f583	0.0558982
38	0xbe8089d9	-0.2510517
39	0x3e7ab75f	0.24484013
40	0x3ebe29f4	0.37141383
41	0x3f3c9966	0.7367157
42	0x3f20f55b	0.6287438
43	0x3e98cabe	0.2984218
44	0xbe82c3e9	-0.25540093
45	0xbe061680	-0.1309452
46	0x3cb0a3a6	0.021562409
47	0xbe2da676	-0.16958031
48	0xbc4c9941	-0.01248771
49	0xbe960adf	-0.2930517
50	0x3e62d716	0.22152361
51	0xbe11b1ef	-0.14228033
52	0x3e0cd067	0.13751374
53	0x3e07e64c	0.13271445
54	0xbede3c44	-0.43405354
55	0xbeeadf36	-0.4587342
56	0xbe7ab89b	-0.24484484
57	0x3e8a8242	0.27052504
58	0xbeb9c9e1	-0.36286834
59	0xbe9b2f6e	-0.30309623
60	0x3e6dc649	0.23220171
61	0xbe5597e4	-0.20858723
62	0xbe392fc2	-0.18084624
63	0x3ccfae04	0.025351532
64	0xbe39d6ab	-0.18148296
65	0xbddb0b06	-0.10695462
66	0x3eaea778	0.34112144
67	0xbe4c6ca9	-0.19963326
68	0x3f772ab1	0.96549517
69	0x3d37193b	0.044701796
70	0xbe474ac3	-0.19462113
71	0xbe87b118	-0.265023
72	0x3ec1c6dc	0.3784703
73	0x3f065979	0.52480274
74	0xbe89adc2	-0.2689038
75	0x3e82dbd0	0.2555833
76	0xbe44c835	-0.19216998
77	0xbe3435e8	-0.17598689
78	0x3d364573	0.044499826
79	0x3d7f0214	0.06225784
80	0xbe019497	-0.12654339
81	0xbe15ed08	-0.14641201
82	0xbd8cd3e8	-0.068763554
83	0x3e1853a8	0.14875662
84	0xbe3a55e5	-0.18196829
85	0x3c182088	0.0092851
86	0x3d8ff032	0.070282355
87	0xbe09dedf	-0.13463925
88	0xbc84c79d	-0.016208464
89	0xbcf36ec4	-0.029715903
90	0xbe5a479b	-0.21316378
91	0xbe023bc5	-0.12718113
92	0x3e9a1cba	0.30100042
93	0x3d43d81b	0.047813516
94	0xbea1c8cc	-0.31598508
95	0x3e396870	0.18106246
96	0xbeaf1cff	-0.3420181
97	0xbe8d218d	-0.2756466
98	0x3edf8477	0.4365575
99	0xbd9fa3e3	-0.07794931
100	0x3e58f8dd	0.21188684
101	0xbe615e4f	-0.22008632
102	0xbe975c45	-0.29562584
103	0xbdda190f	-0.10649311
104	0x3e1a2e09	0.15056624
105	0xbcfb32c4	-0.030663855
106	0xbd5766ce	-0.052588277
107	0x3f0bc1b9	0.5459247
108	0x3e67ac17	0.22624241
109	0x3e74f8a8	0.2392298
110	0x3dc08160	0.09399676
111	0x3e8acf6b	0.27111372
112	0xbd5675d6	-0.05235847
113	0xbeae90cc	-0.34094846
114	0x3e55d196	0.20880732
115	0x3e8a73cd	0.27041474
116	0x3d29cf23	0.041457307
117	0xbe11c0c4	-0.1423369
118	0xbe87f49b	-0.26553807
119	0xbdfa962e	-0.12235676
120	0x3c4024e6	0.011727547
121	0xbdd38f25	-0.10330037
122	0x3d51e3ce	0.051242642
123	0xbdd2c238	-0.102909505
124	0x3d5bff04	0.05371
125	0xbe79cdae	-0.24394867
126	0xbe6b0d25	-0.22954233
127	0x3e3cfd6f	0.18456052
128	0xbe72da40	-0.23716068
129	0x3e546991	0.20743395
130	0x3ebc3527	0.36759302
131	0xbdc641a5	-0.096804895
132	0xbf27a7ab	-0.65490216
133	0x3f1bc4e6	0.6084732
134	0xbd9d1409	-0.07669837
135	0x3d22b430	0.03972262
136	0x3ea57d45	0.32322136
137	0x3dfb4cd5	0.12270514
138	0x3badb8c0	0.005301565
139	0xbe1ef53c	-0.15523237
140	0xbe37ff95	-0.1796859
141	0x3e1f8f7a	0.15582076
142	0x3eda6163	0.42652425
143	0x3e8ee31f	0.27907655
144	0x3e96964d	0.29411545
145	0xbf4960e9	-0.786635
146	0x3e98ab32	0.29818112
147	0x3e4f9554	0.20271808
148	0x3ea35e4d	0.31907883
149	0xbec8c7e4	-0.39215004
150	0xbe671590	-0.22566819
151	0x3d85b8b7	0.06529372
152	0xbe7b8f80	-0.2456646
153	0xbd848b52	-0.06471886
154	0x3e544744	0.2073031
155	0x3e22840b	0.15870683
156	0xbe6e1f17	-0.23254047
157	0xbd27e82b	-0.040992897
158	0xbe517ed1	-0.20458533
159	0xbe8df2db	-0.27724347
160	0xbe4559c4	-0.19272524
161	0x3ddc2874	0.10749903
162	0x3d97e294	0.07416263
163	0xbe77c0b9	-0.24194612
164	0xbe8d3a6b	-0.27583632
165	0x3e37b259	0.17939128
166	0xbe5dec3f	-0.21672152
167	0xbe6b99fe	-0.23007962
168	0xbe75f636	-0.24019703
169	0xbe7e8cdf	-0.24858426
170	0xbe6ae7a4	-0.22939926
171	0x3f4b873a	0.79503214
172	0xbd8ff827	-0.07029753
173	0xbd4c0a00	-0.049814224
174	0x3d8a6373	0.0675725
175	0xbc40b048	-0.011760779
176	0x3e9adba3	0.30245695
177	0x3ed35a79	0.41279963
178	0xbe321b37	-0.17393194
179	0x3e9a3e66	0.3012573
180	0xbe9843c3	-0.29739198
181	0xbea25d39	-0.31711748
182	0xbe974a76	-0.29548997
183	0x3d6ea907	0.058266666
184	0x3f65be77	0.8974375
185	0x3f1c9283	0.6116106
186	0x3e8d7661	0.27629378
187	0x3e2be3e2	0.16786149
188	0xbdd4edf8	-0.103969514
189	0x3eb3d704	0.3512498
190	0x3ebb5c5e	0.36593908
191	0xbc0d4fbf	-0.00862497
192	0x3e526da0	0.20549631
193	0xbdeda38b	-0.11603459
194	0xbe265c3d	-0.16246124
195	0x3dc5c3f8	0.09656519
196	0xbe7c4b89	-0.2463819
197	0xbe056f83	-0.1303082
198	0xbf813d82	-1.0096896
199	0xbe48238a	-0.19544807
200	0x3e30ad68	0.17253649
201	0x3da2675e	0.07929872
202	0x3e198700	0.14992905
203	0x3e736a77	0.23771082
204	0xbc87c499	-0.016573237
205	0x3e8ee542	0.27909285
206	0x3e6561bf	0.22400568
207	0xbebde4fc	-0.37088764
208	0xbdbcaca0	-0.09212613
209	0xbd977aa4	-0.07396439
210	0x3db12bf2	0.0865096
211	0x3e60b446	0.21943769
212	0xbe515bc0	-0.20445156
213	0x3da827fa	0.0821075
214	0xbe2bae0f	-0.16765617
215	0xbcd692ec	-0.026193105
216	0xbe0501e6	-0.12989005
217	0x3db9123e	0.090366825
218	0x3e479373	0.19489841
219	0xbe4c6840	-0.19961643
220	0xbe860e89	-0.26182964
221	0xbe28dc23	-0.16490225
222	0xbc586524	-0.013207708
223	0x3bcf7f6b	0.006332328
224	0x3d7cac9b	0.061688047
225	0xbcbf1c4d	-0.023328925
226	0x3db5413c	0.08850333
227	0x3d49c552	0.049260445
228	0x3ea211de	0.31654257
229	0xbe6404d6	-0.2226747
230	0x3e9f9b37	0.31173107
231	0x3dd5a26d	0.10431371
232	0xbe8b62eb	-0.27223906
233	0xbe27ce28	-0.16387236
234	0x3d5bc0a1	0.053650502
235	0xbdd4ce2e	-0.10390888
236	0x3ec5f6c5	0.38664833
237	0x3e650606	0.22365579
238	0x3e19339b	0.14961092
239	0x3e94722e	0.28993362
240	0x3e874d3a	0.26426107
241	0x3eaa45c8	0.33256364
242	0xbea49a17	-0.3214881
243	0x3c7e1333	0.015507507
244	0x3e942c45	0.28940025
245	0xbe77b789	-0.24191107
246	0x3e9114eb	0.28336272
247	0x3e65c142	0.22437003
248	0x3dfe25f0	0.1240958
249	0xbeba73b1	-0.3641639
250	0x3ee740ea	0.45166713
251	0xbdffaf26	-0.12484579
252	0x3c03acb7	0.008036784
253	0xbe97b4ed	-0.29630223
254	0x3dbfdd27	0.09368353
255	0xbd285fcf	-0.041106995

net.0.bias f4 [128]
0	0x3e7bc3a1	0.24586345
1	0xbdd13596	-0.10215299
2	0x3ceb8522	0.028750006
3	0xbe0b4cc7	-0.13603507
4	0x3eb581b7	0.35450527
5	0x3dadc1f3	0.084842585
6	0xbe2025a4	-0.15639359
7	0x3ea75208	0.32679772
8	0xbe498cc8	-0.1968261
9	0x3a843e6f	0.0010089407
10	0xbe1b39d1	-0.15158774
11	0xbd747828	-0.059684902
12	0xbdf47880	-0.11937046
13	0x3e966871	0.29376557
14	0x3e851b3f	0.2599735
15	0x3e000005	0.12500007
16	0xbe142507	-0.1446725
17	0x3e78a63e	0.24282166
18	0xbe32b819	-0.1745304
19	0x3e96eb08	0.2947619
20	0xbe135571	-0.14388062
21	0x3cf17372	0.029473994
22	0xbd458712	-0.048224516
23	0x3e30f473	0.1728075
24	0x3ebdad9c	0.37046516
25	0x3e85dacd	0.26143494
26	0x3e3a47e1	0.18191482
27	0x3dbf7ba0	0.093497515
28	0x3e91e16e	0.28492302
29	0x3e4940e8	0.19653666
30	0xbd819897	-0.06327932
31	0xbc3782f2	-0.011200653
32	0xbd7309e3	-0.0593356
33	0x3e444e52	0.19170502
34	0xbe151125	-0.14557321
35	0xbe88e51f	-0.26737306
36	0xbecae86e	-0.39630455
37	0x3e7ee673	0.24892597
38	0xbe982b51	-0.29720548
39	0xbe88efbe	-0.2674541
40	0x3e25c26d	0.16187449
41	0xbe8963f0	-0.2683406
42	0xbcb21833	-0.021740055
43	0xbd9952fc	-0.07486531
44	0x3e6c1a2e	0.23056862
45	0x3dfab476	0.122414514
46	0xbe3ebaa9	-0.18625893
47	0xbe578276	-0.2104586
48	0xbdc7f8d5	-0.09764258
49	0x3e8f71ac	0.28016412
50	0x3e328a63	0.17435603
51	0xbdeac90b	-0.11464127
52	0x3d1ebee1	0.038756255
53	0xbe3495cc	-0.17635268
54	0x3d622d45	0.055218954
55	0x3e83ed53	0.25767002
56	0xbe5e486d	-0.21707316
57	0x3e73f7a7	0.2382494
58	0xbd8fd8b3	-0.07023754
59	0x3dbef012	0.093231335
60	0xbe863fe3	-0.26220617
61	0x3e69c8dc	0.22830528
62	0xbe971455	-0.295077
63	0xbdda9b10	-0.10674107
64	0x3e98e3d3	0.29861316
65	0x3d8ffae6	0.07030277
66	0xbb9fa0bf	-0.0048714573
67	0xbd31d890	-0.04341942
68	0xbe620de8	-0.22075617
69	0x3e11e41c	0.14247173
70	0xbe196de8	-0.14983332
71	0x3ec41c5c	0.38302886
72	0xbdbaea92	-0.09126772
73	0x3eb8a406	0.3606264
74	0xbdb77c80	-0.08959293
75	0x3e68768e	0.22701475
76	0xbe1bfbc2	-0.15232757
77	0xbe5203c3	-0.20509247
78	0x3e412176	0.1886042
79	0xbded2724	-0.11579731
80	0x3ea53cd1	0.32272962
81	0xbea54193	-0.32276592
82	0x3d04b95f	0.032403346
83	0x3ea933bc	0.33047283
84	0x3ca2857f	0.019839047
85	0x3ebd7185	0.3700067
86	0xbea26ee3	-0.31725225
87	0x3e4c3085	0.19940384
88	0xbe562df1	-0.20915963
89	0x3d0fbc51	0.035091702
90	0x3e807049	0.25085667
91	0xbe807ff4	-0.2509762
92	0x3e003678	0.12520778
93	0x3e021737	0.12704168
94	0x3cece84c	0.028919362
95	0x3dda1073	0.10647669
96	0x3e77b5ac	0.24190396
97	0xbe1c95cd	-0.1529152
98	0x3cfd8a1a	0.030949641
99	0xbce55701	-0.027995588
100	0xbea4a18c	-0.321545
101	0x3da9b1ab	0.082858406
102	0x3e97ed8a	0.29673415
103	0xbe6b5bed	-0.22984286
104	0x3e2632ce	0.16230318
105	0x3e192a07	0.14957438
106	0xbe23f92a	-0.16013017
107	0x3db4fb9c	0.08837053
108	0xbde07af5	-0.10960952
109	0xbd098940	-0.033578157
110	0x3db6d634	0.08927575
111	0xbe1f966f	-0.1558473
112	0xbe38cbff	-0.18046568
113	0xbe820e8a	-0.25401717
114	0x3ea53264	0.32265007
115	0x3eac4e20	0.33653355
116	0xbe06554d	-0.13118477
117	0xbd9881cf	-0.07446634
118	0x3e9ad9b2	0.30244213
119	0xbd799cf1	-0.060940687
120	0xbc2d789b	-0.010587837
121	0x3e08040b	0.13282792
122	0x3db0b7ff	0.086288445
123	0xbe5a39a4	-0.2131105
124	0x3e9882ba	0.29787236
125	0xbe6e39f2	-0.23264292
126	0x3e84fa49	0.25972202
127	0xbe319608	-0.17342389

net.2.weight f4 [128, 128]
0	0x3e53a4b2	0.20668295
1	0x3d56148b	0.052265685
2	0xbd2f1d3d	-0.042752493
3	0xbf097636	-0.53696
4	0x3e045034	0.1292122
5	0x3db189b5	0.08668844
6	0xbcdf58be	-0.027263995
7	0x3e083855	0.13302739
8	0x3d871f70	0.06597793
9	0x3da3ed84	0.08004287
10	0x3ceaa37c	0.028642409
11	0x3e63a0c9	0.22229303
12	0xbcf74624	-0.030184813
13	0x3e78c72d	0.2429473
14	0x3e77f654	0.2421506
15	0x3cf25617	0.029582066
16	0x3c776591	0.015099899
17	0x3e247958	0.16061914
18	0x3e0bf0cb	0.13666074
19	0x3e2e64ed	0.17030688
20	0x3d82fc60	0.06395793
21	0x3dda7ce8	0.10668355
22	0x3dbd15f8	0.09232706
23	0x3eb13137	0.3460786
24	0x3e57ca10	0.21073174
25	0x3daa0337	0.083013944
26	0xbe759aad	-0.23984785
27	0x3f10cd81	0.56563574
28	0x3e8cbc55	0.27487436
29	0x3e10f3a4	0.14155442
30	0xbe698f4a	-0.22808567
31	0xbda06941	-0.078325756
32	0xbc8d5dfc	-0.01725673
33	0x3e216987	0.15762912
34	0xbc389ffd	-0.011268613
35	0xbd67e9df	-0.05661952
36	0xbec10bee	-0.37704414
37	0x3d834a9b	0.06410714
38	0xbe5a89d2	-0.21341637
39	0x3d8ed17c	0.0697355
40	0xbee35661	-0.4440184
41	0xbd767bcf	-0.060176667
42	0x3da134eb	0.078714214
43	0xbd2b60c5	-0.041840333
44	0x3b413faa	0.002948741
45	0x3d58afc8	0.052902013
46	0xbe0257f6	-0.12728867
47	0x3da35204	0.079746276
48	0x3d9814cd	0.074258424
49	0x3e72d506	0.23714074
50	0x3eeb3307	0.45937368
51	0x3e21a948	0.15787232
52	0x3ea9e4f8	0.33182502
53	0x3dae2864	0.08503798
54	0x3d49a965	0.049233813
55	0x3e0b3743	0.135953
56	0xbe70c853	-0.23513918
57	0x3d918941	0.07106257
58	0x3bf3ba8b	0.007438009
59	0xbd3d58e7	-0.046227362
60	0x3d030707	0.031989124
61	0x3ebcb4d6	0.36856717
62	0xbee2a842	-0.44268996
63	0xbda64fe3	-0.08120706
64	0x3e0325da	0.12807408
65	0x3e5371a4	0.20648819
66	0xbe7ae3a8	-0.24500906
67	0xbed3998b	-0.4132808
68	0xbd9fe6ee	-0.07807718
69	0x3dafee76	0.08590405
70	0x3e4e9257	0.20173012
71	0x3e2339ed	0.15940066
72	0x3db35dba	0.08758111
73	0x3e26e511	0.1629832
74	0xbe6a180c	-0.22860736
75	0x3de45023	0.11148097
76	0x3edaaeeb	0.42711577
77	0x3d29e3dd	0.041477073
78	0x3db96a09	0.09053428
79	0x3d877b77	0.06615346
80	0x3e41eba6	0.18937549
81	0xbe13201b	-0.14367716
82	0x3e3c963a	0.18416682
83	0x3dba2f59	0.09091062
84	0xbdb10d17	-0.08645075
85	0xbc00b36c	-0.0078552775
86	0xbc7886fb	-0.015168901
87	0xbd8cb621	-0.06870676
88	0xbd2bcba5	-0.041942257
89	0x3db16f7b	0.08663841
90	0x3e64e382	0.22352412
91	0xbd7da6f9	-0.061926816
92	0x3e0fd8fa	0.14047614
93	0x3dc00781	0.09376431
94	0xbbbf5a67	-0.005839634
95	0x3e2ebe96	0.1706489
96	0x3d83ab06	0.064291045
97	0x3ea9baf6	0.33150452
98	0x3e30a9b8	0.17252243
99	0x3d9a3e6a	0.07531436
100	0x3c32c701	0.010911704
101	0x3dda3fe4	0.106567174
102	0x3d1c47d1	0.038154427
103	0x3cbd3c21	0.02309996
104	0xbd86559a	-0.06559296
105	0x3e3c52f5	0.1839102
106	0x3daf4ae7	0.08559208
107	0xbdb31958	-0.08745068
108	0x3d95e2ca	0.07318647
109	0x3bc0f2f1	0.005888336
110	0x3ea289e2	0.3174582
111	0xbd8e6bf9	-0.06954188
112	0x3d4957f4	0.049156144
113	0xbdeca989	-0.11555774
114	0x3e2a0629	0.16603912
115	0x3e3e1c23	0.18565421
116	0xbbf39b53	-0.0074342876
117	0xbc684fda	-0.014179194
118	0x3e11288c	0.14175624
119	0xbd26ed0c	-0.04075341
120	0x3d92ce4f	0.071682565
121	0x3d774375	0.060367066
122	0x3da05e1e	0.078304514
123	0x3d149121	0.03627122
124	0x3e57d958	0.21079004
125	0x3d68abe2	0.056804545
126	0x3e9b8b9f	0.3037996
127	0xbd1bd7d8	-0.03804764
128	0x3be56b1e	0.0070012948
129	0x3d8470e6	0.06466846
130	0x3e68f406	0.22749338
131	0x3d943ac5	0.07237772
132	0xbe0e2138	-0.1387986
133	0x3ddc783f	0.107651226
134	0x3d523333	0.05131836
135	0xbc7b71ff	-0.015347003
136	0x3c3467b6	0.011011055
137	0xbd33e235	-0.0439169
138	0x3d99fd48	0.07519013
139	0xbe461e15	-0.19347413
140	0xbd1fa45a	-0.038975097
141	0x3dab68ee	0.08369623
142	0x3d9897e2	0.07450844
143	0x3d880a09	0.06642539
144	0x3c88fef3	0.016723132
145	0xbe5d82e9	-0.2163197
146	0x3e14ca62	0.14530328
147	0x3d1f2d45	0.03886153
148	0x3e20060c	0.15627307
149	0x3d6bf627	0.057607796
150	0xbda7a93a	-0.08186574
151	0x3cec8ab1	0.028874727
152	0xbccca94f	-0.024983076
153	0x3de59ddf	0.11211752
154	0xbdbc3f97	-0.09191816
155	0x3e48e192	0.19617298
156	0xbe1d4b2a	-0.15360704
157	0xbe81f197	-0.2537963
158	0x3cc8db87	0.024518741
159	0x3be4e31c	0.0069850814
160	0x3d8fdac4	0.07024148
161	0x3d15aea8	0.03654352
162	0x3d79ede7	0.061017897
163	0x3de3f549	0.11130769
164	0xbea0b754	-0.31389868
165	0xbda0ab30	-0.078451514
166	0x3e113c5a	0.14183179
167	0x3d80755d	0.06272385
168	0x3d8fd2a6	0.070226
169	0x3cd4ebe6	0.025991391
170	0x3d9b2b28	0.07576591
171	0xbd680dcc	-0.056653783
172	0x3a373d77	0.0006990055
173	0x3e15d05f	0.14630269
174	0x3ca5a3fe	0.0202198
175	0xbccc99a0	-0.024975598
176	0xbdb3e192	-0.087832585
177	0x3d2dc55c	0.042424545
178	0x3dab8104	0.08374217
179	0x3cf7ed3b	0.030264487
180	0xbd999c59	-0.07500524
181	0xbb989560	-0.0046564788
182	0x3d987a5d	0.07445214
183	0xbdd7fea7	-0.10546618
184	0x3db14334	0.08655396
185	0xbe18316d	-0.14862604
186	0xbcc67901	-0.024227621
187	0xbd03631f	-0.03207695
188	0xbdd5fb67	-0.10448342
189	0x3e832fca	0.25622398
190	0xbdfb0be6	-0.12258129
191	0x3d51ea5e	0.0512489
192	0x3cc3b828	0.023891523
193	0xbbed6a73	-0.0072453558
194	0xbe8bd07d	-0.273075
195	0xbeccacb0	-0.399755
196	0xbd95a8a2	-0.07307555
197	0x3e023e5e	0.12719104
198	0xbe1769f3	-0.1478651
199	0xbe1fa955	-0.15591939
200	0x3c12724b	0.008938382
201	0x3d1547f4	0.036445573
202	0xbe146c72	-0.14494494
203	0x3da25c1e	0.07927726
204	0x3db6dcf8	0.08928865
205	0x3dae09ac	0.084979385
206	0x3b878b6d	0.004136494
207	0xbc46ada9	-0.012126365
208	0x3dadb136	0.08481066
209	0xbc3bc4b2	-0.01146047
210	0x3d228012	0.03967292
211	0x39d70af2	0.0004101615
212	0xbdaccecc	-0.08437881
213	0xbe1fecd5	-0.15617688
214	0xbeae057d	-0.33988562
215	0x3b096dfd	0.00209701
216	0x3d7bcd5e	0.06147515
217	0x3da19c85	0.07891182
218	0xbc8841fd	-0.016633028
219	0xbd588d0d	-0.05286889
220	0xbdf67ca0	-0.12035489
221	0x3d9d4ad8	0.07680291
222	0x3c76e7e9	0.01506994
223	0xbbf5378d	-0.007483429
224	0x3d642e06	0.055707954
225	0x3b876b89	0.0041326922
226	0x3d1a7704	0.03771116
227	0x3de80035	0.113281645
228	0xbca405fa	-0.020022381
229	0xbd437f5d	-0.047728885
230	0xbe01b2be	-0.12665841
231	0x3c5d53fb	0.013508792
232	0xbbfda349	-0.0077404124
233	0xbdb3d3aa	-0.08780606
234	0x3c4c7b29	0.012480536
235	0xbce517f2	-0.02796552
236	0xbda0d6bf	-0.078534596
237	0x3d15c64d	0.036566067
238	0x3e557272	0.20844439
239	0x3cd0866e	0.025454726
240	0xbd852993	-0.0650207
241	0xbc0bf182	-0.008541467
242	0x3d19d13f	0.03755307
243	0xbe2bcea6	-0.16778049
244	0x3e25be51	0.16185881
245	0x3ca4cd67	0.020117475
246	0xbdd3e5fd	-0.10346601
247	0x3d102d26	0.035199307
248	0x3d920b23	0.071310304
249	0x3dbae12f	0.091249816
250	0xbce1a1d4	-0.027542986
251	0x3d810887	0.063004546
252	0x3d9f9c03	0.07793429
253	0xbde5fcc3	-0.11229851
254	0xbdb7ab4e	-0.08968221
255	0xbe0c7191	-0.13715197

net.2.bias f4 [128]
0	0x3e56799a	0.20944825
1	0xbd7c2ffc	-0.0615692
2	0x3d1c199c	0.03811036
3	0xbd394cdb	-0.04523931
4	0x3df4d1e9	0.119541
5	0xbcb6824e	-0.022278931
6	0x3e8995be	0.26872057
7	0xbc67e3c4	-0.014153425
8	0xbd60c711	-0.054877345
9	0xbd6bea91	-0.057596747
10	0xbcf8eb9f	-0.03038579
11	0x3e270ab2	0.16312674
12	0x3e02903d	0.12750335
13	0xbd3d37d7	-0.04619583
14	0xbd9c3bd8	-0.07628602
15	0xbc8e3c08	-0.01736261
16	0x3e3b0b46	0.18266019
17	0x3cc8f33c	0.024530046
18	0x3e71b607	0.23604594
19	0xbd9e9721	-0.07743669
20	0xbcac8691	-0.02106026
21	0x3ceb6803	0.02873612
22	0xbc97f6c2	-0.01855028
23	0x3d0a3a60	0.033747077
24	0x3e453479	0.19258298
25	0xbd85950c	-0.06522569
26	0xb71808cf	-9.061957e-06
27	0x3ce3a65c	0.027789287
28	0x3e9d7ff4	0.30761683
29	0xbd04aaf5	-0.0323896
30	0xbc9fb8d1	-0.019497307
31	0xbda9d1a5	-0.0829194
32	0x3d9816ba	0.0742621
33	0x3ddfb24d	0.1092268
34	0xbd07416f	-0.033021387
35	0x3d945505	0.07242779
36	0xbc562104	-0.013069395
37	0x3d31fb95	0.043452818
38	0xbc0324e6	-0.008004403
39	0xbd495769	-0.049155626
40	0x3d10a9eb	0.035318296
41	0xbda2aa83	-0.07942679
42	0x3e6ddd88	0.23229039
43	0xbda9c497	-0.0828945
44	0xbcd1a553	-0.025591528
45	0x3c0cfa5c	0.008604612
46	0xbd062842	-0.032753237
47	0xbd2e6b7e	-0.04258298
48	0x3c2aa5c9	0.010415503
49	0x3c5661df	0.013084858
50	0x3e904bf9	0.28182963
51	0xbc13444a	-0.008988449
52	0xbd623247	-0.05522373
53	0x3ce2c425	0.02768142
54	0x3e4b62c9	0.19861902
55	0xbdd9587b	-0.106125794
56	0x3d659670	0.05605167
57	0x3d89f554	0.06736246
58	0xbd5d48f3	-0.054024648
59	0xbd87558a	-0.06608112
60	0x3db85908	0.09001356
61	0xbcdade81	-0.026717426
62	0x3c021fe9	0.007942178
63	0xbc8d6c67	-0.017263604
64	0xbded48b8	-0.115861356
65	0x3d6da3f3	0.058017682
66	0xbdd5f0d7	-0.10446327
67	0x3b7abd1b	0.0038259688
68	0x3e043a25	0.12912805
69	0xbd50dd6e	-0.05099242
70	0x3df2959a	0.118449405
71	0x3b693fbc	0.0035590967
72	0x3e74c78c	0.23904246
73	0xbcfb183d	-0.030651206
74	0x3d51eea5	0.05125298
75	0xbd9bff3c	-0.076170415
76	0x3d02c501	0.03192616
77	0x3cc94e6c	0.024573527
78	0x3d25c49a	0.040470697
79	0xbd798291	-0.060915533
80	0x3c6e5687	0.014546997
81	0x3d40cfb2	0.047073074
82	0xbc295280	-0.010334611
83	0x3d24c420	0.040226102
84	0x3e7cecb5	0.24699672
85	0x3e026885	0.12735184
86	0xbcb0059a	-0.021487046
87	0xbde056f4	-0.10954085
88	0x3c0adfd1	0.008476214
89	0x3e7b99f2	0.24570444
90	0xbcd23a1f	-0.02566248
91	0xbd80164f	-0.06254255
92	0x3e3b51a3	0.1829286
93	0x3e5a8e4e	0.21343347
94	0x3e97e52a	0.29667026
95	0x3e668c8a	0.22514549
96	0x3e173011	0.1476443
97	0x3d47c8a9	0.04877535
98	0xbdac6e54	-0.08419481
99	0x3d36c9be	0.04462599
100	0xbd5ed2d1	-0.05440027
101	0x3db24b88	0.08705813
102	0x3e427ab6	0.18992123
103	0xbe009420	-0.12556505
104	0x3db5f6ce	0.08884965
105	0xbd094608	-0.033514053
106	0x3e3ee876	0.18643364
107	0x3aa97e8c	0.0012931391
108	0xbdc19f4d	-0.09454212
109	0x3e0669e9	0.13126339
110	0xb9f222c2	-0.00046183734
111	0x3e7b5d52	0.24547318
112	0x3e6fe982	0.2342892
113	0x3d2bbf36	0.0419304
114	0x3e2ac7f5	0.1667784
115	0xbc3f9e8d	-0.011695516
116	0x3e0d22f2	0.13782862
117	0xbdc82e9b	-0.09774514
118	0xbe20430b	-0.15650575
119	0xbcf13826	-0.029445719
120	0x3d8bcbba	0.06825967
121	0xbb9bab7b	-0.0047506667
122	0x3ca97a0c	0.02068808
123	0xbd455e59	-0.04818568
124	0xbdd5bfe4	-0.10436991
125	0xbab7181b	-0.0013968976
126	0x3b756492	0.0037443978
127	0x3cb54ad4	0.022130407

net.4.weight f4 [6, 128]
0	0x3e05b910	0.13058877
1	0xbe8eeb99	-0.27914122
2	0xbd1924c3	-0.037388574
3	0xbc332294	-0.010933537
4	0x3d888705	0.06666378
5	0xbce62f1d	-0.028098637
6	0x3e37c150	0.17944837
7	0x3f3c632f	0.7358884
8	0x3da5e561	0.08100391
9	0xbcd551d9	-0.026040005
10	0x3d4a3974	0.049371198
11	0x3ed31cc0	0.41232872
12	0x3ef5d3ca	0.48013145
13	0xbd54abad	-0.051921535
14	0xbd952db4	-0.07284108
15	0xbce57577	-0.028010113
16	0x3d20aed0	0.039229214
17	0x3f30a69f	0.69004244
18	0x3e24c0f8	0.16089237
19	0xbd96fb13	-0.07372107
20	0xbe4b87bf	-0.19876002
21	0x3e238fcc	0.15972823
22	0xbc89921e	-0.016793307
23	0x3e69660b	0.22792833
24	0x3e02ef3c	0.12786573
25	0x3b8d3062	0.004308746
26	0xbd01824d	-0.031618405
27	0xbf1f9a19	-0.6234451
28	0x3e2a47b3	0.16628914
29	0x3bea2d65	0.0071465247
30	0x3ea20d81	0.31650928
31	0x3d8a9564	0.06766775
32	0x3da7446b	0.081673466
33	0xbedc8700	-0.43071747
34	0xbd58b01a	-0.05290232
35	0x3f2707a0	0.6524601
36	0xbefaae4f	-0.48961112
37	0xbd8a6c8d	-0.06758986
38	0xbd1d100f	-0.038345393
39	0xbc8b2257	-0.016984148
40	0x3db2240a	0.0869828
41	0x3d3f8e2a	0.046766438
42	0x3de887d2	0.11354031
43	0xbc4f60a6	-0.01265732
44	0x3e085bfa	0.13316336
45	0x3d1dda39	0.03853819
46	0x3c3b4648	0.011430331
47	0x3cb705b9	0.022341596
48	0x3eb05027	0.3443615
49	0xbd5dff49	-0.054198537
50	0x3e2013d3	0.15632562
51	0x3cd38720	0.025821269
52	0x3c87542a	0.016519625
53	0xbce7f1ff	-0.028313635
54	0x3d5daa50	0.0541175
55	0xbdda6fea	-0.10665877
56	0xbdbd9893	-0.09257617
57	0x3d8d6f56	0.06906001
58	0xbd1975de	-0.037465923
59	0xbde62603	-0.11237719
60	0xbe62643b	-0.22108547
61	0xbe7684f8	-0.24074161
62	0xbd525d35	-0.05135842
63	0xbd20f205	-0.039293308
64	0xbd915c16	-0.07097642
65	0x3da54f54	0.08071771
66	0x3d7d4cfa	0.06184099
67	0x3f08d29a	0.5344635
68	0x3dca7ac8	0.098867
69	0xbe195a57	-0.14975868
70	0x3e13cb65	0.14433058
71	0x3e37b434	0.17939836
72	0x3e325f0c	0.1741907
73	0xbe8c4f3f	-0.2740421
74	0xbccea74e	-0.025226261
75	0xbd79382b	-0.06084458
76	0xbd90e372	-0.07074632
77	0x3cea49d6	0.02859966
78	0xbec55cc0	-0.38547325
79	0x3d4c8440	0.04993081
80	0xbd7107d6	-0.058845364
81	0xbcc31f43	-0.023818618
82	0x3ceb1441	0.028696181
83	0xbc11b88b	-0.008894096
84	0x3e283c74	0.16429311
85	0x3dd732ba	0.10507722
86	0x3da82d8f	0.082118146
87	0x3ecabe59	0.3959835
88	0x3d0ec7f0	0.034858644
89	0x3e0413a6	0.1289812
90	0xbf29fcb1	-0.664012
91	0x3da620d6	0.08111732
92	0x3e0be72d	0.13662405
93	0x3d3cd4fa	0.046101548
94	0x3e26e708	0.16299069
95	0x3e1adc65	0.15123136
96	0x3e563bca	0.20921245
97	0x3f1855de	0.5950602
98	0xbc1a27c2	-0.009408893
99	0x3f398c32	0.72479546
100	0x3bd6a7e1	0.0065507744
101	0x3f252673	0.64511794
102	0x3e33621e	0.17517897
103	0x3dd195eb	0.10233673
104	0x3e8e5759	0.27801016
105	0xbd9f5c7b	-0.07781311
106	0x3e253cae	0.16136429
107	0xbd556906	-0.05210211
108	0x3e56dd8a	0.20982948
109	0x3e35bb03	0.1774712
110	0x3d9142c5	0.070928134
111	0x3e5874a3	0.21138243
112	0x3e0665b5	0.13124736
113	0x3ee7523b	0.45179924
114	0x3eb6fced	0.35739842
115	0x3e242570	0.16029906
116	0xbd17a51f	-0.037022706
117	0x3d9652be	0.073400006
118	0xbf1a0f7b	-0.6017987
119	0xbd1d54a7	-0.03841081
120	0x3b87bacb	0.0041421405
121	0xbd1f809f	-0.038941022
122	0xbd7e2143	-0.06204344
123	0xbd8aacd1	-0.06771243
124	0xbd7ba1c6	-0.061433576
125	0x3da8653d	0.08222435
126	0x3c2d903b	0.010593469
127	0xbd849179	-0.06473059
128	0x3dbe98cb	0.09306487
129	0x3e3d8814	0.18508941
130	0xbcddc8ca	-0.027073283
131	0xbec0ed16	-0.37680882
132	0x3e7ccf4d	0.24688454
133	0x3b57149d	0.0032818683
134	0x3e283855	0.16427739
135	0x3f29c017	0.6630873
136	0x3d89d330	0.06729734
137	0x3cea756d	0.028620446
138	0x3d0b7320	0.03404534
139	0x3efd161a	0.49430925
140	0x3d2ffb02	0.04296399
141	0x3d0a7369	0.03380147
142	0x3d862437	0.06549876
143	0xbdc8a0dd	-0.09796307
144	0x3e428c54	0.18998843
145	0xbec6508b	-0.38733324
146	0x3e2fc564	0.17165142
147	0x3d7fdd13	0.062466692
148	0x3e843cf2	0.25827748
149	0x3ead31bf	0.33827016
150	0xbccba550	-0.0248591
151	0x3f001bd1	0.50042444
152	0x3e915d03	0.28391275
153	0xbd8e6443	-0.06952717
154	0xbd803764	-0.06260565
155	0xbe916ebf	-0.28404805
156	0x3e57705f	0.2103896
157	0xbd49e1ed	-0.049287725
158	0xbf09bc98	-0.53803396
159	0xbdb4db31	-0.0883087
160	0xbd2dccd0	-0.042431653
161	0x3f22b635	0.63559276
162	0x3d56f552	0.05248005
163	0x3f26b529	0.6512018
164	0x3cce6abd	0.025197381
165	0xbf05465e	-0.52060497
166	0xbd33bca1	-0.043881062
167	0x3d0f8835	0.035042007
168	0xbcae8625	-0.0213042
169	0xbd19f35c	-0.0375856
170	0x3e16444d	0.14674492
171	0x3b3ad42c	0.0028507812
172	0xbdc952cf	-0.098302476
173	0x3d123ff2	0.035705514
174	0x3c830fae	0.015998688
175	0xbdab4ead	-0.083646156
176	0x3e1fa4ff	0.15590285
177	0x3d22240a	0.03958515
178	0x3e0f8c68	0.14018404
179	0x3bf16a82	0.007367433
180	0x3d34e55a	0.04416404
181	0xbd4d5a3d	-0.050134886
182	0x3e38b622	0.18038228
183	0xbdfcd642	-0.12345554
184	0x3da1f937	0.07908862
185	0x3d9d9e93	0.07696261
186	0xbc918b6a	-0.017766673
187	0x3e3643d6	0.17799315
188	0xbea76850	-0.32696772
189	0xbcd4063f	-0.025881885
190	0x3cefac7e	0.029257055
191	0xbdb87566	-0.09006767
192	0x3d98a407	0.07453161
193	0xbc8acc84	-0.016943224
194	0xbf8ef2fd	-1.1167904
195	0x3f0ad98d	0.54238206
196	0x3e3987e1	0.1811824
197	0xbe850ba3	-0.2598544
198	0x3bf2a099	0.0074043986
199	0x3f2d2cd0	0.67646503
200	0x3e19ca6f	0.15018629
201	0x3dd9bdd1	0.10631908
202	0x3d39dd02	0.045376785
203	0xbcb116d0	-0.021617323
204	0xbd52ffb8	-0.051513404
205	0x3cdb89ba	0.026799072
206	0xbe9941d2	-0.2993303
207	0xbc0d778b	-0.008634458
208	0x3d2a7189	0.04161218
209	0x3c515963	0.012777659
210	0xbda1a201	-0.07892228
211	0xbd81567f	-0.06315326
212	0x3e011665	0.12606199
213	0xbc85d8ac	-0.016338669
214	0x3c9bb544	0.019007333
215	0x3d1484c3	0.036259424
216	0xbe9ff4bb	-0.31241402
217	0x3e5b035b	0.21387999
218	0x3cf5218b	0.029923221
219	0xbbaf510a	-0.005350237
220	0x3e3693c1	0.17829801
221	0x3e77909b	0.24176256
222	0x3e428b67	0.1899849
223	0x3e390a0a	0.18070236
224	0x3e6bc8ec	0.23025864
225	0x3d85a3eb	0.065254055
226	0xbd53f792	-0.051749773
227	0x3eee848e	0.46585506
228	0x3d26d1dc	0.04072748
229	0x3ee0a5cb	0.4387649
230	0x3c556d72	0.013026582
231	0xbf33caf9	-0.70231587
232	0x3d2f76bd	0.042837847
233	0xbc99182b	-0.018688282
234	0x3ba5fade	0.005065306
235	0xbd93c435	-0.07215158
236	0xbe86198b	-0.26191363
237	0x3de1380f	0.109970205
238	0x3c8a5569	0.01688643
239	0x3dee18fa	0.11625858
240	0x3e0b0b58	0.13578546
241	0x3f19376d	0.598502
242	0x3ebb0b7d	0.36532202
243	0xbe870be2	-0.26376253
244	0x3e6804d6	0.22658095
245	0x3d3bd0b8	0.045853347
246	0xbf0e4dde	-0.55587566
247	0x3d7b02e4	0.061282054
248	0x3c474bf5	0.012164106
249	0xbd7635e7	-0.06011
250	0x3e9d279a	0.30694276
251	0x3c35c5b9	0.011094504
252	0xb8f6f505	-0.000117758325
253	0xbd427cb6	-0.047482215
254	0xbd88a35b	-0.066717826
255	0xbb1fb1b6	-0.0024367399

net.4.bias f4 [6]
0	0x3dd8d806	0.10588078
1	0x3dd55262	0.10416104
2	0x3e0aed9f	0.13567208
3	0x3dc61175	0.096712984
4	0x3e803f6c	0.25048387
5	0x3e4e9328	0.20173323
