rl/models/best_model_run1.pth (torch, 79477 bytes, 6 tensors)

net.0.weight f4 [128, 13]
-0.16086099 -0.21061414 0.049810424 0.21975027 -0.04932427 0.12047667 0.21135995 0.11756666
0.06274353 -0.21629345 -0.21453343 -0.19292699 -0.025510855 0.13521412 0.2098979 0.20423995
0.37767288 -0.16530585 -0.0053650816 -0.13767828 0.13368298 0.25887415 -0.20493792 -0.10367081
-0.08184675 0.07878594 0.041478805 -0.0981432 0.63737786 1.1986064 -0.30931816 -0.03196724
-0.07923445 0.21556911 -0.22981124 0.2900247 0.006153964 0.09342265 0.3397224 -0.13951522
0.27356154 -0.8236889 0.022284305 0.27436775 0.05246986 -0.13365595 -0.064143814 -0.056233462
-0.4385943 -0.1351933 0.42701983 -0.44514683 0.36836755 -0.3409393 -0.0943696 0.07704665
-0.16090138 0.16596562 -0.18993811 0.23581368 0.25654465 -0.30428126 0.117253646 -0.26260188
0.26220557 -0.11855539 0.33857673 -0.17493784 0.09885653 0.34700024 0.15530978 -0.060149573
-0.027085144 -0.057082646 -0.13883916 0.050082233 0.30810216 0.07000433 0.23084216 0.32122934
0.021289028 0.5579673 0.017464904 -0.19071095 0.31874466 -0.021439293 0.38845712 -0.47146428
-0.20756716 0.21004827 0.14914472 -0.074617505 0.20727432 0.09669824 -0.056312304 -0.0079756845
-0.13233078 -0.1671337 0.13589513 -0.1950791 0.18111368 -0.19491091 -0.26447943 -0.180208
-0.20567358 0.17410676 -0.36316738 0.12413227 0.31605634 0.21593729 0.3193388 -0.11887054
-0.10107375 -0.34090918 -0.4200007 -0.024464702 0.039606486 0.093608096 0.07593527 -0.3851601
-0.6969322 -0.04661347 0.710035 0.12825161 0.015032415 -0.40000418 0.13841476 -0.4189966
-0.12362564 0.06447895 -0.123323336 -0.050844934 0.16871102 -0.79439676 -0.24221164 0.28288612
-0.08149 -0.19612293 -0.5706802 0.41176555 0.24505365 -0.48332375 -0.325819 -0.3322905
0.024195071 -0.14249481 -0.4602515 -0.5513991 0.23594871 0.3338388 0.09950448 0.2124493
0.111385636 0.14775549 0.017145537 -0.10118963 -0.21237905 -0.13962294 0.07057042 -0.5044856
-0.07464321 0.27390143 -0.19870861 0.57518125 0.24132878 0.43010268 0.052577037 0.020470843
-0.13911416 0.21791574 -0.14939784 0.8001055 0.95579165 -0.09746921 -0.49041468 -0.10661968
-0.08385427 0.035826538 0.20225708 -0.016013166 -0.0074578426 0.5194683 -0.07403272 -0.320355
-0.07970444 -0.6425264 -0.41867986 0.5011903 0.3216944 -0.08371798 0.28661922 -0.10702477
-0.06895197 0.08527718 0.24711283 -0.25159526 -0.10756395 -0.16649616 -0.07185904 -0.021482727
0.052555937 0.10507529 -0.28508776 -0.2294202 -0.10559799 -0.27823994 0.20877492 -0.07221384
-0.25208 0.18267675 0.1434856 0.20873189 0.035536144 -0.10630825 0.07016012 0.10719542
0.09030504 -0.24030341 -0.10607946 -0.18303767 -0.23048373 -0.21425812 -0.033791773 0.26020315
0.17456971 -0.10648705 0.13862403 -0.24141741 -0.2643382 -0.123763666 -0.16072047 0.2707817
-0.25071236 -0.082188405 0.067508586 -0.1553823 0.24000567 0.16987239 -0.014848082 0.019077625
-0.43905517 -0.50538266 -0.60874885 0.14516231 0.12036238 0.048435297 -0.29352617 0.09547972
-0.004920503 1.3495314 -0.5212004 -0.29831076 -0.30222547 -0.21631412 -0.09406203 -0.56082714
00000000: beb8 24be 3cab 57be 0406 4c3d 3706 613e
00000010: 3f08 4abd 79bc f63d be6e 583e cac6 f03d
00000020: ae7f 803d 087c 5dbe a7ae 5bbe a78e 45be
00000030: 24fc d0bc 9275 0a3e 7aef 563e 4724 513e
00000040: 575e c13e f045 29be 91cd afbb 89fb 0cbe
00000050: 31e4 083e 278b 843e 3fdb 51be 5d51 d4bd
00000060: 459f a7bd 865a a13d aee5 293d 4dff c8bd
00000070: 322b 233f ef6b 993f f35e 9ebe 15f0 02bd
00000080: ac45 a2bd 26be 5c3e a353 6bbe 1e7e 943e
00000090: 31a7 c93b 6054 bf3d 18f0 ad3e 14dd 0ebe
000000a0: 4210 8c3e 47dd 52bf 938d b63c ee79 8c3e
000000b0: a3ea 563d 1bdd 08be d55d 83bd 0f55 66bd
000000c0: 6f8f e0be 1d70 0abe 58a2 da3e 49ea e3be
000000d0: ac9a bc3e 998f aebe d944 c1bd a2ca 9d3d
000000e0: 55c3 24be e4f2 293e 237f 42be 2479 713e
000000f0: d259 833e c1ca 9bbe ae22 f03d c173 86be
00000100: cf3f 863e 2bcd f2bd ee59 ad3e e822 33be
00000110: 4b75 ca3d 04aa b13e 8709 1f3e 665f 76bd
00000120: aae1 ddbc 7ecf 69bd da2b 0ebe 0723 4d3d
00000130: 91bf 9d3e 6e5e 8f3d e361 6c3e 2c78 a43e
00000140: 5466 ae3c f2d6 0e3f 8f12 8f3c bb49 43be
00000150: 8032 a33e 75a1 afbc dae3 c63e c463 f1be
00000160: 7c8c 54be e516 573e 65b9 183e 10d1 98bd
00000170: b83f 543e ba09 c63d bba7 66bd 72ac 02bc
00000180: b881 07be 1925 2bbe 1828 0b3e d1c2 47be
00000190: dd75 393e ba96 47be d969 87be 7288 38be
000001a0: 189c 52be 0b49 323e 13f1 b9be 0f39 fe3d
000001b0: 23d2 a13e aa1e 5d3e 6080 a33e 6672 f3bd
000001c0: c1ff cebd a68b aebe 550a d7be 336a c8bc
000001d0: 693a 223d 9ab5 bf3d f383 9b3d b433 c5be
000001e0: 266a 32bf c4ed 3ebd dbc4 353f 6454 033e
000001f0: 854a 763c 59cd ccbe 99bc 0d3e b986 d6be
00000200: 712f fdbd 8a0d 843d f290 fcbd c742 50bd
00000210: 95c2 2c3e 965d 4bbf 5406 78be 73d6 903e
00000220: 3be4 a6bd 73d4 48be 1918 12bf efd2 d23e
00000230: 58ef 7a3e 3676 f7be bfd1 a6be fb21 aabe
00000240: be34 c63c 29ea 11be 16a6 ebbe 7e28 0dbf
00000250: 8a9c 713e ebec aa3e 01c9 cb3d 4f8c 593e
00000260: 271e e43d 374d 173e cc74 8c3c 823c cfbd
00000270: e579 59be 51f9 0ebe 3987 903d f825 01bf
00000280: 8ade 98bd cf3c 8c3e 457a 4bbe 143f 133f
00000290: e41e 773e 6b36 dc3e 055b 573d 78b2 a73c
000002a0: f173 0ebe 4e25 5f3e bffb 18be b7d3 4c3f
000002b0: c3ae 743f f09d c7bd a217 fbbe 6b5b dabd
000002c0: cabb abbd d9be 123d 7b1c 4f3e 0b2e 83bc
000002d0: eb60 f4bb e0fb 043f 779e 97bd 9205 a4be
000002e0: 153c a3bd 9c7c 24bf 355d d6be 024e 003f
000002f0: 21b5 a43e 5574 abbd c1bf 923e cd2f dbbd
00000300: b136 8dbd cda5 ae3d 250b 7d3e 18d1 80be
00000310: 7d4a dcbd f87d 2abe d52a 93bd 8bfc afbc
00000320: e544 573d b731 d73d 06f7 91be 21ed 6abe
00000330: c243 d8bd 7775 8ebe 18c9 553e dae4 93bd
00000340: a110 81be 9d0f 3b3e e4ed 123e d0bd 553e
00000350: 598e 113d 24b8 d9bd 1cb0 8f3d 4689 db3d
00000360: d9f1 b83d 1912 76be 3040 d9bd 3a6e 3bbe
00000370: ed03 6cbe 7b66 5bbe 3e69 0abd 5939 853e
00000380: 67c2 323e e215 dabd 75f3 0d3e 2036 77be
00000390: 5657 87be ce77 fdbd e893 24be e6a3 8a3e
000003a0: 5f5d 80be 6552 a8bd f141 8a3d 8a1c 1fbe
000003b0: 0cc4 753e 07f3 2d3e 5f45 73bc ae48 9c3c
000003c0: d7cb e0be c260 01bf f7d6 1bbf 6ea5 143e
000003d0: 8d80 f63d 1764 463d 1049 96be df8a c33d
000003e0: 2c3c a1bb 72bd ac3f 646d 05bf 30bc 98be
000003f0: 4cbd 9abe 7381 5dbe 98a3 c0bd 5e92 0fbf

net.0.bias f4 [128]
-0.13499022 0.22946295 -0.11195056 0.15451105 -0.06882099 -0.16555169 0.09247776 -0.17229371
0.053189803 -0.19713162 0.28730354 -0.051696356 -0.26633248 0.04580246 -0.15373166 0.023624416
-0.09880836 -0.03394125 0.1617708 0.26118344 -0.0008146701 -0.17786278 0.1304928 0.08919049
-0.20219117 -0.05342489 0.11998449 0.006981224 -0.07133354 -0.005250775 0.028477455 -0.02350948
0.029256562 -0.05162576 -0.28332043 -0.1017582 -0.2767142 0.09263569 -0.14586495 -0.029817702
0.085915424 0.19172877 0.06630761 -0.06973239 -0.08102984 -0.11304406 0.12767662 -0.16750802
-0.052764017 -0.12991624 0.024595967 -0.20422421 -0.070862025 -0.3244909 -0.1005661 -0.059283163
-0.021734523 0.24676631 -0.13672382 0.017138457 -0.20744549 -0.050892744 0.16465083 -0.21966888
-0.052840605 0.009471265 0.011991432 0.327855 0.12681295 0.23768428 -0.057849616 0.16045982
-0.12193843 0.20239921 -0.0064307842 -0.11639527 0.31549653 -0.16996364 -0.24256767 -0.06423585
-0.23403804 0.03227334 0.057505533 -0.13108957 0.26864466 0.008319787 -0.3009159 -0.2234154
-0.28934643 -0.13472304 -0.017085355 0.02420377 -0.06863282 0.27154896 0.002389946 0.10312881
-0.091549315 -0.16271684 0.08304736 -0.037328914 -0.16577935 -0.16060455 0.26409766 0.28537515
0.03576445 -0.08122817 -0.105205126 -0.011460045 0.41080216 -0.1632934 0.03218938 0.18381763
-0.11534379 -0.12248915 -0.21588784 -0.2663514 -0.04202555 0.29792792 0.067589805 -0.18287836
-0.018417273 0.22395578 0.1961346 0.27908272 0.114254475 0.15648916 0.21071841 -0.17968062
00000000: e03a 0abe 56f8 6a3e 5646 e5bd 2538 1e3e
00000010: 05f2 8cbd 6286 29be fb64 bd3d c36d 30be
00000020: 8ddd 593d dfdc 49be 7319 933e 8fbf 53bd
00000030: bb5c 88be 5c9b 3b3d d56b 1dbe fe87 c13c
00000040: 0a5c cabd fb05 0bbd 3fa7 253e d6b9 853e
00000050: 968f 55ba a921 36be e89f 053e 81a9 b63d
00000060: 340b 4fbe 0fd4 5abd 6eba f53d c0c2 e43b
00000070: 5217 92bd b10e acbb 8d49 e93c f496 c0bc
00000080: 75ab ef3c 8875 53bd 600f 91be 9a66 d0bd
00000090: 7cad 8dbe c8b7 bd3d 9f5d 15be 4144 f4bc
000000a0: 6df4 af3d 8c54 443e 49cc 873d dbcf 8ebd
000000b0: f9f2 a5bd a583 e7bd a9bd 023e 3987 2bbe
000000c0: 151f 58bd c308 05be 7b7d c93c 2720 51be
000000d0: 1c20 91bd ac23 a6be 99f5 cdbd e7d2 72bd
000000e0: 990c b2bc 4fb0 7c3e 5401 0cbe f365 8c3c
000000f0: 976c 54be e974 50bd 3a9a 283e e1f0 60be
00000100: 646f 58bd 5d2d 1b3c b677 443c 9cdc a73e
00000110: 41db 013e 8263 733e b8f3 6cbd 944f 243e
00000120: dbba f9bd bd41 4f3e 54b9 d2bb a560 eebd
00000130: c388 a13e f30a 2ebe a963 78be 168e 83bd
00000140: aba7 6fbe 0d31 043d ec8a 6b3d 583c 06be
00000150: cb8b 893e b74f 083c a611 9abe 02c7 64be
00000160: 3725 94be d6f4 09be 96f6 8bbc fc46 c63c
00000170: 5d8f 8cbd 7708 8b3e a4a0 1c3b 3335 d33d
00000180: 357e bbbd 3e9f 26be bc14 aa3d 34e6 18bd
00000190: 10c2 29be 8575 24be cf37 873e b11c 923e
000001a0: be7d 123d f45a a6bd c975 d7bd eac2 3bbc
000001b0: a954 d23e 6336 27be 03d9 033d b03a 3c3e
000001c0: 5d39 ecbd 97db fabd b411 5dbe 365f 88be
000001d0: fc22 2cbd 028a 983e 866c 8a3d 7744 3bbe
000001e0: d2df 96bc aa54 653e 82d7 483e eee3 8e3e
000001f0: 40fe e93d b23e 203e 91c6 573e 32fe 37be

net.2.weight f4 [128, 128]
-0.08503846 -0.0012137971 -0.06287572 0.49947402 0.11426705 0.092859276 0.24516597 0.01765854
0.008635697 -0.51415694 0.891241 -0.23301756 0.19223379 -0.18023048 -0.14305604 0.0194478
0.02166254 -0.056379523 0.25371173 0.8345363 -0.10248982 -0.40731955 -0.019769061 0.7775443
0.34128535 -1.0208856 0.5761176 0.038442634 -0.15712489 -0.061562438 0.0078005036 0.15655588
-0.034484815 -0.043095645 0.028292587 -0.00077359716 -0.0047820024 0.14168264 -0.24057543 0.08362796
0.096396275 0.64877033 -0.011229353 -0.020198181 0.02564778 0.3324509 0.13521355 -0.7732305
-0.052151863 0.21393116 -0.08919843 -0.06477996 -0.7130529 -0.40983286 0.051321026 0.102724686
0.6078963 0.032295264 0.087601826 0.013936915 0.044103988 -0.044452816 0.15936156 -0.10908122
0.007516336 -0.57352674 0.07739824 -0.61692804 -0.048420895 0.09692323 0.07284822 0.13574253
0.046013642 0.27670485 -0.17440625 0.029544488 0.05870388 -0.5072076 0.079102576 -0.06621349
0.025083926 -0.1759728 -0.21920957 0.03873568 0.09644617 -0.2775312 0.0888264 0.052433882
-0.15253684 0.12718682 0.15307984 -0.027122872 0.04308386 -0.075187065 0.25931925 0.13384221
0.035645064 -0.0015482118 0.059767105 -0.86655897 -0.12507713 -0.052310593 0.06928446 -0.015275279
0.13909745 0.07980657 0.32911044 0.20233938 -0.07574073 0.09524584 0.080127396 0.15693928
0.03694032 0.2882901 0.027198635 0.003170782 -0.08359161 0.1084565 0.15763855 -0.034895606
0.040661838 0.26271987 -0.14074244 0.2994694 0.12132765 -0.07292348 0.08445351 -0.0782811
-0.071865685 -0.055814017 0.013743581 0.06486035 0.034049112 0.05930903 -0.02152609 -0.020216072
0.0764822 -0.014306052 0.034861058 -0.01847054 0.082395114 0.0042770305 -0.06608219 0.037907276
0.056042936 -0.017806021 0.07175877 0.050900906 0.04409281 -0.06286722 0.003920099 -0.031512946
0.015719952 0.036951784 -0.029647894 0.013131167 0.013894298 -0.0147511335 -0.013418987 0.05475083
-0.07327123 -0.06108076 0.03352416 -0.008552354 -0.08231369 0.057996064 -0.046422508 0.06013469
-0.02021485 -0.06866046 0.027272003 0.025703687 -0.006196556 0.0493133 -0.02607793 0.00018211654
0.058472935 -0.086420186 0.003391188 0.027491188 -0.053955752 0.048143394 0.031919178 0.029181434
0.023321696 -0.05298171 0.0228622 -0.07507913 -0.011043739 -0.040037483 0.08581326 0.08691181
0.071214736 0.0039008593 -0.020474212 -0.04834549 0.0139314085 -0.007310866 -0.07300325 0.027760549
-0.01933885 -0.019388877 -0.0013905825 -0.0439713 0.046322957 0.03189763 0.046501692 0.04051508
0.043523595 -0.019841313 -0.06446206 -0.04655679 -0.021427331 0.0027654655 0.007443966 -0.06386413
-0.028480574 -0.023381723 -0.058545742 -0.02331317 -0.04449237 0.035144012 0.05628209 0.06996573
0.049933933 -0.041539226 0.041005522 0.020082615 0.037400965 0.059961118 -0.06510854 0.0068310243
-0.0735379 0.07065993 0.051485293 0.013200625 -0.042886555 -0.08024938 -0.061170217 -0.07271503
0.059443798 0.03884561 -0.016477974 0.06755341 -0.035892468 -0.078360565 -0.06497538 0.07879055
0.026847173 -0.003825954 -0.03048924 0.008421193 0.052183405 -0.044714075 -0.07953611 0.017309742
00000000: a528 aebd 4618 9fba fcc4 80bd 0fbb ff3e
00000010: d804 ea3d 012d be3d ca0c 7b3e a4a8 903c
00000020: bd7c 0d3c ca9f 03bf 5f28 643f 289c 6ebe
00000030: efd8 443e 578e 38be 487d 12be fe50 9f3c
00000040: a475 b13c 37ee 66bd 81e6 813e 2ca4 553f
00000050: 2fe6 d1bd 308c d0be baf2 a1bc 250d 473f
00000060: f4bc ae3e 61ac 82bf 717c 133f 0676 1d3d
00000070: 59e5 20be e528 7cbd 5e9b ff3b 2f50 203e
00000080: f33f 0dbd 0f85 30bd dbc5 e73c 3acb 4aba
00000090: 58b2 9cbb 4115 113e 6859 76be 2345 ab3d
000000a0: 696b c53d d015 263f 52fb 37bc a876 a5bc
000000b0: 4b1b d23c 0137 aa3e 6c75 0a3e 6ff2 45bf
000000c0: 319d 55bd c510 5b3e abad b6bd 5bab 84bd
000000d0: a38a 36bf 9dd5 d1be ff35 523d 5261 d23d
000000e0: 189f 1b3f 0a48 043d 9668 b33d a957 643c
000000f0: 62a6 343d 2814 36bd ad2f 233e fa65 dfbd
00000100: 994b f63b a6d2 12bf f882 9e3d ffee 1dbf
00000110: fd54 46bd b07f c63d 7331 953d 1700 0b3e
00000120: cd78 3c3d 42ac 8d3e 8d97 32be 4807 f23c
00000130: 7b73 703d 5bd8 01bf 8800 a23d f09a 87bd
00000140: ce7c cd3c 3732 34be 7978 60be 4ea9 1e3d
00000150: 9285 c53d 9218 8ebe 9eea b53d e9c4 563d
00000160: 9e32 1cbe 433d 023e f6c0 1c3e c930 debc
00000170: b478 303d adfb 99bd 7ec5 843e ef0d 093e
00000180: 8f00 123d 5eed caba 5ace 743d cfd6 5dbf
00000190: 3814 00be a243 56bd 03e5 8d3d 2a45 7abc
000001a0: 906f 0e3e a171 a33d 2a81 a83e 0e32 4f3e
000001b0: f51d 9bbd 4010 c33d d519 a43d b1b4 203e
000001c0: bc4e 173d c39a 933e accf de3c e5cc 4f3b
000001d0: 1432 abbd 711e de3d 006c 213e b2ee 0ebd
000001e0: 078d 263d 3883 863e c91e 10be 0e54 993e
000001f0: a27a f83d e858 95bd f6f5 ac3d d751 a0bd
00000200: 512e 93bd 3d9d 64bd c22c 613c 81d5 843d
00000210: 1577 0b3d 07ee 723d 7c57 b0bc 2d9c a5bc
00000220: b3a2 9c3d ee63 6abc 78ca 0e3d 884f 97bc
00000230: c5be a83d 5526 8c3b 1956 87bd a944 1b3d
00000240: 478d 653d efdd 91bc 43f6 923d 787d 503d
00000250: aa9a 343d 87c0 80bd 2d74 803b b813 01bd
00000260: 21c7 803c c15a 173d 24e0 f2bc 1b24 573c
00000270: e9a4 633c bdae 71bc 50db 5bbc 6842 603d
00000280: 3a0f 96bd d22f 7abd a150 093d 2c1f 0cbc
00000290: 1494 a8bd 488d 6d3d 8725 3ebd cb4f 763d
000002a0: 9d99 a5bc db9d 8cbd 8969 df3c 8a90 d23c
000002b0: 7b0c cbbb befc 493d 62a1 d5bc 89f6 3e39
000002c0: 5181 6f3d 11fd b0bd b23e 5e3b 3335 e13c
000002d0: b500 5dbd 0232 453d afbd 023d e70d ef3c
000002e0: 240d bf3c 5903 59bd 8249 bb3c 16c3 99bd
000002f0: ccf0 34bc 58fe 23bd ddbe af3d d2fe b13d
00000300: 08d9 913d 8fa5 7f3b 89b9 a7bc ec05 46bd
00000310: 9040 643c fd8f efbb ba82 95bd 176a e33c
00000320: 826c 9ebc 6cd5 9ebc 3544 b6ba 401b 34bd
00000330: 24bd 3d3d 17a7 023d 8f78 3e3d 24f3 253d
00000340: cc45 323d 408a a2bc af04 84bd 55b2 3ebd
00000350: 5f88 afbc d03c 353b 83ec f33b 32cb 82bd
00000360: 1850 e9bc 078b bfbc a9cd 6fbd 43fb bebc
00000370: a23d 36bd 2bf3 0f3d 0c88 663d 314a 8f3d
00000380: 8687 4c3d 0925 2abd 68f5 273d 4c84 a43c
00000390: c131 193d ca99 753d a057 85bd c9d6 df3b
000003a0: 0a9b 96bd 27b6 903d 3ee2 523d 6f47 583c
000003b0: d0a9 2fbd c959 a4bd 9f8d 7abd 9eeb 94bd
000003c0: 577b 733d 931c 1f3d d1fc 86bc 7159 8a3d
000003d0: fb03 13bd 817b a0bd d011 85bd f15c a13d
000003e0: 9aee db3c dbbc 7abb 92c4 f9bc 0bf9 093c
000003f0: 44be 553d 1b26 37bd d4e3 a2bd 29cd 8d3c

net.2.bias f4 [128]
0.12373726 -0.08276548 0.1397993 0.12825823 0.045885526 0.22199339 -0.09683546 -0.059751302
0.030565532 -0.038668446 -0.003588368 0.12440528 -0.003927308 -0.076729305 0.25324616 0.022986228
0.05045547 -0.026807265 -0.061282285 0.04879444 -0.06560942 0.0010711107 0.12513527 -0.059757095
0.050652843 0.19899261 0.043473408 -0.022650233 -0.07455084 0.15010448 -0.014027764 -0.060179524
-0.023309102 -0.06555444 -0.022817025 -0.056391887 0.21642914 -0.061866704 -0.09407774 0.04274569
0.10103067 -0.07296824 -0.040121358 0.2278163 0.11634615 -0.047934722 -0.077216566 0.15889671
0.054212634 -0.08350327 -0.073968336 0.27751347 0.12508157 -0.034188572 -0.024109345 0.0073002414
-0.07977134 0.17057075 0.063087076 0.17074125 0.024991954 0.0060738674 0.3373145 0.014699358
-0.06283355 -0.049435794 0.043435268 -0.054727852 0.007619617 0.1870748 0.027828477 0.20358679
-0.09919773 -0.0844222 -0.06810852 0.14604835 -0.018395232 -0.03757875 -0.090358 0.13156283
0.023105426 0.13143277 0.042697147 0.029632326 0.01877239 -0.04220946 0.047723077 0.23493667
-0.07049052 -0.057533808 -0.015404285 -0.039721888 -0.04175614 -0.052513897 -0.044353664 0.03136959
-0.016731916 0.05245871 -0.04324661 0.17049985 -0.06208452 0.021182396 -0.028406112 -0.14147833
0.16639179 0.17247713 -0.026850207 -0.021296158 0.22592363 0.031061528 0.17018376 0.13202345
0.0039537237 0.1323393 -0.07840088 0.062870085 -0.02038289 0.17107044 -0.00902491 0.01846013
0.065848045 0.21391922 0.030590681 0.013511236 0.05380783 -0.060599502 -0.084658526 -0.065709576
00000000: f669 fd3d f380 a9bd 8c27 0f3e 2056 033e
00000010: 76f2 3b3d 3c52 633e ab51 c6bd c8bd 74bd
00000020: 9164 fa3c ce62 1ebd d32a 6bbb 32c8 fe3d
00000030: a6b0 80bb 4124 9dbd 7ba9 813e 9d4d bc3c
00000040: 65aa 4e3d e99a dbbc 2203 7bbd aedc 473d
00000050: 3b5e 86bd 8364 8c3a 7623 003e dbc3 74bd
00000060: 5b79 4f3d b8c4 4b3e 2c11 323d fb8c b9bc
00000070: 1cae 98bd fdb4 193e b5d4 65bc ce7e 76bd
00000080: bbf2 bebc 6841 86bd c5ea babc 2efb 66bd
00000090: 9a9f 5d3e f167 7dbd d5ab c0bd 1b16 2f3d
000000a0: 2be9 ce3d 5f70 95bd 4b56 24bd ad48 693e
000000b0: e446 ee3d 3357 44bd b823 9ebd d2b5 223e
000000c0: 110e 5e3d c303 abbd b67c 97bd 3f16 8e3e
000000d0: 6215 003e 5109 0cbd f680 c5bc dd36 ef3b
000000e0: 285f a3bd 19aa 2e3e cc33 813d cbd6 2e3e
000000f0: edbb cc3c 4b07 c73b 7cb4 ac3e 93d5 703c
00000100: e0ae 80bd 307d 4abd 2ee9 313d 502a 60bd
00000110: fbad f93b 8990 3f3e 8cf8 e33c 0e79 503e
00000120: 2e28 cbbd 8ce5 acbd 7b7c 8bbd b38d 153e
00000130: 99b1 96bc 2dec 19bd 9d0d b9bd 68b8 063e
00000140: 9747 bd3c 5096 063e 34e3 2e3d 7ebf f23c
00000150: 8ec8 993c d4e3 2cbd 4679 433d 3d93 703e
00000160: 555d 90bd 92a8 6bbd 4162 7cbc 6bb3 22bd
00000170: 7c08 2bbd d018 57bd 30ac 35bd 667d 003d
00000180: 5f11 89bc f2de 563d 5b23 31bd 8397 2e3e
00000190: 564c 7ebd b486 ad3c efb3 e8bc b2df 10be
000001a0: 9c62 2a3e d89d 303e f7f4 dbbc 4875 aebc
000001b0: 8658 673e bf74 fe3c a744 2e3e 2831 073e
000001c0: 3d8e 813b f483 073e a490 a0bd 08c2 803d
000001d0: 05fa a6bc 172d 2f3e 37dd 13bc b339 973c
000001e0: 57db 863d a40d 5b3e 4f99 fa3c 3b5e 5d3c
000001f0: 9965 5c3d 2f37 78bd 7361 adbd be92 86bd

net.4.weight f4 [6, 128]
0.069657184 0.024165295 0.18731196 0.09022698 0.7346039 0.1353528 0.20947765 0.07654924
0.07543119 -0.00041377667 -0.016667835 0.19526687 -0.11427109 -0.05404847 0.28360444 -0.03642972
-0.03968168 0.06970469 0.063102335 -0.034467455 0.038135137 -0.047251347 0.335234 -0.075454265
-0.074515626 0.1292076 0.057349123 0.0068210973 -0.032677136 0.15174876 0.2553617 -0.00032126435
-0.031091066 -0.060979713 -0.34553173 0.005940102 0.14581072 0.055439267 0.24420638 -0.045139074
0.5093831 0.036678772 -0.1945468 0.48232135 0.18616496 -0.6934076 -0.027467543 0.7199669
0.17081682 -0.07647308 -0.07097625 0.32700533 0.7872197 -0.07772881 0.024237398 0.075133845
-0.027461242 0.18390591 -0.072280735 0.21523105 0.21908626 -0.012203967 0.27224135 0.012160975
0.0116027845 -0.026884886 -0.12355384 0.043473862 -0.060951415 0.04372353 0.08047913 0.18770769
0.06758097 -0.022053843 0.031794973 0.18245302 0.06903836 -0.06294566 0.07901312 0.327401
0.06887322 0.12745903 0.3269453 -0.053211845 0.18017992 -0.08066729 0.027312394 0.27793926
-0.11154788 -0.028393341 -0.326481 0.02239246 -0.06407812 -0.015792178 -0.0342269 0.05649612
-0.05857952 0.43458307 0.03843742 0.017718542 0.08140889 -0.034720156 -0.0004477997 -0.83726275
0.20922388 -0.17577031 0.05082516 -0.07235819 0.5176957 -0.030345246 -0.36291075 0.06747062
-0.046369158 0.58943886 -0.053178184 0.036816288 -0.079731 0.62969315 0.03433204 0.072382554
0.20482172 0.2490617 0.0069852057 0.027290748 -0.11295429 0.08496629 0.06922412 -0.0012279168
0.2035814 -0.07342985 0.14883018 0.17820221 0.5183704 0.17963289 0.07045938 -0.0066068475
-0.053585462 0.0707341 -0.021242233 0.22849476 -0.3618465 0.005060441 0.20964935 -0.08602438
0.0030547297 0.050113127 0.054073434 -0.03134683 -0.02850799 -0.072055325 -0.014094125 0.25003758
-0.06161065 0.23681974 0.085942276 -0.0031853113 -0.03013623 0.25897846 -0.058777537 0.010851117
0.03152279 -0.064590886 -0.4039952 -0.060470328 0.20055246 0.064532325 0.4352798 0.022696536
0.036899004 -0.06254145 0.20462066 0.44101205 0.0065138238 -0.6036663 0.010720725 0.30943668
-0.27945334 -0.05108202 0.06934048 0.11116921 0.30140713 0.008837873 -0.32591072 0.010585897
0.036813904 0.14085822 -0.050339837 0.26423842 0.6400023 0.08029593 0.26436925 -0.05389349
-0.039896533 0.039236028 0.705382 0.06447132 -0.021939253 0.23160173 -0.02331118 0.25121313
0.032800306 0.072831 0.008235146 0.25117618 0.016203264 -0.025120746 -0.023675138 0.5277348
-0.024312947 0.19098033 0.5016293 -0.018214254 0.17577839 0.05281513 -0.038513537 0.18194142
-0.216578 0.08561765 -0.1397019 0.057332333 0.033250097 -0.099518366 0.003223726 -0.009380768
0.027703436 0.3528119 0.06975192 0.22415316 0.016107146 -0.045391273 -0.05685989 -0.22366954
0.19233899 -0.39552152 -0.025621697 0.19027743 0.6817546 0.0237749 -0.23840997 0.26822585
0.02852045 0.51465464 -0.030331675 0.034548026 -0.0042002075 0.5533482 -0.06517456 -0.040108122
-0.11747935 0.14414375 -0.0027828994 -0.012511987 -0.07568838 0.061369773 0.02756974 0.036147002
00000000: 6da8 8e3d 4cf6 c53c b5ce 3f3e ecc8 b83d
00000010: 000f 3c3f ed99 0a3e 4f81 563e d9c5 9c3d
00000020: ab7b 9a3d 2af0 d8b9 fc8a 88bc 0af4 473e
00000030: f606 eabd ee61 5dbd 9a34 913e 5537 15bd
00000040: 4289 22bd 55c1 8e3d cc3b 813d bf2d 0dbd
00000050: 9733 1c3d a18a 41bd caa3 ab3e c487 9abd
00000060: a69b 98bd ff4e 043e eae6 6a3d 8383 df3b
00000070: 76d8 05bd 0764 1b3e c5be 823e 5f6f a8b9
00000080: b1b2 febc ddc5 79bd 89e9 b0be 30a5 c23b
00000090: 684f 153e 4914 633d 3d11 7a3e c0e3 38bd
000000a0: ee66 023f 7b3c 163d 4737 47be d3f2 f63e
000000b0: 07a2 3e3e 2983 31bf 9d03 e1bc c04f 383f
000000c0: 9bea 2e3e eb9d 9cbd ff5b 91bd 3e6d a73e
000000d0: 3b87 493f 4830 9fbd 828d c63c c6df 993d
000000e0: 66f6 e0bc d551 3c3e ec07 94bd 8765 5c3e
000000f0: 2658 603e 26f3 47bc 3863 8b3e d33e 473c
00000100: 9b19 3e3c b13d dcbc cc09 fdbd a611 323d
00000110: 31a8 79bd 7217 333d 3ed2 a43d 7236 403e
00000120: e467 8a3d 43aa b4bc 723b 023d f7d4 3a3e
00000130: fc63 8d3d a7e9 80bd a1d1 a13d 1ba1 a73e
00000140: 670d 8d3d 9f84 023e 6065 a73e aaf4 59bd
00000150: 1681 383e e434 a5bd 3ebe df3c 0e4e 8e3e
00000160: 3773 e4bd 2799 e8bc 8528 a7be 6470 b73c
00000170: 643b 83bd 995e 81bc 8231 0cbd 7a68 673d
00000180: 14f1 6fbd ac81 de3e 8e70 1d3d 7a26 913c
00000190: b4b9 a63d b936 0ebd a9c6 eab9 da56 56bf
000001a0: c93e 563e 22fd 33be 0b2e 503d 8830 94bd
000001b0: b587 043f 9896 f8bc 70cf b9be 092e 8a3d
000001c0: 96ed 3dbd 77e5 163f 5ed1 59bd adcc 163d
000001d0: 024a a3bd 9233 213f c19f 0c3d 4e3d 943d
000001e0: c9bc 513e 080a 7f3e 27e4 e43b d990 df3c
000001f0: 9454 e7bd ce02 ae3d 60c5 8d3d 0df2 a0ba
00000200: a477 503e 6462 96bd f066 183e a47a 363e
00000210: ecb3 043f aff1 373e 024d 903d 417e d8bb
00000220: 6e7c 5bbd 0add 903d 3104 aebc 88fa 693e
00000230: f243 b9be 0ed2 a53b 52ae 563e 8d2d b0bd
00000240: dc31 483b 6c43 4d3d 1b7c 5d3d 8965 00bd
00000250: 9789 e9bc be91 93bd 0beb 66bc ed04 803e
00000260: 735b 7cbd e080 723e 8102 b03d a8c0 50bb
00000270: 41e0 f6bc d398 843e b7c0 70bd e2c8 313c
00000280: 0b1e 013d 3a48 84bd 75d8 cebe bcaf 77bd
00000290: a05d 4d3e 8629 843d fedc de3e 16ee b93c
000002a0: 6923 173d bb15 80bd 1488 513e 55cc e13e
000002b0: ea71 d53b e089 1abf fba5 2f3c 7c6e 9e3e
000002c0: 8214 8fbe 613b 51bd 6202 8e3d afac e33d
000002d0: 0952 9a3e bacc 103c c5dd a6be 7870 2d3c
000002e0: 2dca 163d 233d 103e 2531 4ebd 424a 873e
000002f0: 31d7 233f 3172 a43d 685b 873e 6cbf 5cbd
00000300: 8c6a 23bd f5b5 203d ea93 343f 8a09 843d
00000310: f3b9 b3bc 0129 6d3e 16f7 bebc 029f 803e
00000320: 9d59 063d 6b28 953d b5ec 063c 2a9a 803e
00000330: b5bc 843c 06ca cdbc 5df2 c1bc a119 073f
00000340: f22b c7bc 5990 433e c76a 003f 0f36 95bc
00000350: 40ff 333e ae54 583d 5fc0 1dbd da4e 3a3e
00000360: a0c6 5dbe 4e58 af3d 040e 0fbe 4fd5 6a3d
00000370: 4131 083d 49d0 cbbd 2645 533b cbb1 19bc
00000380: 51f2 e23c c3a3 b43e 18da 8e3d 6888 653e
00000390: 22f3 833c 33ec 39bd ebe5 68bd a109 65be
000003a0: 83f4 443e cc81 cabe 98e4 d1bc 16d8 423e
000003b0: 7887 2e3f 94c3 c23c be21 74be e654 893e
000003c0: b8a3 e93c 68c0 033f 227a f8bc 3b82 0d3d
000003d0: e5a1 89bb 3aa8 0d3f 3d7a 85bd 6a48 24bd
000003e0: 0399 f0bd 6b9a 133e 4e61 36bb 14ff 4cbc
000003f0: 8202 9bbd df5e 7b3d efd9 e13c e10e 143d

net.4.bias f4 [6]
0.23606265 0.07322375 0.09424111 0.16730802 0.22229609 0.2337112
00000000: 68ba 713e 55f6 953d 7c01 c13d cb52 2b3e
00000010: 96a1 633e fd51 6f3e
