rl/models/best_model_run1.pth (torch, 79477 bytes, 6 tensors)

net.0.weight f4 [128, 13]
0.0672892 0.03479808 0.48688436 -0.68221366 0.12692377 -0.012010059 -0.3085526 0.07064206
0.07552845 0.25268915 -0.3307261 0.2608773 -0.010870116 0.12709478 0.26944166 0.051101808
-0.5822104 0.14590591 -0.20935713 0.22591013 -0.40330085 -0.36004642 -0.08635827 -0.14921224
0.18262658 0.12734114 -0.120353475 -0.3492 0.4679555 -1.0210687 0.52829844 0.20298892
-0.094533876 0.10527101 -0.085345134 0.36953276 -0.14791958 0.14349702 -0.29367203 0.05204864
-0.08489687 -0.26198423 1.166996 -0.36988148 -0.5290533 -0.11158912 -0.1796704 0.005868514
0.27250692 0.1532398 0.2701734 0.10572314 0.17425424 -0.08905654 0.45419598 -0.6040324
0.18507545 0.3294529 0.2841767 0.022576543 -0.10560589 -0.044025473 0.09791934 -0.47254813
-0.07455534 0.20510305 -0.26459217 -0.17041531 0.15097818 -0.10141096 -0.23461565 -0.21276382
-0.27732247 -0.104111955 -0.14218393 0.086326435 0.14028782 -0.11361365 0.015986707 -0.09547593
-0.0010032824 1.3894635 0.32055378 -0.10942619 0.0063558724 0.11487631 -0.1703121 0.13221209
0.13898335 -0.1229495 -0.42906862 0.36389053 -0.273885 0.25885049 -0.11082048 0.5000391
-0.031193748 0.17019406 0.2883083 0.260458 -0.24720126 -0.083212316 0.12377025 -0.38078213
-0.20136163 0.009820034 0.6180594 0.3207701 0.025161365 -0.3287964 0.13140528 0.009644945
0.12336201 0.26330912 0.11330902 0.048335176 -0.23510702 -0.15118022 0.006630759 0.033436447
-0.13839865 -0.1923418 0.2297556 -0.2607256 -0.26309913 -0.25848007 -0.18314178 -0.16697097
0.18928602 -0.11046522 -0.099161975 -0.06978199 0.22563063 -0.0902482 0.11128177 -0.16332899
-0.18832529 -0.10858233 -0.16734624 -0.0063716797 -0.18675348 0.08471935 -0.059446584 0.19584288
0.23502854 -0.07556241 0.3599341 -0.39353856 0.20206477 -0.23817664 -0.2908323 -0.34767878
0.11939961 0.13709946 -0.057749506 0.13405192 -0.19920257 0.036806956 -0.08727724 0.13568501
0.18002278 -0.46431765 0.33137465 0.28302634 0.17844354 -0.15592262 0.32896718 -0.04890911
-0.31729352 -0.31572735 -0.19619188 -0.83260715 0.34175512 -0.007958755 0.39286798 0.07845344
0.25175387 0.37942407 -0.3665999 -0.2426918 0.20825596 -0.2587402 -0.0040434217 0.29781228
-0.20312633 0.18504335 -0.19012712 -0.07587215 -0.40228474 -0.04751383 0.3024006 -0.24716565
-0.33001468 0.17149344 -0.034661934 -0.20699961 -0.20158646 0.5706429 0.9977548 0.25447577
0.119055904 0.2537747 -0.28150168 0.064354 -0.115961574 0.40838438 0.18022789 0.1972897
0.2693346 -0.15686396 0.5519235 0.7258524 0.5304971 -0.2109552 -0.08660548 0.0910185
-0.1810017 0.25636414 -0.010185891 -0.1981337 0.12123145 0.15125085 0.20199153 0.46733373
-0.41210806 -0.022878464 0.2916747 0.09255117 -0.2678513 0.29948148 0.11365046 -0.014887884
-0.057977036 -0.42871752 -0.21557689 0.25478026 0.23024033 0.08672031 -0.27082124 -0.06867988
-0.13148774 0.027426377 0.25438014 0.115134105 0.0036783586 0.13799532 -0.11669327 0.18093309
-0.021599866 -0.04136538 0.16171007 -0.122447014 -0.2656373 -0.12195937 -0.07135627 -0.26695615
00000000: ecce 893d 6e88 0e3d e848 f93e 8ea5 2ebf
00000010: 4ef8 013e d7c5 44bc 9bfa 9dbe c9ac 903d
00000020: a9ae 9a3d 7960 813e ee54 a9be b691 853e
00000030: 9218 32bc 2225 023e 42f4 893e 2150 513d
00000040: be0b 15bf 5c68 153e b761 56be fc54 673e
00000050: 737d cebe 0158 b8be 9bdc b0bd 18cb 18be
00000060: 7602 3b3e b765 023e e27b f6bd 58ca b2be
00000070: dd97 ef3e 61b2 82bf 913e 073f 54dc 4f3e
00000080: fa9a c1bd 5498 d73d 6ec9 aebd 6633 bd3e
00000090: 3b78 17be e2f0 123e 2e5c 96be f430 553d
000000a0: 69de adbd cc22 86be 2060 953f 1b61 bdbe
000000b0: 0970 07bf d688 e4bd 84fb 37be aa4c c03b
000000c0: 0786 8b3e e5ea 1c3e 2b54 8a3e 6085 d83d
000000d0: b46f 323e 4663 b6bd 608c e83e dea1 1abf
000000e0: 6b84 3d3e 0dae a83e 9c7f 913e 71f2 b83c
000000f0: e747 d8bd 0e54 34bd ef89 c83d d4f1 f1be
00000100: 78b0 98bd 8906 523e a078 87be 5a81 2ebe
00000110: 069a 1a3e 8db0 cfbd 163f 70be c2de 59be
00000120: 36fd 8dbe a638 d5bd aa98 11be eacb b03d
00000130: 9ca7 0f3e 46ae e8bd 8ef6 823c e288 c3bd
00000140: 9280 83ba f1d9 b13f a01f a43e d71a e0bd
00000150: ec44 d03b 4544 eb3d 4c66 2ebe 9b62 073e
00000160: a751 0e3e f3cc fbbd e2ae dbbe dc4f ba3e
00000170: a83a 8cbe 0d88 843e d9f5 e2bd 9002 003f
00000180: 088a ffbc 5a47 2e3e 259d 933e c05a 853e
00000190: 5422 7dbe 386b aabd 427b fd3d e0f5 c2be
000001a0: be31 4ebe 35e4 203c 2439 1e3f fb3b a43e
000001b0: 351f ce3c 0058 a8be 1b8f 063e d505 1e3c
000001c0: 39a5 fc3d 74d0 863e 8f0e e83d 1bfb 453d
000001d0: e5bf 70be fdce 1abe d746 d93b a8f4 083d
000001e0: 60b8 0dbe 40f5 44be 0d45 6b3e d37d 85be
000001f0: eeb4 86be 8057 84be 8589 3bbe 70fa 2abe
00000200: 32d4 413e 973b e2bd 6f15 cbbd dce9 8ebd
00000210: b70b 673e 0cd4 b8bd b2e7 e33d b73f 27be
00000220: 58d8 40be 6a60 debd d05c 2bbe 86c9 d0bb
00000230: 4e3c 3fbe 5781 ad3d 437e 73bd 098b 483e
00000240: 52ab 703e 77c0 9abd 4849 b83e e37d c9be
00000250: 11ea 4e3e 94e4 73be f9e7 94be f402 b2be
00000260: c887 f43d cd63 0c3e bf8a 6cbd e844 093e
00000270: c2fb 4bbe e4c2 163d 69be b2bd 03f1 0a3e
00000280: e457 383e 0bbb edbe f0a9 a93e d4e8 903e
00000290: e7b9 363e 2eaa 1fbe 636e a83e eb54 48bd
000002a0: 4c74 a2be 04a7 a1be 86e6 48be be25 55bf
000002b0: 87fa ae3e 7065 02bc fe25 c93e 32ac a03d
000002c0: e2e5 803e df43 c23e fbb2 bbbe 3384 78be
000002d0: 0d41 553e 9879 84be ae7e 84bb da7a 983e
000002e0: 5900 50be 017c 3d3e afb0 42be dc62 9bbd
000002f0: 44f8 cdbe dd9d 42bd 40d4 9a3e fe18 7dbe
00000300: aff7 a8be fa9b 2f3e acf9 0dbd b5f7 53be
00000310: ae6c 4ebe a715 123f dc6c 7f3f a64a 823e
00000320: 95d3 f33d c2ee 813e fd20 90be 08cc 833d
00000330: 437d edbd c217 d13e a98d 383e 5006 4a3e
00000340: 3ae6 893e f2a0 20be dc4a 0d3f 76d1 393f
00000350: a8ce 073f a404 58be 375e b1bd e867 ba3d
00000360: 8258 39be 2942 833e b9e2 26bc 90e3 4abe
00000370: 3248 f83d 81e1 1a3e ded6 4e3e 5e46 ef3e
00000380: d4ff d2be 9e6b bbbc 6356 953e 788b bd3d
00000390: ce23 89be a355 993e 93c1 e83d 50ec 73bc
000003a0: 5479 6dbd dd80 dbbe 30c0 5cbe 8f72 823e
000003b0: 1fc4 6b3e 6b9a b13d 15a9 8abe 09a8 8cbd
000003c0: b9a4 06be 48ad e03c 1d3e 823e 6ecb eb3d
000003d0: 9e10 713b a54e 0d3e e2fc eebd 8646 393e
000003e0: 34f2 b0bc bf6e 29bd 5397 253e 80c5 fabd
000003f0: 9d01 88be d6c5 f9bd 3c23 92bd 7aae 88be

net.0.bias f4 [128]
0.13199084 0.15728305 0.20933303 0.17855059 0.008362533 0.016163895 0.21369603 -0.17189036
0.17671607 0.12915216 -0.1681931 0.07588417 0.21232542 0.18732835 0.29020506 -0.109594494
0.050136 -0.11447677 -0.26495507 -0.15078162 0.25334695 0.0129366685 0.2082726 -0.16437872
-0.06578932 -0.08681305 0.133936 0.14487433 -0.115338184 -0.25477174 0.21959458 -0.03860603
0.030027404 0.06725449 0.24071638 0.25155923 0.103193365 0.04675139 -0.08006941 0.042802162
0.21831691 0.22452748 0.056657728 0.17016128 0.20155255 -0.21975392 0.13716313 0.0128423115
-0.016257618 0.0071872836 0.11344941 -0.16003695 0.04995233 -0.23882407 0.22131807 0.07315137
0.2149892 0.037182257 -0.26146218 0.21066415 -0.09223593 0.0185258 -0.14874788 -0.21328896
-0.20331238 -0.1967676 -0.08710419 0.17356288 0.23809111 -0.24970004 0.03453399 -0.049558744
0.0039289864 -0.17218778 -0.027582422 -0.1740095 0.084988765 0.25134268 0.27040806 0.0945588
0.05280225 -0.16700171 -0.081704564 -0.1594711 -0.16463122 0.12729327 0.004013968 -0.17986397
-0.0014169229 0.1115675 -0.10417644 -0.052630402 0.082169294 -0.099341795 0.026162125 -0.11311212
-0.04430079 0.026996983 0.2128197 0.03460193 -0.12836733 -0.091476634 0.11298441 0.14789996
-0.19625023 -0.26575384 0.019130636 0.113209225 0.14248116 -0.14198343 0.26966816 -0.01829352
0.17794453 -0.216226 -0.226382 -0.027855733 -0.09028207 0.09723864 0.031638045 -0.035686985
0.082428195 0.08024841 -0.17937882 -0.0793378 0.17153107 0.12900484 0.13042457 -0.11574537
00000000: 9b28 073e cf0e 213e 665b 563e f7d5 363e
00000010: 0103 093c 256a 843c 22d3 5a3e 0704 30be
00000020: 0ff5 343e 7740 043e d03a 2cbe 2969 9b3d
00000030: d66b 593e 01d3 3f3e c295 943e 1473 e0bd
00000040: 685b 4d3d cc72 eabd 31a8 87be 7f66 1abe
00000050: b1b6 813e 52f4 533c 6a45 553e e552 28be
00000060: 8dbc 86bd 0acb b1bd 8526 093e f059 143e
00000070: 6d36 ecbd 7171 82be 67dd 603e 5b21 1ebd
00000080: 08fc f53c b9bc 893d 5b7e 763e 5fcc 803e
00000090: 0b57 d33d 637e 3f3d 6efb a3bd 5251 2f3d
000000a0: 788e 5f3e 88ea 653e ef11 683d c23e 2e3e
000000b0: cb63 4e3e 2c07 61be 7e74 0c3e 8f68 523c
000000c0: b22e 85bc 4e83 eb3b 2a58 e83d bae0 23be
000000d0: d09a 4c3d 4c8e 74be 34a1 623e 63d0 953d
000000e0: 2126 5c3e 6c4c 183d 5fde 85be 58b8 573e
000000f0: 31e6 bcbd 6bc3 973c 5d51 18be 6c68 5abe
00000100: 1f31 50be 727d 49be ae63 b2bd 78ba 313e
00000110: 28ce 733e 5eb1 7fbe 8373 0d3d 1cfe 4abd
00000120: babe 803b fe51 30be 88f4 e1bc 8c2f 32be
00000130: 970e ae3d fdaf 803e ed72 8a3e 0ba8 c13d
00000140: 2c47 583d 7f02 2bbe b954 a7bd 644c 23be
00000150: 1695 28be 2b59 023e 9b87 833b 432e 38be
00000160: 0bb8 b9ba 807d e43d 755a d5bd fa92 57bd
00000170: 6048 a83d b673 cbbd f451 d63c 54a7 e7bd
00000180: bf74 35bd c728 dd3c 68ed 593e c1ba 0d3d
00000190: ba72 03be 1a58 bbbd 5f64 e73d 1673 173e
000001a0: d2f5 48be e310 88be dab7 9c3c 3dda e73d
000001b0: 95e6 113e 1b64 11be f211 8a3e 4bdc 95bc
000001c0: 1737 363e 596a 5dbe afd0 67be b531 e4bc
000001d0: cee5 b8bd 0d25 c73d e596 013d 842c 12bd
000001e0: 1dd0 a83d 4759 a43d 15af 37be db7b a2bd
000001f0: d7a5 2f3e d819 043e 058e 053e e90b edbd

net.2.weight f4 [128, 128]
-0.00616605 -0.06166756 -0.08777607 0.047066238 0.0042939824 0.062208306 -0.012148115 -0.04825606
0.022316573 0.049812485 0.069059126 0.0536149 -0.046162542 -0.011275449 0.06617468 -0.02123918
-0.04098736 -0.018350922 -0.05987882 -0.04708648 0.025755752 -0.0011447195 -0.0037445019 0.08661235
0.060800463 -0.07263445 -0.022293504 -0.004974592 0.021456543 -0.04739643 -0.014574516 -0.104354374
-0.018370567 0.056078926 -0.00023076795 -0.028316949 -0.046654787 -0.058019962 -0.023941917 0.023360567
-0.104597494 -0.019241903 -0.13105044 0.031908438 0.0137322545 -0.09459796 0.0056466856 -0.04757148
-0.0075915908 -0.011598294 -0.045994297 0.007862273 -0.073630035 -0.007497197 -0.07692792 -0.0057275565
-0.10800999 -0.059158146 -0.053942855 -0.015753847 -0.06896514 -0.08406894 -0.118944146 -0.06446021
-0.046571404 0.07463804 0.023075305 0.012871373 -0.0058836387 0.005640922 -0.056640696 -0.011813456
-0.078809306 -0.033548217 -0.03771555 -0.07380565 0.01015761 -0.002195571 -0.09485932 0.01758061
0.051368516 -0.020784857 0.037871823 -0.07836829 0.01740138 -0.0060370155 0.015103899 -0.022112776
-0.11366664 -0.07955902 0.011182064 -0.043184973 -0.09338315 0.016038308 0.03705871 -0.021664476
-0.10629911 0.036464468 -0.023224061 0.045891497 -0.036478654 -0.0007318514 -0.087080695 -0.060234293
-0.104589716 0.06322072 -0.022532703 0.07863243 0.034388065 -0.003760837 -0.07398218 -0.10753493
-0.053633627 -0.027679816 0.038752265 0.006207451 -0.0038409648 -0.07832269 -0.08666146 0.0013572583
0.047845364 -0.019335859 -0.005268207 -0.038685415 -0.08728279 -0.07438215 0.0020302036 0.08206083
0.014721716 -0.027065022 0.13740608 -0.2024162 0.21929608 -0.07379307 0.031074086 0.26395783
-0.08181092 -0.009980637 0.074726954 -0.105036676 0.0040218094 -0.06705716 -0.034446593 0.13578132
0.13044646 -0.058191977 -0.02740583 -0.082379326 0.079180576 0.032134864 0.025472688 0.06353459
-0.046977267 0.051236622 0.22283359 0.10347608 0.17715879 0.08263359 0.042971086 0.0063904
-0.039771456 -0.025560278 0.10422264 0.19870293 -0.036112357 0.009691601 -0.08806699 0.0049243993
-0.1222082 0.20625299 -0.05885205 0.035274226 -0.10905849 -0.045104045 -0.13377151 0.123108126
-0.011598477 0.0067281174 -0.008768472 0.11097144 -0.020001546 0.013531056 0.21792978 -0.039560262
-0.037697364 0.23533972 -0.0034377498 0.049539905 -0.09654559 0.22642194 -0.0045887744 0.064962216
-0.03396307 -0.08011154 -0.040958334 0.10472146 -0.13727394 -0.05312268 -0.018680915 0.06317359
-0.007742593 0.07789966 0.5065852 -0.019885613 0.2260435 0.33311594 0.09071696 -0.059527185
0.058658425 0.02318289 0.0777701 -0.077419415 0.10413852 -0.02635153 -0.071063705 -0.1490616
0.031015769 0.07080969 0.044840794 -0.053389743 0.053000454 0.186634 0.10127397 -0.04156164
-0.12875354 -0.022753144 0.016394459 -0.06920176 -0.06338255 0.22746803 0.057185005 0.12277363
0.066712454 0.03507752 -0.06047435 0.057257243 0.22536162 0.035006363 0.4586782 -0.0041715517
-0.27137923 0.034092437 -0.236649 -0.1702324 -0.18644741 -0.39497557 -0.18903127 0.11596822
-0.2163026 0.4389754 -0.39474806 -0.09414004 0.10147379 0.18963374 0.045787025 -0.03640282
00000000: 940c cabb 2097 7cbd f1c3 b3bd 87c8 403d
00000010: 89b4 8c3b 23ce 7e3d e308 47bc 25a8 45bd
00000020: 3fd1 b63c 2d08 4c3d df6e 8d3d 4c9b 5b3d
00000030: ef14 3dbd a9bc 38bc 9786 873d cafd adbc
00000040: 5de2 27bd ac54 96bc 7e43 75bd c1dd 40bd
00000050: bafd d23c 6a0a 96ba 5166 75bb d161 b13d
00000060: e809 793d 5fc1 94bd dea0 b6bc e701 a3bb
00000070: a2c5 af3c c222 42bd f3c9 6ebc bfb7 d5bd
00000080: df7d 96bc 04b3 653d 4dfa 71b9 f2f8 e7bc
00000090: 1719 3fbd 57a6 6dbd d721 c4bc a95e bf3c
000000a0: 3637 d6bd 32a1 9dbc 1632 06be 6cb2 023d
000000b0: 40fd 603c 93bc c1bd d507 b93b 50da 42bd
000000c0: e1c2 f8bb c506 3ebc 8464 3cbd c3d0 003c
000000d0: 58cb 96bd 0cab f5bb 638c 9dbd 3aae bbbb
000000e0: 5734 ddbd d04f 72bd 2ff3 5cbd 360e 81bc
000000f0: 983d 8dbd 562c acbd fd98 f3bd b703 84bd
00000100: a8c1 3ebd d4db 983d 6c08 bd3c 74e2 523c
00000110: 8acb c0bb 7cd7 b83b 1300 68bd 3a8d 41bc
00000120: c666 a1bd db69 09bd 9f7b 1abd 6b27 97bd
00000130: 1b6c 263c 92e3 0fbb 9a45 c2bd 3605 903c
00000140: cb67 523d 0145 aabc 7c1f 1b3d 8e7f a0bd
00000150: 578d 8e3c 28d2 c5bb 5876 773c da25 b5bc
00000160: 0eca e8bd d7ef a2bd fa34 373c bae2 30bd
00000170: aa3f bfbd c562 833c e0ca 173d b379 b1bc
00000180: 59b3 d9bd c45b 153d 6340 bebc b9f8 3b3d
00000190: a46a 15bd b7d9 3fba 5d57 b2bd 3cb8 76bd
000001a0: 2233 d6bd dd79 813d 8196 b8bc 0a0a a13d
000001b0: 80da 0c3d 6078 76bb f883 97bd 463b dcbd
000001c0: efae 5bbd c8c0 e2bc b2ba 1e3d e067 cb3b
000001d0: b2b8 7bbb a667 a0bd 907b b1bd 08e6 b13a
000001e0: 80f9 433d 3c66 9ebc eca0 acbb 9974 1ebd
000001f0: 52c1 b2bd ab55 98bd 2a0d 053b 820f a83d
00000200: 5a33 713c 77b7 ddbc 2eb4 0c3e 3146 4fbe
00000210: 278f 603e d220 97bd 158f fe3c 7b25 873e
00000220: 7c8c a7bd d385 23bc 720a 993d 781d d7bd
00000230: 62c9 833b 4455 89bd df17 0dbd 420a 0b3e
00000240: c293 053e b65a 6ebd 3182 e0bc 7eb6 a8bd
00000250: 6d29 a23d d99f 033d 19ac d03c 6c1e 823d
00000260: 3c6b 40bd 7edd 513d 7d2e 643e 44eb d33d
00000270: 1d69 353e cd3b a93d 7302 303d 9066 d13b
00000280: 65e7 22bd ca63 d1bc ae72 d53d c878 4b3e
00000290: 8dea 13bd 85c9 1e3c 775c b4bd db5c a13b
000002a0: 4b48 fabd fc33 533e d90e 71bd b57b 103d
000002b0: 0f5a dfbd 05bf 38bd 66fb 08be 1d20 fc3d
000002c0: 8a07 3ebc 8a77 dc3b a3a9 0fbc ff44 e33d
000002d0: 48da a3bc 5db1 5d3c fc28 5f3e f109 22bd
000002e0: 8d68 1abd e5fc 703e df4b 61bb 5bea 4a3d
000002f0: b2b9 c5bd 27db 673e 6e5d 96bb e90a 853d
00000300: dc1c 0bbd 8511 a4bd edc3 27bd 3478 d63d
00000310: 8a91 0cbe 2b97 59bd b808 99bc 2861 813d
00000320: 94b5 fdbb db89 9f3d 91af 013f 27e7 a2bc
00000330: f277 673e 2c8e aa3e d0c9 b93d c7d2 73bd
00000340: d143 703d 0bea bd3c ee45 9f3d 128e 9ebd
00000350: 9446 d53d 2adf d7bc d989 91bd 9ba3 18be
00000360: c814 fe3c ac04 913d fbaa 373d 34af 5abd
00000370: 0117 593d fc1c 3f3e ba68 cf3d 8a3c 2abd
00000380: f8d7 03be cd64 babc ac4d 863c a7b9 8dbd
00000390: b6ce 81bd 61ed 683e d33a 6a3d be70 fb3d
000003a0: 8aa0 883d 72ad 0f3d f4b3 77bd 9286 6a3d
000003b0: 32c5 663e d562 0f3d ded7 ea3e 83b1 88bb
000003c0: 38f2 8abe 83a4 0b3d 1e54 72be 6751 2ebe
000003d0: 12ec 3ebe 3d3a cabe 6a91 41be bf80 ed3d
000003e0: 6e7e 5dbe 62c1 e03e 6b1c cabe 7ecc c0bd
000003f0: 7ed1 cf3d 592f 423e 2d8b 3b3d 201b 15bd

net.2.bias f4 [128]
-0.12005037 0.07065186 -0.022724656 -0.07150402 -0.07513526 -0.0941949 0.017594315 -0.01437517
0.028102677 -0.059113894 -0.049252953 0.106757104 0.020026179 -0.070736945 -0.07277386 -0.10308828
-0.0048646694 -0.09779948 -0.05924294 0.121422604 0.14285964 0.020745104 0.0065259016 0.12604035
0.0369542 0.029760584 -0.03303421 -0.03869587 -0.03253124 0.012563202 -0.10025782 -0.03256394
-0.04603856 0.09641551 0.016436908 0.049025126 -0.033240408 -0.08269271 0.0033905942 0.04687872
0.10229802 0.022281762 0.10778257 0.21942087 -0.06486135 0.031751562 0.09764848 0.025169767
-0.014003917 0.018993368 0.09713322 -0.08270238 0.07048361 -0.03121199 0.025125504 0.0002770099
-0.0061225235 -0.044723853 0.042821612 0.13574043 0.051819254 -0.032999698 0.02349668 -0.0046715173
0.12844382 0.16806406 0.025139375 0.18425497 -0.03019003 -0.006297126 0.041157894 0.11575107
-0.012743378 0.0066907476 0.105705604 0.1416408 0.020946877 -0.039354667 -0.004605155 0.0049224677
-0.10043907 -0.06776161 -0.03987925 -0.07805325 0.013963713 -0.077914074 -0.031536862 -0.086968824
-0.03706512 -0.10849852 -0.06532996 0.06406995 -0.10001006 0.03929884 -0.07044124 -0.06374021
0.023769658 -0.014016168 0.010413155 0.027866572 -0.089993395 0.023148736 0.12943818 -0.019964047
0.04931108 0.17787391 0.073644094 0.00993262 0.10829332 -0.055716693 0.066574946 0.027249549
-0.11651687 0.08108815 -0.032991376 -0.018381195 -0.041918132 0.0039798426 0.021038396 0.0011204103
0.13506857 -0.00711687 0.015246518 -0.09803005 0.078680076 -0.010152248 0.078911446 0.09374466
00000000: f8dc f5bd ecb1 903d 0f29 babc b370 92bd
00000010: 84e0 99bd 41e9 c0bd f421 903c d585 6bbc
00000020: 9637 e63c 6921 72bd 77bd 49bd 78a3 da3d
00000030: f10d a43c 88de 90bd 760a 95bd f31f d3bd
00000040: ce67 9fbb 184b c8bd baa8 72bd 6aac f83d
00000050: cc49 123e a3f1 a93c 3bd7 d53b b910 013e
00000060: 4a5d 173d 78cc f33c e14e 07bd 907f 1ebd
00000070: 7a3f 05bd e3d5 4d3c f953 cdbd c461 05bd
00000080: ee92 3cbd 7f75 c53d b2a6 863c 92ce 483d
00000090: 1827 08bd cc5a a9bd bb34 5e3b e703 403d
000000a0: a081 d13d 3e88 b63c 1cbd dc3d ddaf 603e
000000b0: 07d6 84bd ed0d 023d edfb c73d d430 ce3c
000000c0: af70 65bc fb97 9b3c c8ed c63d de5f a9bd
000000d0: b659 903d 4ab0 ffbc 00d4 cd3c a43b 9139
000000e0: 739f c8bb 5c30 37bd b765 2f3d 8aff 0a3e
000000f0: 6d40 543d b12a 07bd 1c7c c03c 8713 99bb
00000100: c786 033e fc18 2c3e 17f1 cd3c 56ad 3c3e
00000110: 1551 f7bc 1f58 cebb 2e95 283d e60e ed3d
00000120: 9ac9 50bc 0f3e db3b 2e7c d83d 490a 113e
00000130: c998 ab3c 5c32 21bd d7e6 96bb a74c a13b
00000140: 00b3 cdbd 99c6 8abd 6d58 23bd 62da 9fbd
00000150: 0fc8 643c 6a91 9fbd cc2c 01bd b61c b2bd
00000160: 98d1 17bd 7934 debd b7cb 85bd 1b37 833d
00000170: 13d2 ccbd d2f7 203d 7f43 90bd 3a8a 82bd
00000180: 96b8 c23c 12a4 65bc f09b 2a3c 7048 e43c
00000190: 754e b8bd 6ba2 bd3c 718b 043e a48b a3bc
000001a0: 6afa 493d 9424 363e b7d2 963d 6ebc 223c
000001b0: e3c8 dd3d 3037 64bd 7258 883d 723a df3c
000001c0: 66a0 eebd 8b11 a63d f721 07bd 2994 96bc
000001d0: 59b2 2bbd 5769 823b b758 ac3c bbda 923a
000001e0: 6a4f 0a3e a234 e9bb 88cc 793c fbc3 c8bd
000001f0: 0523 a13d 9d55 26bc 539c a13d 33fd bf3d

net.4.weight f4 [6, 128]
-0.07421467 -0.01788747 0.12813772 0.19469023 0.05011945 -0.061428357 -0.10193751 0.1364362
0.05850887 -0.08534092 -0.018454967 0.3609678 -0.013705971 -0.018744959 -0.06725873 0.0062650237
0.07841573 0.079354435 0.00076572393 0.252292 0.39416242 -0.021030476 -0.20483027 -0.040976368
0.22994614 0.039757498 0.24793647 -0.19733517 0.008277325 0.014821888 -0.00998207 -0.06537855
-0.49095666 0.10965131 -0.046549316 0.12725785 0.04204932 -0.053230163 0.16844475 0.1444512
0.21545547 -0.056439053 0.11543748 -0.15661135 0.023548776 -0.14081 0.14508794 -0.06732563
-0.081470385 0.22680719 0.0960916 0.07250891 -0.33801335 -0.07299679 -0.05958227 0.4110337
-0.24557318 -0.050259665 0.044798933 0.1434477 -0.43681386 -0.022124304 -0.036145195 0.31716245
0.07089428 0.080578044 0.44746146 0.1206502 0.07808185 0.1979643 0.20897867 0.15475327
0.2587557 0.20927188 0.19103414 0.27507094 0.40090075 0.14124557 0.15929589 -0.11461978
0.00044952988 0.0031037 -0.34392154 -0.029325197 -0.032305487 -0.2646698 -0.079045594 -0.094492465
0.0016541374 -0.034910835 0.08497411 0.11944776 -0.08038344 0.12654808 0.0049377033 -0.022984352
-0.24170679 -0.010815762 -0.070741475 0.037201095 0.16574863 -0.0045860736 0.095391 0.4007191
0.06287876 0.49030313 0.23590583 -0.011594967 0.33616164 0.05367301 0.18863605 0.06488615
-0.052264377 0.26081973 -0.010768404 0.26868063 0.036206324 -0.25638726 -0.30269605 0.21688186
0.034579754 0.40659165 0.19241706 0.038132433 0.24705274 -0.0653631 0.16548923 0.011134512
-0.057832006 0.08343028 0.15258111 -0.11693813 0.21746528 -0.004244535 -0.105675906 -0.29260042
-0.51926136 0.027110018 -0.04845114 0.20893756 0.014623639 -0.06141727 -0.015710069 0.022427054
0.0811319 -0.0766933 0.01862427 0.2629483 0.21760072 -0.07353963 0.29253167 0.4900086
-0.49755156 0.0096386 -0.03538624 0.3288174 -0.009355333 -0.08558649 0.022077577 -0.08596895
-0.26496023 0.2751954 -0.014390734 0.062417496 -0.0012830774 0.03103531 0.40520775 0.032208715
0.21533233 0.058321513 0.11654709 0.32360548 -0.106600985 -0.26545507 -0.13039222 0.27837348
-0.038558196 0.3503478 0.2026313 -0.39342624 0.28308424 0.31131148 0.32753178 0.28301448
0.20906045 0.010026783 0.3143223 -0.09947181 0.22554359 0.5006052 0.043767527 0.595374
0.2695536 0.21889876 -0.020233516 0.15675515 -0.14303508 0.2205888 -0.011153214 0.31544262
-0.0530696 0.3847774 0.22620416 0.222944 0.5408898 0.15459841 -0.21389098 -0.54069406
-0.06707545 -0.027338563 0.33221832 0.037118487 -0.020124499 0.0027335985 -0.027044293 0.3216839
-0.030539364 0.002533114 -0.1797494 -0.05086628 0.07945694 0.23658279 -0.035700392 -0.041990083
-0.5029785 -0.14963621 0.026168184 0.010058077 -0.23708837 0.22240318 0.14574558 0.35432258
-0.20893502 0.13830975 0.15825857 0.0028533936 0.24229892 0.03727127 -0.22097118 0.07601068
0.07176891 0.2522815 0.0014818305 -0.005940271 -0.04573444 0.17811792 -0.3377406 -0.08629739
0.28858265 0.4668658 0.32133377 -0.010924378 0.40131265 -0.17039569 0.008297054 0.22736633
00000000: dcfd 97bd be88 92bc 8936 033e e05c 473e
00000010: 0d4a 4d3d 4d9c 7bbd 9dc4 d0bd eeb5 0b3e
00000020: ffa6 6f3d 38c7 aebd df2e 97bc c5d0 b83e
00000030: 028f 60bc 078f 99bc f2be 89bd d44a cd3b
00000040: 6d98 a03d 9484 a23d ddba 483a 6b2c 813e
00000050: a8cf c93e 1b48 acbc 07bf 51be d6d6 27bd
00000060: 0077 6b3e c2d8 223d 0fe3 7d3e 3b12 4abe
00000070: 9e9d 073c 81d7 723c d68b 23bc 30e5 85bd
00000080: ac5e fbbe de90 e03d 7faa 3ebd e24f 023e
00000090: e83b 2c3d df07 5abd c87c 2c3e 04eb 133e
000000a0: 5ca0 5c3e a32c 67bd 7c6a ec3d ba5e 20be
000000b0: 5de9 c03c 7f30 10be ef91 143e 05e2 89bd
000000c0: f2d9 a6bd 2540 683e accb c43d 8d7f 943d
000000d0: 1610 adbe 577f 95bd 8a0c 74bd 0273 d23e
000000e0: 8977 7bbe 14dd 4dbd 167f 373d f4e3 123e
000000f0: 11a6 dfbe 073e b5bc fc0c 14bd 1e63 a23e
00000100: 0531 913d 1a06 a53d ab19 e53e 7417 f73d
00000110: 61e9 9f3d 27b7 4a3e 81fe 553e a477 1e3e
00000120: a17b 843e 5e4b 563e 749e 433e 19d6 8c3e
00000130: dd42 cd3e aea2 103e 761e 233e c6bd eabd
00000140: e1ae eb39 7267 4b3b 7c16 b0be 653b f0bc
00000150: c252 04bd cd82 87be a8e2 a1bd 4485 c1bd
00000160: a4cf d83a aafe 0ebd e806 ae3d 07a1 f43d
00000170: 13a0 a4bd d295 013e 75cc a13b ae49 bcbc
00000180: fc81 77be 9834 31bc e8e0 90bd 2d60 183d
00000190: 02ba 293e c646 96bb 5b5c c33d 0e2b cd3e
000001a0: 94c6 803d 0309 fb3e 4c91 713e d1f8 3dbc
000001b0: 611d ac3e 3bd8 5b3d cf29 413e 08e3 843d
000001c0: 2c13 56bd 2a8a 853e f66d 30bc 8290 893e
000001d0: 154d 143d 3145 83be fafa 9abe 4716 5e3e
000001e0: 80a3 0d3d c82c d03e fa08 453e c130 1c3d
000001f0: 65fb 7c3e 17dd 85bd 0276 293e 876d 363c
00000200: 41e1 6cbd 7fdd aa3d 393e 1c3e 427d efbd
00000210: 38af 5e3e be15 8bbb 9c6c d8bd b9cf 95be
00000220: 50ee 04bf d415 de3c b474 46bd baf3 553e
00000230: fd97 6f3c ad90 7bbd 67b2 80bc f1b8 b73c
00000240: 7b28 a63d 6011 9dbd ed91 983c 29a1 863e
00000250: b9d2 5e3e f29b 96bd b6c6 953e 68e2 fa3e
00000260: 14bf febe 38eb 1d3c 29f1 10bd c15a a83e
00000270: 1c47 19bc f847 afbd 09dc b43c 7d10 b0bd
00000280: dea8 87be 69e6 8c3e 1dc7 6bbc 7da9 7f3d
00000290: ef2c a8ba c33d fe3c 6477 cf3e 49ed 033d
000002a0: 1480 5c3e 8ae2 6e3d 3eb0 ee3d 9eaf a53e
000002b0: 9e51 dabd bae9 87be 8a85 05be f886 8e3e
000002c0: 33ef 1dbd c960 b33e 947e 4f3e 2a6f c9be
000002d0: 6bf0 903e 3864 9f3e 3fb2 a73e 46e7 903e
000002e0: f113 563e 6047 243c daee a03e e0b7 cbbd
000002f0: e6f4 663e aa27 003f 9445 333d 6e6a 183f
00000300: ee02 8a3e ff26 603e c2c0 a5bc 6c84 203e
00000310: ca77 12be 08e2 613e f8bb 36bc b281 a13e
00000320: 825f 59bd 8b01 c53e 10a2 673e 6f4b 643e
00000330: c177 0a3f 0c4f 1e3e 3d06 5bbe ed6a 0abf
00000340: db5e 89bd 1ff5 dfbc 8518 aa3e 8e09 183d
00000350: 22dc a4bc 2c26 333b fe8b ddbc c1b3 a43e
00000360: b02d fabc 9a02 263b 3a10 38be 2959 50bd
00000370: 52ba a23d c242 723e 933a 12bd cbfd 2bbd
00000380: 33c3 00bf 3c3a 19be a95e d63c a2ca 243c
00000390: 4bc7 72be a9bd 633e 543e 153e c569 b53e
000003a0: 10f3 55be 12a1 0d3e 890e 223e 0000 3b3b
000003b0: 351d 783e c2a9 183d 4546 62be 7dab 9b3d
000003c0: 94fb 923d 0a2b 813e fb39 c23a 9ba6 c2bb
000003d0: 0954 3bbd 8b64 363e 56ec acbe b0bc b0bd
000003e0: 1bc1 933e 0909 ef3e dc85 a43e 2afc 32bc
000003f0: da78 cd3e 357c 2ebe 5ef0 073c b8d2 683e

net.4.bias f4 [6]
0.1463456 0.09211797 0.07202367 0.09463851 0.056008305 0.10831254
00000000: 9fdb 153e 59a8 bc3d 2581 933d d6d1 c13d
00000010: f768 653d f7d2 dd3d
