rl/models/best_model_run7.pth (torch, 79477 bytes, 6 tensors)

net.0.weight f4 [128, 13]
-0.40033302 -0.46611497 0.07325819 -0.09284422 0.021202933 0.09905553 0.32623878 0.58215314
0.44267508 -0.4930619 0.22135298 0.33191463 -0.19069809 -0.2616556 0.31472063 3.2483592
0.067187294 0.29228038 0.085298985 -0.1353533 0.39451426 0.05095841 -0.311686 -0.2182179
0.51252466 -0.108578384 -0.16835938 0.05338055 -0.1130604 0.12186266 0.2524237 -0.04845233
0.020518214 0.22526358 -0.05545053 -0.19542147 -0.18071163 -0.06878893 0.036817204 0.054081194
0.27879933 -0.54895854 -1.1516258 -0.23802897 -0.43600252 0.17210771 0.39441732 -0.2926331
-0.6926248 -0.55159354 0.23206392 0.7711739 -0.21280232 -0.07237488 -1.3134451 0.4389085
0.27820006 -0.3689221 -0.042390034 -0.17782778 0.9840033 0.19661453 -0.36933684 0.027347706
0.28908113 -0.16625641 0.24964231 -1.1322436 0.4503054 -0.04670267 -0.28824118 -0.24543926
0.6551199 -0.76228696 0.410681 -0.21039982 -0.2005782 0.4748535 0.11395487 0.027675904
-2.875161 0.81126666 -0.60884076 -0.41495743 0.24085791 -0.3833925 -0.24829906 0.5248513
-0.34359553 0.40816766 0.64854676 0.18587196 -0.44531667 2.9866028 0.6411895 0.7145999
-0.30879858 -0.00051857816 -0.049090993 0.46723416 -0.58238435 0.379651 -0.21362418 0.10117616
-0.07814812 -0.092623405 -0.21215312 -0.038587 -0.25984117 -0.15650065 -0.099878326 -0.22016846
0.039523657 -0.23440158 0.11506102 0.1688804 0.06372271 -0.4280448 -0.41334412 -2.0191677
-1.0729489 -0.42689815 -0.07903 0.59131145 0.4768235 0.35736686 0.2748505 0.07581816
-0.32895583 -0.26038152 -0.12579724 0.15523194 0.13704108 2.1782687 0.31867212 0.08702083
0.33025846 0.22414313 -0.26679835 -0.21240354 -0.18960784 -0.2732476 0.27278 -0.11174256
0.17239088 0.25654325 -0.052385777 0.1971478 -0.25975403 -0.13033356 -0.21220575 -0.08478211
0.020770224 0.014332122 -0.1408971 -0.05164924 0.22937948 0.17078088 0.7664035 -0.9653098
-0.08174033 -0.6053208 0.5955536 0.3061328 -0.03436364 0.26218668 -0.11235339 -0.296839
-0.85985994 0.040846862 0.35011786 -1.2626672 1.0629413 0.61445 0.12365256 0.04842784
-1.1045088 0.2920078 -0.29861474 -0.2908145 0.33415797 -0.097117506 0.38630024 -0.57546115
-1.0420418 -2.1956394 0.39654598 -0.028537776 -0.68991053 0.1926678 -0.34279412 -0.5264114
0.49095723 0.2165541 -0.29571125 -0.18424287 -0.17780751 -0.77507293 -0.078984395 -0.33279085
-0.22660111 -0.20621936 0.4232679 0.27078924 0.104265384 0.16182898 0.06833552 -0.23731278
-0.2668685 -0.14210513 -0.36730245 -0.4115332 0.17944066 0.028097458 0.113236696 0.4350641
0.5054595 -0.5999559 0.13000558 0.7674864 -0.5063506 0.0059173587 -0.19377004 0.270478
-0.582761 0.4030629 -0.12576252 -0.8135814 0.588911 0.31062508 0.024615642 0.31898528
-0.6510711 0.71898246 0.18480682 -0.18973461 0.5350203 1.7988333 -0.1251712 0.112908386
0.26338708 -0.5095407 -0.6162524 0.18565203 -0.59497505 0.8625078 -0.3762225 0.17365603
-0.2591607 -0.043179713 2.284932 -0.39520645 0.30060732 0.85504824 -0.3624137 -1.2032396
00000000: 73f8 ccbe 9fa6 eebe 6408 963d 1c25 bebd
00000010: c6b1 ad3c a0dd ca3d c508 a73e fd07 153f
00000020: 4fa6 e23e 9c72 fcbe 5baa 623e b7f0 a93e
00000030: 5c46 43be b9f7 85be 1023 a13e 1ee5 4f40
00000040: 7e99 893d c6a5 953e 3cb1 ae3d 0e9a 0abe
00000050: c6fd c93e c4b9 503d 4f95 9fbe 8374 5fbe
00000060: d134 033f 585e debd 6766 2cbe 90a5 5a3d
00000070: 368c e7bd 2193 f93d ae3d 813e f375 46bd
00000080: d015 a83c 7fab 663e 1820 63bd 911c 48be
00000090: 780c 39be 36e1 8cbd a3cd 163d 3e84 5d3d
000000a0: c9be 8e3e 8c88 0cbf 7968 93bf debd 73be
000000b0: b93b dfbe 013d 303e 11f1 c93e 01d4 95be
000000c0: dc4f 31bf 3c35 0dbf 2aa2 6d3e a76b 453f
000000d0: dae8 59be 4839 94bd f81e a8bf 9db8 e03e
000000e0: 3d70 8e3e 5ce3 bcbe 2ca1 2dbd 7c18 36be
000000f0: a4e7 7b3f 5255 493e b819 bdbe 4c08 e03c
00000100: 7102 943e 1f3f 2abe 3ca2 7f3e 5ced 90bf
00000110: 6e8e e63e 4d4b 3fbd 5994 93be 6e54 7bbe
00000120: f0b5 273f 3d25 43bf c844 d23e 0d73 57be
00000130: 5f64 4dbe ff1f f33e 2c61 e93d 94b8 e23c
00000140: a302 38c0 2caf 4f3f fddc 1bbf 4d75 d4be
00000150: 75a3 763e 064c c4be 1c42 7ebe a85c 063f
00000160: c1eb afbe 5afb d03e 2907 263f 3855 3e3e
00000170: 8c00 e4be 8024 3f40 ff24 243f 05f0 363f
00000180: d91a 9ebe 31f1 07ba a313 49bd 5139 ef3e
00000190: 2417 15bf 9e61 c23e 4cc0 5abe 7235 cf3d
000001a0: 1f0c a0bd 57b1 bdbd ab3e 59be 670d 1ebd
000001b0: e709 85be b541 20be 028d ccbd d773 61be
000001c0: 8fe3 213d f806 70be 1da5 eb3d fcee 2c3e
000001d0: 0d81 823d b028 dbbe d7a1 d3be 0b3a 01c0
000001e0: 6456 89bf 6592 dabe 7bda a1bd 3060 173f
000001f0: 3622 f43e caf8 b63e 34b9 8c3e 8d46 9b3d
00000200: e66c a8be ba50 85be fed0 00be 1ff5 1e3e
00000210: 7f54 0c3e c168 0b40 fe28 a33e fa37 b23d
00000220: a317 a93e c785 653e cb99 88be 5080 59be
00000230: 8f28 42be 1ce7 8bbe d2a9 8b3e 49d9 e4bd
00000240: 3c87 303e a359 833e 7892 56bd 1de1 493e
00000250: 7bfe 84be 2976 05be 774c 59be 3ea2 adbd
00000260: 5126 aa3c 47d1 6a3c 5447 10be 278e 53bd
00000270: 74e2 6a3e 2fe1 2e3e 0533 443f 8b1e 77bf
00000280: 7967 a7bd 4ef6 1abf 3376 183f 70bd 9c3e
00000290: e3c0 0cbd 553d 863e 8919 e6bd 48fb 97be
000002a0: c81f 5cbf 0a4f 273d a642 b33e 149f a1bf
000002b0: 760e 883f 984c 1d3f 8e3d fd3d 455c 463d
000002c0: 8b60 8dbf 0c82 953e 08e4 98be a3e5 94be
000002d0: c116 ab3e 8be5 c6bd 25c9 c53e 6c51 13bf
000002e0: a061 85bf 5b85 0cc0 1308 cb3e 0ec8 e9bc
000002f0: fa9d 30bf b54a 453e b682 afbe e6c2 06bf
00000300: bf5e fb3e 5cc0 5d3e 7767 97be 2aaa 3cbe
00000310: 2c13 36be 2e6b 46bf 92c2 a1bd 9063 aabe
00000320: 1f0a 68be 2b2b 53be 92b6 d83e e3a4 8a3e
00000330: 1789 d53d 7fb6 253e 7ef3 8b3d 1f02 73be
00000340: fda2 88be 0284 11be 110f bcbe 7bb4 d2be
00000350: 4bbf 373e a42c e63c a4e8 e73d b9c0 de3e
00000360: cb65 013f b696 19bf 2f20 053e fd79 443f
00000370: 31a0 01bf 67e6 c13b a76b 46be 187c 8a3e
00000380: d32f 15bf 435e ce3e e4c7 00be df46 50bf
00000390: dfc2 163f 400a 9f3e bea6 c93c 0a52 a33e
000003a0: 98ac 26bf 3c0f 383f 003e 3d3e ca49 42be
000003b0: 17f7 083f 2b40 e63f e12c 00be 833c e73d
000003c0: acda 863e 4271 02bf b8c2 1dbf 911b 3e3e
000003d0: 4950 18bf 50cd 5c3f 3ca0 c0be e3d2 313e
000003e0: b6b0 84be 36dd 30bd 533c 1240 8058 cabe
000003f0: 34e9 993e 71e4 5a3f 4a8e b9be c103 9abf

net.0.bias f4 [128]
-0.22299589 -0.14936072 -0.25727832 0.024485447 -0.37256113 -0.096841276 -0.33900607 -0.019227298
-0.025773838 -0.14534205 -0.11190096 -0.10552406 0.14458103 -0.031159611 0.19280861 0.36495027
-0.23436353 -0.37014002 0.093653254 -0.14621066 -0.2389836 -0.28995696 -0.08288844 -0.2764476
-0.21762995 -0.25065213 -0.27118218 -0.2954577 -0.12745811 -0.075915 -0.17290527 0.013097049
-0.1938281 -0.03416308 0.0016179456 0.020109072 -0.19074926 -0.08290718 -0.21509974 0.03547268
-0.2549502 -0.031496823 0.3778807 0.0049152845 -0.114909954 -0.4005354 -0.049300566 0.21881014
-0.42465347 0.09733711 0.030524986 -0.30853423 -0.14938039 -0.10377193 0.31201023 0.42816383
-0.2608484 0.2548595 0.33869392 0.098023854 -0.1212421 0.06650573 0.13224605 -0.20777562
0.0035825516 0.18888916 0.07973218 0.04742262 0.10661139 0.048667353 -0.06147411 0.23473866
-0.15122628 -0.22087237 0.104746684 0.36187756 -0.2348433 0.33248073 0.37314507 -0.48972
0.28442612 -0.27432594 -0.44609928 -0.14545314 0.40757012 -0.25186086 0.39513585 0.16723545
-0.12771195 0.05299826 0.18388125 -0.20941812 -0.013584891 0.27491537 -0.1845282 0.014367838
-0.040015694 -0.039324727 0.033676445 0.01118573 0.08035738 0.28877705 -0.035738997 -0.10471889
-0.09061624 0.19678275 -0.17620665 -0.3650572 0.16633627 0.21442966 0.39493608 0.31887677
-0.2169045 -0.013287143 -0.15909283 0.23310737 0.30028751 -0.07347883 -0.22033627 -0.2161615
-0.07538157 0.28819966 0.18113665 -0.20893282 0.06506868 -0.30489182 0.21834558 0.022643145
00000000: 0959 64be 04f2 18be fcb9 83be b495 c83c
00000010: 55c0 bebe b854 c6bd 3492 adbe 9182 9dbc
00000020: a823 d3bc 8cd4 14be 552c e5bd 001d d8bd
00000030: 0d0d 143e 7142 ffbc 9f6f 453e c3da ba3e
00000040: fefc 6fbe fe82 bdbe 47cd bf3d 3fb8 15be
00000050: 1eb8 74be 3d75 94be 6ac1 a9bd 8a8a 8dbe
00000060: 63da 5ebe 7a55 80be 64d8 8abe 3b46 97be
00000070: 6184 02be 5379 9bbd 140e 31be 0195 563c
00000080: e07a 46be 96ee 0bbd 3f11 d43a c8bb a43c
00000090: c653 43be 3dcb a9bd 1b43 5cbe cd4b 113d
000000a0: d588 82be d002 01bd 9479 c13e 6510 a13b
000000b0: e955 ebbd fa12 cdbe 64ef 49bd c40f 603e
000000c0: 2e6c d9be ae58 c73d 890f fa3c 33f8 9dbe
000000d0: 2cf7 18be 6186 d4bd cebf 9f3e 4a38 db3e
000000e0: ec8d 85be f27c 823e 4a69 ad3e bbc0 c83d
000000f0: c74d f8bd 2834 883d 826b 073e 22c3 54be
00000100: 3ec9 6a3b 296c 413e a04a a33d 393e 423d
00000110: 1357 da3d 6b57 473d 47cc 7bbd 555f 703e
00000120: 10db 1abe 5e2c 62be 6e85 d63d 0448 b93e
00000130: c37a 70be ea3a aa3e df0c bf3e 94bc fabe
00000140: 4da0 913e 7374 8cbe 2067 e4be abf1 14be
00000150: 08ad d03e e8f3 80be 3f4f ca3e c53f 2b3e
00000160: ecc6 02be b414 593d 5e4b 3c3e b471 56be
00000170: 2a93 5ebc b5c1 8c3e f6f4 3cbe 1567 6b3c
00000180: 7fe7 23bd f712 21bd 50f0 093d 5a44 373c
00000190: 6992 a43d 96da 933e 0e63 12bd db76 d6bd
000001a0: 0295 b9bd 6b81 493e 846f 34be c7e8 babe
000001b0: 0e54 2a3e 7393 5b3e 1035 ca3e d143 a33e
000001c0: 371c 5ebe 51b2 59bc 3be9 22be b3b3 6e3e
000001d0: 49bf 993e 127c 96bd d59f 61be 7159 5dbe
000001e0: a761 9abd e88e 933e e37b 393e 7cf2 55be
000001f0: ba42 853d c81a 9cbe fc95 5f3e 1e7e b93c

net.2.weight f4 [128, 128]
0.015415563 -0.09592618 -0.07474378 0.102103256 0.028968241 0.060661383 -0.00067602703 -0.08653714
0.047251526 -0.08176426 0.06388899 0.067855984 -0.11388178 -0.049762048 0.028117757 -0.10998143
-0.14030203 -0.055060443 0.080490746 -0.002100579 -0.086621664 -0.0575527 -0.04810774 -0.09684043
-0.06820479 -0.019987943 -0.039535936 0.072288506 0.08434859 -0.022277968 -0.053928714 0.049740035
-0.06517359 -0.052564673 -0.044016372 0.06372371 0.032149024 -0.09047987 0.053427596 0.025468478
-0.04824973 -0.06897885 -0.0013991098 -0.01534868 -0.0823105 -0.08059022 -0.012367708 -0.035141177
0.019589959 0.07673009 -0.022435013 -0.024358645 -0.009806237 0.018682567 -0.050145432 -0.03557971
-0.08464765 -0.040500227 -0.035099357 -0.059136607 -0.12627235 0.03544288 -0.05405356 -0.03468929
-0.047175124 0.009687597 0.0009245988 -0.13251092 -0.0738985 -0.00089619146 -0.046539374 -0.092020385
0.020242479 -0.015369806 0.06960344 -0.017263988 0.044130404 -0.018212661 -0.07252144 0.036304783
-0.013638576 0.041477546 0.06514032 -0.079004526 0.03455805 -0.1380994 -0.0148625765 0.08224216
-0.007186679 -0.082743675 0.0153711755 -0.03942252 0.097521685 -0.071900815 0.02473827 -0.0062816716
-0.0227032 0.034261223 -0.014482829 -0.0025733935 -0.08835278 -0.13408487 0.05498684 -0.04559302
0.02008011 0.042492587 0.05957672 0.07275696 -0.0018065376 -0.017593248 -0.049300086 -0.050093573
0.05406742 0.08735538 0.03806807 0.014601043 0.025654044 -0.046276566 -0.11051619 0.06588645
-0.08618761 0.10127906 -0.101373486 -0.13981907 -0.14430179 0.08519056 0.038531926 0.019900853
-0.11696489 -0.07513161 0.0733206 -0.11122149 -0.04010773 -0.118507795 0.049576744 0.051876962
-0.042728264 0.033404812 -0.03378338 0.013517337 -0.023558246 -0.024330912 -0.026764955 -0.06614371
-0.03287961 0.03999203 -0.062876225 0.01845383 0.042175762 -0.055523552 -0.034211334 -0.018440759
-0.059422694 0.02987791 -0.06458717 -0.029513879 0.052383125 -0.062124785 -0.07050155 -0.07101921
-0.0707169 -0.040278606 -0.096888304 -0.062655345 -0.039331682 -0.10641219 -0.081880674 -0.03344408
0.0014701558 -0.07320145 -0.09185344 0.020323744 -0.03367746 -0.012746892 -0.0394424 -0.068591036
-0.102291025 -0.06872828 0.07832813 -0.041428864 0.0060575134 0.002896363 -0.023398476 0.019237395
0.084502175 -0.10905037 -0.096447095 0.039465252 -0.024184074 0.03450453 -0.031383593 -0.029089367
0.045835692 0.012727338 -0.06974155 -0.040085435 -0.08199464 -0.024510732 0.018611016 0.05263994
-0.07222224 0.024738356 0.015262897 0.020861663 0.043198295 -0.015092997 -0.100421615 0.0055516255
-0.048257172 0.07587779 -0.08610016 -0.025803227 -0.048149306 -0.073383406 -0.05053481 -0.075651966
-0.038359284 -0.04408112 -0.08203084 -0.10188813 -0.018675385 -0.109681815 -0.028482387 -0.056650918
0.053817637 -0.035213713 -0.08715026 -0.076456144 -0.04397954 -0.05312879 -0.07795215 0.07250655
-0.09117473 -0.07227833 0.026903776 0.018762477 0.046272855 0.07571129 -0.001316805 0.05526862
-0.07402885 0.013058558 0.04199559 -0.006766925 -0.05990585 0.057010967 -0.044557527 -0.074467294
0.06345012 0.0043921336 -0.052754544 -0.0019980299 -0.009909688 -0.08776298 0.039690375 -0.014058123
00000000: 8f91 7c3c f274 c4bd 4413 99bd 831b d13d
00000010: ce4e ed3c 1278 783d 6837 31ba 623a b1bd
00000020: d18a 413d 0574 a7bd 3bd8 823d 14f8 8a3d
00000030: da3a e9bd 4ad3 4bbd 3657 e63c f23d e1bd
00000040: 56ab 0fbe 0f87 61bd 55d8 a43d dea9 09bb
00000050: b366 b1bd 61bc 6bbd 9f0c 45bd 4654 c6bd
00000060: f4ae 8bbd c1bd a3bc 6ff0 21bd ff0b 943d
00000070: f4be ac3d 4980 b6bc 5be4 5cbd 35bc 4b3d
00000080: bb79 85bd 0e4e 57bd 834a 34bd 9481 823d
00000090: b2ae 033d 834d b9bd e5d6 5a3d 45a3 d03c
000000a0: 82a1 45bd c944 8dbd 5662 b7ba 0879 7bbc
000000b0: 6892 a8bd 7c0c a5bd eda1 4abc 32f0 0fbd
000000c0: 1f7b a03c aa24 9d3d a2c9 b7bc c88b c7bc
000000d0: 57aa 20bc 2f0c 993c 4c65 4dbd 08bc 11bd
000000e0: bf5b adbd 91e3 25bd 58c4 0fbd 3a39 72bd
000000f0: 8a4d 01be 8e2c 113d 4467 5dbd 5b16 0ebd
00000100: b43a 41bd bab8 1e3c c660 723a f1b0 07be
00000110: 1958 97bd 64ee 6aba 12a0 3ebd 2f75 bcbd
00000120: 8ed3 a53c a4d1 7bbc 408c 8e3d 356d 8dbc
00000130: 15c2 343d b832 95bc 1f86 94bd 53b4 143d
00000140: 5574 5fbc 5ce4 293d 4a68 853d 20cd a1bd
00000150: be8c 0d3d ee69 0dbe 2a82 73bc 946e a83d
00000160: 3c7e ebbb 8475 a9bd 62d7 7b3c 8279 21bd
00000170: 73b9 c73d bc40 93bd eaa7 ca3c 7bd6 cdbb
00000180: 10fc b9bc 7f55 0c3d 6349 6dbc 61a6 28bb
00000190: 4df2 b4bd 8b4d 09be e139 613d bfbf 3abd
000001a0: 0b7f a43c b50c 2e3d b806 743d 9a01 953d
000001b0: 58c9 ecba b71f 90bc e3ee 49bd eb2e 4dbd
000001c0: cd75 5d3d 61e7 b23d 44ed 1b3d 3739 6f3c
000001d0: 6e28 d23c 7f8c 3dbd 5056 e2bd 7aef 863d
000001e0: 2183 b0bd 656b cf3d e79c cfbd bb2c 0fbe
000001f0: d9c3 13be 6378 ae3d a7d3 1d3d 1d07 a33c
00000200: 4a8b efbd 9ade 99bd 1c29 963d 18c8 e3bd
00000210: 0148 24bd 37b4 f2bd fc10 4b3d f07c 543d
00000220: d503 2fbd 7cd3 083d 7160 0abd d277 5d3c
00000230: 39fd c0bc 9f51 c7bc 2e42 dbbc 5a76 87bd
00000240: c5ac 06bd afce 233d 40c5 80bd 7d2c 973c
00000250: 7ec0 2c3d aa6c 63bd 2f21 0cbd 1311 97bc
00000260: 3665 73bd 85c2 f43c 4746 84bd 17c7 f1bc
00000270: b08f 563d 8f76 7ebd 1e63 90bd 8572 91bd
00000280: 06d4 90bd 2efb 24bd 606d c6bd 7251 80bd
00000290: 421a 21bd a2ee d9bd 0eb1 a7bd a9fc 08bd
000002a0: 3eb2 c03a a4ea 95bd a81d bcbd fb7d a63c
000002b0: 60f1 09bd 57d8 50bc 5b8e 21bd 7579 8cbd
000002c0: f57d d1bd 6ac1 8cbd 806a a03d 50b1 29bd
000002d0: 1b7e c63b e8d0 3d3b 29ae bfbc be97 9d3c
000002e0: 7a0f ad3d cd55 dfbd 0e86 c5bd 51a6 213d
000002f0: ae1d c6bc 9f54 0d3d 158c 00bd d34c eebc
00000300: 35be 3b3d 5386 503c a8d4 8ebd a030 24bd
00000310: ceec a7bd bbca c8bc 2176 983c fa9c 573d
00000320: 41e9 93bd 18a8 ca3c 3b11 7a3c 14e6 aa3c
00000330: b2f0 303d 9e48 77bc d9a9 cdbd 69ea b53b
00000340: 50a9 45bd d165 9b3d 4855 b0bd 4a61 d3bc
00000350: 3538 45bd 0a4a 96bd 97fd 4ebd 6bef 9abd
00000360: a01e 1dbd 688e 34bd c9ff a7bd b9aa d0bd
00000370: 1ffd 98bc dca0 e0bd e553 e9bc cb0a 68bd
00000380: e26f 5c3d 413c 10bd d67b b2bd 0a95 9cbd
00000390: e423 34bd 939d 59bd 60a5 9fbd 507e 943d
000003a0: d1b9 babd a906 94bd 4f65 dc3c c4b3 993c
000003b0: 9b88 3d3d 850e 9b3d a598 acba 5961 623d
000003c0: 709c 97bd 90f3 553c 9103 2c3d 15bd ddbb
000003d0: d65f 75bd 5584 693d f481 36bd 4f82 98bd
000003e0: 23f2 813d e3eb 8f3b 2615 58bd 61f1 02bb
000003f0: 3e5c 22bc 14bd b3bd 6092 223d 0b54 66bc

net.2.bias f4 [128]
-0.078680106 -0.08334501 -0.040496904 -0.08106901 -0.024367543 -0.08627812 0.22519185 -0.08322482
0.037293766 -0.10135026 -0.03275387 0.0010756967 -0.13408849 0.04988488 0.17621581 0.24855676
0.41520497 -0.050989572 0.4336553 -0.09470515 0.022003068 0.33424988 0.4719795 0.6076405
-0.1147822 -0.028477672 -0.03186651 0.62339616 -0.2690026 -0.1239432 0.48754725 -0.053412892
-0.0047507714 -0.02173518 0.4836161 0.4712699 -0.041205112 0.008780135 -0.066877134 0.094046496
-0.07399379 -0.2239131 0.29524404 3.8763174e-05 0.23645298 0.10726626 -0.07755376 0.01444118
-0.07286953 -0.08536605 0.28607014 -0.05443814 0.008615431 -0.03873577 0.012212198 0.22481462
0.58018005 0.20496814 0.4421326 -0.08795499 0.045903392 -0.08149993 0.27877527 -0.10470678
0.2571948 -0.11513471 0.3389028 -0.104178645 0.24602354 0.0632935 -0.0712468 0.6359039
0.17134301 -0.018701741 0.21924104 0.2165271 -0.0556914 -0.14204107 0.44093406 0.37474898
0.50017864 -0.1020254 0.27975428 0.63727546 -0.015122 -0.031544257 -0.023485057 -0.05109035
0.2995693 0.027952483 -0.046602845 -0.11296698 0.43806255 0.0396874 0.16119313 -0.02814793
0.014644736 0.1693128 0.17563795 -0.05289831 -0.08841359 0.052203428 -0.049391285 -0.022251043
-0.10135717 0.020104617 0.3556053 0.09555399 0.279941 -0.18169121 0.3147883 0.2187446
-0.09280287 0.22667223 0.5158095 -0.077698216 -0.05406094 0.4099379 -0.027145095 -0.06502147
-0.09310091 0.45491648 -0.0054768496 0.23313774 -0.030333113 -0.1096404 0.1442052 -0.1006173
00000000: 0923 a1bd cab0 aabd 15e0 25bd 8207 a6bd
00000010: 719e c7bc 95b2 b0bd b198 663e c671 aabd
00000020: 59c1 183d ba90 cfbd ec28 06bd 64fe 8c3a
00000030: 7e4e 09be 1754 4c3d eb71 343e aa85 7e3e
00000040: bf95 d43e 71da 50bd 1108 de3e c6f4 c1bd
00000050: c73f b43c cd22 ab3e 4ca7 f13e 548e 1b3f
00000060: ee12 ebbd 024a e9bc 7586 02bd e496 1f3f
00000070: b5ba 89be efd5 fdbd cb9f f93e 7ac7 5abd
00000080: 5cac 9bbb fa0d b2bc 889c f73e 4a4a f13e
00000090: b1c6 28bd 8eda 0f3c e1f6 88bd 739b c03d
000000a0: 0e8a 97bd 7a49 65be 3a2a 973e a495 2238
000000b0: bb20 723e 6aae db3d 81d4 9ebd b39a 6c3c
000000c0: 9f3c 95bd 65d4 aebd c977 923e 87fa 5ebd
000000d0: bd27 0d3c 66a9 1ebd ac15 483c ce35 663e
000000e0: ae86 143f 2be3 513e 345f e23e bf21 b4bd
000000f0: 3205 3c3d 6fe9 a6bd a2bb 8e3e 8270 d6bd
00000100: 09af 833e bfcb ebbd ab84 ad3e 9d5b d5bd
00000110: 98ed 7b3e 06a0 813d d8e9 91bd 99ca 223f
00000120: 8b74 2f3e 6534 99bc b980 603e 48b9 5d3e
00000130: aa1c 64bd 3773 11be 1cc2 e13e 19df bf3e
00000140: b50b 003f b1f2 d0bd f43b 8f3e 7c24 233f
00000150: 44c2 77bc 8d34 01bd bc63 c0bc 1d44 51bd
00000160: 2661 993e 9bfc e43c a0e2 3ebd 3b5b e7bd
00000170: bc49 e03e 418f 223d d00f 253e 7d96 e6bc
00000180: 7af0 6f3c 5660 2d3e 6fda 333e e6ab 58bd
00000190: 2f12 b5bd 43d3 553d 844e 4abd d247 b6bc
000001a0: 5994 cfbd 70b2 a43c e611 b63e cfb1 c33d
000001b0: 6d54 8f3e 430d 3abe ef2b a13e 96fe 5f3e
000001c0: 6e0f bebd c41c 683e 170c 043f 3e20 9fbd
000001d0: 016f 5dbd 61e3 d13e 645f debc fa29 85bd
000001e0: b1ab bebd d0ea e83e 2577 b3bb a9bb 6e3e
000001f0: 267d f8bc 258b e0bd 87aa 133e 7110 cebd

net.4.weight f4 [6, 128]
-0.053487074 0.002844882 -0.031064218 0.05366754 0.014349655 -0.035132583 1.0715246 -0.045842133
-0.5785698 0.021560062 -0.07380196 -0.009083405 -0.5034106 -0.037618633 0.7978092 0.30333963
0.47616154 0.04409596 1.452444 0.07931395 1.0178424 0.97296214 0.96891737 0.24251993
-0.05813379 -0.07340679 0.020138845 0.33438104 -1.1537384 -0.01497627 0.54531854 -0.08971251
-0.023749411 -0.5492054 1.3572726 0.50727916 -0.0093096895 -0.14799131 0.06754064 0.8044816
-0.005090567 -0.80467385 0.5952673 -0.01477592 -0.19706303 1.3768907 -0.07055885 0.11214222
-0.03318863 -0.07727882 0.9808781 -0.0868948 -0.009902343 -0.023331359 -0.029831909 0.89957094
1.7393894 0.70014906 1.7163895 0.037807673 -0.0073953066 0.06388139 0.6389459 -0.025976598
1.2215495 0.040360253 1.1032639 -0.022939654 1.1500748 0.84161776 -0.05242773 0.41012028
0.13044822 0.0780215 1.0993111 1.1462146 0.14087862 0.009015758 1.5976896 1.0327606
0.7674075 -0.008184718 0.89469075 0.3755409 0.05532222 -0.07462685 0.015314183 -0.03648408
1.2905592 0.020572456 -0.02670953 0.038003728 0.26743743 0.026162973 -1.0156224 0.37074593
0.036681004 0.78244776 0.39116693 0.00904809 -0.021209046 -0.17085351 0.052318487 -0.028805505
-0.07910932 -0.050850578 0.61509997 0.8202773 0.90108365 -0.97658485 0.4504563 0.25393075
-0.0018715645 1.2484031 0.7994708 0.03305935 -0.05211204 0.73198414 0.037277244 -0.082271844
-0.0057587004 0.28330055 -0.027760722 0.7665665 0.083685495 -0.07520468 -0.05026129 -0.02482958
0.028599987 0.04702229 -0.060297336 0.028428284 -0.047199782 0.056396537 1.0076929 0.031129029
0.78579116 0.009874637 -0.08252752 0.029996555 -0.27802873 -0.037825815 0.9755122 0.2253004
0.622755 0.057721987 0.84454584 0.00082669954 0.95364255 0.9296992 0.90143085 0.30604523
0.043080892 -0.015261607 -0.053105026 0.32761824 -0.581039 -0.050386924 0.612437 -0.05272706
0.006879556 -0.83315754 1.2696677 0.36805144 0.06139019 0.74309397 -0.020707332 1.1543252
-0.05924203 -0.6359835 0.35259727 -0.05462438 0.9895149 0.6752268 -0.10015627 -0.06414631
0.03371204 0.02150547 1.2257937 0.042119384 0.07521827 0.036490984 -0.016099274 0.9939551
1.0852683 0.69040716 1.5700163 0.013321322 0.022801563 -0.044685148 0.4878912 -0.027725313
0.59405166 0.00082965643 1.0701727 0.038685665 0.8944081 0.04296346 -0.04251873 0.35592285
0.54302025 -0.030068796 0.9730947 1.1992643 0.61930215 -0.03982926 1.5053792 1.004676
0.9643751 -0.0036896374 0.8561645 0.31665725 -0.07248496 0.040278688 -0.044048503 -0.0011411774
1.1331201 -0.013233652 -0.032134295 -0.042134732 0.49514973 -0.065431945 -0.841844 -1.1140137
0.055111114 0.7388382 0.8996883 -0.028035708 -0.04110326 -0.16277903 -0.0020417855 -0.006611934
-0.011087593 -0.10500958 0.4154914 1.1914712 0.84796065 -1.2370198 0.54772526 -0.28157803
0.030549027 0.6710945 0.8522784 0.021641057 0.07000801 0.96263623 -0.005426477 -0.037596382
0.08737247 0.34864306 0.046742693 0.96295756 -0.081332736 -0.061815485 0.7630033 0.06343952
00000000: 4315 5bbd 3371 3a3b 637a febc 7fd2 5b3d
00000010: d11a 6b3c 2fe7 0fbd b827 893f f6c4 3bbd
00000020: 271d 14bf ba9e b03c 7b25 97bd 90d2 14bc
00000030: 84df 00bf ff15 1abd 393d 4c3f 554f 9b3e
00000040: 72cb f33e f79d 343d afe9 b93f 5a6f a23d
00000050: a948 823f 0c14 793f f80a 783f 2557 783e
00000060: b21d 6ebd 4d56 96bd 38fa a43c fe33 ab3e
00000070: b3ad 93bf 075f 75bc ff99 0b3f 31bb b7bd
00000080: 208e c2bc ba98 0cbf 1cbb ad3f 0cdd 013f
00000090: ab87 18bc 098b 17be bf52 8a3d 82f2 4d3f
000000a0: c5ce a6bb 1bff 4dbf 7063 183f b316 72bc
000000b0: e4ca 49be f43d b03f 2981 90bd d2aa e53d
000000c0: cdf0 07bd 5c44 9ebd d41a 7b3f e7f5 b1bd
000000d0: 703d 22bc 6821 bfbc 0c62 f4bc 484a 663f
000000e0: 50a4 de3f f83c 333f a7b2 db3f 38dc 1a3d
000000f0: 5454 f2bb 3fd4 823d f591 233f e0cc d4bc
00000100: bc5b 9c3f cb50 253d c037 8d3f f1eb bbbc
00000110: a735 933f 4374 573f 76be 56bd 49fb d13e
00000120: 3894 053e bcc9 9f3d 3ab6 8c3f 29b7 923f
00000130: 7c42 103e d4b6 133c 1881 cc3f 8031 843f
00000140: d174 443f 3219 06bc 740a 653f e646 c03e
00000150: 8d99 623d f6d5 98bd 57e8 7a3c 5570 15bd
00000160: 0b31 a53f 9187 a83c f2cd dabc cca9 1b3d
00000170: 8fed 883e bb53 d63c eaff 81bf 69d2 bd3e
00000180: d23e 163d 7f4e 483f 0847 c83e 713e 143c
00000190: 98be adbc 39f4 2ebe e94b 563d 86f9 ebbc
000001a0: 1104 a2bd b248 50bd 3177 1d3f b1fd 513f
000001b0: 6bad 663f 7701 7abf 35a2 e63e 3603 823e
000001c0: 494f f5ba accb 9f3f 1eaa 4c3f 3e69 073d
000001d0: 6f73 55bd 5063 3b3f 06b0 183d 247e a8bd
000001e0: 7bb3 bcbb c50c 913e 746a e3bc b43d 443f
000001f0: 4d63 ab3d e904 9abd c8de 4dbd 6767 cbbc
00000200: 854a ea3c 729a 403d 57fa 76bd 6fe2 e83c
00000210: 8f54 41bd 0e00 673d 15fc 803f 4e02 ff3c
00000220: 9c29 493f 3bc9 213c 3004 a9bd 56bb f53c
00000230: c859 8ebe 3eef 1abd 2bbb 793f 26b5 663e
00000240: df6c 1f3f e46d 6c3d 2834 583f deb6 583a
00000250: eb21 743f c400 6e3f 2cc4 663f f6b1 9c3e
00000260: 9775 303d d20b 7abc a884 59bd 94bd a73e
00000270: f9be 14bf 8562 4ebd acc8 1c3f 54f8 57bd
00000280: e66d e13b d049 55bf 7984 a23f 3d71 bc3e
00000290: 4874 7b3d 683b 3e3f 6ca2 a9bc eec0 933f
000002a0: c5a7 72bd d1cf 22bf a187 b43e d0bd 5fbd
000002b0: d950 7d3f aadb 2c3f bb1e cdbd 245f 83bd
000002c0: a315 0a3d 3d2c b03c cfe6 9c3f 6085 2c3d
000002d0: 090c 9a3d 9277 153d a0e2 83bc d773 7e3f
000002e0: 12ea 8a3f 86be 303f 4bf6 c83f ad41 5a3c
000002f0: 58ca ba3c c607 37bd e0cc f93e 3220 e3bc
00000300: c513 183f 4d7d 593a 6bfb 883f dc74 1e3d
00000310: eef7 643f 74fa 2f3d 1f28 2ebd 853b b63e
00000320: 6003 0b3f d652 f6bc bc1c 793f 7e81 993f
00000330: 968a 1e3f 0224 23bd 44b0 c03f 3999 803f
00000340: 49e1 763f d8cd 71bb 992d 5b3f e620 a23e
00000350: ff72 94bd 44fb 243d 346c 34bd 8f93 95ba
00000360: 140a 913f f6d1 58bc 409f 03bd 7895 2cbd
00000370: 4484 fd3e 2f01 86bd 1783 57bf 0098 8ebf
00000380: 31bc 613d 8024 3d3f f951 663f 24ab e5bc
00000390: e45b 28bd 8caf 26be 7acf 05bb eca8 d8bb
000003a0: bca8 35bc 430f d7bd 4abb d43e 2182 983f
000003b0: f313 593f aa56 9ebf b937 0c3f ff2a 90be
000003c0: f441 fa3c d9cc 2b3f eb2e 5a3f 9648 b13c
000003d0: 5c60 8f3d 546f 763f 97d0 b1bb aafe 19bd
000003e0: 56f0 b23d 5881 b23e 4475 3f3d 6384 763f
000003f0: c791 a6bd 3c32 7dbd 2f54 433f 94ec 813d

net.4.bias f4 [6]
0.38764337 0.4558514 0.371324 0.61434984 0.21843489 0.63730997
00000000: 3179 c63e 5b65 e93e 2e1e be3e 0846 1d3f
00000010: 65ad 5f3e bf26 233f
