rl/models/best_model_run6.pth (torch, 79477 bytes, 6 tensors)

net.0.weight f4 [128, 13]
000000 c1 a6 00 bd f8 67 20 3d 24 a8 8f be d3 9d 72 be
       -0.03140903 0.039161652 -0.2805797 -0.23693018
000010 a6 65 fd 3d e6 7a 6c 3e 9a 25 3c 3e 49 66 8d 3e
       0.123729035 0.23093757 0.18373719 0.276171
000020 99 74 24 3e ee 90 5c 3e 96 bf 87 3d 2e 20 30 3e
       0.16060103 0.21539661 0.06628339 0.17199776
000030 f2 5f 6f be c3 a8 1c 3e c7 31 3c 3e e7 c8 7d 3e
       -0.23376444 0.15298752 0.18378364 0.2478367
000040 5e b5 24 3f 7d 15 b5 3e a9 26 b4 be ff ca 88 be
       0.64339244 0.35367957 -0.35185745 -0.26717374
000050 6c e0 f4 3d 1c 1f 1e 3f 65 2e 7f be 7f 1b 77 3d
       0.119568676 0.6176622 -0.24920042 0.060328957
000060 07 cc 4b be c7 7c 16 bd 78 b4 8b be b7 55 ce bd
       -0.19902049 -0.03674009 -0.27286124 -0.100749426
000070 a0 87 88 3e a6 c6 12 bf ed 47 a4 be 28 0d 21 3e
       0.26665974 -0.57334363 -0.32086125 0.15727675
000080 62 3c 1c bc e8 25 c0 3e 03 ce f8 3d b3 be 4e be
       -0.009535881 0.3752892 0.121486686 -0.20189933
000090 cc 67 61 3e 98 e2 0e bf ba 17 c9 b9 cd de 4e be
       0.22012252 -0.55814505 -0.00038355385 -0.20202179
0000a0 cf ea a5 3e af e5 cd 3e e0 6c 2d bd b4 4c 4c bd
       0.32405707 0.40214297 -0.04234016 -0.049877837
0000b0 fc 76 76 3d 5c f5 94 3e 62 2f d9 3c d4 c0 a8 3e
       0.060172066 0.29093444 0.026511852 0.32959616
0000c0 6e 5e 82 be a1 89 2b 3d e9 c7 a4 be 1c 03 d1 3d
       -0.2546267 0.0418793 -0.3218377 0.10205671
0000d0 25 bd 33 3e e8 77 a4 be 5a c6 7e bf 90 14 10 bf
       0.17552622 -0.3212273 -0.9952141 -0.56281376
0000e0 67 02 88 3e 0a 44 48 be 0d 62 70 3c f7 fd 5f 3e
       0.26564333 -0.19557205 0.014671815 0.21874224
0000f0 89 0b cb be 70 5d 91 3e 63 9d b1 3e c1 d7 71 bd
       -0.39657238 0.283916 0.3469039 -0.05904365
000100 f3 4f 27 be b3 2e 78 be d8 0f 36 3e ee cd dd 3e
       -0.16339092 -0.24236564 0.17779481 0.43321174
000110 b5 f8 8b be 32 ce 16 bd 74 f6 86 3e c5 7f b7 bc
       -0.27338186 -0.036817737 0.26359904 -0.022399792
000120 32 12 8d 3e c5 74 f7 3c ae 01 d0 3d a9 da 7e 3e
       0.27552944 0.030207047 0.101565704 0.248881
000130 4b 7a 75 3e 03 84 ca bd cc 10 25 be 02 a3 3c 3d
       0.23972432 -0.098884605 -0.16119689 0.046053894
000140 c3 61 b4 be 0e cd 4a bf 55 67 16 3e 80 19 e2 be
       -0.35230836 -0.7921914 0.14687856 -0.4416008
000150 ba 05 c0 3d 01 bc d1 be 44 92 84 3e d1 6c 02 3d
       0.09376092 -0.40963748 0.25892842 0.031842057
000160 96 bc 9f be 1d 08 d6 3d d1 79 c0 3d b0 5b e3 3e
       -0.31198567 0.10450766 0.09398235 0.4440589
000170 7f 6c 4e 3e dc 5b bd bf 9b 22 6f 3f 54 42 42 3d
       0.20158575 -1.4793658 0.9341218 0.047426537
000180 8e 7a 5b 3e 26 61 13 bf 27 7c b2 be 4d e7 e9 3d
       0.2143347 -0.5757011 -0.34860346 0.1142107
000190 89 14 50 3d 2a f0 7d 3e df 22 dc 3e 9e ab dd be
       0.050800834 0.24798647 0.42995355 -0.43294996
0001a0 04 a0 15 3e 78 49 18 3e b8 58 92 3e 58 e9 f3 be
       0.14611822 0.14871776 0.28583312 -0.47638965
0001b0 cc fe da bb f2 73 03 be 94 0f 6f 3e 53 30 af 3e
       -0.006683206 -0.12837198 0.23345786 0.34216556
0001c0 66 db cc 3b 66 e7 b3 bc 99 c8 9b 3d c5 64 0f 3d
       0.0062517403 -0.021960925 0.0760662 0.03500821
0001d0 e1 94 92 3d 9b b1 96 3e e1 e3 52 3e b2 be de be
       0.07157303 0.29432377 0.20594741 -0.43504864
0001e0 7a 82 fb 3d 47 d2 99 3e b9 64 72 3e fc 33 a9 bd
       0.12280746 0.3004324 0.23671235 -0.08261868
0001f0 30 d1 07 bf 40 97 fe be ad ab 93 be 8c d0 87 3c
       -0.5305357 -0.4972477 -0.28841916 0.016578935
000200 cd 5c 1c be 6e d6 b7 3e 31 85 70 3d 1e db aa 3e
       -0.15269776 0.35905784 0.05872077 0.33370298
000210 f6 62 1e 3e 64 62 8c 3e e1 3f 92 3e 81 45 41 bd
       0.15467438 0.27418816 0.2856436 -0.047185425
000220 c5 59 a9 3c 6d e7 27 be a4 74 57 3e 9e 5c d8 3d
       0.020672688 -0.16396876 0.21040589 0.1056454
000230 87 b8 98 3d 72 93 ac 3e c9 f3 1d bd 68 d9 a4 3d
       0.07457071 0.33706242 -0.03856257 0.080492795
000240 1c 77 fc bc a2 e3 92 bf f2 a6 89 3f 6b 71 03 3e
       -0.030818515 -1.1475718 1.0754073 0.12836234
000250 c4 f4 d9 be ba e0 f9 3d 32 b9 a5 bd 9b c0 36 bc
       -0.42569554 0.12201066 -0.08091964 -0.011154319
000260 bd a6 04 3d e6 81 bc 3d de 24 a1 3e 42 a4 1c be
       0.032385577 0.09204464 0.3147344 -0.15297034
000270 c1 3a 71 bd 5d 46 64 bd fc 48 7f bf 17 7d 88 3f
       -0.058893923 -0.055731166 -0.9972074 1.0663174
000280 3f 6f 1c 3e d2 27 c2 3e bd 32 70 bc fd d6 07 be
       0.15276812 0.37921005 -0.014660534 -0.13265605
000290 c5 bb 9d 3e ba 4e 74 be f8 36 0a 3c 63 32 b1 be
       0.3080732 -0.23858157 0.008435957 -0.34608755
0002a0 2f 13 70 be 88 4e 21 3e 9f f5 b4 3d 5c 00 a1 3e
       -0.23444818 0.15752614 0.08835911 0.31445587
0002b0 41 9e 2f be e7 a2 74 be 84 45 d6 3d a8 46 63 3e
       -0.17150213 -0.23890267 0.10462478 0.22194922
0002c0 7e 10 a8 3d a3 1f 80 3e 10 bc 13 3d a5 c2 55 3e
       0.08206271 0.25024137 0.036068022 0.20875032
0002d0 48 54 e3 3d c7 ce 92 3e 06 7d ee bd 3f 74 c3 bc
       0.1110006 0.28673384 -0.1164494 -0.023859141
0002e0 ca b5 c6 3c b2 7b 01 3f 4b fc 7c 3e f9 65 cb bc
       0.024256606 0.5057937 0.24705617 -0.024828898
0002f0 5c fd 17 bf 63 43 92 bc 7c 93 de 3e 9c be 69 3e
       -0.5937097 -0.017854398 0.43471897 0.22826618
000300 12 79 ee 3d b0 69 06 be 01 6e b4 bd 1e de 56 3d
       0.11644186 -0.13126254 -0.08810044 0.05245792
000310 37 d2 27 3e 3e 77 14 be bd 51 88 3e b7 c3 2a be
       0.16388784 -0.14498612 0.2662486 -0.16676222
000320 77 51 03 bd ef dd 82 be 52 ad f1 3c 56 00 70 be
       -0.032060113 -0.25559947 0.02950159 -0.23437628
000330 47 ff 53 be bf 28 85 3e 51 de ab bd e6 21 a7 bd
       -0.2070285 0.2600765 -0.08392013 -0.081607625
000340 3e fa a2 3c f4 b2 22 3e 37 f5 3e 3f e7 b6 cd be
       0.019894715 0.15888578 0.7459292 -0.40178606
000350 b7 66 df 3d a5 46 2c be 23 20 99 bd 80 de 21 3e
       0.10908263 -0.16823824 -0.07476833 0.15807533
000360 7f 0d 2f bd 07 da 23 3e 28 c4 9b bc 7c ae 07 3e
       -0.04273748 0.1600114 -0.019014433 0.13250154
000370 37 a8 42 3e a9 5f 53 3e 43 93 cf 3e a6 ab a7 ba
       0.19009481 0.2064196 0.4054204 -0.0012792244
000380 d9 21 6a be 28 a8 e1 3d a9 c6 81 3e 80 be 2e bd
       -0.22864474 0.110184014 0.25346878 -0.042662144
000390 ae 75 6e be 01 be 3e be f8 ee a7 bd 95 92 81 bd
       -0.23287079 -0.18627168 -0.081998765 -0.063267864
0003a0 97 48 91 3e 7c 17 6d 3e 3b 86 c3 bd 65 cc e1 ba
       0.28375694 0.2315349 -0.09547087 -0.0017227052
0003b0 f3 46 c3 3f 67 3a 04 bf cc 14 81 3d e7 de 6c bd
       1.5256027 -0.51651615 0.06302795 -0.057829764
0003c0 4e 62 ed 3d 4f 05 46 3e dd e2 c1 be 39 8a 77 be
       0.11591016 0.19337963 -0.37868395 -0.24173822
0003d0 96 b2 25 3d d2 12 42 bd b1 91 6a 3e 17 a7 87 be
       0.040453516 -0.04738123 0.2290714 -0.26494667
0003e0 29 04 0b 3e 23 34 00 c0 b3 e3 16 3f b0 69 36 be
       0.13575806 -2.0031822 0.5894119 -0.17813754
0003f0 01 d5 9f bd cf 2a 3d be 3d 44 e6 bd d9 e6 1e 3f
       -0.07804299 -0.18473361 -0.11243484 0.62070996

net.0.bias f4 [128]
000000 c6 e7 6d 3e 2e 94 55 be d3 41 de 3d 56 5f d5 3d
       0.23232946 -0.20857307 0.10852399 0.104185745
000010 ac 35 2a bd 4e 9b 30 be 09 11 ad 3e ae 32 3f bd
       -0.04155509 -0.17246744 0.3380206 -0.04667919
000020 ba a6 a4 3e 3a 4d 58 bb 01 ef ca 3e fa f3 a0 3e
       0.32158452 -0.0033005015 0.3963547 0.3143614
000030 2a 19 b7 3d d2 90 6b 3e 16 04 4d be 67 9a 2f be
       0.089403465 0.23004463 -0.2002109 -0.17148744
000040 e8 f4 0a 3e b6 9e 8d 3d 5b 93 9b bd cc 0d 0f bc
       0.13569987 0.06915037 -0.07596465 -0.008731317
000050 7a 2b 85 3d ee 94 91 be 00 42 92 3e a7 27 1d 3e
       0.06502433 -0.28433937 0.2856598 0.15347157
000060 8b 43 be 3e d0 1f d7 bd e8 be ba be 1a e8 5a 3e
       0.37160906 -0.10504115 -0.36473775 0.21377602
000070 52 4b 49 be 6b 5e e8 bc f6 79 17 3e 39 ab dc bc
       -0.19657639 -0.028365334 0.14792618 -0.026937114
000080 92 11 8a be 71 e6 bc be fc 79 8d 3e 66 17 92 3e
       -0.2696653 -0.36894563 0.2763213 0.28533477
000090 cc 0a 82 bc 7f 6b 8b 3e c1 d7 73 be 77 f0 89 3d
       -0.015874289 0.2723045 -0.23812772 0.06735318
0000a0 8a 59 3e 3e b2 81 4b be 83 04 75 be 9a c8 2b 3e
       0.18588844 -0.19873694 -0.23927502 0.16775742
0000b0 87 1e bd 3d 1d 16 df 3e 0d a2 4b 3e 53 7b 06 bd
       0.09234338 0.4357156 0.19886036 -0.032832455
0000c0 c4 83 77 be 26 23 4e be f8 5b 39 bc 41 5b 6a 3d
       -0.24171358 -0.20130596 -0.011313431 0.057215933
0000d0 d5 69 82 be 47 a1 98 bc 1c e8 6c 3e 32 fc b0 3e
       -0.25471368 -0.01863159 0.23135418 0.3456741
0000e0 19 16 88 be 6c 66 74 be 9f 43 d5 bd 97 25 7a be
       -0.2657936 -0.23867196 -0.10413288 -0.24428402
0000f0 4c c0 d8 bd 40 13 83 bd 8e 49 a8 3c ac da b0 bd
       -0.10583553 -0.06400156 0.020542886 -0.08635458
000100 c3 b3 34 3e 05 28 19 3d c9 e0 68 be 20 f3 75 be
       0.17646699 0.03739168 -0.22741999 -0.24018526
000110 69 94 0e bd ce d4 60 3e f6 75 d8 bd f1 3f 28 be
       -0.034809504 0.21956179 -0.10569374 -0.16430642
000120 17 a2 7d bd de ba 1e be a1 10 2f 3d 51 d3 a7 bd
       -0.06192216 -0.15500972 0.042740468 -0.08194602
000130 e9 d4 13 be cd 29 a5 bd e3 84 9c be 4b 0d 83 be
       -0.14436688 -0.080646135 -0.30570135 -0.2559608
000140 78 fb d1 3c d4 b3 3a be f2 80 32 bd 78 9c f2 3b
       0.025632605 -0.18232661 -0.043580003 0.0074039064
000150 6b e5 58 3e a5 88 5e be a0 d1 1d 3d 66 cd c2 bd
       0.21181266 -0.21731813 0.038529992 -0.09511833
000160 97 ea 38 bd c6 9a 3a be f2 99 b7 3e b3 38 82 bd
       -0.045145597 -0.18223104 0.35859638 -0.06358471
000170 c5 6e 7d be 89 3b 53 3e b0 b0 2e be de 4f c9 3d
       -0.24749286 0.2062818 -0.17059588 0.098296866
000180 49 99 71 be 17 9e 10 3e 5b 7e 51 3c 80 f9 7e 3d
       -0.2359363 0.14122806 0.012786473 0.06224966
000190 93 11 5c be 91 31 95 3e f6 45 8a 3e 0f 6e 66 bd
       -0.21491079 0.2913938 0.270065 -0.056257304
0001a0 0e 3e 80 be 3d c3 30 3e d4 6b a6 be e5 df a3 be
       -0.25047344 0.17261977 -0.3250414 -0.32006755
0001b0 fa 11 49 be a3 e0 11 bc bc 96 fe bd 8e 9d 97 be
       -0.19635764 -0.008903655 -0.12431094 -0.29612392
0001c0 25 e0 46 be 70 88 92 be c3 4e f9 bd bd 82 83 be
       -0.19421442 -0.2861972 -0.12173226 -0.25685683
0001d0 fb 35 22 be dc bc 26 be 31 5a 61 be 8c 22 06 3e
       -0.15840904 -0.16282982 -0.22007062 0.13099116
0001e0 b7 f0 1c bd 1b c9 14 3e 00 62 8d 3d 39 7c 4e be
       -0.0383155 0.1452984 0.06903458 -0.20164575
0001f0 a7 79 08 be 3b 01 11 3d ab 6b 92 be 3e b5 a5 3e
       -0.13327657 0.035401564 -0.2859777 0.3236484

net.2.weight f4 [128, 128]
000000 13 20 f1 3d d0 1b 87 bf d2 e2 35 bf 41 21 1a 3e
       0.11773696 -1.0555363 -0.71049225 0.15051748
000010 bb 40 46 3e 4d 6f 3a 3b b3 1c ac 3e 6d 0f 84 bf
       0.1936063 0.0028447688 0.33615646 -1.0317208
000020 5a 3c 46 3e 44 03 a4 bf ce d0 4c bd 47 4a ac bd
       0.1935896 -1.2813497 -0.05000382 -0.08412605
000030 af ca 04 bf 9f b5 c6 3d 86 de 97 bf ce e6 8a 3d
       -0.5187177 0.0970261 -1.1864784 0.06782304
000040 e7 a2 23 3e 63 da 6c bd 46 5f 9b 3e 1c bd 1e bf
       0.15980111 -0.057825457 0.30346125 -0.6200731
000050 2a 57 49 3e 34 9e c8 bc f5 08 68 be 28 4b 84 bd
       0.19662157 -0.0244895 -0.22659667 -0.064596474
000060 66 2e e2 bd 7a 57 23 bd 35 f9 59 bf 14 e8 ba bf
       -0.11044006 -0.039878346 -0.85145885 -1.4602075
000070 17 de f1 3c 62 c0 a1 bd b2 a1 1d 3e 74 37 33 bd
       0.029524846 -0.07898022 0.15393713 -0.043754056
000080 e5 70 ce 3e f9 1e 99 bf 4f 26 74 3e 51 fe 89 3e
       0.40320507 -1.1962577 0.23842739 0.2695184
000090 6e da 3a bf 08 e9 2b bf e7 e2 93 3d 1e 55 90 3e
       -0.7298955 -0.6715245 0.072210126 0.2818994
0000a0 ef 58 c6 3d 9d c2 20 be 25 80 c5 3c bb 37 53 3e
       0.096849315 -0.15699239 0.024108956 0.20626728
0000b0 33 6d 73 3d 0b 31 0c 3d d7 c8 01 3d 35 4e 85 3d
       0.059430312 0.03422646 0.031685676 0.065090574
0000c0 4e 4a 30 bd 45 59 aa 3e c0 66 ca 3c 1c 47 d4 3d
       -0.043039612 0.33271232 0.024707198 0.103651255
0000d0 00 5a 87 3d c5 e1 e1 bd 5a 3d 7c 3e ed 1d 1d 3e
       0.06608963 -0.1102939 0.24632779 0.15343447
0000e0 b9 ff a2 bd 75 8f d2 bb 2e c3 b3 be 19 0c d9 3b
       -0.079589315 -0.006425793 -0.35109848 0.0066237566
0000f0 35 8a 62 bf 35 65 a3 3d 00 38 51 bd 39 3b 6e bd
       -0.8849214 0.07978288 -0.051078796 -0.058161948
000100 94 22 0a 3e aa 3e 08 bf 57 4c 66 3d 11 11 2f 3d
       0.13489753 -0.5322062 0.056225147 0.042740885
000110 41 f7 c5 bd 0e 40 64 3d 0f bf 0d 3e 2a 3d 99 3c
       -0.096663006 0.05572515 0.13842414 0.018705923
000120 ac f7 1d 3e 63 bc 9f bd 98 b4 67 be f7 35 76 3d
       0.1542651 -0.07799604 -0.22627485 0.06011006
000130 88 5b b3 be dc 11 4b bf f6 b3 4d bf 46 d4 1b bf
       -0.3503077 -0.79324126 -0.80352724 -0.6087078
000140 a6 b2 7b bf 93 d0 a0 bd bb de 73 bd 43 16 e3 bf
       -0.9831947 -0.078522824 -0.059538584 -1.7741169
000150 0d 08 66 bd 65 9f 07 bd 47 07 a3 bd cf f2 54 bc
       -0.05616002 -0.033110995 -0.079603724 -0.012997343
000160 99 9a 0e 3e ad 02 a8 bc 67 32 c9 bd b3 42 7d bf
       0.13926162 -0.020509088 -0.098240666 -0.989299
000170 23 e7 c4 3d 03 93 af bf 49 5e 14 3e e0 d9 c7 be
       0.09614398 -1.371674 0.14489092 -0.39033413
000180 26 d6 3b 3c 16 9c 38 bf 27 c2 c0 bc 1d 3a 97 3c
       0.011464631 -0.7211317 -0.023530079 0.018460328
000190 48 1a 9d bf d3 f6 9c 3d 99 7b df bd 21 5b 95 3d
       -1.2273645 0.076642655 -0.10912246 0.07292772
0001a0 96 2c 1b bf 34 9a b5 be 5d b2 57 bf 3c d5 b5 be
       -0.6061491 -0.3546921 -0.84256536 -0.35514247
0001b0 2c 29 25 bd 5c 4a 63 bc a8 79 10 bf bb b9 30 3e
       -0.040322468 -0.013872709 -0.5643563 0.1725835
0001c0 55 bc a0 bd 4a 70 3b bf 91 24 01 bf d8 92 d9 bc
       -0.078484215 -0.73218215 -0.5044642 -0.026559278
0001d0 04 a6 a7 3e 5c 07 e8 bc 22 15 c7 3d 99 71 16 3e
       0.32743847 -0.028323822 0.09720828 0.14691772
0001e0 09 2b 22 3d 00 b9 e8 be f5 3c 02 3f 69 43 34 bd
       0.039591823 -0.45453644 0.50874263 -0.0440096
0001f0 d7 cb 94 3e e1 d7 d0 3c ef 98 91 bd 2f 69 89 3e
       0.29061767 0.025493564 -0.07109248 0.2683806
000200 fc 68 78 3e 82 5d d2 be 86 4c 8f bf bb c5 4c 3d
       0.24258798 -0.41086966 -1.1195228 0.049993258
000210 ba d8 76 bc b8 96 2a 3e d7 b9 10 3e 19 a4 a2 3d
       -0.01506632 0.16659057 0.14133392 0.079414554
000220 8c ab 16 3e d9 ac 29 bf 56 47 88 3e 22 fc 20 3e
       0.14713877 -0.6627937 0.26616925 0.15721181
000230 04 a0 13 bd fe 4b 40 3e eb 24 87 bf f5 e0 81 3d
       -0.036041275 0.18778989 -1.0558141 0.06341735
000240 01 a4 1c 3e 54 d8 29 3e 5a b7 04 3d 30 53 cc bd
       0.15296938 0.16586429 0.03240142 -0.09976804
000250 9c 5f 9b 3e 2f 99 bc bd 3b 62 17 3e a8 3b 5e 3e
       0.30346382 -0.09208905 0.14783566 0.21702445
000260 14 2d fa ba 4a b5 7e 3d f2 2f 76 bf 05 f7 7c be
       -0.0019086921 0.06218461 -0.9616691 -0.24703605
000270 c2 f3 b0 bc 6a 45 f8 bc 41 20 17 3e f8 f7 03 3b
       -0.021600608 -0.030306537 0.14758398 0.0020136815
000280 9c de 9c 3e dd 8a da be 90 f5 40 3e 6d 4b 39 3e
       0.30638587 -0.4268407 0.18843675 0.18095179
000290 1b 72 ae bc 9a 40 ac be c9 eb 55 3e 8b dc 33 3e
       -0.021294644 -0.33643037 0.20890726 0.17564599
0002a0 d9 34 33 3d 73 fc 60 3e 31 6a 2a bb ac cf 5f 3e
       0.04375157 0.21971302 -0.0026003236 0.21856564
0002b0 90 f1 6f be 08 52 44 3e 7c dc 45 3e cf 47 8c 3e
       -0.23431993 0.19171917 0.1932239 0.27398536
0002c0 90 21 50 bd 35 96 23 3e ee 71 46 bd 9e a4 8e 3e
       -0.050813258 0.15975268 -0.048448496 0.27859968
0002d0 0d 7f b1 bd 1c 62 7e 3e c7 c4 54 3e e5 4c 5d 3e
       -0.08666811 0.24842113 0.2077819 0.21611364
0002e0 25 67 25 3d 07 8d 9b 3c ed 0f d4 bd 05 41 d5 3c
       0.04038157 0.018988146 -0.103546 0.02603198
0002f0 27 e6 40 bf d1 2c 29 3e c3 99 8a bd 9a 12 75 3d
       -0.75351185 0.16521002 -0.06767609 0.059832193
000300 56 ae 97 3e aa 7f 17 3d 57 f6 ca 3c ab 2b 0e 3c
       0.29625195 0.036986984 0.024775667 0.008677403
000310 f3 b7 72 3c 37 ed 0d 3e ef 48 63 3e e2 e0 46 bc
       0.014814365 0.13860022 0.2219579 -0.012138577
000320 c4 ee 0a 3e aa eb ab bd ed 3a 03 bf a8 e5 89 3d
       0.13567644 -0.08394559 -0.5126179 0.067332566
000330 6e f2 29 be d3 3a c9 3d 1b 76 04 be e2 5f 68 bd
       -0.16596386 0.09825673 -0.12935679 -0.056732066
000340 5a b4 b8 bb 76 0f 9b bd ac a2 5d 3d 78 aa a5 bf
       -0.005636734 -0.07571308 0.054110214 -1.2942648
000350 0b a0 50 3e 3c 91 e5 3b 4f 78 e5 3b 33 3c 90 3e
       0.20373552 0.0070058387 0.0070028673 0.28170928
000360 2a 73 23 3e 9d d3 e1 bc 24 90 15 3e cf 19 dc be
       0.159619 -0.027566725 0.14605767 -0.4298844
000370 41 84 bc 3d 4b 86 ba bd 4e 24 46 3e 31 33 95 bd
       0.09204913 -0.091076456 0.19349787 -0.072851546
000380 af d4 a1 bc f3 a1 e5 be e8 78 00 3c 34 f0 ad 3d
       -0.019754736 -0.4485012 0.007841326 0.08493081
000390 7e 25 4c be 38 6c 35 3e 18 15 a2 3d 78 fa 3b 3e
       -0.19936177 0.17717063 0.079141796 0.18357265
0003a0 57 cb 1e 3e bd 14 76 3e b6 18 d6 bd fd 1c 34 be
       0.15507255 0.24031349 -0.10453932 -0.17589183
0003b0 07 b5 86 bd 4d f1 b3 bd 16 b0 2b be d8 70 63 be
       -0.06577497 -0.08786259 -0.1676639 -0.22211015
0003c0 be 7d 5b bd 98 82 a0 bd 81 cb 45 3d e6 d9 11 bd
       -0.053586714 -0.07837409 0.04828978 -0.035608195
0003d0 4b a8 ec 3d 56 b4 bc 3d 5e 70 b2 3e a0 53 37 3e
       0.11555537 0.09214084 0.34851354 0.17902994
0003e0 1e 1e 9a bd 0f 62 a0 be 77 64 80 3e d8 7d 82 bb
       -0.07525276 -0.31324813 0.2507665 -0.003982287
0003f0 64 42 bb 3d 4f 17 d3 3b e9 53 d1 3d 01 5d 9c 3e
       0.091435224 0.0064419876 0.10221083 0.30539706

net.2.bias f4 [128]
000000 c8 2e 3a 3e 19 fd 8b 3e 77 9d 03 be b4 cd 69 3d
       0.18181908 0.27341536 -0.12853037 0.05708094
000010 b4 3c b2 bc 13 c8 07 bd a8 32 e8 3d 71 e4 ef 3c
       -0.021757461 -0.03314979 0.11337787 0.029283734
000020 29 4e 32 3e 89 1a f2 bd 55 9d 04 3e ec 49 f1 3c
       0.17412628 -0.118214674 0.12950642 0.029454194
000030 0d 95 15 bd e1 2a 6e bd 5b 9c 69 3e 86 e7 8e 3d
       -0.0365191 -0.05814636 0.22813551 0.06977753
000040 36 b4 2c 3e 25 f0 3c bd 6d 8b a4 bd 60 cd ac 3e
       0.1686562 -0.046127457 -0.08034406 0.3375044
000050 0a 6d af bd ae 66 04 3d 2f 16 74 bd dc aa 36 3e
       -0.085657194 0.032324485 -0.05959147 0.17838615
000060 83 84 a5 3d 13 fd de 3d 3c f5 3b bd e7 51 b7 3c
       0.08081915 0.10888114 -0.04588817 0.022377921
000070 97 ac 99 bd 3b 33 af 3e fd d2 c3 3d 65 d7 e3 3d
       -0.07503622 0.34218773 0.09561727 0.111250676
000080 68 83 ab 3e 55 f2 38 bd fe e0 45 3d 5c 73 37 3d
       0.33498693 -0.04515298 0.048310272 0.04478775
000090 2d db 07 3e 54 f7 80 3d a5 01 2f bd 29 3c 0f bd
       0.13267203 0.06297174 -0.042726178 -0.034969483
0000a0 e2 74 1f bd 49 5f c1 bc fe 1e 72 3c 49 16 4f 3d
       -0.038929828 -0.023605006 0.014777897 0.050558362
0000b0 17 6b aa 3d 96 3d 6b 3e 7c 69 22 3d a7 71 a1 3d
       0.08321207 0.22972712 0.03965138 0.078830056
0000c0 94 4d 32 bd 86 90 19 bd 89 c0 ac 3c 72 9f a2 3e
       -0.043531016 -0.037491344 0.021087902 0.31762272
0000d0 f2 1c 38 3e f2 6f 55 3e 97 3c 61 bd 9c 8a 3c 3d
       0.17979792 0.20843485 -0.054989424 0.046030626
0000e0 76 8d 8c bd cf e6 b8 bd fc f9 7b 3e fe 9b 94 3e
       -0.06862919 -0.09028398 0.2460708 0.29025263
0000f0 b1 70 7a 3e 37 cd ab bd c6 eb d7 3b 83 f7 9f bd
       0.24457051 -0.08388751 0.0065893857 -0.07810881
000100 c0 0e 24 bd 6f 9b 9b 3e 39 31 61 3e b3 98 29 bd
       -0.04005313 0.30392024 0.21991433 -0.04140539
000110 22 16 af bb 59 c0 47 3e 46 e3 36 be 19 38 91 bd
       -0.0053432146 0.19506969 -0.17860135 -0.07090778
000120 f0 a3 69 bd b8 87 3d 3d 40 7c 68 3c da 15 87 bd
       -0.05704111 0.04627201 0.01418978 -0.06595965
000130 2c 02 66 3b 84 a9 64 bd ab c9 d4 bc ca 6f 12 3e
       0.003509651 -0.055825725 -0.025975069 0.14300457
000140 e9 1a 9f 3e 11 0f 2b 3d 8e 1a 2a 3e 68 9b a9 3d
       0.31075218 0.041762415 0.16611692 0.082815945
000150 3b 83 b8 bb f8 af 33 bd 57 76 94 3b 13 f1 d3 bc
       -0.0056308783 -0.04386899 0.004530709 -0.02587179
000160 af af a0 3d 46 96 83 3d 9d f0 4f bc 38 a9 f6 bd
       0.07846009 0.06425147 -0.012691644 -0.12043995
000170 f4 a7 03 3c a0 85 e7 bc f3 3b b9 3e 8d f3 d6 bd
       0.008035649 -0.02826196 0.3617855 -0.104956724
000180 5a 33 7e 3e c0 c7 a9 3e bb f4 52 bd 68 8b 1e 3e
       0.24824277 0.3316021 -0.051502924 0.15482867
000190 99 e3 66 3e c0 56 46 bd d5 31 10 bd 50 66 32 3e
       0.22547759 -0.048422575 -0.035203774 0.17421842
0001a0 e0 3c 78 bd f3 40 9f bd ba 0d 7a 3e 5b cd 53 be
       -0.06060493 -0.0777606 0.24419299 -0.20683806
0001b0 76 c4 a5 3b d2 d4 e3 bc b1 b3 85 3e fc d3 36 3c
       0.0050588204 -0.027811442 0.26113656 0.011158939
0001c0 32 52 36 bd 0c 7e 37 3e a8 f9 9f bd 69 a8 d9 3a
       -0.04451198 0.17919177 -0.0781129 0.0016605976
0001d0 cd 2a d8 bd 60 76 8e 3d 22 3f 36 3e ce 7a 9e 3e
       -0.105550386 0.06956172 0.17797521 0.30953068
0001e0 6f 82 10 be b3 5d a9 bd b2 72 40 3d 03 94 70 3d
       -0.14112256 -0.08269825 0.046984382 0.058734905
0001f0 91 a8 c7 bd 01 6c 48 3d 47 96 90 3a 20 02 be 3e
       -0.09748948 0.048931126 0.0011031114 0.37110996

net.4.weight f4 [6, 128]
000000 a8 cd 55 3f b8 cd 36 3e 53 da f6 be 0e 81 ac bd
       0.8351693 0.17851913 -0.48213443 -0.08423053
000010 80 0d ae 3d 2e ed 7e bc c6 b7 8a 3e 60 23 31 3d
       0.08498669 -0.015559478 0.27093333 0.043246627
000020 21 cc 08 3f 87 aa a3 bd b6 4d e2 3e b4 52 0c 3f
       0.53436476 -0.0799151 0.44199914 0.54813695
000030 ab 97 5b 3d 90 63 49 bd a5 4d 20 3f 3f a8 4a 3a
       0.05361144 -0.049167216 0.62618476 0.0007730759
000040 d0 37 3f 3f 8e c0 72 bd 0d 58 2b bd f9 14 68 3e
       0.7469454 -0.059265666 -0.04183202 0.2266425
000050 99 94 8c 3d 4e aa f6 3e ca 9e df bc 26 c5 a9 3e
       0.0686428 0.48176807 -0.027297396 0.33158225
000060 06 77 62 3d 95 30 33 3f c3 70 8c bd cd 28 70 3d
       0.05528929 0.69996005 -0.06857445 0.05863266
000070 b0 02 ae 3d 44 c4 66 3e dd 40 09 3f 02 42 f8 3e
       0.08496606 0.22535807 0.536146 0.4848786
000080 d8 7c 71 3e 04 b1 9d bb 60 e9 bb 3d a6 88 98 3d
       0.2358278 -0.0048123617 0.09175372 0.074479386
000090 cc 26 0e 3f 9f e6 19 bc 01 fa b5 3b f0 f0 e0 be
       0.5552795 -0.009393363 0.0055534844 -0.4393382
0000a0 15 55 99 3c 20 7e a5 3d ec 44 56 3b f9 81 02 3f
       0.018717328 0.08080697 0.003269489 0.5097957
0000b0 9d c9 c6 3d 8b ac 80 3e 86 24 0d 3d 8d ea 76 3d
       0.097064234 0.2513164 0.03445866 0.06028228
0000c0 69 1f b7 3c 58 5b 12 bd 2a 5f 37 3d 53 41 10 3e
       0.022353845 -0.035731643 0.04476849 0.14087419
0000d0 99 3f 6a 3e 47 67 5d 3e 51 92 54 bc a5 78 84 3e
       0.22875823 0.21621428 -0.012974338 0.25873294
0000e0 de 7b c2 3d 91 8e 65 3c bf 9d ba 3d 78 a3 da 3e
       0.09496282 0.014011041 0.09112119 0.42702842
0000f0 00 0c a2 3e 44 bf da bc 37 8a b1 3c ef 14 fb 3c
       0.3164978 -0.02670253 0.021672351 0.03064963
000100 36 59 9b 3c 66 c1 4b 3e 4a ac 99 3e 16 71 c7 3c
       0.018963438 0.19897994 0.3001426 0.024345916
000110 89 0c bf bc 40 b2 34 3e 74 46 a1 bf 81 cf 39 3d
       -0.023321407 0.17646122 -1.2599626 0.045363907
000120 3c 2d b9 3c 15 27 14 bc d7 d6 fa bb 47 e7 0f 3e
       0.022604577 -0.009042521 -0.0076550054 0.14053069
000130 7d a5 b3 bd 52 3c 89 bc a7 3a fc bb 87 f4 8d 3f
       -0.08771799 -0.016752396 -0.0076974216 1.1090249
000140 0e be 15 3e 7f f4 8e bd d5 b7 1f 3f af 65 35 3f
       0.14623281 -0.06980228 0.6238988 0.7085828
000150 37 bc 78 bd a6 57 b1 3e 4d 80 20 3f 0b d7 49 3d
       -0.06072637 0.34637183 0.6269577 0.049277347
000160 1b 15 10 3f fe 9a fd 3e 2b 84 ad 3d 90 89 dc be
       0.56282204 0.49532312 0.08472475 -0.43073702
000170 eb d2 93 3e 66 ae 8b bd 71 e7 88 3e 72 51 5f 3d
       0.28871855 -0.06820373 0.26739076 0.05452103
000180 82 b2 03 3e b6 57 7a 3e da a3 54 3d f4 71 bc 3e
       0.12861064 0.24447522 0.051914074 0.3680569
000190 e1 8c 33 3e d3 fd 13 3d e3 6c 95 bd bf 6f 12 3e
       0.1753421 0.036130738 -0.07296159 0.1430044
0001a0 00 f4 76 3c fb 13 9c bd cc 2e 76 3e b7 c9 97 be
       0.015072823 -0.076209985 0.24041289 -0.29646084
0001b0 98 0f 6b bd 95 19 87 bd 91 15 64 3e 8e 87 d9 bc
       -0.05738792 -0.06596676 0.22273852 -0.026553895
0001c0 8d ab 8d bd 2f ce 8b 3e 56 4c c1 bc a5 31 4e bd
       -0.06917486 0.27305743 -0.02359597 -0.050340313
0001d0 2b 93 ba bc 2a 95 87 3e 20 d1 ad 3e 1e 0d 4c 3e
       -0.022775253 0.2648099 0.33948612 0.19926879
0001e0 28 43 75 be 5c 2b cb bc a6 f6 3f 3d 20 31 2d 3f
       -0.239514 -0.024800949 0.04686608 0.67653084
0001f0 08 26 f8 3b cb cb 94 bc 31 a9 a4 be cf 19 1b 3e
       0.007572893 -0.018163582 -0.32160333 0.15146564
000200 fa a5 2d 3f 90 5f 5c 3e 8b 6c c3 3a 8a f0 ab bd
       0.67831385 0.21520829 0.0014909668 -0.083954886
000210 2d 3a cb 3c 67 44 69 bd 3a 21 a5 bd c6 1c 96 3d
       0.024808014 -0.05695 -0.08062978 0.07329707
000220 92 0d 00 3f 85 ae 28 bd 1a 8b 37 3f 73 31 7d 3f
       0.50020707 -0.04118206 0.7169663 0.9890358
000230 e2 31 57 3d e2 4f 97 3d a1 8e 00 3f 94 3f 1b 3d
       0.052537806 0.07388283 0.50217634 0.03790243
000240 55 c8 01 3f 22 03 81 3d 5f 23 a6 3d 94 0b 7e 3e
       0.5069631 0.06299426 0.08112215 0.24809104
000250 77 4e ca 3c 4e a7 80 bd a8 8d 58 3d 8c f9 bf 3e
       0.024695618 -0.06281911 0.05286947 0.37495077
000260 de 73 8e bd 01 9a 96 3e 8f e3 86 3a 3c 26 71 3d
       -0.06955694 0.2941437 0.0010291206 0.058874354
000270 86 35 10 3c 4a 29 4a 3e 30 23 c9 3e e7 65 f0 3e
       0.0088018235 0.19742313 0.39284658 0.46952745
000280 d4 59 71 3e ae 07 7f bc b5 80 78 3e 5a f3 c3 bb
       0.23569423 -0.015565796 0.24267848 -0.0059799375
000290 a3 7b 10 3f 0e 7d a8 bd f0 61 05 bd 7e 87 ed be
       0.56438655 -0.08226977 -0.032564104 -0.46392435
0002a0 43 b2 72 3d 8d ec 4c bd 50 01 2b bd dc ba 35 3f
       0.059252035 -0.05003028 -0.0417493 0.7098825
0002b0 72 05 0e 3d b1 87 81 3e 6b f9 0c bd 27 8a c5 3c
       0.03467316 0.25298837 -0.03441755 0.024113728
0002c0 2a a8 c9 3c 12 21 13 bf 95 46 d6 3c 04 69 7c 3e
       0.02461632 -0.57472336 0.026156703 0.24649435
0002d0 9b 24 72 3d b2 d7 2d 3e ef 82 ae bd 79 a0 09 3e
       0.05911694 0.16976812 -0.08521067 0.13440122
0002e0 ec 6d 93 3e 93 09 34 3c cc 36 86 3e 7e 3a 55 3f
       0.287948 0.010988611 0.26213682 0.83292377
0002f0 79 33 ad 3e 37 ec 75 3d 15 4a 2e 3c 71 c7 ae 3c
       0.33828333 0.060039725 0.01063778 0.021335335
000300 29 7c fd bb e3 5f 8e 3e 5b 3f fb 3e cc b9 cd 3c
       -0.0077357483 0.2780753 0.49071774 0.025113009
000310 da 60 9b bd 53 b4 78 3e 2a 80 a4 bd 24 61 8e bd
       -0.07586832 0.24287538 -0.08032258 -0.06952122
000320 8f f2 a1 3d 75 99 e9 3c 3c 4a 20 3d 55 03 39 bd
       0.079075925 0.028515557 0.039133295 -0.045169193
000330 62 75 d2 bb 8f 81 a9 3d 53 ea 03 3d 52 bf 00 3f
       -0.0064226845 0.082766645 0.03220589 0.5029193
000340 1c 87 79 3e 13 be 21 39 41 cd 35 3f 37 a9 3a 3f
       0.24367946 0.00015424965 0.7101632 0.7291445
000350 95 53 26 bc 19 a0 d8 be 6d 77 2b 3f 43 88 91 3d
       -0.010151763 -0.42309645 0.66979104 0.07106068
000360 65 54 df 3e ec 39 a1 3e ca e6 83 b8 f7 c1 33 bf
       0.43619075 0.31489503 -6.2895546e-05 -0.7021784
000370 6e a3 2f 3f d6 7f 8a 3b 20 1f 7e 3e db 74 9c bd
       0.6860875 0.004226665 0.24816561 -0.07639476
000380 59 a9 3a 3e 1b b4 1c 3e 4a f5 4c bd 57 63 84 3f
       0.18228664 0.1530308 -0.050038613 1.0342816
000390 4b 43 53 3e e9 35 2b 3d a2 dd ba bd 9a 9d 73 3f
       0.20631139 0.04179946 -0.09124304 0.95162356
0003a0 30 cb c5 3c 3a b5 ee bc 7f 55 de 3c 96 c7 b0 be
       0.024144739 -0.02913915 0.027140377 -0.34527272
0003b0 7e f4 42 3d 45 1a e3 3b c1 e7 19 3e da a6 92 3d
       0.047596447 0.006930622 0.15029813 0.07160731
0003c0 21 25 94 3d fd 04 35 bf de 54 e6 3c 08 a7 0e bd
       0.07233644 -0.70710737 0.02811664 -0.034827262
0003d0 02 0d b7 bd 98 d5 14 3e 87 40 ec 3e 6f cd 37 3e
       -0.08938028 0.14534605 0.4614298 0.1794946
0003e0 3b a9 83 be 03 4d bd 3c 5b 3c 46 bd 4b f7 12 3f
       -0.2571505 0.023108011 -0.048397403 0.5740859
0003f0 3a a5 ea 3c fc ff 24 3f 1b 44 a7 3e e9 47 61 3e
       0.02864324 0.644531 0.32669148 0.22000088

net.4.bias f4 [6]
000000 ca 26 0e 3e 99 39 3b 3e 83 2d 83 3e 95 f6 7f 3e
       0.13881984 0.1828369 0.2562066 0.24996407
000010 ae 9f 2e 3e cf d3 37 3e
       0.170531 0.17951892
