rl/models/best_model_run0.pth (torch, 79477 bytes, 6 tensors)

net.0.weight f4 [128, 13]
0.11485458 0.1986729 0.51564664 0.25762978 0.2841806 -0.11515419 0.26155338 0.037875853
0.15895085 -0.31794378 0.23827901 0.02307861 -0.22826292 0.06873515 0.22013427 -0.07212952
-0.39609492 0.47243676 0.35325283 -0.56855655 0.1922393 -0.38737786 -0.12826964 -0.07180758
-0.22387189 -0.11859092 0.31929052 0.13256863 -0.09533699 -0.6572697 0.05382702 -0.07297762
0.20032701 0.08887561 -0.07997604 -0.14194997 -0.27372515 0.033681143 0.027108228 0.17374977
0.34240592 -1.3312047 -0.55275047 0.30023488 -0.2647103 -0.14027105 -0.1981847 -0.33579913
-0.13550694 0.1092715 0.22842607 0.16095088 0.40373436 0.13937613 -0.11827571 -0.8919464
-0.21792041 -0.07364417 -0.58975685 0.14104259 0.010324009 0.13225509 0.2752929 0.21833399
-0.15594366 0.20158415 0.10279934 -0.19084214 -0.81184006 0.106762655 0.18455693 -0.20773059
0.03234818 0.021229882 0.14433631 -0.16763967 0.23441741 0.02466295 -0.010136344 -0.057918075
-0.30623063 -0.8056196 -0.21789852 0.21766008 0.36620855 0.121559136 0.16872992 -0.48839384
0.085564665 -0.050647765 0.11040223 0.036056533 0.20180738 1.2475468 0.6817023 -0.0620136
-0.21033971 0.30613524 0.36265987 0.4772611 0.5561377 -0.0429725 -0.1822157 -0.07849132
0.2017938 -0.0055017946 -0.5501302 -0.31591293 0.08565075 0.24135216 -0.04490825 -0.16988076
0.12658915 0.023896703 -0.61247665 -0.31404707 0.14120184 0.16821317 0.29212952 0.79821396
1.3259739 0.11342602 0.2295558 -0.15068 0.058840133 0.12724033 -0.060655564 0.40842548
-0.22615083 0.28458676 0.30041495 0.31308484 -0.30054426 -0.6199792 -0.18056884 0.26631394
0.25348756 -0.23238082 0.014237734 0.028779605 0.25291434 -0.29370645 0.2766746 -0.14982513
0.32065523 -0.37367138 -0.44584474 0.25731894 0.09808842 0.28147292 -0.09356752 0.2804732
0.015973097 -0.12781164 0.11883872 0.1175343 0.08729635 0.20372236 -0.7694398 -0.885599
-0.12051498 0.14822811 0.32224143 -0.23176713 -0.26861736 0.17573357 0.018874524 -0.101191595
0.18424094 -0.30234835 0.15086935 -1.406277 -0.92478585 -0.08278938 -0.28487703 0.28208625
0.055122275 0.36686558 0.1200948 -0.044487074 -0.16163388 0.28684288 -0.010607577 -0.05244192
-0.45492765 -0.3754251 0.17577927 0.17310822 -0.012195102 -0.3814206 -0.4730063 0.06875117
0.022571258 0.2807481 -0.24773782 0.2029048 0.22384019 0.086099304 -0.14868546 0.16093694
-0.24599718 -0.049929954 0.14779213 0.15245241 0.2068299 -0.16572249 -0.08842264 0.3228174
-0.0057821246 0.018232409 -0.060471278 0.29883307 -0.124580726 0.19371018 0.04859332 -0.18826866
-0.35745102 -0.275837 0.55442375 0.27835047 -0.17842324 0.35373488 -0.12701243 -0.21402204
-0.24284996 0.08334791 -0.10808474 0.31842586 0.2503158 -0.15735562 -0.2249805 0.26030797
0.21142328 0.13111654 0.21456271 0.04787352 -0.33568025 -0.320151 0.07912124 0.08198677
-0.13218042 0.28528693 0.09220233 -0.011283586 0.09184568 0.21221684 0.022054384 -0.23151906
0.071416914 -1.3912268 -0.96200645 -0.08757017 -0.06743936 0.45864064 -0.14270647 0.3864343
00000000: e138 eb3d e970 4b3e 6b01 043f 0de8 833e
00000010: 1f80 913e f6d5 ebbd 53ea 853e b623 1b3d
00000020: 03c4 223e 87c9 a2be 6aff 733e 5a0f bd3c
00000030: c1bd 69be 04c5 8c3d e16a 613e a4b8 93bd
00000040: f4cc cabe 3be3 f13e 8edd b43e ec8c 11bf
00000050: 61da 443e 6456 c6be 1e59 03be da0f 93bd
00000060: ac3e 65be ccdf f2bd 0c7a a33e 12c0 073e
00000070: 0a40 c3bd d442 28bf b979 5c3d 4a75 95bd
00000080: 8622 4d3e 6a04 b63d 7aca a3bd 555b 11be
00000090: b425 8cbe 3df5 093d 1312 de3c 76eb 313e
000000a0: d44f af3e ea64 aabf 0e81 0dbf 63b8 993e
000000b0: 1c88 87be 37a3 0fbe eef0 4abe dded abbe
000000c0: 55c2 0abe bcc9 df3d 86e8 693e 4fd0 243e
000000d0: 45b6 ce3e 9eb8 0e3e 893a f2bd 9956 64bf
000000e0: 8726 5fbe c1d2 96bd 4efa 16bf 786d 103e
000000f0: 0826 293c e16d 073e 31f3 8c3e f292 5f3e
00000100: b2af 1fbe 136c 4e3e 7688 d23d 1f6c 43be
00000110: c0d4 4fbf 61a6 da3d 7efc 3c3e 54b7 54be
00000120: 867f 043d 4aea ad3c e6cc 133e bca9 2bbe
00000130: 1e0b 703e f409 ca3c e812 26bc 813b 6dbd
00000140: 43ca 9cbe 163d 4ebf ca20 5fbe 49e2 5e3e
00000150: b07f bb3e fff3 f83d 89c7 2c3e c20e fabe
00000160: 873c af3d 0874 4fbd 901a e23d 04b0 133d
00000170: 98a6 4e3e 9daf 9f3f 0b84 2e3f f901 7ebd
00000180: 4b63 57be c2bd 9c3e 8eae b93e 915b f43e
00000190: 0a5f 0e3f ef03 30bd c196 3abe 0fc0 a0bd
000001a0: 09a3 4e3e 6648 b4bb 55d5 0cbf 57bf a1be
000001b0: a969 af3d 0525 773e b7f1 37bd 39f5 2dbe
000001c0: 96a0 013e 05c3 c33c 45cb 1cbf c7ca a0be
000001d0: 3797 103e 1340 2c3e 0092 953e c057 4c3f
000001e0: 83b9 a93f e74b e83d ad10 6b3e dc4b 1abe
000001f0: 5a02 713d 4a4b 023e f871 78bd 251d d13e
00000200: 1594 67be 5bb5 913e fdcf 993e a84c a03e
00000210: f0e0 99be f5b6 1ebf 0ae7 38be 4d5a 883e
00000220: 1fc9 813e 3df5 6dbe 6245 693c 35c3 eb3c
00000230: fd7d 813e b160 96be 4ba8 8d3e c26b 19be
00000240: ec2c a43e db51 bfbe c345 e4be 4fbf 833e
00000250: 95e2 c83d 381d 903e 54a0 bfbd 2f9a 8f3e
00000260: 03da 823c 0ee1 02be b761 f33d d3b5 f03d
00000270: 6ec8 b23d 989c 503e 02fa 44bf 9eb6 62bf
00000280: 8fd0 f6bd 1cc9 173e d4fc a43e 5d54 6dbe
00000290: 3788 89be 80f3 333e bf9e 9a3c 8a3d cfbd
000002a0: a8a9 3c3e 67cd 9abe 7f7d 1a3e e200 b4bf
000002b0: c4be 6cbf 7a8d a9bd 67db 91be 9c6d 903e
000002c0: e5c7 613d ced5 bb3e 43f4 f53d 1438 36bd
000002d0: 5a83 25be 12dd 923e 67cb 2dbc 57cd 56bd
000002e0: 47ec e8be b837 c0be 7bff 333e 4843 313e
000002f0: f7cd 47bc 9049 c3be e22d f2be 6acd 8c3d
00000300: 5ce7 b83c 37be 8f3e fcae 7dbe 47c6 4f3e
00000310: 5d36 653e d554 b03d 0041 18be a7cc 243e
00000320: afe6 7bbe 5a83 4cbd d256 173e 7c1c 1c3e
00000330: 38cb 533e 28b3 29be ee16 b5bd 5248 a53e
00000340: fa77 bdbb 225c 953c bbb0 77bd a600 993e
00000350: 2e24 ffbd f65b 463e ca09 473d 80c9 40be
00000360: d203 b7be 823a 8dbe b7ee 0d3f f483 8e3e
00000370: 95b4 36be bd1c b53e 8c0f 02be 9828 5bbe
00000380: a9ad 78be 4fb2 aa3d 885b ddbd b708 a33e
00000390: 6429 803e d521 21be 4a61 66be 1647 853e
000003a0: 587f 583e 6a43 063e 54b6 5b3e 0617 443d
000003b0: 48de abbe d5ea a3be 510a a23d aee8 a73d
000003c0: 4e5a 07be 2111 923e 93d4 bc3d cade 38bc
000003d0: 9619 bc3d 5f4f 593e 65ab b43c 5513 6dbe
000003e0: 0843 923d b813 b2bf 0e46 76bf fd57 b3bd
000003f0: a61d 8abd f2d2 ea3e a521 12be b7da c53e

net.0.bias f4 [128]
0.20888598 -0.18060786 0.195417 -0.006957885 0.04060103 0.15908548 0.057278696 -0.1715305
0.24076031 -0.32022583 0.353719 0.23100533 0.04440635 -0.28724632 0.2596256 0.12572397
0.44495586 0.021710608 0.25840414 0.1363298 0.35823688 -0.07957733 -0.18604556 -0.20759334
0.34247798 0.14074673 -0.28180867 -0.0032272388 0.43168154 -0.13451838 -0.075037874 -0.24242194
-0.19656804 0.08538496 0.049048293 -0.11575407 0.3731454 0.2545944 0.20396708 0.26419005
-0.20196426 0.10550305 0.37739703 -0.26894212 0.30952767 0.24256776 0.19166903 -0.2749606
-0.23813528 -0.39003223 0.43208715 0.13062117 0.10722618 0.26097742 0.24383226 0.06392831
0.2757741 0.09096919 -0.14019004 0.21237679 0.37478745 -0.067635685 -0.0542513 0.076251306
0.15254551 -0.070403 -0.18097249 0.12859955 0.08015185 0.08471722 0.20392247 0.13824981
0.15063296 -0.14386183 0.07800704 0.11681132 0.14034644 0.053239588 0.2154871 0.23972803
0.31458387 -0.079787046 0.3498986 -0.033546098 -0.00052047777 -0.05796453 -0.26085505 -0.29501632
0.24937767 -0.15251441 0.016178744 0.1572857 -0.09842977 0.15908626 -0.13712215 0.254183
-0.076253265 0.4287096 -0.013047008 -0.049254872 0.04554792 -0.10997165 0.15790308 0.2639463
0.1102441 -0.091384836 -0.15464704 0.025000764 0.33419645 -0.01583633 0.2630599 -0.051233
-0.31764108 -0.21105586 -0.22637713 0.27223867 -0.0018749884 0.019308876 -0.053958803 0.2590717
-0.12605415 0.3370968 -0.13373306 0.32532585 0.2024582 -0.25512797 -0.00684622 -0.23896217
00000000: 35e6 553e 44f1 38be 651b 483e f8fe e3bb
00000010: 444d 263d 4ee7 223e 119d 6a3d b1a5 2fbe
00000020: df89 763e a4f4 a3be a81a b53e a98c 6c3e
00000030: 6fe3 353d f311 93be a6ed 843e c9bd 003e
00000040: 41d1 e33e 72da b13c 8c4d 843e 0a9a 0b3e
00000050: d36a b73e 70f9 a2bd ba82 3ebe 5993 54be
00000060: 4659 af3e e91f 103e 3a49 90be 1580 53bb
00000070: 5d05 dd3e 30bf 09be 75ad 99bd 753d 78be
00000080: 2249 49be 4fde ae3d dde6 483d 7810 edbd
00000090: ea0c bf3e 325a 823e bfdc 503e eb43 873e
000000a0: b8cf 4ebe fc11 d83d 2f3a c13e c8b2 89be
000000b0: 697a 9e3e af63 783e e344 443e a3c7 8cbe
000000c0: bcd9 73be 4eb2 c7be 873a dd3e 8ec1 053e
000000d0: 6699 db3d d59e 853e 2aaf 793e d9ec 823d
000000e0: 4332 8d3e 0e4e ba3d fa8d 0fbe 4d79 593e
000000f0: 24e4 bf3e 9484 8abd 9c36 5ebd a529 9c3d
00000100: e434 1c3e 732f 90bd da50 39be 9aaf 033e
00000110: a726 a43d 3980 ad3d 0dd1 503e 5c91 0d3e
00000120: 873f 1a3e 8450 13be 28c2 9f3d c63a ef3d
00000130: fab6 0f3e c111 5a3d a6a8 5c3e 447b 753e
00000140: 2311 a13e 6467 a3bd e925 b33e a267 09bd
00000150: ac70 08ba 376c 6dbd cb8e 85be 610c 97be
00000160: dc5c 7f3e bd2c 1cbe 4989 843c 810f 213e
00000170: 8c95 c9bd 82e7 223e c069 0cbe 4624 823e
00000180: ac2a 9cbd d37f db3e 1ec3 55bc 7abf 49bd
00000190: 7590 3a3d d138 e1bd 58b1 213e f823 873e
000001a0: a9c7 e13d f927 bbbd cb5b 1ebe 67ce cc3c
000001b0: cc1b ab3e 31bb 81bc caaf 863e b2d9 51bd
000001c0: daa1 a2be 071f 58be 68cf 67be de62 8b3e
000001d0: 2cc2 f5ba a62d 9e3c e803 5dbd 0ca5 843e
000001e0: 5714 01be f497 ac3e 52f1 08be 1c91 a63e
000001f0: 3451 4f3e 22a0 82be 4256 e0bb 80b2 74be

net.2.weight f4 [128, 128]
-0.005910297 -0.026097585 0.038283363 -0.13886389 -0.11126254 -0.10508039 -0.09288231 0.09149656
0.07069255 -0.032569714 0.047753565 0.053594984 -0.06611502 -0.024737826 0.06272078 -0.042912632
-0.018234795 0.047171958 0.04973342 -0.063706934 -0.054892324 0.12758544 0.040713742 -0.06661145
0.028976087 -0.12109232 0.015761368 0.0076631713 0.06096171 -0.062315755 0.0034971344 0.007603952
-0.044383295 0.099259615 0.054154906 -0.06481571 0.04721125 -0.034036685 0.002017762 0.029630853
-0.09184499 -0.06948062 -0.08207434 0.07053431 0.00097138464 -0.00442629 0.10181115 0.019055149
0.052695453 -0.03182096 0.044308096 0.096355364 -0.051396094 -0.065407045 -0.0572804 0.0023181776
-0.04745512 -0.08806336 0.022074163 -0.092493415 0.028745925 0.015792746 -0.014815199 0.01103041
-0.0019671523 -0.027949113 0.10972709 0.09142928 0.06494796 0.08539467 -0.059698846 -0.0640493
0.029304504 0.06018674 -0.0015051656 -0.05447362 0.018207747 -0.007903052 -0.00087019836 0.008052859
-0.06463558 -0.019411623 -0.090014815 0.0146043 -0.07090254 -0.0015322065 -0.030523358 0.036068927
0.02703531 -0.014643663 -0.013534765 -0.0071970625 0.034738515 0.06074333 -0.076009795 0.027722433
-0.030153709 0.03608767 0.06845333 -0.0511876 -0.090047255 -0.058964573 0.17156982 0.021680439
0.033770513 0.027074296 0.08267456 0.00200796 -0.0697076 0.00074066955 -0.103024244 -0.08389435
-0.08268272 0.02259931 0.018613428 -0.04925987 0.060919672 -0.1063472 -0.006772699 -0.09242703
-0.018397562 -0.078394264 0.019124443 0.1572458 -0.010886165 -0.0451908 0.051143534 -0.0283305
0.01601822 -0.017774634 0.0061867633 0.033036977 0.00348676 -0.074505985 0.055285156 0.15492839
0.036470715 -0.0974356 0.0052439305 0.021947838 -0.095486894 -0.10227081 -0.08714215 0.05385449
-0.051767375 -0.029041855 0.06741209 0.06108467 -0.05158353 -0.01805811 -0.012924986 0.009579296
-0.038110282 -0.09356449 0.021272134 -0.039485645 -0.064833924 0.058399804 0.00038515273 0.010182916
0.013391634 -0.056200545 -0.04949411 0.08762389 -0.057531606 0.063593976 -0.028483462 0.045690425
-0.060966324 0.022308627 -0.034945235 -0.05206091 -0.027615517 0.016773198 0.048109896 0.06737857
0.10489273 -0.10240825 -0.074515 -0.025303544 0.0048347805 -0.029139595 -0.06871483 -0.0028946733
-0.0722058 0.0731348 -0.041393146 -0.10182845 0.008705316 -0.025549434 0.06814282 -0.07398041
-0.09651441 -0.08235349 -0.07614825 -0.049789984 -0.06800302 0.024058068 -0.0045927414 -0.053386286
-0.012356762 0.016502662 -0.06347638 -0.050258208 -0.051302653 0.0037055612 0.009030534 0.0010561418
0.07122056 -0.06662299 -0.022946868 0.04121462 -0.015530485 -0.0099822385 0.056808315 0.01271056
-0.04879326 0.017147502 -0.027066031 0.07292557 0.050056234 -0.0013703543 0.07561421 -0.10844059
-0.06299938 -0.090607576 0.07655421 0.001181197 -0.0065605664 -0.015810525 -0.09354708 0.053902186
-0.094655596 0.020506758 -0.07490595 -0.087494716 -0.07240612 -0.015201309 0.028776754 -0.05093969
-0.0354055 0.038832672 0.08320365 -0.0075416532 -0.082729325 0.03800255 0.0635031 0.04683302
0.075287744 -0.078525364 -0.030726098 -0.0046706935 -0.08973259 0.03400159 0.0047209994 0.03695521
00000000: 2aab c1bb 9aca d5bc 04cf 1c3d 5632 0ebe
00000010: 9ddd e3bd 6334 d7bd 1539 bebd 8c62 bb3d
00000020: 41c7 903d d267 05bd 3e99 433d 6a86 5b3d
00000030: 5067 87bd fba6 cabc c173 803d 28c5 2fbd
00000040: 2361 95bc 6237 413d 45b5 4b3d c878 82bd
00000050: c6d6 60bd c2a5 023e 74c3 263d 956b 88bd
00000060: 425f ed3c 40ff f7bd fc1d 813c 571b fb3b
00000070: fcb2 793d ce3e 7fbd 2e30 653b 932a f93b
00000080: 42cb 35bd a048 cb3d 89d1 5d3d 19be 84bd
00000090: 9560 413d 0d6a 0bbd 6e3c 043b 67bc f23c
000000a0: 3a19 bcbd db4b 8ebd 9716 a8bd 4b74 903d
000000b0: 85a4 7e3a 690a 91bb 5d82 d03d 8b19 9c3c
000000c0: 30d7 573d b256 02bd 687c 353d f655 c53d
000000d0: b684 52bd 21f4 85bd da9e 6abd 91ec 173b
000000e0: 4d60 42bd 905a b4bd e0d4 b43c 306d bdbd
000000f0: 937c eb3c ca5f 813c 73bb 72bc e5b8 343c
00000100: 57eb 00bb 8af5 e4bc 99b8 e03d 463f bb3d
00000110: 7003 853d 67e3 ae3d c786 74bd 482c 83bd
00000120: 0010 f03c 5f86 763d fa48 c5ba bb1f 5fbd
00000130: 6a28 953c cd7b 01bc 061e 64ba 24f0 033c
00000140: a95f 84bd 2005 9fbc b059 b8bd e046 6f3c
00000150: 5a35 91bd 52d4 c8ba 1f0c fabc 03bd 133d
00000160: 2879 dd3c f9eb 6fbc ebc0 5dbc 56d5 ebbb
00000170: f949 0e3d ffcd 783d 06ab 9bbd 281a e33c
00000180: e904 f7bc aad0 133d 4231 8c3d 17aa 51bd
00000190: b26a b8bd d684 71bd 00b0 2f3e 2d9b b13c
000001a0: f352 0a3d eaca dd3c 4851 a93d fb97 033b
000001b0: dcc2 8ebd 7e29 423a 60fe d2bd cdd0 abbd
000001c0: 8f55 a9bd 3022 b93c 307b 983c b8c4 49bd
000001d0: e886 793d 90cc d9bd 84ed ddbb 624a bdbd
000001e0: 7cb6 96bc 2c8d a0bd ddaa 9c3c 0b05 213e
000001f0: e35b 32bc fd19 39bd e27b 513d 5d15 e8bc
00000200: a438 833c 1c9c 91bc 55ba ca3b c851 073d
00000210: 2082 643b 9896 98bd b072 623d 8ca5 1e3e
00000220: 5162 153d 518c c7bd 47d5 ab3b f4cb b33c
00000230: a28e c3bd 5c73 d1bd 9577 b2bd 8796 5c3d
00000240: 070a 54bd 2fe9 edbc 5a0f 8a3d eb33 7a3d
00000250: 4049 53bd 9aee 93bc 52c3 53bc 7bf2 1c3c
00000260: 8719 1cbd bd9e bfbd e642 ae3c b3bb 21bd
00000270: a6c7 84bd a234 6f3d 53ee c939 3fd6 263c
00000280: 9668 5b3c 8b32 66bd 56ba 4abd 2774 b33d
00000290: 43a6 6bbd 8f3d 823d 2656 e9bc e225 3b3d
000002a0: d3b7 79bd 95c0 b63c bc22 0fbd d23d 55bd
000002b0: f039 e2bc f267 893c e20e 453d c7fd 893d
000002c0: 00d2 d63d 6bbb d1bd 529b 98bd 6149 cfbc
000002d0: 146d 9e3b 29b6 eebc 5cba 8cbd 8fb4 3dbb
000002e0: a2e0 93bd b3c7 953d dc8b 29bd 6f8b d0bd
000002f0: bea0 0e3c 0c4d d1bc 768e 8b3d 0b83 97bd
00000300: 59a9 c5bd f2a8 a8bd 9df3 9bbd 95f0 4bbd
00000310: 2b45 8bbd 6d15 c53c b57e 96bb 94ab 5abd
00000320: 0474 4abc 9730 873c e8ff 81bd 8ddb 4dbd
00000330: bb22 52bd 00d9 723b cef4 133c 3d6e 8a3a
00000340: 16dc 913d a271 88bd 12fb bbbc a9d0 283d
00000350: 9373 7ebc 8b8c 23bc d6af 683d f43f 503c
00000360: 71db 47bd eb78 8c3c 95b9 ddbc 005a 953d
00000370: c407 4d3d 769d b3ba 9fdb 9a3d 1a16 debd
00000380: d205 81bd 7790 b9bd 74c8 9c3d 65d2 9a3a
00000390: 05fa d6bb 1385 81bc 9d95 bfbd 8ac8 5c3d
000003a0: cbda c1bd cafd a73c 4a68 99bd 6e30 b3bd
000003b0: a949 94bd e90e 79bc 3abd eb3c 23a6 50bd
000003c0: 5c05 11bd 020f 1f3d ad66 aa3d f91f f7bb
000003d0: fe6d a9bd 90a8 1b3d ea0d 823d fbd3 3f3d
000003e0: 7630 9a3d e8d1 a0bd 4cb5 fbbc 9e0c 99bb
000003f0: b8c5 b7bd 4045 0b3d 9db2 9a3b 595e 173d

net.2.bias f4 [128]
0.057885114 -0.10518591 -0.06856361 -0.0062143276 0.15136036 0.23432589 -0.030310059 -0.054520592
0.2821266 -0.010139027 0.022674736 -0.098217666 -0.024065634 0.22358628 -0.08376135 0.11767745
0.16051246 -0.05808134 -0.009217834 0.124698445 -0.0676502 0.20204543 -0.08150279 -0.024328552
-0.028482484 0.30780023 -0.06996609 -0.07991817 -0.018453266 -0.03704893 -0.08125328 0.06538582
0.18752208 0.11686688 0.05071182 0.043399174 0.006671339 -0.013200581 -0.0069289217 -0.06796833
0.21007043 0.12720022 0.060032763 -0.02723808 0.19278972 0.15897419 0.010437255 0.3035167
0.03504554 -0.0012564868 0.025934134 -0.026151702 0.01814185 -0.08754918 0.2179706 0.18525954
0.022024265 0.2513714 0.058175895 -0.02132413 0.17889692 -0.016503757 0.2220899 -0.0046769553
-0.021496098 0.14677545 0.118639216 -0.044475205 -0.042444542 -0.009155991 0.0052796756 0.01576818
-0.05127813 -0.011579854 -0.05675593 -0.002661036 -0.03994489 0.29489315 0.0033309672 0.1425955
-0.016226336 0.06859205 -0.05171796 -0.058963396 0.04355956 0.032683965 0.008970148 -0.0627675
0.21237895 -0.08380278 0.041115597 0.0127894 0.26452908 -0.011719197 0.029449651 0.049272332
-0.11111602 0.049682945 0.16471736 0.09506014 0.3086786 -0.0007297714 -0.0005628704 -0.07626149
0.25596946 -0.018715007 0.2372621 0.095564865 0.26153684 0.19709998 0.22153576 0.16719174
0.027426042 -0.0028852243 0.12332281 0.060391895 -0.081003144 0.010695754 0.016080618 0.029161273
0.03269361 0.16711707 -0.052700013 0.044690922 0.12560779 -0.03308108 0.029091578 0.34495533
00000000: f118 6d3d b66b d7bd 146b 8cbd 8fa1 cbbb
00000010: 36fe 1a3e 20f3 6f3e cd4c f8bc fc50 5fbd
00000020: e672 903e 291e 26bc 5ec0 b93c 5826 c9bd
00000030: 4b25 c5bc cdf3 643e 128b abbd e000 f13d
00000040: 615d 243e b3e6 6dbd 6606 17bc e661 ff3d
00000050: 308c 8abd ffe4 4e3e efea a6bd ac4c c7bc
00000060: 1954 e9bc fe97 9d3e 624a 8fbd 23ac a3bd
00000070: 4e2b 97bc 9ec0 17bd 1f68 a6bd 00e9 853d
00000080: ca05 403e e757 ef3d 33b7 4f3d 55c3 313d
00000090: 3f9b da3b 4047 58bc 020c e3bb fb32 8bbd
000000a0: b41c 573e c640 023e eae4 753d 6522 dfbc
000000b0: ab6a 453e 21ca 223e 0501 2b3c 8a66 9b3e
000000c0: ea8b 0f3d b3b0 a4ba d273 d43c 183c d6bc
000000d0: 389e 943c fc4c b3bd af33 5f3e adb4 3d3e
000000e0: 3b6c b43c c1b3 803e d949 6e3d f1af aebc
000000f0: c130 373e e332 87bc 896b 633e 2541 99bb
00000100: 9618 b0bc 4e4c 163e 1ef9 f23d a22b 36bd
00000110: 54da 2dbd 0203 16bc 2101 ad3b 452c 813c
00000120: 0409 52bd 6eb9 3dbc e878 68bd c764 2ebb
00000130: 419d 23bd 3cfc 963e 5b4c 5a3b 8e04 123e
00000140: 18ed 84bc fd79 8c3d 36d6 53bd 9a83 71bd
00000150: 826b 323d 9fdf 053d 87f7 123c 3f8c 80bd
00000160: de79 593e cba0 abbd d468 283d a28a 513c
00000170: 5b70 873e e001 40bc 6540 f13c c9d1 493d
00000180: cc90 e3bd 5880 4b3d abab 283e e4ae c23d
00000190: 1f0b 9e3e 214e 3fba 988d 13ba fc2e 9cbd
000001a0: 6e0e 833e 3750 99bc d6f4 723e 83b7 c33d
000001b0: 28e8 853e 94d4 493e 45da 623e 5034 2b3e
000001c0: 94ac e03c 0816 3dbb ab90 fc3d 7e5d 773d
000001d0: fae4 a5bd 3e3d 2f3c 80bb 833c 9fe3 ee3c
000001e0: bce9 053d bd20 2b3e f8db 57bd d40d 373d
000001f0: 549f 003e 0780 07bd 7651 ee3c fc9d b03e

net.4.weight f4 [6, 128]
-0.011898211 0.0042169206 -0.000377114 0.016538493 0.21549274 0.15837692 -0.06672916 -0.075416766
0.13667627 -0.008450552 -0.04987146 0.06470528 -0.21315248 0.15906627 0.08559562 0.09447336
0.16567993 0.04955401 -0.0027092586 0.67068976 -0.027329221 0.36571983 0.36118567 0.01279004
0.6543065 0.1945883 0.004478262 -0.055269185 0.024244696 -0.034711655 -0.037262272 -0.062985525
0.18578373 0.38520834 0.19429457 -0.044989776 -0.008241719 -0.002359085 0.539141 -0.0009878285
0.19490494 0.19249684 -0.07180366 0.06998219 0.17259338 0.20596717 -0.00969818 0.2000175
-0.007377532 0.0032398722 -0.030032735 -0.005260561 -0.38776863 0.010470826 0.14575015 0.2547238
-0.36861318 0.14971203 0.4930351 0.20169625 0.4721856 0.008002275 0.16631135 -0.120722786
0.36271712 0.069943145 0.19193572 0.100982115 -0.02781389 -0.04443432 -0.08356049 0.04202875
-0.060344566 0.3128846 -0.15820862 0.07990206 0.5039656 0.086313866 0.031480562 0.2379486
0.033904888 0.12510043 0.0021058253 0.04667799 0.056701872 -0.055386797 -0.07694905 0.008685043
0.14098457 0.055644248 0.038195033 0.0063675772 0.1358838 0.20459619 -0.010346943 -0.041440237
-0.21906894 0.33099872 0.121786036 0.6019982 0.20736691 0.43945262 0.64073914 0.07699663
0.17830172 -0.04548805 0.072135784 0.43679836 0.17120963 0.17780295 0.18648338 0.12075458
-0.080185555 -0.058060363 0.02563979 0.047517907 0.00736905 0.002904256 -0.036904857 -0.49388936
-0.08736028 0.13212845 -0.05065222 -0.023744723 0.38590384 0.05549449 -0.063898765 0.1770924
-0.07838074 -0.035877414 -0.05072727 -0.2578363 0.16983439 0.24378863 0.076002955 -0.0046385555
0.16685148 -0.08440733 -0.048907876 0.04275326 -0.054640364 0.24066223 -0.05767244 -0.10823239
0.15750612 -0.07530807 -0.036813058 0.88185066 -0.066074215 0.15591298 0.28646544 0.040523298
0.46664625 0.20521596 0.019197857 0.026953783 -0.059519578 -0.10227662 0.08734997 -0.08516743
0.18536782 0.45174766 -0.025338635 -0.063000076 0.07733709 -0.011839129 0.56063086 -0.0814302
0.18693382 0.20746423 -0.011254936 0.056414936 0.099187545 0.18412462 0.027246073 0.24115746
0.05080223 0.008125227 -0.06727238 -0.054256417 0.04106079 0.06296287 0.14217328 -0.30418417
-0.60180444 0.22715765 0.36257938 -0.057041157 0.30302405 -0.0037748613 0.20050566 -0.0673227
0.07385546 -0.013356304 0.117790125 -0.37751737 -0.076293856 -0.016089618 -0.045773238 0.029173069
-0.03440251 0.91676515 0.037520405 0.047728512 -0.0029923688 0.27620396 0.06579971 0.20170622
-0.057641897 0.19342124 -0.014610677 -0.07220008 -0.081311546 -0.033882115 -0.05620618 0.04920971
0.19377264 0.009298364 0.67930555 0.010697228 0.14417817 0.042341243 -0.0045979214 0.103972554
-0.22207731 0.42187518 0.14227249 0.50257695 0.23018165 0.4354606 0.8546264 -0.037020233
0.12864608 7.121202e-05 0.23646025 0.50033116 0.1882435 0.22437254 0.1343206 0.16997169
0.23767702 -0.01093985 0.1550711 -0.0194864 0.041459337 0.74411213 0.022517096 -0.24700123
0.077101946 0.18370418 0.023747617 0.00073185895 0.17483926 -0.05933694 0.0577294 0.13203843
00000000: b7f0 42bc 182e 8a3b 62b7 c5b9 bc7b 873c
00000010: 21aa 5c3e 8f2d 223e 4ca9 88bd 1b74 9abd
00000020: ddf4 0b3e 2f74 0abc 0446 4cbd 3484 843d
00000030: a544 5abe 45e2 223e c24c af3d 407b c13d
00000040: 00a8 293e 25f9 4a3d d18d 31bb 53b2 2b3f
00000050: 88e1 dfbc a13f bb3e 54ed b83e 518d 513c
00000060: a180 273f 2842 473e 62be 923b f161 62bd
00000070: d09c c63c cf2d 0ebd 53a0 18bd 8efe 80bd
00000080: 173e 3e3e 073a c53e 28f5 463e 3347 38bd
00000090: 4608 07bc e19a 1abb 2505 0a3f 067a 81ba
000000a0: 2995 473e e41d 453e cc0d 93bd d352 8f3d
000000b0: 52bc 303e 0fe9 523e 1de5 1ebc 63d1 4c3e
000000c0: 39bf f1bb 0954 543b 3607 f6bc c960 acbb
000000d0: 9c89 c6be d48d 2b3c 873f 153e 286b 823e
000000e0: deba bcbe 1c4e 193e 196f fc3e 7689 4e3e
000000f0: 50c2 f13e f91b 033c 864d 2a3e 823d f7bd
00000100: 0fb6 b93e 5a3e 8f3d cc8a 443e b6cf ce3d
00000110: f4d9 e3bc c300 36bd c321 abbd 5726 2c3d
00000120: dd2b 77bd 6932 a03e 7101 22be b1a3 a33d
00000130: e403 013f 53c5 b03d c3f1 003d cca8 733e
00000140: dadf 0a3d 541a 003e e301 0a3b 6c31 3f3d
00000150: 3940 683d 44dd 62bd 7797 9dbd b64b 0e3c
00000160: 425e 103e 39eb 633d 6572 1c3d 1ca7 d03b
00000170: 1f25 0b3e aa81 513e 3986 29bc 3dbd 29bd
00000180: 9c53 60be aa78 a93e f56a f93d 8e1c 1a3f
00000190: fe57 543e efff e03e 7b07 243f 69b0 9d3d
000001a0: ba94 363e ad51 3abd edbb 933d 09a4 df3e
000001b0: 9451 2f3e fa11 363e 80f5 3e3e 2d4e f73d
000001c0: 5338 a4bd b4d0 6dbd 890a d23c 23a2 423d
000001d0: 1278 f13b 5555 3e3b 8c29 17bd 11df fcbe
000001e0: f2e9 b2bd ae4c 073e b478 4fbd 4b84 c2bc
000001f0: 3095 c53e 314e 633d 5bdd 82bd b657 353e
00000200: 1586 a0bd 32f4 12bd 66c7 4fbd 1f03 84be
00000210: 11e9 2d3e baa3 793e 70a7 9b3d 06ff 97bb
00000220: 1ddb 2a3e c0dd acbd a053 48bd 0b1e 2f3d
00000230: 93ce 5fbd 2970 763e f039 6cbd f1a8 ddbd
00000240: 4949 213e 1e3b 9abd 4ac9 16bd f7c0 613f
00000250: eb51 87bd a7a7 1f3e 99ab 923e c2fb 253d
00000260: 42ec ee3e 2224 523e d344 9d3c 2ece dc3c
00000270: cdca 73bd 6876 d1bd 8be4 b23d 436c aebd
00000280: 10d1 3d3e 784b e73e f892 cfbc 2f06 81bd
00000290: e962 9e3d e8f8 41bc 8185 0f3f e0c4 a6bd
000002a0: 946b 3f3e 8171 543e a066 38bc 5913 673d
000002b0: d722 cb3d 2a8b 3c3e 2833 df3c fbf1 763e
000002c0: 0016 503d ac1f 053c 1ac6 89bd fa3b 5ebd
000002d0: 5c2f 283d adf2 803d df95 113e 07be 9bbe
000002e0: db0f 1abf 049c 683e 01a4 b93e fda3 69bd
000002f0: f825 9b3e aa63 77bb 5b51 4d3e 7ce0 89bd
00000300: 8841 973d 66d4 5abc f33b f13d f549 c1be
00000310: f43f 9cbd 60ce 83bc b87c 3bbd 5cfc ee3c
00000320: a5e9 0cbd 1fb1 6a3f ffae 193d f97e 433d
00000330: 9e1b 44bb 9b6a 8d3e 00c2 863d 138c 4e3e
00000340: e919 6cbd 3810 463e 9f61 6fbc a3dd 93bd
00000350: ab86 a6bd f9c7 0abd 7438 66bd 1f90 493d
00000360: 566c 463e 2a58 183c f8e6 2d3f 6d43 2f3c
00000370: 71a3 133e 036e 2d3d 29aa 96bb 90ef d43d
00000380: 3c68 63be 0600 d83e e1af 113e e2a8 003f
00000390: bdb4 6b3e b1f4 de3e ccc8 5a3f 87a2 17bd
000003a0: ccbb 033e aa57 9538 a322 723e b415 003f
000003b0: e7c2 403e eac1 653e 578b 093e 0f0d 2e3e
000003c0: 9b61 733e 0e3d 33bc f5ca 1e3e f1a1 9fbc
000003d0: 44d1 293d 227e 3e3f c675 b83c e4ed 7cbe
000003e0: a0e7 9d3d f31c 3c3e 5d8a c23c 39da 3f3a
000003f0: 1009 333e 4b0b 73bd aa75 6c3d 1535 073e

net.4.bias f4 [6]
0.21980712 0.2119411 0.07467526 0.29193875 0.24124041 0.22482172
00000000: 1e15 613e 1607 593e 58ef 983d ff78 953e
00000010: ba07 773e aa37 663e
