rl/models/best_model_run4.pth (torch, 79477 bytes, 6 tensors)

net.0.weight f4 [128, 13]
-0.16250132 -0.16545925 0.14350303 0.17081504 0.20847978 0.15262537 0.009010811 -0.12935388
-0.0747118 -0.15650292 -0.12708277 -0.18062478 -0.24109939 0.09251262 0.1849723 0.5082131
0.48865455 0.39174634 0.31299075 -0.048778445 0.29645047 0.17673774 -0.30979317 -0.18850902
0.20115517 -0.48290667 0.34155947 0.12704407 0.16153122 -0.82093185 -0.011228347 -0.32811433
0.2867136 -0.20834452 -0.41779897 -0.10394897 0.6457261 0.14335313 0.28345156 -0.116888344
-0.12247128 -0.15319867 -0.1255762 -0.23157051 0.033221178 -0.025154175 -0.08560504 0.0016055913
0.25337994 0.09809894 0.010946633 -0.024106946 -0.06777242 0.0050239875 -0.29773593 -0.08591799
0.27921245 -0.020582683 0.25457564 -0.05129834 -0.5232776 0.25083968 -0.17560649 -0.035193764
-0.30504492 0.09686871 -0.06764699 0.6450375 1.176772 -0.4438874 0.12731548 0.3805974
0.12701105 -0.6789501 -0.0567892 0.35947466 0.11624045 -0.044351347 -0.16169906 -0.16813774
-0.20471127 -0.3239323 -0.2650698 0.5914842 0.27372095 -0.28703022 0.58230436 -0.42312637
-0.22422963 -0.14426915 -0.019018313 0.09637183 0.1482943 0.4169781 0.5618409 0.12725678
-0.5141673 -0.33325237 0.012617053 -0.20804305 0.36560595 -0.34599465 0.18679242 -0.4841526
0.27593708 -0.21104786 0.15630238 0.58012915 0.24305613 0.23429167 -0.15128918 0.3036672
-0.6143136 -0.2585948 0.3600028 0.20599145 0.21631101 -0.33335495 -0.22084314 -0.3433593
-1.6052716 0.21208017 -0.027320124 0.27456257 0.033987638 0.19852655 0.17216384 0.31788355
-0.25292617 -0.074914105 -0.08855723 0.37584075 0.45473003 -0.6278101 0.56496334 -0.31256
0.11084728 0.41771308 0.086005285 0.195222 0.2649692 -0.409585 -0.6430026 -0.017036546
-0.37468395 0.23174128 0.43308678 0.2752143 -0.20292185 -0.11901509 -0.43577066 0.14836265
-0.004988839 -0.26900563 0.5626239 0.50236875 0.07962404 0.06657443 0.21496549 -0.29109108
0.26723674 0.43041134 0.3331374 -0.3808596 -0.16783057 -0.35993618 0.40668538 -0.115404785
0.22577976 -0.3815436 0.21217617 -1.3199704 0.8385418 -0.28397396 0.65135926 0.4299219
-0.60559696 0.04778212 0.2689794 0.06543384 0.041047234 -0.1608095 0.1856747 0.43420443
0.2143042 0.1961405 -0.044082172 0.08774419 -0.018159915 0.033955563 -0.014429118 -0.32519022
0.32397088 0.07004313 -0.598604 0.1806271 -0.26493242 -0.24062492 -0.07787109 -0.16966842
-0.22377816 0.025203502 -0.1991306 -0.067095175 0.25402972 -0.1303628 0.11898164 -0.17948355
-0.19051123 -0.07011212 0.06753919 0.2997591 0.11505126 0.3718316 0.30433783 0.30539307
-0.04904459 0.23219877 0.1058263 -0.00529623 -0.2607852 0.063634835 0.118999794 -0.13413313
-0.19552098 -0.024680385 -0.13294822 -0.12060548 -0.14765194 0.02531466 -0.19393837 -0.21370098
-0.10259613 -0.059620295 -0.085074216 0.24407265 0.5426404 0.71688884 -0.12927489 0.51640034
-0.3689088 0.1584628 0.087893054 -0.45602193 -0.08966043 0.107474566 -0.13551924 0.24711417
-0.059868384 0.415109 0.4624896 -0.1862045 0.20088527 -0.15516369 0.16260457 0.13982727
00000000: bf66 26be 266e 29be 75f2 123e 23ea 2e3e
00000010: b97b 553e d349 1c3e 15a2 133c 5875 04be
00000020: 8002 99bd 4d42 20be fc21 02be b4f5 38be
00000030: c2e2 76be 4277 bd3d 6169 3d3e 411a 023f
00000040: ee30 fa3e fa92 c83e 5340 a03e e8cb 47bd
00000050: 5bc8 973e bdfa 343e 369d 9ebe 8208 41be
00000060: 9ffb 4d3e 8b3f f7be e2e0 ae3e d717 023e
00000070: 7168 253e 9728 52bf 1af7 37bc 9afe a7be
00000080: 20cc 923e 4458 55be bfe9 d5be 33e3 d4bd
00000090: 4e4e 253f 2acb 123e 9020 913e 2863 efbd
000000a0: 39d2 fabd 1de0 1cbe 0c97 00be d220 6dbe
000000b0: ee12 083d 2110 cebc b251 afbd b472 d23a
000000c0: 04bb 813e 19e8 c83d 8259 333c ee7b c5bc
000000d0: 44cc 8abd 43a0 a43b d870 98be c5f5 afbd
000000e0: eff4 8e3e 049d a8bc bd57 823e 351e 52bd
000000f0: 85f5 05bf 0f6e 803e 30d2 33be 5627 10bd
00000100: d92e 9cbe 1a63 c63d 818a 8abd 2d21 253f
00000110: 77a0 963f 3645 e3be fd5e 023e aadd c23e
00000120: 2f0f 023e accf 2dbf cb9b 68bd 100d b83e
00000130: 790f ee3d c2a9 35bd 7094 25be 4d2c 2cbe
00000140: d59f 51be 74da a5be 3bb7 87be 826b 173f
00000150: 2725 8c3e a0f5 92be e611 153f 05a4 d8be
00000160: 749c 65be 4bbb 13be 4bcc 9bbc 985e c53d
00000170: 76da 173e 277e d53e ced4 0f3f 9a4f 023e
00000180: 78a0 03bf 0ea0 aabe c2b7 4e3c 3d09 55be
00000190: b430 bb3e 3626 b1be 8346 3f3e d9e2 f7be
000001a0: a047 8d3e ee1c 58be bb0d 203e 5883 143f
000001b0: b5e3 783e 28ea 6f3e 8deb 1abe 447a 9b3e
000001c0: a843 1dbf 8a66 84be 4952 b83e 6cef 523e
000001d0: a280 5d3e 80ad aabe b424 62be cacc afbe
000001e0: 8a79 cdbf 8b2b 593e 74ce dfbc 7793 8c3e
000001f0: 9f36 0b3d 8b4a 4b3e b84b 303e a2c1 a23e
00000200: 8a7f 81be 916c 99bd 7e5d b5bd 336e c03e
00000210: 60d2 e83e 2ab8 20bf 70a1 103f dd07 a0be
00000220: e603 e33d 7dde d53e 8a23 b03d 47e8 473e
00000230: 0baa 873e 20b5 d1be d29b 24bf 3a90 8bbc
00000240: 93d6 bfbe 964d 6d3e 8dbd dd3e e4e8 8c3e
00000250: bfca 4fbe 2fbe f3bd 551d dfbe 61ec 173e
00000260: 6a79 a3bb 1bbb 89be 1f08 103f 3d9b 003f
00000270: ee11 a33d 2d58 883d ea1f 5c3e e409 95be
00000280: 41d3 883e e05e dc3e fc90 aa3e 0800 c3be
00000290: c7db 2bbe 8e49 b8be 1139 d03e 5859 ecbd
000002a0: cf32 673e af59 c3be b644 593e caf4 a8bf
000002b0: adaa 563f 0965 91be 7bbf 263f b91e dc3e
000002c0: 6708 1bbf 2fb7 433d abb7 893e 2d02 863d
000002d0: 2521 283d 3fab 24be 8221 3e3e 0b50 de3e
000002e0: 8f72 5b3e 0ed9 483e 828f 34bd 3ab3 b33d
000002f0: 1ac4 94bc fd14 0b3d 1b68 6cbc 557f a6be
00000300: 83df a53e c672 8f3d 1d3e 19bf 4ff6 383e
00000310: 39a5 87be 6166 76be e17a 9fbd 8fbd 2dbe
00000320: 1a26 65be 9377 ce3c e4e8 4bbe 3269 89bd
00000330: 2f10 823e d37d 05be a5ac f33d 89ca 37be
00000340: 6015 43be f196 8fbd fd51 8a3d 067a 993e
00000350: ff9f eb3d b660 be3e 2bd2 9b3e 7b5c 9c3e
00000360: fbe2 48bd 84c5 6d3e 76bb d83d ff8b adbb
00000370: a385 85be fb52 823d 2ab6 f33d 325a 09be
00000380: a736 48be 852e cabc 9423 08be 0200 f7bd
00000390: 1232 17be b160 cf3c c897 46be 6ed4 5abe
000003a0: eb1d d2bd 6934 74bd 643b aebd 2eee 793e
000003b0: 7bea 0a3f 0786 373f a360 04be d032 043f
000003c0: 9de1 bcbe 1244 223e 4601 b43d b57b e9be
000003d0: e39f b7bd a01b dc3d 8ec5 0abe 7f0b 7d3e
000003e0: 8d38 75bd 2b89 d43e 70cb ec3e 64ac 3ebe
000003f0: deb4 4d3e 3be3 1ebe d081 263e e12e 0f3e

net.0.bias f4 [128]
-0.27284586 -0.017573379 -0.07680236 -0.20555274 0.23731333 -0.17147401 0.24605715 0.31605348
-0.22088237 -0.1528999 -0.20724893 0.0026136085 -0.14217027 0.11859952 0.014508795 -0.099760145
0.051350947 0.085461214 0.1987165 0.020243617 0.26477587 0.30950996 0.21432847 0.10138754
-0.05362345 0.2194198 0.3361259 -0.1735529 -0.24366194 0.04599664 0.056219596 0.36732426
0.005784108 0.10398404 0.13062166 0.24633722 0.29869843 0.21440192 -0.18901776 -0.1966025
-0.27250573 0.056071088 -0.27651164 0.041956466 -0.17301022 -0.19577964 -0.08469399 0.1349669
0.31634167 -0.28109542 -0.013471265 0.16726816 0.11071625 0.04617336 -0.046229694 -0.32536983
-0.2702813 -0.22844471 -0.018274024 -0.12751585 -0.2272317 -0.23105735 -0.2197105 0.27297518
-0.13035512 0.07352408 -0.3270888 -0.2919677 -0.15283795 0.20768712 0.13930583 -0.15258552
0.22708803 -0.26144317 0.059924606 -0.30652168 0.3821919 0.23516168 -0.09225762 -0.061058506
0.12741269 -0.028051503 -0.17773269 -0.04336589 0.3723788 0.30643022 -0.2241993 0.19980241
0.2894683 0.10797389 0.09724036 0.088054344 -0.13181312 -0.15891379 -0.23701459 -0.0587927
-0.26901898 0.3243977 -0.21151608 0.093717106 -0.055280607 -0.12618 -0.04602152 -0.13453272
-0.07131921 -0.041800223 -0.26733452 0.12800482 0.3399391 0.36250034 0.37738517 -0.13479361
0.010574697 0.34668767 0.32767555 0.2919698 0.2680879 -0.23665778 -0.17369765 0.19426249
0.31925827 0.015815979 0.3891492 0.24624856 0.10202203 0.14241812 0.01862815 0.20727497
00000000: 74b2 8bbe 0cf6 8fbc 8e4a 9dbd 6b7c 52be
00000010: 4402 733e e296 2fbe 68f6 7b3e c3d1 a13e
00000020: fd2e 62be cb91 1cbe 1039 54be 1349 2b3b
00000030: 1595 11be 4ee4 f23d 4cb6 6d3c 0c4f ccbd
00000040: 5f55 523d 4a06 af3d 577c 4b3e f1d5 a53c
00000050: b490 873e 1778 9e3e ec78 5b3e 45a4 cf3d
00000060: 43a4 5bbd 96af 603e b218 ac3e dab7 31be
00000070: 8482 79be f966 3c3d 8546 663d ed11 bc3e
00000080: 9d88 bd3b 96f5 d43d afc1 053e d33f 7c3e
00000090: 00ef 983e 2d8c 5b3e df8d 41be 2a52 49be
000000a0: df85 8bbe ccaa 653d ef92 8dbe 8bda 2b3d
000000b0: 9729 31be 757a 48be 0b74 adbd c334 0a3e
000000c0: 89f7 a13e bdeb 8fbe 95b6 5cbc 5848 2b3e
000000d0: 34bf e23d 4720 3d3d 595b 3dbd e096 a6be
000000e0: 5062 8abe 69ed 69be 68b3 95bc 8493 02be
000000f0: 6daf 68be 4c9a 6cbe cafb 60be 67c3 8b3e
00000100: d07b 05be cb93 963d 2f78 a7be ca7c 95be
00000110: 8d81 1cbe efab 543e 30a6 0e3e 613f 1cbe
00000120: c489 683e e1db 85be 8173 753d 69f0 9cbe
00000130: a8ae c33e 39ce 703e 90f1 bcbd 7c18 7abd
00000140: 7978 023e 44cc e5bc 8fff 35be 6ea0 31bd
00000150: 6fa8 be3e 6ce4 9c3e 8094 65be 0199 4c3e
00000160: 3035 943e 6a21 dd3d f425 c73d d655 b43d
00000170: 05fa 06be 4cba 22be f4b3 72be 9dd0 70bd
00000180: dbbc 89be 7517 a63e ac97 58be c1ee bf3d
00000190: eb6d 62bd 5435 01be 1081 3cbd f2c2 09be
000001a0: ce0f 92bd b636 2bbd 12e0 88be b213 033e
000001b0: 7f0c ae3e a599 b93e a138 c13e 5607 0abe
000001c0: 7e41 2d3c 0c81 b13e 17c5 a73e 117d 953e
000001d0: d142 893e 6b56 72be ccdd 31be bfec 463e
000001e0: d275 a33e 8390 813c 903e c73e 9528 7c3e
000001f0: edf0 d03d 0ed6 113e 109a 983c e43f 543e

net.2.weight f4 [128, 128]
-0.03187579 0.1994086 0.21404201 0.00042923403 -0.53745586 -0.42289364 0.035331536 -0.30270192
0.13968505 -0.30391786 0.19024979 -0.03384305 0.2538259 -0.21403839 0.53351134 0.014945114
-0.108046934 0.04593701 0.54923815 0.18629183 -0.20287931 -0.054282792 -0.047403406 1.1070849
-0.085399084 -0.42968577 -0.067358166 -0.048642457 -0.06051322 -0.17180456 0.02974261 0.062284898
-0.13745734 0.09487522 -0.14846045 0.03328189 -1.4084038 -0.5400754 -0.16742179 0.3088645
-0.0028010583 -0.039285466 0.33022863 0.25342324 0.088196956 -0.007005354 -0.052927855 -0.1363541
0.1073318 0.17334254 -0.35844392 0.038631603 -0.032522023 0.36677268 0.2707414 0.49206433
0.07069749 0.059174206 0.09344297 0.028721465 0.34618008 -0.05373622 0.864997 0.34092543
0.1963333 -0.92156184 0.21752161 -0.013506569 -0.025875306 -0.05243141 0.09634145 -0.02685634
-0.38376725 -0.033500127 1.2789072 -0.35777253 -0.042210102 -0.124498226 -0.055145852 0.0009634002
0.03285079 0.37717623 -0.00044726234 0.005851911 -0.31702003 0.073031195 0.20218131 0.06836185
0.2500192 -0.012616713 -0.35387093 -0.016352143 -0.6968832 0.062777005 -0.01352525 -0.0386132
0.06314904 0.037924428 -0.059163492 -0.00328875 0.22402325 0.04232904 0.3365166 0.030627934
-0.039778527 -0.020709086 -0.053506494 0.03866132 0.06966642 0.41897273 -0.059178036 0.0040498986
-0.08292678 -0.086268246 -0.034694757 0.12223329 -0.13350704 -0.20966515 -0.040630937 -0.5760278
-0.012882611 0.006375892 0.53667843 0.09916578 0.13272364 0.1767922 -0.10445469 -0.04696673
-0.040299255 0.0043644654 0.19624338 -0.051267445 0.7200363 -0.06210664 0.21105546 1.1941746
0.07951181 0.267354 -0.62937397 0.25160596 0.11928472 0.08602732 -0.33323544 -0.055565607
0.13947637 -0.058331523 -0.22116385 0.14833216 -0.6283561 -0.033296574 -0.103326924 0.106809705
0.2162157 0.0684922 0.025531894 -0.044701125 0.08571988 0.29585326 -0.020218559 -0.121613406
0.15632188 -0.028476387 0.038258012 -0.062050696 -0.07760902 0.33278885 -0.12126987 0.36491126
-0.0062655187 0.053572625 0.47670332 -0.16148253 -0.08485465 -0.01387411 -0.030577822 -0.044791434
-0.056886837 0.13075344 0.69717276 -0.23239355 0.08758055 -0.0041634636 -0.061276548 0.6210001
0.026359504 -0.01957721 -0.31227666 0.027099043 0.18812941 0.0051941774 0.7362876 -0.17715347
0.12467929 0.55705535 0.030601986 -0.062315527 -0.6573865 0.07876166 0.003346211 0.059711464
-0.3269583 -0.077124625 0.3386584 0.5239175 -0.265009 0.04397928 0.06942009 -0.0771244
-0.10641887 0.5687361 0.036830254 0.08177525 0.14677954 -0.14316085 0.2603099 -0.03691591
0.15053092 -0.009038593 0.14979702 -0.7649124 0.23024803 0.11777218 -0.052954637 -0.028330456
0.0457951 -0.00031022608 0.4050993 -0.019277673 0.04708063 0.08383876 -0.09079505 0.045954343
0.108955026 0.009178414 -0.02715724 -0.060265783 -0.030092118 0.20933662 0.17915662 0.23342891
-0.40428847 -0.5747991 0.1110432 -0.60595834 0.07721976 0.874948 0.063271664 -0.47999611
-0.5334116 0.29037842 -0.7485057 -0.010506833 -0.28024906 0.35925427 0.6814544 0.35367936
00000000: 3090 02bd c531 4c3e d42d 5b3e d10a e139
00000010: b596 09bf 8485 d8be cdb7 103d bffb 9abe
00000020: 9909 0f3e 1f9b 9bbe d7d0 423e 039f 0abd
00000030: 78f5 813e e12c 5bbe 3394 083f 5adc 743c
00000040: b647 ddbd 7228 3c3d df9a 0c3f 49c3 3e3e
00000050: 98bf 4fbe a257 5ebd 132a 42bd f5b4 8d3f
00000060: b7e5 aebd c6ff dbbe 14f3 89bd 503d 47bd
00000070: b6dc 77bd 89ed 2fbe c6a6 f33c 731e 7f3d
00000080: 9ec1 0cbe f04d c23d 0406 18be 9752 083d
00000090: 9346 b4bf 6242 0abf 9e70 2bbe 7d23 9e3e
000000a0: f691 37bb cce9 20bd ba13 a93e b1c0 813e
000000b0: 9ba0 b43d 2b8d e5bb e1ca 58bd 69a0 0bbe
000000c0: c6d0 db3d b580 313e f685 b7be 2c3c 1e3d
000000d0: d035 05bd a1c9 bb3e 9e9e 8a3e dbef fb3e
000000e0: d8c9 903d a760 723d 075f bf3d 4749 eb3c
000000f0: 843e b13e 831a 5cbd 7270 5d3f c78d ae3e
00000100: 990b 493e 7aeb 6bbf fcbd 5e3e a84a 5dbc
00000110: 73f8 d3bc 51c2 56bd ab4e c53d d401 dcbc
00000120: 247d c4be 6e37 09bd 3bb3 a33f f62d b7be
00000130: 80e4 2cbd edf8 febd 9ee0 61bd b18c 7c3a
00000140: 8d8e 063d 3e1d c13e 897e eab9 63c1 bf3b
00000150: 7350 a2be 6191 953d 9e08 4f3e 4c01 8c3d
00000160: 8402 803e 54b6 4ebc 922e b5be eef4 85bc
00000170: f066 32bf 3b91 803d 0399 5dbc e028 1ebd
00000180: 4954 813d a556 1b3d 6b55 72bd 1288 57bb
00000190: 5a66 653e 3761 2d3d e74b ac3e 6fe7 fa3c
000001a0: cfee 22bd 1aa6 a9bc a029 5bbd 555b 1e3d
000001b0: 45ad 8e3d 9883 d63e ab64 72bd 03b5 843b
000001c0: 84d5 a9bd 68ad b0bd 171c 0ebd 7255 fa3d
000001d0: 12b6 08be 76b2 56be a06c 26bd 8f76 13bf
000001e0: 9611 53bc dcec d03b c263 093f 6e17 cb3d
000001f0: b5e8 073e 0409 353e 57ec d5bd 3060 40bd
00000200: d510 25bd ca03 8f3b 06f4 483e d0fd 51bd
00000210: 4d54 383f 8863 7ebd ec1e 583e b7da 983f
00000220: 16d7 a23d a0e2 883e a71e 21bf 7fd2 803e
00000230: 8c4b f43d 172f b03d d69d aabe c398 63bd
00000240: e5d2 0e3e 09ed 6ebd c778 62be 63e4 173e
00000250: f2db 20bf fd61 08bd 119d d3bd 0cbf da3d
00000260: a667 5d3e a345 8c3d 4328 d13c 8718 37bd
00000270: e88d af3d 147a 973e 64a1 a5bc 7310 f9bd
00000280: d812 203e 5047 e9bc 6fb4 1c3d df28 7ebd
00000290: 7af1 9ebd 4d63 aa3e 565c f8bd a6d5 ba3e
000002a0: fb4e cdbb f86e 5b3d 7512 f43e ad5b 25be
000002b0: 46c8 adbd 3c50 63bc 577e fabc 3977 37bd
000002c0: 2c02 69bd 3be4 053e ea79 323f 93f8 6dbe
000002d0: 6e5d b33d aa6d 88bb 1efd 7abd ddf9 1e3f
000002e0: e3ef d73c 6360 a0bc bae2 9fbe d0fe dd3c
000002f0: ffa4 403e eb33 aa3b 587d 3c3f b867 35be
00000300: db57 ff3d 2e9b 0e3f 04b1 fa3c 913e 7fbd
00000310: 7b4a 28bf cb4d a13d 1b4c 5b3b 0294 743d
00000320: 1467 a7be 84f3 9dbd a264 ad3e 751f 063f
00000330: 42af 87be 9e23 343d 1f2c 8e3d 66f3 9dbd
00000340: 23f2 d9bd b098 113f 52db 163d c879 a73d
00000350: 604d 163e c298 12be 5747 853e 2335 17bd
00000360: c724 1a3e 9b16 14bc 6464 193e 4dd1 43bf
00000370: 24c6 6b3e 8a32 f13d f6e6 58bd 4615 e8bc
00000380: a593 3b3d d7a5 a2b9 2d69 cf3e 36ec 9dbc
00000390: 9ed7 403d a8b3 ab3d c1f2 b9bd 9f3a 3c3d
000003a0: d023 df3d 0f61 163c dc78 debc 41d9 76bd
000003b0: bf83 f6bc 575c 563e d574 373e fd07 6f3e
000003c0: e6fe cebe 0926 13bf 9e6a e33d 1620 1bbf
000003d0: 6525 9e3d 98fc 5f3f 9394 813d 0dc2 f5be
000003e0: aa8d 08bf 7bac 943e 129e 3fbf da24 2cbc
000003f0: ce7c 8fbe 2df0 b73e cc73 2e3f 7615 b53e

net.2.bias f4 [128]
-0.022562098 -0.13106944 0.006292282 -0.10953751 0.17145176 -0.027810536 0.09103873 -0.0639314
0.26839405 -0.023295827 -0.09453828 -0.08715723 -0.04272506 -0.07194567 -0.086006485 -0.08454174
0.19110112 0.31198472 -0.06725064 0.08195399 0.11368678 0.0036354603 0.012620126 -0.0964087
0.052047014 0.0025101837 0.015161726 0.013694856 0.12222992 0.069468044 -0.045812096 -0.08888725
-0.1266593 -0.018449975 -0.049806833 0.24715953 -0.054547895 -0.19424705 0.031452224 0.3226281
0.07458966 0.23587826 0.060726613 0.26835394 0.17409897 -0.08818222 0.24650024 -0.047697153
0.07025483 -0.027578091 0.35978034 -0.07358157 -0.0911991 -0.038826864 0.25494692 -0.10257878
0.052228816 -0.030347293 0.21078461 0.0054893093 0.05393635 0.050835527 0.032805562 0.24848618
-0.025936961 -0.11066204 0.17246379 -0.06536446 -0.0204082 -0.0010731937 -0.022673532 -0.0553383
0.02015675 0.16438746 -0.08843115 -0.11989538 -0.045113936 0.018038524 0.2087482 0.30165914
0.15196502 -0.02462377 -0.06831214 -0.07944238 0.10709258 -0.0662672 -0.027412685 -0.04948299
0.16370563 0.030371685 0.032709725 -0.025921846 -0.011603581 0.19703792 -0.11480003 -0.015283735
0.049969267 0.16028574 0.2798298 0.33441263 0.029617053 -0.05207624 -0.07306879 0.0503709
-0.0880385 -0.076023385 0.015120142 0.06644414 0.35252866 0.27666444 0.2233083 0.24576724
0.30009958 0.04229905 0.046453424 0.17454308 0.12981336 0.030038415 0.19851993 0.04347758
-0.022667859 0.020918831 0.1455835 0.26454195 -0.0053104386 0.32359082 0.20638281 -0.081152156
00000000: 26d4 b8bc 1137 06be 7d2f ce3b 3455 e0bd
00000010: 0d91 2f3e ecd2 e3bc 8472 ba3d 77ee 82bd
00000020: f26a 893e e4d6 bebc 499d c1bd 7d7f b2bd
00000030: 7900 2fbd 4058 93bd 2b24 b0bd 3824 adbd
00000040: 03b0 433e 76bc 9f3e b4ba 89bd 7ed7 a73d
00000050: 9dd4 e83d e740 6e3b a5c4 4e3c ed71 c5bd
00000060: 402f 553d e581 243b e368 783c 6460 603c
00000070: ae53 fa3d 4345 8e3d 77a5 3bbd 850a b6bd
00000080: fab2 01be 6724 97bc 4002 4cbd 6317 7d3e
00000090: 9d6d 5fbd b3e8 46be 0cd4 003d 832f a53e
000000a0: 77c2 983d 128a 713e 78bc 783d b065 893e
000000b0: 0047 323e e198 b4bd 8f6a 7c3e 175e 43bd
000000c0: c4e1 8f3d 73eb e1bc 2135 b83e efb1 96bd
000000d0: 98c6 babd eb08 1fbd 6788 823e d314 d2bd
000000e0: e2ed 553d e39a f8bc ecd7 573e aadf b33b
000000f0: 5dec 5c3d ea38 503d 205f 063d 2973 7e3e
00000100: c079 d4bc c8a2 e2bd 599a 303e cddd 85bd
00000110: 192f a7bc 68aa 8cba d8bd b9bc 6aaa 62bd
00000120: c51f a53c 3055 283e 641b b5bd b68b f5bd
00000130: 64c9 38bd 87c5 933c 17c2 553e 1173 9a3e
00000140: b89c 1b3e cab7 c9bc 3ce7 8bbd b0b2 a2bd
00000150: 5b53 db3d 19b7 87bd 9190 e0bc adae 4abd
00000160: 73a2 273e 0ace f83c a2fa 053d 0d5a d4bc
00000170: f21c 3ebc 4fc4 493e 471c ebbd a168 7abc
00000180: 93ac 4c3d f221 243e da45 8f3e 2238 ab3e
00000190: 769f f23c e54d 55bd 17a5 95bd b851 4e3d
000001a0: 874d b4bd 26b2 9bbd 79ba 773c de13 883d
000001b0: a37e b43e f6a6 8d3e eeaa 643e 68aa 7b3e
000001c0: a7a6 993e c541 2d3d f245 3e3d 6cbb 323e
000001d0: cbed 043e 1f13 f63c cf48 4b3e 8c15 323d
000001e0: f2b1 b9bc f85d ab3c d713 153e 0b72 873e
000001f0: 3003 aebb b2ad a53e 0456 533e 1a33 a6bd

net.4.weight f4 [6, 128]
0.21230003 -0.59057647 -0.012902514 0.16282804 -0.04884439 -0.5835297 0.5695793 -0.0097697135
0.23702994 -0.07646327 0.008969155 0.0039372263 0.0030121615 0.083204865 -0.09830145 0.06496767
0.4478019 0.18464868 -0.42137343 0.008463436 1.0825233 0.412617 -0.05080637 -0.053476803
-0.04184725 0.047196284 0.044497393 -0.040475897 0.5545022 0.41893405 -0.17335507 -0.050308593
-0.1457512 -0.042315833 0.053972065 0.19894807 -0.08408403 -0.27535895 0.010474198 0.24685764
0.98490477 0.6831568 -0.050406385 0.39191595 0.85270935 0.06452404 0.26665998 -0.042418152
-0.032979723 -0.52023625 0.18533698 -0.0092754355 -0.061160523 -0.4837415 0.18806729 0.025718227
-0.024763191 0.025095686 0.8606213 -0.0527661 0.06345023 0.5192161 0.068443365 0.7150879
-0.037547775 -0.20151316 0.17140563 0.0024253963 -0.03574123 -0.043621093 -0.5036985 -0.6714435
-0.043914076 0.65563357 -0.8077865 -0.030861337 -0.003165632 0.015255831 0.23519754 0.12800191
0.194746 0.025911605 0.0014632227 -0.07543614 0.6668286 -0.5320959 -0.009469346 0.065927766
0.9334293 0.06375811 0.0068104593 0.013405655 -0.023454145 0.23716058 0.58536893 0.11270576
0.051054005 0.14786224 0.24826065 0.22636016 -0.00017239554 0.034027226 -0.04307231 -0.06803665
-0.009127508 -0.022306515 -0.031892885 0.18904229 0.1859142 0.23989533 0.23029298 0.23306136
0.22903664 0.044832695 -0.028706513 0.60303324 -0.6465587 0.010884904 0.2399877 -0.11181076
-0.0018865324 -0.006282379 1.0134889 0.19470239 0.01233561 0.1952449 0.19781907 0.050922774
0.30262938 -0.063684225 0.012752449 0.16071086 -0.59524965 0.46163124 0.37077004 0.008671324
0.20767805 0.057867654 -0.04635348 -0.05089867 -0.013300597 0.07094601 -0.06972438 0.08072381
0.4912819 0.27365372 -0.33969852 0.04241776 0.63957304 -0.41244328 -0.049275775 0.010084393
-0.021553813 -0.6157944 0.02647074 0.060275607 0.8692599 0.37748984 -0.08017536 0.04567711
-0.56806177 -0.005157261 -0.064390644 0.17832352 -0.07315706 0.13623336 -0.06501226 0.1612885
0.9860966 -0.007909231 -0.0317127 0.87903327 0.58021545 -0.0064251367 0.16185239 0.050081734
-0.049803473 -0.18048574 0.2445729 0.09748624 -0.059922393 -0.595692 0.30871293 0.043146163
0.080802344 -0.011302341 0.79885066 0.010696522 -0.028129257 0.42829847 0.05050568 0.7235857
-0.05497582 -0.2917751 0.14547421 0.05473644 -0.057789 -0.055666726 0.09328288 -0.52720755
0.047013715 0.8447264 -0.00863821 0.027413456 0.005803389 -0.041768167 0.13145015 0.13974036
0.20436744 -0.061994113 0.009653744 0.037580542 0.9272413 0.2751347 -0.06348465 -0.030897873
1.0351222 0.044577356 -0.018702533 -0.04317618 0.0039289743 0.19491495 0.5922459 0.023708439
-0.03427189 -0.07864189 0.26265368 0.18275647 -0.01600404 -0.07066132 0.028950553 0.03389292
-0.037519578 0.062200066 0.017775835 0.14172637 0.2576621 0.31454402 0.22167861 0.16582212
0.18904215 -0.0041171983 0.020989593 0.8174183 -0.56982696 -0.02317766 0.2614585 0.035941027
-0.009252678 0.066000305 0.60117465 0.14502682 0.06409921 0.2417562 0.16821113 0.012478431
00000000: 2e65 593e 0530 17bf 1165 53bc 65bc 263e
00000010: 0e11 48bd 3462 15bf f3cf 113f 2611 20bc
00000020: fab7 723e c698 9cbd 5df3 123c d903 813b
00000030: af67 453b 5067 aa3d 4552 c9bd c50d 853d
00000040: 4a46 e53e 8b14 3d3e 42be d7be 39aa 0a3c
00000050: 2090 8a3f 8942 d33e 571a 50bd 7e0a 5bbd
00000060: 0668 2bbd e450 413d e642 363d 0eca 25bd
00000070: dbf3 0d3f 867e d63e fe83 31be 6210 4ebd
00000080: cd3f 15be 5e53 2dbd d011 5d3d 0bb9 4b3e
00000090: 3f34 acbd d9fb 8cbe f89b 2b3c 40c8 7c3e
000000a0: b822 7c3f 5de3 2e3f ed76 4ebd 35a9 c83e
000000b0: 294b 5a3f 2e25 843d a887 883e a8be 2dbd
000000c0: bf15 07bd 342e 05bf fac8 3d3e fff7 17bc
000000d0: 7583 7abd f7ac f7be b694 403e 08af d23c
000000e0: 2ddc cabc 7895 cd3c ad51 5c3f 4421 58bd
000000f0: 32f2 813d 59eb 043f 092c 8c3d 0010 373f
00000100: b2cb 19bd 7759 4ebe f584 2f3e 66f3 1e3b
00000110: 6565 12bd 08ac 32bd 63f2 00bf b9e3 2bbf
00000120: 3fdf 33bd 9ad7 273f 19cb 4ebf ead0 fcbc
00000130: 7e76 4fbb 98f3 793c a0d7 703e ef12 033e
00000140: 7f6b 473e 9344 d43c 9bc9 bf3a 437e 9abd
00000150: 47b5 2a3f 7037 08bf 5125 1bbc 2305 873d
00000160: 39f5 6e3f 9d93 823d 462a df3b 64a3 5b3c
00000170: e822 c0bc 39da 723e bdda 153f 47d2 e63d
00000180: 011e 513d 3369 173e 0a38 7e3e f5ca 673e
00000190: 13c5 34b9 2260 0b3d 976c 30bd cd56 8bbd
000001a0: 8b8b 15bc 27bc b6bc 1da2 02bd 4d94 413e
000001b0: 4b60 3e3e 1fa7 753e ecd1 6b3e a3a7 6e3e
000001c0: 9588 6a3e 7da2 373d ec29 ebbc 6360 1a3f
000001d0: df84 25bf 9956 323c 56bf 753e 0afd e4bd
000001e0: 8645 f7ba 6adc cdbb 01ba 813f 1060 473e
000001f0: 4c1b 4a3c 47ee 473e 1591 4a3e 6694 503d
00000200: 3df2 9a3e e06c 82bd a6ef 503c 6391 243e
00000210: 4862 18bf ee5a ec3e 92d5 bd3e 2b12 0e3c
00000220: 8ea9 543e a206 6d3d 26dd 3dbd 207b 50bd
00000230: bfea 59bc 244c 913d a8cb 8ebd 8652 a53d
00000240: 4d89 fb3e 571c 8c3e f7ec adbe 3fbe 2d3d
00000250: 0fbb 233f c42b d3be 65d5 49bd 0339 253c
00000260: 9f91 b0bc b4a4 1dbf 2ad9 d83c 8ee3 763d
00000270: d187 5e3f 5946 c13e fb32 a4bd ec17 3b3d
00000280: 7f6c 11bf 3efe a8bb 3edf 83bd 719a 363e
00000290: 5ed3 95bd c280 0b3e 2625 85bd d028 253e
000002a0: d470 7c3f b895 01bc 2de5 01bd 5308 613f
000002b0: 0089 143f f489 d2bb a2bc 253e 8122 4d3d
000002c0: bafe 4bbd 41d1 38be 5171 7a3e dea6 c73d
000002d0: 2f71 75bd 457f 18bf 9f0f 9e3e 08ba 303d
000002e0: b37b a53d 742d 39bc 7a81 4c3f 7740 2f3c
000002f0: 546f e6bc f049 db3e 0bdf 4e3d ea3c 393f
00000300: 532e 61bd 8c63 95be 31f7 143e 5133 603d
00000310: 29b4 6cbd cb02 64bd 180b bf3d 13f7 06bf
00000320: 7491 403d fd3f 583f 4787 0dbc 2f92 e03c
00000330: 5b2a be3b 1915 2bbd de9a 063e 1918 0f3e
00000340: b345 513e 8aed 7dbd bd2a 1e3c 0eee 193d
00000350: b05f 6d3f 75de 8c3e 3d04 82bd 891d fdbc
00000360: e27e 843f bf96 363d 0e36 99bc 82d9 30bd
00000370: a0be 803b c997 473e 6d9d 173f 3338 c23c
00000380: ae60 0cbd 000f a1bd 8b7a 863e 8324 3b3e
00000390: e81a 83bc e2b6 90bd b629 ed3c 4dd3 0a3d
000003a0: 21ae 19bd 7fc5 7e3d a19e 913c b820 113e
000003b0: 49ec 833e ea0b a13e b8ff 623e 46cd 293e
000003c0: 4494 413e 90e9 86bb 5ef2 ab3c 5342 513f
000003d0: 2ee0 11bf 13df bdbc e3dd 853e e636 133d
000003e0: 8b98 17bc 2b2b 873d 95e6 193f e981 143e
000003f0: 7246 833d f08e 773e 8a3f 2c3e 5572 4c3c

net.4.bias f4 [6]
0.20190537 0.16944535 0.18899606 0.12037498 0.29033896 0.19752838
00000000: 48c0 4e3e 1583 2d3e 2f88 413e 2887 f63d
00000010: 4fa7 943e e144 4a3e
