rl/models/best_model_run1.pth (torch, 79477 bytes, 6 tensors)

net.0.weight f4 [128, 13]
-0.19756016 0.121486604 -0.23692138 0.14176598 0.24932405 -0.15151592 -0.18889946 0.013480841
-0.007525811 -0.047368683 -0.09182509 -0.16522503 0.016201649 -0.054600894 -0.45524216 0.0057530086
-0.73576456 -0.1471722 -0.34713033 -0.22822203 0.3515885 0.2126662 -0.0024220794 0.31545585
0.3131027 0.09898839 0.15677838 -0.29477763 0.36269996 -0.22226849 0.27911648 -0.35164508
0.16163184 -0.22865874 0.04011201 0.51412743 0.071153276 -0.56194764 0.350583 0.27404085
0.21768783 -0.4397852 0.07181408 -0.11157385 0.3476183 0.040752098 -0.40277252 -0.13988954
-0.19080126 0.70866686 -0.1882159 0.25443453 -0.07764366 -0.12543178 -0.4321604 0.33565822
0.21352503 -0.20583867 0.3146341 0.32271177 0.057527944 -0.09640798 -0.19254111 0.027555186
0.20844707 -0.22779685 0.3678118 -0.07306475 -0.07280314 0.43192557 0.10567033 -0.033399414
0.13224429 0.27526966 -0.29048178 -0.1729055 0.20913239 -0.4849887 -0.1382233 0.025765145
-0.35302606 -0.39868805 0.024064094 -0.46534207 0.13798612 -0.3975537 0.08498135 0.17916991
0.3011782 -0.36128315 0.11639125 -0.057084695 0.019543715 0.09463834 0.07181561 -0.16850139
0.07813163 -0.012987997 0.0062403292 0.14719963 -0.18177004 -0.18989177 0.14520955 -0.22981296
-0.20669182 -0.13541603 -0.20232219 -0.16222386 0.021547927 -0.24571243 -0.025822934 -0.08363387
0.25332662 -0.25057507 -0.21236217 -0.06697136 0.054544672 -0.16932638 0.29312342 -0.558535
0.707739 0.12752575 -0.052495446 -0.19290125 -0.046137497 0.3064288 -0.31546625 0.39447716
0.011208957 0.004871256 0.16819584 -0.09724129 -0.35492784 0.5596799 -0.557269 -0.20275706
0.17979342 -0.08825797 0.53938246 -0.2180644 0.3399971 -0.068437435 0.13857745 -0.16132946
-0.29581928 -0.65365714 0.29255015 0.33917534 -0.08278811 -0.07302647 -0.18469009 -0.7335198
-0.00042506907 0.062566474 0.36454225 0.08848072 -0.28509536 0.10332159 0.2859714 0.066083975
-0.11848581 0.015001701 -0.21750113 -0.18682475 -0.2509633 -0.02394094 -0.16446139 0.1429294
0.1415402 -0.005481675 0.3088545 0.3126824 -0.17302282 -0.0054922686 0.2588711 0.23450005
0.40956584 -0.2490388 -0.3932845 0.24914011 0.1531994 -0.47558194 -0.005653398 0.37393096
-0.996069 2.264182 0.042602696 0.36865258 0.014037211 -0.3151985 -0.30484733 0.00022712388
0.5358464 -0.29669327 -0.11737346 0.18935546 -0.2477525 1.4985839 0.7825276 0.0849465
-0.15774748 0.35100284 -0.10138989 0.35135502 -0.27397528 -0.35283735 -0.22736882 -0.086946614
0.0038825541 0.2334394 0.5506021 0.55859435 0.20334707 0.37565777 0.12418705 -0.1181542
-0.062880926 -0.114223555 -0.4198416 -0.18721071 0.53746635 0.12906758 -0.101611026 0.16657
0.0044755335 0.03193626 -0.17533112 -0.26431912 -0.08629552 -0.17618029 0.12866114 -0.21574482
-0.08892179 -0.013393108 0.07427172 -0.28151476 0.68957686 -0.27359748 -0.40166458 0.33047643
-0.33959392 0.53782105 -0.15042476 0.26758477 -0.090835534 -0.1427233 -0.103441514 -0.14759727
0.08623554 -0.3619346 0.36624476 -0.2359302 -0.1654197 0.2621231 0.23020512 -0.14305788
00000000: 364d 4abe f8cd f83d 859b 72be 1a2b 113e
00000010: ce4e 7f3e fd26 1bbe dc6e 41be bfde 5c3c
00000020: 149b f6bb aa05 42bd cb0e bcbd c030 29be
00000030: 52b9 843c 30a5 5fbd 8015 e9be bc83 bc3b
00000040: 115b 3cbf 4fb4 16be 11bb b1be 09b3 69be
00000050: 6803 b43e 2bc5 593e c0bb 1ebb 6e83 a13e
00000060: ff4e a03e 6dba ca3d 838a 203e 18ed 96be
00000070: cfb3 b93e 5a9a 63be 5be8 8e3e d30a b4be
00000080: d182 253e 8425 6abe 7e4c 243d db9d 033f
00000090: cfb8 913d cddb 0fbf 9d7f b33e 154f 8c3e
000000a0: 8fe9 5e3e 872b e1be 4313 933d d580 e4bd
000000b0: 07fb b13e aceb 263d 3338 cebe 343f 0fbe
000000c0: 6861 43be 316b 353f abbb 40be 3e45 823e
000000d0: a403 9fbd 3071 00be 2144 ddbe 65db ab3e
000000e0: 4ea6 5a3e 5fc7 52be b917 a13e 7a3a a53e
000000f0: 6ca2 6b3d 8c71 c5bd 7f29 45be 6abb e13c
00000100: 2673 553e 9443 69be d451 bc3e f9a2 95bd
00000110: d019 95bd 5925 dd3e b069 d83d d3cd 08bd
00000120: 0c6b 073e 25f0 8c3e 07ba 94be 240e 31be
00000130: cd26 563e 7050 f8be 698a 0dbe 6d11 d33c
00000140: d5bf b4be d720 ccbe 1022 c53c 5141 eebe
00000150: 3c4c 0d3e 298c cbbe b40a ae3d 5178 373e
00000160: 0734 9a3e 1bfa b8be 895e ee3d a4d1 69bd
00000170: 241a a03c bfd1 c13d 1014 933d a18b 2cbe
00000180: 7a03 a03d 9ccb 54bc ad7b cc3b 80bb 163e
00000190: ed21 3abe fd72 42be d0b1 143e 1754 6bbe
000001a0: 05a7 53be 80aa 0abe 8c2d 4fbe 031e 26be
000001b0: 4785 b03c 0a9c 7bbe 9e8a d3bc 3c48 abbd
000001c0: 07b4 813e 604b 80be 7875 59be 4828 89bd
000001d0: 3c6a 5f3d e563 2dbe 4614 963e 26fc 0ebf
000001e0: 622e 353f 1c96 023e 7705 57bd e887 45be
000001f0: acfa 3cbd 3ce4 9c3e cb84 a1be e9f8 c93e
00000200: c6a5 373c 0f9f 9f3b 883b 2c3e 7126 c7bd
00000210: 1ab9 b5be 2f47 0f3f 2ea9 0ebf 8c9f 4fbe
00000220: c41b 383e 98c0 b4bd f814 0a3f 464c 5fbe
00000230: 1a14 ae3e ed28 8cbd 3fe7 0d3e 8d33 25be
00000240: a075 97be 1356 27bf 22c9 953e 64a8 ad3e
00000250: d08c a9bd e78e 95bd 661f 3dbe f4c7 3bbf
00000260: cedb deb9 da22 803d 48a5 ba3e 6135 b53d
00000270: 05f8 91be 459a d33d d86a 923e 0957 873d
00000280: b0a8 f2bd b2c9 753c 9eb8 5ebe fd4e 3fbe
00000290: 437e 80be ca1f c4bc 9168 28be 165c 123e
000002a0: eaef 103e 9f9f b3bb 2d22 9e3e e817 a03e
000002b0: e52c 31be 7df8 b3bb c18a 843e c820 703e
000002c0: 9db2 d13e 0704 7fbe 965c c9be 961e 7f3e
000002d0: 4ee0 1c3e 7a7f f3be 2440 b9bb e173 bf3e
000002e0: 61fe 7ebf 5ce8 1040 2a80 2e3d 08c0 bc3e
000002f0: 55fc 653c b361 a1be f314 9cbe 1a28 6e39
00000300: 3b2d 093f 2ee8 97be 7f61 f0bd 66e6 413e
00000310: d5b2 7dbe 99d1 bf3f bb53 483f 6ef8 ad3d
00000320: 8e88 21be a5b6 b33e 81a5 cfbd cee4 b33e
00000330: 7d46 8cbe 19a7 b4be 5fd3 68be 1111 b2bd
00000340: 7372 7e3b bd0a 6f3e 42f4 0c3f 0a00 0f3f
00000350: 373a 503e 3756 c03e c855 fe3d d4fa f1bd
00000360: b7c7 80bd 0aee e9bd 7af5 d6be 2ab4 3fbe
00000370: 6597 093f 4b2a 043e 7119 d0bd 5391 2a3e
00000380: 7fa7 923b 99cf 023d 008a 33be d654 87be
00000390: b5bb b0bd 9b68 34be bfbf 033e 36ec 5cbe
000003a0: a11c b6bd c46e 5bbc c61b 983d b422 90be
000003b0: 1c88 303f f814 8cbe fba6 cdbe 3534 a93e
000003c0: 41df adbe a4ae 093f f308 1abe df00 893e
000003d0: fb07 babd 0f26 12be 25d9 d3bd bd23 17be
000003e0: 429c b03d 7e4f b9be 6f84 bb3e b097 71be
000003f0: c863 29be 0035 863e e4ba 6b3e c47d 12be

net.0.bias f4 [128]
-0.06442427 -0.10570942 -0.099938005 -0.29351315 0.3651983 0.06083219 0.30478486 -0.15976898
-0.14546391 0.023851024 0.037463408 0.074831486 -0.05267716 -0.17235363 -0.19803321 0.2763852
-0.24873935 -0.26836646 0.18427403 0.28083006 0.04668193 0.33514485 0.25435552 -0.32589614
-0.08647235 -0.10491971 0.03149294 0.00923614 0.18588275 0.2731623 0.20734416 0.19658844
0.1862324 0.2779059 -0.25938177 -0.021257391 -0.095034 -0.27593216 -0.26338053 0.28271475
0.13012642 0.30621332 0.30184963 0.18748492 -0.114736825 -0.249823 -0.30156517 0.03143469
0.042724084 0.114342086 0.05716 -0.13695166 -0.0009824412 -0.2145302 0.019321164 0.25432998
-0.13939287 -0.23694444 0.043324493 0.017409798 0.0394303 -0.2631206 0.03311633 -0.12790552
-0.011314337 0.16980137 0.3680486 -0.23572583 -0.2638683 0.09176602 0.12429579 -0.11941022
0.01761839 0.15607226 0.1230199 0.014073307 0.296497 0.26954275 -0.03251646 -0.25027078
0.15876928 0.07113336 0.1795587 -0.087985 -0.20586862 0.1808106 -0.21970966 0.004758891
0.19473217 -0.05088772 -0.28380024 0.026394302 0.032598857 -0.27899793 0.18526314 -0.1942946
0.19076546 0.17995098 -0.06353576 0.062365204 -0.18682455 -0.15200686 0.3698472 0.21532135
0.23108633 0.036794983 -0.03601823 -0.1341981 0.2384156 -0.19289786 0.22933821 0.16564047
-0.16397712 0.10392634 0.06759566 -0.045379937 -0.05451464 -0.04896099 -0.28363732 -0.10708831
0.06219362 0.1874574 -0.13320321 0.22097877 0.22233614 0.17419858 0.13159691 -0.34367466
00000000: dff0 83bd 2e7e d8bd 4cac ccbd 5b47 96be
00000010: 46fb ba3e 2d2b 793d c30c 9c3e 7b9a 23be
00000020: 7ef4 14be 3963 c33c 3b73 193d 4041 993d
00000030: 01c4 57bd 787d 30be 38c9 4abe 5c82 8d3e
00000040: 87b5 7ebe 5467 89be 55b2 3c3e f5c8 8f3e
00000050: 8d35 3f3d 1b98 ab3e e33a 823e dcdb a6be
00000060: 6a18 b1bd 25e0 d6bd befe 003d 2e53 173c
00000070: 0c58 3e3e eedb 8b3e 0752 543e 7b4e 493e
00000080: b5b3 3e3e af49 8e3e b0cd 84be fb23 aebc
00000090: 30a1 c2bd fb46 8dbe d0d9 86be fdbf 903e
000000a0: dc3f 053e fec7 9c3e 098c 9a3e 0cfc 3f3e
000000b0: 24fb eabd 9ad1 7fbe c066 9abe a9c1 003d
000000c0: 73ff 2e3d 2f2c ea3d 9b20 6a3d 0e3d 0cbe
000000d0: 42c5 80ba cead 5bbe 6b47 9e3c 8a37 823e
000000e0: 01bd 0ebe 90a1 72be 0675 313d fe9e 8e3c
000000f0: ab81 213d beb7 86be fda4 073d aaf9 02be
00000100: c55f 39bc 69e0 2d3e de70 bc3e 1d62 71be
00000110: bf19 87be d3ef bb3d cb8e fe3d 588d f4bd
00000120: 7154 903c 68d1 1f3e dbf1 fb3d ba93 663c
00000130: 74ce 973e 8201 8a3e fb2f 05bd 7e23 80be
00000140: 6a94 223e 5eae 913d 3cde 373e 7b31 b4bd
00000150: 39cf 52be 6a26 393e 92fb 60be 79f0 9b3b
00000160: df67 473e a46f 50bd 444e 91be dd38 d83c
00000170: 6186 053d d1d8 8ebe 9fb5 3d3e 2af5 46be
00000180: 0558 433e 1245 383e 091f 82bd a872 7f3d
00000190: ef4e 3fbe b0a7 1bbe 9d5c bd3e 337d 5c3e
000001a0: e5a1 6c3e 56b6 163d da87 13bd 3a6b 09be
000001b0: 3823 743e 0487 45be a3d7 6a3e a89d 293e
000001c0: 9ee9 27be 55d7 d43d 986f 8a3d 50e0 39bd
000001d0: be4a 5fbd 528b 48bd e938 91be 1e51 dbbd
000001e0: bdbe 7e3d d5f4 3f3e 6c66 08be 4248 623e
000001f0: 16ac 633e 1d61 323e 57c1 063e 20f6 afbe

net.2.weight f4 [128, 128]
0.024717638 0.42180863 0.33285382 0.05511769 0.1619163 0.15876897 0.2280983 0.06726179
-0.07047766 -0.019881038 0.29973868 -0.36490718 0.07862845 -0.41036686 -0.0167614 0.099360295
-0.24606508 0.034985688 0.24650103 0.055874363 -0.14971253 -0.020849349 0.43878594 -0.11366552
-0.5243197 -0.07179522 -0.00427062 0.10747746 0.15989529 0.41812167 0.15613775 0.031091737
0.20249458 0.26618037 -0.1076224 -0.013708625 0.5536796 -0.07225661 -0.032305926 -0.35638365
-0.0010688362 0.16970284 0.057689745 0.016291784 0.021295348 0.39065886 -0.337185 0.09791239
0.07986785 0.05413635 0.0062392927 0.24972185 0.15197507 -0.09582333 0.07487645 0.20909716
-0.0030791643 0.24154739 -0.66082466 0.016199151 -0.39562532 -0.41333273 0.33917895 0.105513535
0.7851161 0.074016295 0.1393085 -0.022876961 -0.55256194 0.3396453 0.15075287 0.120268494
-0.1863149 0.06415782 -0.19628496 -0.25507483 0.5630347 0.3037613 0.21204346 0.09639454
0.067909874 0.06051046 0.021123566 0.09001138 -0.07921205 0.10563535 0.070101336 0.23200643
0.06652645 0.023547996 0.01855732 -0.004583718 -0.5108149 -0.13959028 0.053257745 -0.08136277
0.29653758 0.12932213 0.07389777 0.64791274 0.36452344 0.11290641 0.20656376 0.02977174
0.32720873 -0.088506 0.122826695 -0.0322726 -0.026381774 0.067762636 0.054449815 -0.026447173
0.08580142 0.08479696 0.2514981 0.17631708 0.0058722133 -0.82645535 -0.0016967708 0.14300907
-0.20941956 0.17673637 -0.4756503 0.10317184 -0.14484836 0.02693588 0.12589805 -0.12274365
-0.063574426 0.8484311 -0.2706322 0.2380973 0.0074113747 0.2515736 -0.0877354 0.0234276
-0.04488299 0.19891477 0.113147624 -0.13120289 -0.040180907 0.05851496 -0.53245264 -0.4897239
-0.38641426 -0.043752685 -0.030065903 0.017058963 0.52429634 -0.08990368 0.14006731 0.46864
-1.2044588 -0.028846398 -0.25521737 -0.021921884 0.020384472 0.14090538 0.07905917 0.019988522
0.11081846 -0.51620835 -0.024081249 -0.026461925 -0.040723924 -0.053206 -0.06458887 0.7585693
0.37179884 1.1628472e-05 0.19893269 0.14553206 0.018232452 0.21736358 -0.025383601 -0.015689049
-0.013697751 0.019595914 -0.057098694 0.11125429 -0.12717319 0.08154863 0.28889588 0.4625316
-0.08112061 -0.93527275 0.09959075 0.04691821 0.6949244 0.06333526 0.4701796 0.06298385
-0.35343984 0.11491966 -0.062378746 -0.005437565 0.60087967 0.47806478 -0.059454855 -0.5522596
-0.22769213 0.32328212 0.45208 0.6652468 0.105908066 -0.094225384 -0.6838106 0.23149055
0.20826165 0.07239812 0.07439577 -0.28589898 0.08538452 -0.020761376 -0.06736114 0.07437742
-0.14288017 0.2371101 -0.048152544 -0.20983665 -0.8725753 -0.20369087 -0.09379225 -0.6708783
0.3676108 -0.43388972 0.21238941 0.5450923 -0.666848 -0.53920805 -0.41249362 0.021377914
-0.20559466 0.34066918 0.20868266 0.032351308 0.19725777 0.05188414 0.025382843 0.0081050685
-0.5250688 -0.07726287 0.52071846 0.60889053 0.29083377 0.881997 -0.057872407 0.304711
0.28990605 -0.13176098 0.10821779 0.0912229 -0.050574034 -0.072606996 -0.12293313 -0.18765733
00000000: a57c ca3c 4df7 d73e d16b aa3e 16c3 613d
00000010: 63cd 253e 5594 223e 9a92 693e 8dc0 893d
00000020: 9756 90bd 8fdd a2bc 5977 993e 1dd5 babe
00000030: f407 a13d 9b1b d2be 344f 89bc 697d cb3d
00000040: 7cf8 7bbe 274d 0f3d c46a 7c3e 84dc 643d
00000050: 3e4e 19be 41cc aabc 8da8 e03e 78c9 e8bd
00000060: d139 06bf 5f09 93bd 8ff0 8bbb 241d dc3d
00000070: 97bb 233e 0b14 d63e 93e2 1f3e 19b4 fe3c
00000080: bd5a 4f3e cb48 883e 2269 dcbd 249a 60bc
00000090: f2bd 0d3f 46fb 93bd 3853 04bd eb77 b6be
000000a0: 3118 8cba 95c6 2d3e 154c 6c3d 5976 853c
000000b0: 9573 ae3c 7004 c83e 83a3 acbe 4b86 c83d
000000c0: c191 a33d 14be 5d3d fb72 cc3b 16b7 7f3e
000000d0: 5a9f 1b3e 063f c4bd d358 993d 911d 563e
000000e0: cecb 49bb 3358 773e ce2b 29bf 15b4 843c
000000f0: 678f cabe 59a0 d3be dda8 ad3e 7b17 d83d
00000100: 5efd 483f db95 973d e3a6 0e3e 7768 bbbc
00000110: b374 0dbf fde5 ad3e f65e 1a3e 544f f63d
00000120: 55c9 3ebe 2d65 833d edfe 48be 2b99 82be
00000130: 0b23 103f 9a86 9b3e ec21 593e 806a c53d
00000140: 5514 8b3d d1d9 773d 540b ad3c e357 b83d
00000150: ed39 a2bd 5957 d83d 4a91 8f3d 1893 6d3e
00000160: 053f 883d bae7 c03c 8505 983c 0333 96bb
00000170: c4c4 02bf c1f0 0ebe cb24 5a3d 86a1 a6bd
00000180: c6d3 973e 056d 043e b757 973d 9cdd 253f
00000190: d1a2 ba3e 7a3b e73d 7385 533e dde3 f33c
000001a0: e787 a73e a242 b5bd 908c fb3d 4630 04bd
000001b0: 971e d8bc 23c7 8a3d c506 5f3d bea7 d8bc
000001c0: a8b8 af3d 07aa ad3d 5cc4 803e 778c 343e
000001d0: b26b c03b 9492 53bf 2e66 deba f870 123e
000001e0: 1572 56be 61fa 343e 7088 f3be c24b d33d
000001f0: 2153 14be a2a8 dc3c 6beb 003e 0661 fbbd
00000200: 4f33 82bd c832 593f 4e90 8abe c7cf 733e
00000210: 1edb f23b 41ce 803e 9eae b3bd 3deb bf3c
00000220: 3ad7 37bd 50b0 4b3e f1b9 e73d 0d5a 06be
00000230: bc94 24bd 62ad 6f3d d14e 08bf 17bd fabe
00000240: 17d8 c5be 0436 33bd c54c f6bc 3dbf 8b3c
00000250: 4938 063f 6c1f b8bd ce6d 0f3e 95f1 ef3e
00000260: b52b 9abf 484f ecbc daab 82be 8695 b3bc
00000270: 56fd a63c 8049 103e c6e9 a13d f8be a33c
00000280: caf4 e23d 3b26 04bf 0a46 c5bc aec6 d8bc
00000290: 21ce 26bd 89ee 59bd 2b47 84bd 9931 423f
000002a0: 6b5c be3e e817 4337 03b5 4b3e 5b06 153e
000002b0: 395c 953c 8f94 5e3e 45f1 cfbc 5286 80bc
000002c0: 886c 60bc 9c87 a03c 52e0 69bd 4ad9 e33d
000002d0: b039 02be f802 a73d 29ea 933e f1d0 ec3e
000002e0: 9022 a6bd 096e 6fbf 3cf6 cb3d 4f2d 403d
000002f0: 91e6 313f ebb5 813d 61bb f03e adfd 803d
00000300: 11f6 b4be 005b eb3d db80 7fbd 9a2d b2bb
00000310: 40d3 193f e8c4 f43e ef86 73bd e360 0dbf
00000320: 2028 69be 3c85 a53e 0877 e73e 9d4d 2a3f
00000330: 54e6 d83d 3df9 c0bd 360e 2fbf dc0b 6d3e
00000340: 8b42 553e 7745 943d cf5c 983d 5a61 92be
00000350: 14de ae3d c313 aabc a3f4 89bd 3053 983d
00000360: 2e4f 12be fdcc 723e 9a3b 45bd 6bdf 56be
00000370: 1861 5fbf 5794 50be 2716 c0bd aebe 2bbf
00000380: 7c37 bc3e cb26 debe 9c7c 593e 2b8b 0b3f
00000390: 8db6 2abf 8a09 0abf 5d32 d3be bc20 af3c
000003a0: 6887 52be 316c ae3e e8b0 553e ce82 043d
000003b0: f1fd 493e 7784 543d aeef cf3c 1fcb 043c
000003c0: e96a 06bf ff3b 9ebd ce4d 053f 40e0 1b3f
000003d0: 2ae8 943e 8eca 613f 9e0b 6dbd 1503 9c3e
000003e0: 916e 943e 5aec 06be 4aa1 dd3d 12d3 ba3d
000003f0: b826 4fbd fab2 94bd 5dc4 fbbd 3e29 40be

net.2.bias f4 [128]
0.21496515 -0.05440343 -0.08565566 0.38137117 0.14233853 0.057359632 -0.024058051 0.0697109
-0.047140576 0.24351802 0.06683748 0.26337752 -0.044267535 0.21917367 0.01830171 -0.085704826
-0.09049805 0.07404734 -0.03302554 0.2233756 0.042226322 -0.09497356 0.31438532 -0.053543545
0.20032759 -0.0193137 0.018813089 -0.065026015 0.33015653 -0.00779807 -0.01099667 0.2365317
-0.026734903 0.2278372 0.016932007 -0.005881512 0.043138456 0.1312926 -0.062276874 -0.09938366
0.018098637 0.021663634 0.019470377 0.20936735 0.05640835 0.2946251 -0.06429253 0.049679276
-0.02284495 -0.04928345 0.1457913 0.036725234 -0.10245164 -0.09059393 -0.037922636 -0.11976628
-0.051531393 -0.023623636 0.20802093 0.21703465 0.050976723 0.013024049 -0.09221313 -0.023563681
0.23773631 0.26729617 0.07750989 0.029086996 0.32114667 -0.07215389 -0.07227171 -0.11912272
0.33034945 -0.01144467 -0.12188194 -0.085997686 -0.080012344 0.3225092 0.04080373 0.05844981
-0.048204225 -0.098647185 0.1418145 0.26256147 0.15758196 -0.0055846586 -0.08355611 0.015262433
0.1829164 0.037743427 0.07540813 0.24365261 0.10584823 0.25555167 0.26860994 0.27937278
-0.066983856 0.07568454 0.3385093 0.250546 -0.04162731 -0.013489031 0.070736565 0.074242406
0.3405219 0.30324256 0.033221994 -0.16708629 0.19316345 0.29453057 0.023153327 0.11166052
0.24959865 0.22717203 0.16163355 0.055327527 0.021749541 -0.024749305 -0.07896012 0.33683863
0.05965119 -0.036964256 -0.047901034 0.22326165 -0.025289943 0.33360222 0.1111852 0.13189508
00000000: d31f 5c3e 22d6 5ebd 3c6c afbd 1543 c33e
00000010: 31c1 113e eff1 6a3d 6415 c5bc 97c4 8e3d
00000020: 7a16 41bd ca5c 793e 17e2 883d 6bd9 863e
00000030: e051 35bd 106f 603e 78ed 953c 0386 afbd
00000040: 0b57 b9bd 22a6 973d ca45 07bd 93bc 643e
00000050: 82f5 2c3d 7f81 c2bd 1df7 a03e 7a50 5bbd
00000060: ad22 4d3e c437 9ebc e81d 9a3c 5c2c 85bd
00000070: 470a a93e f486 ffbb 612b 34bc 5e35 723e
00000080: 2803 dbbc 284e 693e feb4 8a3c b3b9 c0bb
00000090: f3b1 303d 9171 063e 0916 7fbd a989 cbbd
000000a0: 9843 943c ef77 b13c 5780 9f3c 6564 563e
000000b0: 710c 673d 1ad9 963e cdab 83bd 7f7c 4b3d
000000c0: 5525 bbbc 71dd 49bd 514a 153e 336d 163d
000000d0: 2ad2 d1bd 4f89 b9bd c454 1bbd 0648 f5bd
000000e0: 9512 53bd 5b86 c1bc 7003 553e 553e 5e3e
000000f0: f8cc 503d d262 553c 3dda bcbd 9f08 c1bc
00000100: 2671 733e 0bdb 883e 81bd 9e3d da47 ee3c
00000110: 566d a43e 6bc5 93bd 3103 94bd 9df6 f3bd
00000120: 9023 a93e 6d82 3bbc 3d9d f9bd 8e1f b0bd
00000130: 83dd a3bd ed1f a53e d021 273d 1169 6f3d
00000140: cb71 45bd 8907 cabd d237 113e 756e 863e
00000150: 2a5d 213e 83ff b6bb 771f abbd 490f 7a3c
00000160: 704e 3b3e da98 1a3d 946f 9a3d 1280 793e
00000170: f5c6 d83d abd7 823e 3e87 893e f309 8f3e
00000180: d52e 89bd 7f00 9b3d 1751 ad3e 9147 803e
00000190: 6681 2abd 1901 5dbc 55de 903d 670c 983d
000001a0: e358 ae3e 9c42 9b3e c913 083d ab18 2bbe
000001b0: a4cc 453e b6cc 963e 0cac bd3c 45ae e43d
000001c0: ca96 7f3e c99f 683e 4483 253e 1e9f 623d
000001d0: 182c b23c 0ebf cabc d8b5 a1bd 1d76 ac3e
000001e0: ce54 743d d567 17bd e033 44bd b49e 643e
000001f0: db2c cfbc e9cd aa3e 11b5 e33d 810f 073e

net.4.weight f4 [6, 128]
0.21752982 -0.30718687 0.0143451365 0.24856275 0.87534213 0.216138 -0.11967455 0.51384354
0.020446876 0.24852014 0.5055965 0.21832016 -0.5525765 0.33681154 -0.40077707 0.102362774
-0.14976393 0.40389657 -0.22232184 0.25022218 -0.075407214 -0.039122503 0.1938396 0.03907743
0.50601727 0.023340987 0.032675765 0.017776076 0.26573554 0.06515419 -0.044301875 0.09458519
-0.20094189 0.12122936 -0.056910396 0.014704777 0.4534298 0.3708732 0.08455126 -0.030472163
0.002217231 -0.18005605 -0.19320235 0.16352022 -0.04605966 0.23069796 -0.00024609454 0.061742898
-0.6830781 0.034549627 0.20047458 0.04383663 -0.9178515 -0.014756521 0.051324043 -0.92926955
0.20619942 0.05215251 1.0790085 0.41905335 -0.043242995 -0.27608693 0.024884427 0.05604282
0.22933273 0.21993813 0.56909615 -0.15064007 0.19161268 -0.64697284 -0.07983685 -0.12323202
0.20036624 0.5910277 0.41372904 0.0510971 0.08151974 0.2146196 -0.069470115 0.0037058496
-0.64157784 -0.047980014 -0.36217844 0.2540286 0.033461552 0.008608589 0.07976764 -0.47969577
0.25087526 0.078744106 -0.74955636 0.47688872 0.7392758 0.1983788 0.51791227 0.1459026
-0.076833375 0.46390748 0.2595145 0.227904 -0.03271859 -0.029157916 -0.017702762 -0.12861338
0.24512099 0.6295465 -0.039584827 0.11808225 0.1900564 0.28291425 -0.039214037 0.14734264
0.1753165 0.2032573 0.7577519 -0.07147672 -0.08452308 0.07716201 -0.009519867 0.22235359
0.97403765 0.1828186 0.32674056 0.2222859 0.038616218 0.23654476 -0.32574996 0.33304703
0.06702672 -0.91329885 0.043353576 0.24295829 0.31914994 -0.14661704 -0.40295073 0.75721645
-0.037097245 0.1658101 0.13877088 0.1680062 -1.071661 0.62222874 -0.4696616 -0.093943425
-0.39844075 0.49730644 -0.218898 0.26471934 0.029417831 -0.5201296 0.24399477 -0.05864984
0.7796538 0.02097444 0.013260125 0.60082597 0.20233999 0.028652351 -0.43127003 0.24113713
-0.57090217 0.13563798 -0.07590511 -0.07867573 0.7810876 0.9203045 -0.019423818 0.45804268
-0.051013544 -0.34286156 0.503332 0.024616797 0.20812027 0.26306632 -0.06936375 -0.0040508877
-0.0069462163 -0.050272856 -0.016263422 0.074377745 0.157479 -0.04340706 0.030272374 -0.30283037
-0.51973814 -0.024388222 0.71494746 0.24517483 0.046317697 -0.08104674 0.051786695 0.047402497
0.26309946 0.22651859 0.41579983 0.13167165 0.2560874 -0.46000957 0.12432622 0.045479674
0.19589584 -0.10881907 0.040186346 -0.033973362 0.083463795 0.23291074 0.04268228 0.050505895
-0.36253744 0.07625268 -0.3325304 0.19798459 0.38706645 0.06534201 0.02605022 -0.35383442
0.258221 -0.0678859 0.4973347 0.3043897 0.7381596 0.20518354 0.6217666 0.18866345
-0.06256536 0.19175278 0.23579758 0.22150089 -0.07455178 0.094036795 0.14969867 -0.09193921
0.27311137 0.84131783 -0.0011674314 -0.19036415 0.2142207 0.23322392 -0.07306234 -0.15158331
0.4597944 0.26589108 0.8196239 -0.0158152 0.5238305 -0.009902152 0.06950016 0.21091214
0.5938377 -0.43479645 0.41205722 0.3480307 0.08188826 0.18125108 0.013377443 -0.09784189
00000000: 23c0 5e3e 9947 9dbe dd07 6b3c 3c87 7e3e
00000010: 6c16 603f 4853 5d3e ee17 f5bd 408b 033f
00000020: 3580 a73c 107c 7e3e c66e 013f 528f 5f3e
00000030: a775 0dbf 9072 ac3e a732 cdbe 93a3 d13d
00000040: b75b 19be 88cb ce3e 56a8 63be 1f1d 803e
00000050: 196f 9abd eb3e 20bd e37d 463e a80f 203d
00000060: 598a 013f 9935 bf3c 06d7 053d 229f 913c
00000070: 7d0e 883e 8f6f 853d e275 35bd e1b5 c13d
00000080: b6c3 4dbe 1947 f83d e01a 69bd 4eec 703c
00000090: f327 e83e 18e3 bd3e 3629 ad3d c2a0 f9bc
000000a0: f74e 113b 9d60 38be d6d6 45be d871 273e
000000b0: 0ea9 3cbd 163c 6c3e 4006 81b9 1fe6 7c3d
000000c0: 35de 2ebf e983 0d3d 3549 4d3e 0a8e 333d
000000d0: 51f8 6abf 56c5 71bc 2939 523d 9ce4 6dbf
000000e0: f125 533e df9d 553d f31c 8a3f 298e d63e
000000f0: 911f 31bd 445b 8dbe 6dda cb3c 288d 653d
00000100: 33d6 6a3e 7637 613e 49b0 113f 6441 1abe
00000110: 1d36 443e 03a0 25bf 8181 a3bd 1261 fcbd
00000120: cf2c 4d3e 974d 173f 4bd4 d33e 314b 513d
00000130: d2f3 a63d 3ec5 5b3e 5946 8ebd d7dd 723b
00000140: 723e 24bf b186 44bd 746f b9be 0910 823e
00000150: fb0e 093d 0a0b 0d3c 375d a33d af9a f5be
00000160: b972 803e 9744 a13d ede2 3fbf c22a f43e
00000170: 2e41 3d3f d023 4b3e e695 043f 7e67 153e
00000180: d15a 9dbd 4885 ed3e 16df 843e ab5f 693e
00000190: ee03 06bd 95dc eebc 6205 91bc 3ab3 03be
000001a0: ff00 7b3e f629 213f b323 22bd 1bd5 f13d
000001b0: 259e 423e 23da 903e e69e 20bd fde0 163e
000001c0: 2b86 333e af22 503e 07fc 413f 6362 92bd
000001d0: 701a adbd 1e07 9e3d 37f9 1bbc a9b0 633e
000001e0: 885a 793f cd34 3b3e 8a4a a73e ea9e 633e
000001f0: 0a2c 1e3d ca38 723e b3c8 a6be 2485 aa3e
00000200: 4e45 893d f4cd 69bf 8593 313d 0fca 783e
00000210: 9f67 a33e c722 16be 8f4f cebe f0d8 413f
00000220: 48f3 17bd 1fca 293e f419 0e3e d109 2c3e
00000230: 302c 89bf 624a 1f3f 7c77 f0be 6965 c0bd
00000240: 6d00 ccbe f39e fe3e cc26 60be 4b89 873e
00000250: aafd f03c 3727 05bf c4d9 793e d13a 70bd
00000260: 6497 473f 97d2 ab3c ff40 593c bbcf 193f
00000270: 3732 4f3e 56b8 ea3c 6dcf dcbe a7ec 763e
00000280: a526 12bf afe4 0a3e 2374 9bbd be20 a1bd
00000290: 5bf5 473f 1399 6b3f b31e 9fbc 9284 ea3e
000002a0: 94f3 50bd 8d8b afbe 5eda 003f 2aa9 c93c
000002b0: 7b1d 553e a1b0 863e 950e 8ebd 4fbd 84bb
000002c0: 169d e3bb e9ea 4dbd de3a 85bc 5c53 983d
000002d0: 2d42 213e 9acb 31bd c5fd f73c 950c 9bbe
000002e0: 8f0d 05bf cfc9 c7bc cc06 373f 1c0f 7b3e
000002f0: a0b7 3d3d d5fb a5bd 491e 543d 1f29 423d
00000300: f9b4 863e 7df4 673e b7e3 d43e efd4 063e
00000310: e31d 833e 6086 ebbe bf9e fe3d e548 3a3d
00000320: eb98 483e 88dc debd 709a 243d a727 0bbd
00000330: 11ef aa3d 2780 6e3e 9dd3 2e3d 45df 4e3d
00000340: 829e b9be 5d2a 9c3d 6d41 aabe 79bc 4a3e
00000350: 932d c63e 08d2 853d 4567 d53c c929 b5be
00000360: 8b35 843e c307 8bbd a7a2 fe3e f7d8 9b3e
00000370: 07f8 3c3f a21b 523e 192c 1f3f fe30 413e
00000380: 4422 80bd d75a 443e ec74 713e 21d1 623e
00000390: 9bae 98bd 5d96 c03d 9c4a 193e a04a bcbd
000003a0: 41d5 8b3e 9b60 573f 7f04 99ba d2ee 42be
000003b0: ac5c 5b3e 40d2 6e3e b5a1 95bd a838 1bbe
000003c0: 2c6a eb3e e022 883e dfd2 513f e18e 81bc
000003d0: c119 063f a33c 22bc 1a56 8e3d 5af9 573e
000003e0: bf05 183f a49d debe 2af9 d23e 1431 b23e
000003f0: 08b5 a73d e299 393e 102d 5b3c 5461 c8bd

net.4.bias f4 [6]
0.2531206 0.14500098 0.24350478 0.2134172 0.2628087 0.34542537
00000000: 0699 813e 237b 143e 5159 793e 0a8a 5a3e
00000010: dd8e 863e 98db b03e
