rl/models/best_model_run0.pth (torch, 79477 bytes, 6 tensors)

net.0.weight f4 [128, 13]
0.14347675 -0.14561057 2.064006 -1.318182 0.25809607 0.25316164 0.043484364 0.28549907
-0.15044147 -0.6489806 0.21209157 0.086085975 -0.026528742 0.008040933 -0.06949013 -0.8377662
1.2376206 0.44440496 0.048976228 -0.02859795 0.19203241 0.10585302 0.3147517 -0.12127175
0.09365326 0.26486626 -0.1309168 0.048197426 0.8894771 0.30250764 -0.23780708 0.26679564
-0.5653801 0.4284951 0.23198508 0.22697678 -0.09215659 -0.12594861 0.19839889 -0.20005946
0.14763077 1.079198 0.79847187 0.12294504 -0.39701495 -0.60374427 0.30343562 0.040648513
0.3471359 -0.48142475 0.39416406 0.33538032 0.07320817 -0.099234164 -0.641149 -0.12001235
-0.021846 0.44742322 -0.35579473 0.6071232 -0.14364122 -0.48419818 0.14925547 0.020723138
-0.23378907 0.15055877 -0.20341825 -0.9627789 -0.56786287 -0.12626082 0.09710144 -0.22469531
0.39388847 0.25512853 0.35765934 0.15341717 0.013256421 -0.0040625175 0.0001304965 0.37291127
0.39221928 -0.12026137 0.32260346 0.15841784 0.41884336 -0.2815111 -0.35821718 -0.23755524
-0.6915594 0.16124877 -0.01890518 -0.2649795 -0.25571764 -0.04242792 0.15305786 0.18810602
0.02758716 -0.036274254 0.18756256 -0.044673506 0.032547656 -0.21397999 -0.23944397 -0.09382796
-0.08963456 -0.09865437 0.11284251 0.10410882 -0.25448054 0.111691825 -0.27054685 -0.262328
0.11510441 -0.15589626 0.096702814 0.20064117 0.17081839 0.0987437 0.2017267 -0.069799714
0.06104428 -0.35462314 -0.15295628 -0.4852015 0.713555 -0.08183998 0.16637193 -0.032810874
0.55924577 -0.062957205 -0.4093203 -0.051457103 0.84089804 -1.5745459 0.22175576 0.14148615
-0.0030540074 0.06310887 -0.23081572 0.35075247 0.25317422 -0.032717492 -0.012410552 -0.2598554
0.22350988 0.23796125 -0.23384841 -0.1891897 -0.18663968 -0.067023665 0.13591023 -0.23811804
-0.18307856 0.07186111 -0.17565688 0.1812953 -0.27788222 -0.2643872 -0.07406518 -0.16875155
0.23888008 0.11448576 -0.19779857 -0.15375601 -0.14186545 0.055413593 -0.23424307 -0.07095702
0.0920623 -0.122116975 -0.24222913 0.4501178 1.422952 -0.3242391 -0.28191552 0.3076337
0.4192336 -0.4675055 -0.17431495 -0.056823928 -0.09728127 0.19317028 -0.16446275 0.078274585
0.6898708 -0.7955264 -0.34230876 -0.037641447 0.19892885 0.33218145 -0.030712623 -0.39604953
0.0025463197 0.51087123 0.3094545 -0.079368934 -0.23234902 0.5463953 1.611532 0.4446538
0.17246765 -0.11889791 0.05528609 -0.052305248 0.14617087 -0.017502233 -0.48080614 0.12590517
0.43931264 0.22012033 1.0184486 0.12816487 0.06706087 -0.057319727 -0.3822487 -0.09416832
0.11820776 -0.30245274 0.07868703 0.2645469 -0.57205486 -0.26981497 -0.0523828 0.18576752
-0.19000295 0.063383095 -0.046449237 0.13543464 -0.23334336 -0.06517562 0.20600441 0.03755266
-0.21458362 0.13451375 0.0746793 0.1371277 1.4447665 0.45510817 -0.29302454 0.44575703
0.29673564 0.16810043 -0.12501241 -0.580873 0.28351533 -0.46636924 0.26033327 -0.36401656
0.15210931 -0.03614186 -0.37852004 0.51870847 -0.10568064 0.15964323 -0.26529056 -0.04679488
00000000: 92eb 123e f01a 15be ad18 0440 30ba a8bf
00000010: 2b25 843e 679e 813e a91c 323d ef2c 923e
00000020: 540d 1abe 9823 26bf 882e 593e d84d b03d
00000030: ce52 d9bc 1ebe 033c d750 8ebd d877 56bf
00000040: 5a6a 9e3f 0c89 e33e 4c9b 483d 3f46 eabc
00000050: 25a4 443e 78c9 d83d 2327 a13e 535d f8bd
00000060: 48cd bf3d 8d9c 873e 0e0f 06be aa6a 453d
00000070: c5b4 633f 48e2 9a3e b383 73be 7099 883e
00000080: c0bc 10bf b663 db3e 7f8d 6d3e 9a6c 683e
00000090: 98bc bcbd acf8 00be 1429 4b3e 63dc 4cbe
000000a0: 852c 173e 2923 8a3f a768 4c3f 9cca fb3d
000000b0: 8b45 cbbe fc8e 1abf ea5b 9b3e 0e7f 263d
000000c0: ccbb b13e 4e7d f6be dfcf c93e f8b6 ab3e
000000d0: 2aee 953d 483b cbbd 5722 24bf 09c9 f5bd
000000e0: 62f6 b2bc a814 e53e ba2a b6be 6d6c 1b3f
000000f0: af16 13be d3e8 f7be 6dd6 183e 92c3 a93c
00000100: 6766 6fbe 142c 1a3e e04c 50be ae78 76bf
00000110: 765f 11bf 844a 01be 1fdd c63d 8716 66be
00000120: c0ab c93e 35a0 823e 201f b73e 6419 1d3e
00000130: 7631 593c de1e 85bb e3d5 0839 3aee be3e
00000140: f7d0 c83e 984b f6bd 482c a53e 4938 223e
00000150: a372 d63e 3922 90be 3e68 b7be ae41 73be
00000160: 090a 31bf 661e 253e 09df 9abc 65ab 87be
00000170: 6ced 82be e6c8 2dbd 33bb 1c3e dd9e 403e
00000180: 78fe e13c 5094 14bd 6610 403e 91fb 36bd
00000190: b150 053d 921d 5bbe cd30 75be e028 c0bd
000001a0: 5392 b7bd 4d0b cabd f919 e73d 0137 d53d
000001b0: 464b 82be afbe e43d 1e85 8abe db4f 86be
000001c0: dcbb eb3d 45a3 1fbe 200c c63d e174 4d3e
000001d0: 04eb 2e3e 233a ca3d 7291 4e3e 27f3 8ebd
000001e0: 9109 7a3d 2a91 b5be 92a0 1cbe 556c f8be
000001f0: 8aab 363f b89b a7bd 675d 2a3e b264 06bd
00000200: bb2a 0f3f b5ef 80bd 6e92 d1be afc4 52bd
00000210: 1845 573f b88a c9bf f113 633e bfe1 103e
00000220: be25 48bb 393f 813d f55a 6cbe d495 b33e
00000230: 0da0 813e c702 06bd a155 4bbc c40b 85be
00000240: c6df 643e 1dac 733e f575 6fbe f2ba 41be
00000250: 791e 3fbe b443 89bd 0d2c 0b3e 37d5 73be
00000260: f278 3bbe eb2b 933d 66df 33be 7aa5 393e
00000270: 9446 8ebe c25d 87be 7caf 97bd 35cd 2cbe
00000280: fb9c 743e 8377 ea3d b58b 4abe 3772 1dbe
00000290: 2d45 11be 5df9 623d 6add 6fbe ea51 91bd
000002a0: 298b bc3d 7718 fabd ea0a 78be d775 e63e
000002b0: 4b23 b63f ab02 a6be 3b57 90be 2a82 9d3e
000002c0: c9a5 d63e e25c efbe 9e7f 32be 35c0 68bd
000002d0: 673b c7bd 6ece 453e ec68 28be 6d4e a03d
000002e0: 5f9b 303f 9ea7 4bbf 1843 afbe eb2d 1abd
000002f0: 01b4 4b3e b013 aa3e 0a99 fbbc 01c7 cabe
00000300: 28e0 263b 75c8 023f d270 9e3e 2e8c a2bd
00000310: e7ec 6dbe 90e0 0b3f ae46 ce3f aaa9 e33e
00000320: 5c9b 303e bf80 f3bd ab73 623d 073e 56bd
00000330: d1ad 153e d860 8fbc 392c f6be 49ed 003e
00000340: 96ed e03e 3967 613e 865c 823f a73d 033e
00000350: 3657 893d 17c8 6abd 1ab6 c3be 52db c0bd
00000360: e916 f23d 16db 9abe aa26 a13d b172 873e
00000370: 3072 12bf 3025 8abe 598f 56bd d739 3e3e
00000380: 2290 42be ffce 813d 8e41 3ebd 61af 0a3e
00000390: 90f1 6ebe cc7a 85bd d2f2 523e d1d0 193d
000003a0: cfbb 5bbe f9bd 093e 76f1 983d 346b 0c3e
000003b0: 1cee b83f f003 e93e 5007 96be 443a e43e
000003c0: bced 973e 8522 2c3e 4103 00be 18b4 14bf
000003d0: ec28 913e f3c7 eebe 674a 853e 6160 babe
000003e0: 8bc2 1b3e 7d09 14bd 61cd c1be 14ca 043f
000003f0: 176f d8bd 8479 233e 2ad4 87be fdab 3fbd

net.0.bias f4 [128]
-0.015811853 -0.4365267 -0.129921 -0.0020403257 0.11273114 -0.374941 -0.10121914 -0.17414232
-0.27362272 -0.402124 -0.22745393 -0.19774431 -0.06359328 0.35596597 -0.1340089 0.09083143
0.32459933 -0.27119714 -0.21023972 -0.1104366 -0.09102078 0.029309452 -0.24704935 0.28292546
-0.071807794 -0.0100968275 -0.015051259 -0.21685936 0.23498204 -0.067670755 0.06075029 -0.23252867
-0.3030082 0.24915977 -0.10845828 -0.14611948 -0.14565521 0.20680304 0.32071772 -0.17451125
0.3001895 0.15095533 0.39712286 0.12292866 -0.17702019 -0.039656337 -0.07302301 0.06157329
-0.2731396 -0.4759652 -0.006363519 0.115286246 -0.2612669 -0.0064239986 0.18263343 -0.28352755
-0.005117115 0.0005791899 -0.20220916 -0.16959447 -0.09820517 -0.1062447 0.23362327 -0.08203614
0.033850733 -0.1982595 -0.1670659 -0.26641375 -0.27641106 0.235303 0.15735604 -0.15807806
0.09855659 -0.09578321 0.25211152 0.27322483 0.187725 0.033477645 0.30421138 -0.010515233
0.06403124 -0.22882041 0.16654633 -0.0018731843 -0.2724162 -0.04278139 0.14803897 -0.08748733
0.3262327 -0.2895049 0.22375022 -0.2326489 0.2038855 -0.048421144 -0.12688485 0.03317502
-0.086163156 -0.1483111 0.19316539 0.09983583 0.12156802 -0.3088082 0.020977112 -0.10523215
-0.20012236 0.228636 0.21086888 0.020682102 -0.2488867 -0.2720373 0.25552282 0.39943326
0.36647245 0.10026999 -0.069276825 -0.037053116 -0.29794785 0.041056145 -0.18276721 0.13094951
-0.072186716 -0.07163432 -0.01689359 0.1936931 -0.31810856 0.07842257 -0.0032317475 0.12960613
00000000: dc87 81bc 6d80 dfbe 030a 05be fcb6 05bb
00000010: 95df e63d 44f8 bfbe fb4b cfbd 5d52 32be
00000020: 4718 8cbe 32e3 cdbe afe9 68be 7c7d 4abe
00000030: 323d 82bd 2c41 b63e a139 09be d405 ba3d
00000040: e231 a63e 5ada 8abe 1549 57be 962c e2bd
00000050: 1a69 babd 601a f03c 81fa 7cbe 9bdb 903e
00000060: f70f 93bd 2a6d 25bc 8e99 76bc 6110 5ebe
00000070: 229f 703e f796 8abd 4cd5 783d ff1b 6ebe
00000080: e423 9bbe bd23 7f3e 601f debd 58a0 15be
00000090: a426 15be 2dc4 533e 1d35 a43e 14b3 32be
000000a0: 70b2 993e 0994 1a3e b053 cb3e 05c2 fb3d
000000b0: c844 35be af6e 22bd 168d 95bd 4634 7c3d
000000c0: f4d8 8bbe b6b1 f3be 1185 d0bb 321b ec3d
000000d0: c6c4 85be 6880 d2bb 4204 3b3e 862a 91be
000000e0: 79ad a7bb c7d4 173a eb0f 4fbe 2caa 2dbe
000000f0: cb1f c9bd d296 d9bd f03a 6f3e 9002 a8bd
00000100: 11a7 0a3d 8a04 4bbe 5313 2bbe 6267 88be
00000110: c085 8dbe 45f3 703e f121 213e 37df 21be
00000120: 0ad8 c93d fd29 c4bd c314 813e 20e4 8b3e
00000130: fb3a 403e db1f 093d 98c1 9b3e 1548 2cbc
00000140: d022 833d e64f 6abe 1f8b 2a3e a385 f5ba
00000150: 237a 8bbe 8a3b 2fbd 8797 173e 8f2c b3bd
00000160: f907 a73e fc39 94be c71e 653e 833b 6ebe
00000170: 5cc7 503e 4055 46bd 1aee 01be 88e2 073d
00000180: 4f76 b0bd ddde 17be 26cd 453e ba76 cc3d
00000190: a7f8 f83d 1c1c 9ebe 31d8 ab3c f483 d7bd
000001a0: e0ec 4cbe 8e1f 6a3e 03ee 573e 836d a93c
000001b0: 28dc 7ebe 7948 8bbe e3d3 823e 8482 cc3e
000001c0: 47a2 bb3e 5a5a cd3d 02e1 8dbd 02c5 17bd
000001d0: 9f8c 98be 7d2a 283d 5427 3bbe a117 063e
000001e0: a1d6 93bd 04b5 92bd 6d64 8abc 7c57 463e
000001f0: 20df a2be 039c a03d bacb 53bb 78b7 043e

net.2.weight f4 [128, 128]
-0.050494306 -0.015501212 -0.026437838 -0.091033995 -0.062145833 -0.07173681 0.07652723 0.01887456
-0.056505647 -0.029418048 -0.08119006 -0.058961015 0.06904051 -0.0032596625 -0.050297208 -0.049932677
-0.05845205 0.04451525 0.044495467 -0.0108638005 -0.055638086 -0.070621245 0.037604693 -0.03657408
-0.06811377 -0.11503128 0.014159855 0.062495578 -0.02340001 0.033568952 -0.059929658 -0.0124749085
0.016471673 -0.03775346 0.020542573 -0.08271636 0.05744314 0.017768018 -0.032680918 -0.064643614
0.016401561 -0.05597177 -0.08021201 -0.0075267316 -0.0827558 -0.067366846 -0.07432824 -0.041277897
0.052229416 -0.060428143 -0.0033959928 0.07967126 -0.0023195096 0.023151316 0.014235026 -0.07620089
-0.014895396 -0.07695403 -0.072393894 0.078677624 -0.039618332 -0.054209474 -0.035521038 0.038188227
-0.046898738 -0.09312812 0.080555394 -0.005499942 0.02603141 -0.073669136 -0.07518613 -0.05715065
0.054718006 0.08690873 -0.092446454 -0.03806128 -0.015444955 0.016780514 0.013005057 -0.025833262
0.04777435 -0.043529022 -0.018957283 0.02000456 -0.0045457375 -0.07638406 0.059685595 0.041612204
0.042751566 -0.06795441 0.057820186 0.056655835 0.045196738 0.004518279 -0.08473606 0.06469344
-0.033361677 0.047651228 -0.1064899 0.03357668 0.033325553 0.06259846 -0.07725613 -0.036040686
0.05903135 -0.06596903 -0.03364562 0.010773415 0.046281792 0.085290425 -0.08883145 -0.07833838
0.07094045 -0.09089919 -0.090384014 -0.053039752 -0.03448882 0.04080131 0.07225908 -0.020010559
-0.042091258 -0.06997021 0.07950438 0.074114054 -0.00783918 -0.075054176 -0.039036226 -0.05250099
-0.13115394 0.04322535 0.5883288 0.26529652 -0.35323742 -0.36463362 -0.027563004 -0.035811197
0.051372275 -0.63653487 0.022454338 0.017570356 0.08263756 0.23261578 0.13195024 -0.04795992
-0.031384163 -0.053368215 0.46576583 0.1803356 -0.07479712 -0.055295017 0.06843581 0.06939949
-0.7671646 -0.28821725 0.5503297 -0.07214042 0.021023266 -0.032776456 -0.08111214 0.05876363
0.5323844 -0.0020954434 0.062436815 -0.022705276 0.07824225 0.2627836 -0.080065124 -0.04899514
-0.21441898 -0.07206201 -0.10143398 -0.34151322 -0.42656192 -0.14269252 0.29649228 0.051604193
-0.075756475 -0.37701228 -0.04209423 1.0525918 -0.16703786 -0.02010554 0.49144608 -0.18016344
0.2269614 0.03252086 -0.04400979 0.055808034 -1.4742011 0.044316653 -0.07685794 0.06490456
-0.07511385 0.28149256 0.08362821 0.07721273 0.021290122 -0.11847897 0.0008068171 0.02126711
0.019888991 -0.28076702 0.5628492 0.4649079 0.53593206 0.011807102 -0.065200455 -0.07826402
0.20065491 -0.42517298 0.0010391467 -0.03366848 -0.016921885 -0.03525513 0.19396709 -0.08881604
0.025030015 -1.6410841 0.21067914 -0.05104507 -0.09799227 0.1644011 0.072920844 -0.025822183
0.13182111 0.06274715 -0.011987466 0.28946373 -0.18649627 0.20025593 -0.625445 -0.0683492
-0.061748736 0.46251 -0.024144763 -0.32725 -0.019369047 0.011384275 0.18331155 0.09440477
-0.656371 0.383382 -0.15961759 -0.073899746 0.47966084 -0.05590634 0.14678302 0.11218528
-0.07163168 0.051738575 0.049673937 0.026047517 0.049035564 -0.18717882 0.13911301 0.66382194
00000000: 1ed3 4ebd ccf8 7dbc 2a94 d8bc 0870 babd
00000010: a18c 7ebd c0ea 92bd 4fba 9c3d d29e 9a3c
00000020: 7772 67bd 1efe f0bc f946 a6bd 1b81 71bd
00000030: 1c65 8d3d 10a0 55bb 7204 4ebd 3586 4cbd
00000040: 6b6b 6fbd 9f55 363d e140 363d 15fe 31bc
00000050: c3e4 63bd dfa1 90bd 6107 1a3d b4ce 15bd
00000060: 3b7f 8bbd 8595 ebbd bdfe 673c 5dfb 7f3d
00000070: 61b1 bfbc 997f 093d cd78 75bd 8f63 4cbc
00000080: 9aef 863c 5fa3 1abd e648 a83c 3267 a9bd
00000090: 7f49 6b3d 3c8e 913c 6ddc 05bd df63 84bd
000000a0: 915c 863c a842 65bd 3246 a4bd cda2 f6bb
000000b0: df7b a9bd a1f7 89bd 6739 98bd 0313 29bd
000000c0: 83ee 553d 8083 77bd 4e8f 5ebb b02a a33d
000000d0: ea02 18bb d4a7 bd3c 073a 693c 360f 9cbd
000000e0: d20b 74bc 139a 9dbd 4043 94bd bc21 a13d
000000f0: d546 22bd c10a 5ebd 827e 11bd 426b 1c3d
00000100: e418 40bd f5b9 bebd 3afa a43d dc38 b4bb
00000110: d33f d53c d8df 96bd 30fb 99bd cd16 6abd
00000120: fd1f 603d 34fd b13d 9154 bdbd 25e6 1bbd
00000130: d60c 7dbc 4a77 893c 2a13 553c 47a0 d3bc
00000140: 09af 433d 7d4b 32bd 4e4c 9bbc 9ae0 a33c
00000150: 69f4 94bb 3f6f 9cbd e278 743d 8f71 2a3d
00000160: 441c 2f3d af2b 8bbd dcd4 6c3d f30f 683d
00000170: 3720 393d 120e 943b 198a adbd ff7d 843d
00000180: 41a6 08bd ef2d 433d 6017 dabd b387 093d
00000190: 6080 083d 9f33 803d 7638 9ebd 669f 13bd
000001a0: dbca 713d c51a 87bd fdcf 09bd fa82 303c
000001b0: fa91 3d3d bfac ae3d 43ed b5bd df6f a0bd
000001c0: 3a49 913d 5b29 babd 411b b9bd 3640 59bd
000001d0: 2644 0dbd 461f 273d 92fc 933d 2fed a3bc
000001e0: e267 2cbd 8b4c 8fbd 31d3 a23d 1cc9 973d
000001f0: e76f 00bc 01b6 99bd 73e4 1fbd 470b 57bd
00000200: 384d 06be 110d 313d b79c 163f f2d4 873e
00000210: 89db b4be 42b1 babe cfcb e1bc c3ae 12bd
00000220: bc6b 523d f3f3 22bf 29f2 b73c b5ef 8f3c
00000230: e23d a93d d532 6e3e f71d 073e 9f71 44bd
00000240: ae8c 00bd a198 5abd dc78 ee3e e5a9 383e
00000250: 3c2f 99bd 077d 62bd 1328 8c3d 5221 8e3d
00000260: e664 44bf 3691 93be 68e2 0c3f 5bbe 93bd
00000270: fc38 ac3c 9b40 06bd 1f1e a6bd 22b2 703d
00000280: 584a 083f b553 09bb bfbd 7f3d 6a00 babc
00000290: 793d a03d 928b 863e 2ff9 a3bd 21af 48bd
000002a0: a690 5bbe 3f95 93bd 9ebc cfbd d2da aebe
000002b0: 5366 dabe fd1d 12be d6cd 973e eb5e 533d
000002c0: 3626 9bbd c107 c1be 006b 2cbd 54bb 863f
000002d0: f90b 2bbe 60b4 a4bc d29e fb3e c47c 38be
000002e0: 9268 683e 9834 053d 9c43 34bd f796 643d
000002f0: 9fb2 bcbf 6185 353d b267 9dbd afec 843d
00000300: 4ad5 99bd cb1f 903e 4445 ab3d b521 9e3d
00000310: 9f68 ae3c 1aa5 f2bd 9480 533a 5d38 ae3c
00000320: 3dee a23c b2c0 8fbe e316 103f 6908 ee3e
00000330: d832 093f 9372 413c d187 85bd e348 a0bd
00000340: 7b78 4d3e 46b0 d9be fa33 883a f6e7 09bd
00000350: c49f 8abc af67 10bd 4f9f 463e 2fe5 b5bd
00000360: bf0b cd3c 0b0f d2bf 46bc 573e a314 51bd
00000370: 2cb0 c8bd c358 283e 8657 953d 0b89 d3bc
00000380: 1dfc 063e 9481 803d 1467 44bc 9734 943e
00000390: e1f8 3ebe e40f 4d3e 2a1d 20bf aafa 8bbd
000003a0: 3eec 7cbd 1cce ec3e 3dcb c5bc 508d a7be
000003b0: d6ab 9ebc 1c85 3a3c 06b6 3b3e 4a57 c13d
000003c0: ee07 28bf a54a c43e cb72 23be c058 97bd
000003d0: 1b96 f53e 0cfe 64bd 4a4e 163e 65c1 e53d
000003e0: a1b3 92bd d4eb 533d e676 4b3d 9a61 d53c
000003f0: 84d9 483d ceab 3fbe a473 0e3e 3cf0 293f

net.2.bias f4 [128]
-0.018237129 0.1189984 0.26686627 -0.098795354 0.32850784 0.033425298 -0.079810426 0.20713344
0.37435785 0.015418968 0.029735168 0.25534305 -0.13847758 -0.06815377 -0.074059814 0.07338609
0.09066707 -0.063206054 -0.07923157 0.06413387 -0.1070887 -0.14756063 0.11977243 0.050028466
0.03704151 0.011564145 -0.023731815 -0.035264604 0.008037449 -0.014878634 -0.048921563 0.18943827
-0.05685438 0.026780196 -0.10105608 0.39316097 -0.026142027 0.08223132 -0.112254426 0.20435083
-0.07960946 0.19637367 0.27194312 -0.055838108 -0.022241816 0.17770864 0.2386785 -0.08811126
-0.051696822 -0.066313505 0.0025237212 0.18463245 -0.02170124 0.008918198 0.31708032 0.060321614
-0.023941714 -0.008739869 0.5260761 -0.030064628 -0.0289167 0.073775075 -0.06295725 -0.16890131
0.05849152 0.032669693 -0.07870903 0.1408727 -0.12526157 -0.070527 0.40553045 -0.039764725
0.14985566 -0.048908565 -0.08206125 -0.072854936 -0.08217188 -0.08712352 0.035279024 0.12948121
0.02255031 -0.06282534 -0.022784946 -0.09302536 -0.077817544 -0.045861796 -0.07646505 0.00010666581
0.1985159 0.039623395 0.055546205 0.035948824 -0.09560476 -0.105143614 -0.0834796 -0.12803888
-0.08949134 0.027771091 -0.0768074 0.015902117 -0.020646842 -0.037410215 0.031568836 0.3529454
-0.06747568 -0.07094984 -0.056737967 0.083801135 -0.094491735 0.112656556 0.22029047 0.014947825
-0.068085134 -0.008704253 0.02981553 -0.047109976 -0.006559055 -0.07991466 0.18629181 0.017345991
-0.031564705 0.044006873 -0.1998573 0.14025734 0.13770781 -0.07587007 0.42347866 -0.03319649
00000000: 0866 95bc 6fb5 f33d b2a2 883e 3855 cabd
00000010: 2e32 a83e f7e8 083d a673 a3bd ca1a 543e
00000020: d5ab bf3e d79f 7c3c 2b97 f33c 53bc 823e
00000030: 11cd 0dbe 3494 8bbd acac 97bd 724b 963d
00000040: a8af b93d 2d72 81bd 2944 a2bd 9e58 833d
00000050: 5251 dbbd 221a 17be 3f4b f53d a6ea 4c3d
00000060: d7b8 173d 8a77 3d3c 3969 c2bc 9e71 10bd
00000070: 81af 033c 84c5 73bc fa61 48bd 1bfc 413e
00000080: 23e0 68bd 2462 db3c 7df6 cebd 654c c93e
00000090: ce27 d6bc e568 a83d a6e5 e5bd 5841 513e
000000a0: 490a a3bd 2e16 493e 213c 8b3e 80b6 64bd
000000b0: 7834 b6bc 41f9 353e 2368 743e ad73 b4bd
000000c0: 0cc0 53bd 60cf 87bd 0465 253b 4a10 3d3e
000000d0: cdc6 b1bc a21d 123c 5a58 a23e cc13 773d
000000e0: 6a21 c4bc ab31 0fbc ecac 063f 184a f6bc
000000f0: b7e2 ecbc 6317 973d bbef 80bd 77f4 2cbe
00000100: ce94 6f3d a8d0 053d 3332 a1bd ef40 103e
00000110: 9244 00be 7670 90bd b0a1 cf3e 56e0 22bd
00000120: c373 193e 5954 48bd bb0f a8bd f834 95bd
00000130: bb49 a8bd d16d b2bd bd80 103d b996 043e
00000140: 6dbb b83c 92aa 80bd 7fa7 babc 1484 bebd
00000150: ce5e 9fbd 94d9 3bbd b599 9cbd c5b1 df38
00000160: c147 4b3e 244c 223d 6b84 633d 133f 133d
00000170: 6ecc c3bd 8955 d7bd 5af7 aabd a01c 03be
00000180: 3c47 b7bd 3380 e33c 334d 9dbd 2845 823c
00000190: 9123 a9bc 743b 19bd 534e 013d 42b5 b43e
000001a0: b030 8abd 264e 91bd 1266 68bd ee9f ab3d
000001b0: e284 c1bd 7bb8 e63d d393 613e b9e7 743c
000001c0: 3870 8bbd 489c 0ebc b33f f43c 64f6 40bd
000001d0: 57ed d6bb 4caa a3bd 48c3 3e3e 2e19 8e3c
000001e0: fe49 01bd 8d40 343d 64a7 4cbe 9f9f 0f3e
000001f0: 4703 0d3e c461 9bbd 32d2 d83e 0bf9 07bd

net.4.weight f4 [6, 128]
-0.03373305 0.7494856 0.99982065 -0.038514256 0.4065928 -0.055515993 0.37667504 0.9480849
0.28919366 -0.15883301 -0.13422622 0.4288498 0.34173134 0.016073009 -0.078076676 0.5400468
0.22565615 0.0067145936 -0.05345902 0.026527729 0.04802826 -0.36753717 0.17223473 0.03088265
-0.018942662 -0.043509036 -0.50293946 -0.055195555 -0.01793975 -0.5861788 0.5163637 0.49990556
-0.01847166 0.025058797 -0.743595 0.29735968 0.09242333 -0.46344706 0.036384236 0.5968433
-0.012514305 0.28358495 0.2743743 -0.05578506 0.050786108 0.9583726 0.5372828 0.03304011
-0.5054012 0.062863186 0.029966492 0.87647873 -0.09722093 -0.06438315 0.7598593 -0.032109868
-0.07759495 -0.057864755 0.23250487 -0.07599662 -0.021306371 0.31431252 0.05711608 -0.17248113
0.32729125 -0.09586077 0.08059738 0.12251508 -0.07966751 0.024694443 0.22568473 -0.06050508
0.3305654 0.013624664 0.7435393 -0.0017791238 -0.029189723 0.050464135 0.30982512 0.59962445
-0.010467856 0.046768304 -0.0076879435 -0.0104538435 -0.5410511 0.010877438 0.040614963 0.013399658
0.65844876 0.040964864 -0.10025407 0.05948447 0.16643146 -0.02751508 0.030987944 -0.03709184
-0.0488785 -0.0132453665 -0.020807257 -0.040420905 0.008776871 0.015737064 -0.026852101 0.3133869
0.0015303586 0.0070729987 -0.0113636125 0.17621021 -0.4351635 0.11970413 0.8840176 0.25760219
-0.00978594 -0.07752571 0.024941146 -0.05584996 0.7402477 -0.002387893 0.11673083 0.07764271
-0.010004186 0.050639495 -0.32706174 0.70705986 0.66585666 0.07475023 0.30455044 0.087588325
-0.03356164 0.3386119 0.36274004 0.070625775 0.90245086 -0.0073076882 -0.25977394 0.84868544
0.20643176 0.30960634 -0.77453405 0.34913877 0.2982177 -0.061617997 0.0060238806 0.5697904
0.7057525 0.039186507 0.070459984 -0.0108502 5.8604706e-05 -0.45790404 0.55102026 0.012683114
0.58030564 -0.02602278 -0.4784665 -0.04275276 -0.040871896 -0.39123026 1.0560446 0.8572446
-0.042827725 0.00838691 -0.76494855 0.22269985 0.014561333 -0.57266927 0.07562262 0.69933164
0.07126504 0.33570006 0.77443445 0.05840363 0.041059613 1.5068512 0.6560079 0.052453205
-0.043565866 -0.022826707 0.09711234 0.9081154 -0.06298116 0.04516664 0.7180385 0.07669909
-0.049094502 -0.0026922305 0.2361195 0.019380335 0.087946035 -0.05018844 -0.019016193 -0.91984504
1.0392737 -0.06322166 -0.007638021 0.27645597 0.07123856 0.021565804 0.3369661 0.06263325
1.0576609 0.069933236 -0.2711981 0.047193587 0.03872952 -0.037105817 0.6797327 0.70470697
-0.000812927 0.027487641 0.075136475 0.026910534 0.21775219 0.08064508 -0.05847992 -0.09471028
0.5539772 0.02187562 0.24394163 -0.03190946 0.35382807 0.061913382 0.026140934 -0.050512597
0.07539853 -0.0060853157 0.03039421 -0.034743622 -0.012300873 -0.022043232 0.2273205 0.20522232
0.07215165 -0.040449314 -0.03545143 0.34959936 -0.7130785 -0.14874871 1.0022745 -0.59420246
-0.019956553 0.023843398 0.0077140504 0.07513971 0.2516912 0.086095855 0.29854202 0.076796025
0.06518779 -0.009227797 -0.27299398 0.77094334 0.43744624 -0.040149942 0.15731992 -0.0335385
00000000: ab2b 0abd 4ade 3f3f 3ff4 7f3f 20c1 1dbd
00000010: ee2c d03e bd64 63bd 8ddb c03e b1b5 723f
00000020: 3111 943e 1fa5 22be 9972 09be 3392 db3e
00000030: 69f7 ae3e 8bab 833c aae6 9fbd 8240 0a3f
00000040: 6812 673e 1806 dc3b d8f7 5abd ae50 d93c
00000050: 48b9 443d d52d bcbe 4d5e 303e 9cfd fc3c
00000060: a42d 9bbc 8836 32bd a4c0 00bf bc14 62bd
00000070: 62f6 92bc d00f 16bf 6930 043f 9ff3 ff3e
00000080: e151 97bc 1b48 cd3c 3e5c 3ebf 873f 983e
00000090: 7148 bd3d ef48 edbe a307 153d b9ca 183f
000000a0: cd08 4dbc 0c32 913e ca7a 8c3e e07e 64bd
000000b0: 1805 503d e857 753f 5e8b 093f 1155 073d
000000c0: f961 01bf 6abe 803d 4a7c f53c e960 603f
000000d0: c41b c7bd 50db 83bd 2486 423f a385 03bd
000000e0: 1aea 9ebd 9803 6dbd c215 6e3e 1ea4 9bbd
000000f0: b38a aebc 92ed a03e 8df2 693d e59e 30be
00000100: b892 a73e a752 c4bd 3d10 a53d 30e9 fa3d
00000110: b828 a3bd 004c ca3c e619 673e 2dd4 77bd
00000120: de3f a93e fc39 5f3c 9758 3e3f 7d31 e9ba
00000130: 491f efbc 7bb3 4e3d 66a1 9e3e fd80 193f
00000140: 5f81 2bbc 1f90 3f3d 25eb fbbb 9946 2bbc
00000150: 5382 0abf 4837 323c e05b 263d 3d8a 5b3c
00000160: 1990 283f c6ca 273d 0152 cdbd fda5 733d
00000170: 026d 2a3e 4e67 e1bc 6eda fd3c 9ded 17bd
00000180: d234 48bd 1803 59bc fb73 aabc 6490 25bd
00000190: ddcc 0f3c 04eb 803c f0f8 dbbc 3f74 a03e
000001a0: 5096 c83a 9dc4 e73b 722e 3abc 7370 343e
000001b0: c0cd debe 7027 f53d fa4e 623f 6fe4 833e
000001c0: 3555 20bc cdc5 9ebd 6051 cc3c edc2 64bd
000001d0: e080 3d3f 327e 1cbb 9310 ef3d 2403 9f3d
000001e0: 99e8 23bc 5c6b 4f3d a374 a7be e001 353f
000001f0: 9575 2a3f a616 993d 09ee 9b3e 8261 b33d
00000200: ee77 09bd 8a5e ad3e 10b9 b93e 3fa4 903d
00000210: 0507 673f 5575 efbb 1701 85be 7343 593f
00000220: d962 533e b984 9e3e dd47 46bf 51c2 b23e
00000230: feaf 983e 2763 7cbd f963 c53b c9dd 113f
00000240: 32ac 343f 0882 203d 534d 903d 0ac5 31bc
00000250: 53ce 7538 6672 eabe aa0f 0d3f d6cc 4f3c
00000260: e98e 143f ba2d d5bc 90f9 f4be 851d 2fbd
00000270: 4a69 27bd 554f c8be 782c 873f 6274 5b3f
00000280: 206c 2fbd 4069 093c abd3 43bf 6e0b 643e
00000290: a892 6e3c 749a 12bf 08e0 9a3d 6607 333f
000002a0: 68f3 913d e1e0 ab3e 5641 463f a538 6f3d
000002b0: 202e 283d 80e0 c03f 22f0 273f 2cd9 563d
000002c0: 1f72 32bd 13ff babc d6e2 c63d 407a 683f
000002d0: 44fc 80bd a800 393d 5fd1 373f 6a14 9d3d
000002e0: 5117 49bd 2270 30bb 4fc9 713e 82c3 9e3c
000002f0: 0d1d b43d 6592 4dbd d9c7 9bbc f77a 6bbf
00000300: ec06 853f 5c7a 81bd 5d48 fabb a38b 8d3e
00000310: 86e5 913d c5aa b03c d286 ac3e dd45 803d
00000320: 6f61 873f 2839 8f3d 7ada 8abe 104e 413d
00000330: d8a2 1e3d 45fc 17bd f602 2e3f ad67 343f
00000340: 9c1a 55ba c32d e13c 27e1 993d 7b73 dc3c
00000350: 6efa 5e3e 3f29 a53d a488 6fbd 77f7 c1bd
00000360: 73d1 0d3f 8034 b33c d6cb 793e 7eb3 02bd
00000370: f428 b53e e398 7d3d 8325 d63c 4ce6 4ebd
00000380: 8b6a 9a3d 5467 c7bb 47fd f83c 544f 0ebd
00000390: 9a89 49bc 0294 b4bc b5c6 683e cd25 523e
000003a0: 3fc4 933d 2eae 25bd 8535 11bd b0fe b23e
000003b0: 508c 36bf 9551 18be 884a 803f a71d 18bf
000003c0: ed7b a3bc 3b53 c33c 25c6 fc3b d9e2 993d
000003d0: abdd 803e 0653 b03d 80da 983e 3c47 9d3d
000003e0: 2d81 853d 3030 17bc dec5 8bbe 8b5c 453f
000003f0: f4f8 df3e 4474 24bd 7918 213e ab5f 09bd

net.4.bias f4 [6]
0.19877185 0.249552 0.26730946 0.35887116 0.14921829 0.41966394
00000000: d98a 4b3e 8f8a 7f3e c9dc 883e f6bd b73e
00000010: aecc 183e 31de d63e
