rl/models/best_model_run2.pth (torch, 79477 bytes, 6 tensors)

net.0.weight f4 [128, 13]
-0.24304584 -0.1265015 -0.67626464 -1.2449011 0.28200844 -0.49116647 -0.003676481 0.17296481
0.37237793 0.29917043 0.19064657 -0.5775452 0.101480275 0.22178343 0.29219884 0.23731491
1.2289733 0.21993992 0.41577613 -0.451033 -0.05972783 0.32434666 0.1419879 -0.5546091
-0.33941272 0.06696514 0.3238426 0.19313791 -0.45645094 0.34709573 -0.30475745 0.21358831
-0.3292208 0.33664995 0.31593558 -0.14221984 0.3120636 -0.27495825 0.21000218 -0.13055634
0.06545863 0.10369993 -0.04016306 -0.02353021 -0.24198581 0.13748361 -0.09755195 -0.30219936
0.06857982 -0.056059003 0.05836059 0.028562132 0.1973475 -0.27881294 0.07119471 0.24058186
-0.031263884 -0.08901152 0.044477124 0.19774072 0.09628893 -0.066743396 0.3483752 -0.13439058
0.352809 0.026378503 0.11328964 -0.020404087 -0.087225504 -0.033694908 -0.1420964 -0.30459678
0.04165236 -0.15430842 -0.14448172 -0.044202425 0.036285676 -0.056460153 0.0064275903 0.257307
0.13250011 -0.26589996 -0.32892954 -0.005464739 0.09215663 0.21754952 0.2732099 0.29831594
0.3187274 0.19338882 0.03756727 0.20068312 0.06477281 -0.42766032 -0.36233994 -0.24458307
0.47707644 0.20776027 0.048801746 -0.45080996 -0.1690618 -0.1466224 0.22322764 -0.3410766
0.15497176 0.02588874 -0.5792177 0.9046625 0.18460572 -0.2093482 -0.14275338 0.35392308
-0.15506282 -0.20226319 -0.9544687 0.24383302 0.057764187 0.13289678 0.20912108 0.47392905
-0.5657992 -0.1273051 0.3579547 -0.43964735 0.13298458 0.24280082 0.08228187 -0.30560148
-0.5215579 -0.017523116 -0.0043742997 0.21154146 -0.42189744 0.9873084 -0.5675963 0.078161
-0.007143041 -0.16371329 0.32803756 -0.016667498 0.5349411 0.054548364 -0.04198591 -0.07063937
-0.32965687 -1.6116817 -0.7650783 0.5032724 0.15550987 0.15393631 0.21272722 0.1053835
0.094448276 0.016334483 -0.0011005683 0.20843366 0.017372316 0.10495431 0.23170336 0.014964429
0.17727523 -0.15399149 -0.14813232 -0.22399437 0.13309005 -0.26931673 -0.004001927 -0.19267689
-0.26365364 -0.2414202 0.0414773 -0.13755749 -0.22949946 -0.25665456 0.094076864 0.1534767
0.055178322 0.065772176 -0.24804473 0.09066343 -0.06914606 -0.13444068 0.15955722 -0.59568167
0.096049115 0.27365354 0.127545 -0.27028492 -0.20939088 -0.07332543 0.14794911 0.31152454
0.11014886 -0.22176772 0.2306394 -0.296472 -0.0055884295 0.006834505 -0.7758724 0.41147995
0.39280325 0.06971471 0.26273268 -0.3076818 -0.28323987 0.47925228 -0.03863795 -0.09190676
-0.091908105 -0.07502192 -0.17136931 0.32833517 0.36437622 0.19627705 0.25303346 -0.09532649
0.42542383 -0.22073075 -0.35493574 0.152141 -0.32093266 -0.039778702 -0.14555864 0.23063378
-0.062291827 -0.19085309 -0.2705626 -0.273462 0.10951315 0.12723912 -0.1035156 0.22615361
0.015365794 0.080044985 0.35680738 0.2850922 0.22714394 0.0017377401 0.07694724 0.035167374
-0.41709054 0.027927982 0.38018173 -0.4080328 -0.03942189 0.40428126 -0.3220881 0.25541085
0.123452336 -0.1697684 -0.28227788 0.30689114 0.18478777 -0.34366083 -0.4096531 0.11354174
00000000: 02e1 78be 9c89 01be ae1f 2dbf eb58 9fbf
00000010: 6963 903e 2c7a fbbe 1ef1 70bb b01d 313e
00000020: 52a8 be3e de2c 993e db38 433e 01da 13bf
00000030: e4d4 cf3d 321b 633e 169b 953e ae02 733e
00000040: ff4e 9d3f ee37 613e 9ce0 d43e cced e6be
00000050: 2ba5 74bd c410 a63e 4765 113e ddfa 0dbf
00000060: 81c7 adbe 0525 893d b3ce a53e f2c5 453e
00000070: f0b3 e9be 88b6 b13e 2b09 9cbe e5b6 5a3e
00000080: a18f a8be 625d ac3e 4fc2 a13e 14a2 11be
00000090: cdc6 9f3e 54c7 8cbe d00a 573e 90b0 05be
000000a0: 2d0f 863d a160 d43d 0582 24bd 6dc2 c0bc
000000b0: 21cb 77be 81c8 0c3e 51c9 c7bd e0b9 9abe
000000c0: 9473 8c3d 209e 65bd 840b 6f3d 22fb e93c
000000d0: 7715 4a3e 92c0 8ebe 88ce 913d 175b 763e
000000e0: 8f0e 00bd ac4b b6bd a52d 363d 8b7c 4a3e
000000f0: 2133 c53d c3b0 88bd 3c5e b23e af9d 09be
00000100: 62a3 b43e bb17 d83c 6604 e83d 7926 a7bc
00000110: 49a3 b2bd ac03 0abd b881 11be 1cf4 9bbe
00000120: aa9b 2a3d 0703 1ebe 04f3 13be 9a0d 35bd
00000130: 4aa0 143d c342 67bd 899e d23b bebd 833e
00000140: 1cae 073e 0a24 88be 7469 a8be 8e11 b3bb
00000150: 9dbc bc3d 4dc5 5e3e 2be2 8b3e debc 983e
00000160: 3d30 a33e b807 463e 23e0 193d e07f 4d3e
00000170: 9ba7 843d 4bf6 dabe 9f84 b9be fc73 7abe
00000180: 5d43 f43e 1cbf 543e 57e4 473d 90d0 e6be
00000190: 891e 2dbe 2f24 16be c995 643e 98a1 aebe
000001a0: ebb0 1e3e 9f14 d43c 9c47 14bf f697 673f
000001b0: 4809 3d3e 605f 56be f12d 12be 6835 b53e
000001c0: cac8 1ebe 151e 4fbe 1058 74bf 5daf 793e
000001d0: 249a 6c3d 1816 083e d623 563e d4a6 f23e
000001e0: 37d8 10bf 455c 02be d745 b73e 7519 e1be
000001f0: 1c2d 083e c7a0 783e 6683 a83d cc77 9cbe
00000200: d284 05bf a38c 8fbc 4956 8fbb 539e 583e
00000210: f102 d8be 3ec0 7c3f fe4d 11bf e012 a03d
00000220: 2c10 eabb 75a4 27be 8af4 a73e 478a 88bc
00000230: e6f1 083f 1b6e 5f3d 6bf9 2bbd 60ab 90bd
00000240: c9c8 a8be 964b cebf 2cdc 43bf 76d6 003f
00000250: fb3d 1f3e 7ba1 1d3e 2ad5 593e 4ed3 d73d
00000260: 196e c13d e5cf 853c f240 90ba a26f 553e
00000270: 6350 8e3c 49f2 d63d a543 6d3e 5d2d 753c
00000280: a387 353e f2af 1dbe 00b0 17be c85e 65be
00000290: c248 083e e2e3 89be 9922 83bb 174d 45be
000002a0: 9cfd 86be db36 77be 1ae4 293d dfdb 0cbe
000002b0: e801 6bbe 3a68 83be 5fab c03d ff28 1d3e
000002c0: aa02 623d 90b3 863d 70ff 7dbe c0ad b93d
000002d0: 739c 8dbd d1aa 09be f862 233e 987e 18bf
000002e0: 66b5 c43d 511c 8c3e 289b 023e c962 8abe
000002f0: 906a 56be a52b 96bd f97f 173e 2580 9f3e
00000300: ba95 e13d 1417 63be bc2c 6c3e 2ecb 97be
00000310: 251f b7bb fcf3 df3b 939f 46bf 80ad d23e
00000320: 821d c93e 96c6 8e3d e684 863e 7888 9dbe
00000330: d104 91be 8e60 f53e d442 1ebd 9d39 bcbd
00000340: 513a bcbd 18a5 99bd 707b 2fbe 8c1b a83e
00000350: 858f ba3e dafc 483e 9a8d 813e 893a c3bd
00000360: 27d1 d93e 3e07 62be 23ba b5be daca 1b3e
00000370: 4951 a4be feee 22bd 530d 15be 432b 6c3e
00000380: b725 7fbd fe6e 43be 2e87 8abe 3603 8cbe
00000390: 6e48 e03d f94a 023e fdff d3bd d094 673e
000003a0: d0c0 7b3c a0ee a33d 75af b63e 9bf7 913e
000003b0: 6c98 683e e2c4 e33a 8496 9d3d aa0b 103d
000003c0: e48c d5be 39c9 e43c 2ea7 c23e ade9 d0be
000003d0: d978 21bd f4fd ce3e bbe8 a4be 36c5 823e
000003e0: 94d4 fc3d c4d7 2dbe ba86 90be d620 9d3e
000003f0: 0139 3d3e 50f4 afbe 0dbe d1be 9288 e83d

net.0.bias f4 [128]
-0.1105015 -0.23930831 -0.18342079 -0.2267166 -0.09182568 0.0064541446 -0.06522192 0.11437435
-0.032702353 0.18564169 -0.085657485 -0.48757324 -0.13042106 -0.21266595 0.20641847 -0.24279417
0.09021205 -0.27026585 -0.14666195 0.2871506 -0.25715387 -0.27965733 0.17351137 -0.22490895
0.32645422 -0.20344046 0.21389116 0.24075046 0.5489169 -0.166642 -0.034850027 -0.16498807
-0.29684553 -0.3137895 -0.26005548 -0.10886825 0.11033925 0.010857441 -0.16435778 -0.34891507
0.055863705 0.32279655 0.28738704 0.29540095 0.23194389 0.20977902 0.15646796 0.27094957
0.07769251 -0.22306202 0.0034744334 0.068149105 -0.085216396 0.09502742 -0.014521543 0.31693804
-0.14893922 -0.11517487 -0.38724783 -0.18845582 0.33693215 0.20663086 -0.17848188 -0.0998844
-0.21388806 0.38665158 0.0668011 -0.19669399 -0.1548948 -0.09238713 -0.19492452 -0.12550284
-0.10555139 -0.1599109 -0.18889736 -0.0854161 -0.22595327 0.1902512 -0.28247157 0.3081481
0.100535296 -0.25808236 -0.10875542 0.0150171155 -0.39900157 0.0024571964 0.12208604 -0.4185434
-0.092112266 0.091917545 -0.30309314 -0.22204533 0.04940134 0.12427569 0.27280736 -0.02855483
0.17983012 0.20831822 0.025584593 -0.13363077 -0.1275898 -0.06325617 -0.11786165 0.24791655
-0.43599498 -0.16180925 -0.13585235 0.03434989 0.1550665 -0.1957177 0.09184806 -0.34803027
-0.19743893 -0.11055392 -0.3012948 0.10353085 0.052305315 -0.09342354 -0.2415605 0.35550195
0.12309739 0.10118533 0.20226704 -0.12730025 -0.07150428 -0.021642184 0.08582153 0.059150692
00000000: 9c4e e2bd 3d0d 75be a9d2 3bbe 6528 68be
00000010: 1a0f bcbd 4a7d d33b 1293 85bd 193d ea3d
00000020: e7f2 05bd db18 3e3e 316d afbd 33a3 f9be
00000030: 198d 05be 1ac5 59be 5d5f 533e 099f 78be
00000040: 18c1 b83d 4960 8abe 8d2e 16be 6705 933e
00000050: aca9 83be 3f2f 8fbe f7ac 313e 884e 66be
00000060: 0225 a73e b252 50be 4906 5b3e 4a87 763e
00000070: d185 0c3f 33a4 2abe e7be 0ebd a2f2 28be
00000080: 23fc 97be 04a9 a0be fe25 85be 51f6 debd
00000090: 8bf9 e13d 69e3 313c 684d 28be ffa4 b2be
000000a0: 57d1 643d 9745 a53e 6524 933e cb3e 973e
000000b0: b382 6d3e 50d0 563e 2339 203e e7b9 8a3e
000000c0: 401d 9f3d 5f6a 64be 52b3 633b c291 8b3d
000000d0: ef85 aebd bc9d c23d c4eb 6dbc b445 a23e
000000e0: 8683 18be cde0 ebbd 5945 c6be 90fa 40be
000000f0: 5f82 ac3e 0a97 533e f4c3 36be 3190 ccbd
00000100: 7905 5bbe 32f7 c53e 04cf 883d 266a 49be
00000110: be9c 1ebe 7735 bdbd 4b9a 47be d183 00be
00000120: 542b d8bd afbf 23be 4f6e 41be a3ee aebd
00000130: 4b60 67be 36d1 423e 1da0 90be 96c5 9d3e
00000140: 73e5 cd3d 5f23 84be 29bb debd 590a 763c
00000150: ef49 ccbe ea08 213b 3f08 fa3d 524b d6be
00000160: 5ba5 bcbd 443f bc3d 062f 9bbe da5f 63be
00000170: 0f59 4a3d 4184 fe3d 68ad 8b3e d2eb e9bc
00000180: 6325 383e 5f51 553e c896 d13c 81d6 08be
00000190: e7a6 02be 738c 81bd 7361 f1bd d6dd 7d3e
000001a0: bc3a dfbe 53b1 25be e11c 0bbe 78b2 0c3d
000001b0: c1c9 1e3e 396a 48be d61a bc3d 0631 b2be
000001c0: 6e2d 4abe 186a e2bd 5043 9abe fb07 d43d
000001d0: 193e 563d d754 bfbd a35b 77be 5a04 b63e
000001e0: 7c1a fc3d 413a cf3d 171f 4f3e ff5a 02be
000001f0: d670 92bd f34a b1bc 33c3 af3d ff47 723d

net.2.weight f4 [128, 128]
-0.0033939544 0.031098241 -0.089125715 -0.034641653 0.020623457 -0.031820722 -0.031683706 0.049833532
-0.08583205 -0.036247883 0.07063843 -0.10706889 0.0845471 0.012281022 -0.05351185 -0.049364872
0.016368907 -0.0204836 -0.052141212 0.025239525 -0.07454529 0.0069577997 -0.005170759 0.0634211
0.022603828 0.011957946 -0.06930798 -0.004687818 -0.027746595 0.017750662 0.011433527 0.007048447
0.086676784 -0.07797174 0.06453163 0.0047257366 0.03924274 -0.04388439 -0.13565332 0.056302726
0.021941192 0.03545533 0.010540699 -0.045764588 -0.059042547 -0.10399564 -0.085156694 -0.050040014
-0.00018355504 -0.046170827 -0.064669214 0.07130546 0.06270279 -0.07105929 0.0040094308 -0.07970966
-0.011337558 -0.044980485 -0.07307044 -0.074953966 0.0020069932 -0.0411244 0.012343737 0.044861283
-0.096394286 -0.031083753 -0.08494199 -0.010538883 -0.077393435 -0.040830754 -0.016580202 -0.08628226
-0.05443457 -0.08444843 0.0381309 0.023063619 0.075387895 0.033296537 -0.08055463 0.04645425
0.015905982 0.05656971 -0.06747259 0.02953294 -0.085627444 -0.09436149 0.02574085 0.0010366042
0.011727997 0.05389267 0.03486431 -0.029756194 -0.08555306 -0.0971045 -0.12098827 0.020539857
-0.07219437 -0.04588819 0.02919578 -0.031109441 -0.043522827 0.06210707 0.042275105 -0.0239098
0.028299214 -0.042682346 0.056616947 -0.043617196 -0.0319859 -0.104859784 -0.07658331 0.07135161
-0.06381725 -0.028965352 -0.054123946 -0.021199843 -0.040891588 -0.021551369 0.018530358 -0.0084151225
-0.03230399 -0.0016911865 0.04095402 0.012536957 -0.033926044 -0.07008147 -0.11467109 -0.001414188
-0.32641986 -0.08051437 -0.1464817 0.006966895 -0.14859842 0.07042264 0.14309815 -0.3341519
0.1328585 -0.20997833 0.14542277 -0.40782169 0.0856116 -0.0409165 -0.14174648 -0.28588519
-0.3693686 0.0537977 0.4776967 0.48587972 -0.004999522 0.0277619 0.5106428 0.04111877
-0.09387195 -0.0828188 0.19019997 -0.24976541 0.90548635 -0.08261895 -0.111754276 0.33475032
0.047859296 -0.01560429 0.0027259316 -0.09900211 0.0837094 0.035621 0.14313047 -0.60869205
-0.4447838 -0.20191687 -0.8984108 0.110194504 0.1345782 -0.31734687 -0.033529792 -0.056121204
0.1328352 0.08796844 -0.35389316 -0.0023653337 -0.14741948 -0.2957189 -0.16577162 -0.0776695
-0.48280108 -0.013406902 0.042389676 -0.14494589 -0.3281921 0.34152067 0.0019797112 0.15508829
-0.05632954 -0.22470386 0.06532207 0.053505234 -0.1746988 -0.007878093 -0.058007486 0.46102875
0.038140018 -0.56649035 -0.057130292 -0.47374883 -0.084922984 -0.051357377 -0.15618365 -0.025481524
-0.12656553 0.015704496 0.016850399 0.024377484 -0.27104723 -0.03833624 -0.018008454 -0.33431527
-0.0872453 0.3029922 0.165556 -0.2704818 -0.70302564 -0.26901802 0.0742445 0.50539035
0.106872246 0.15445676 -0.25653133 0.031904377 -0.056200102 -0.56521153 0.11355261 -0.040279966
-0.22575292 -0.013323188 0.008175909 -0.13216668 -1.2491013 -0.02361273 -0.30253592 -0.05841641
-0.02649963 -1.0236675 -0.4142822 0.06641682 -0.9720952 0.08726809 -0.051778816 -0.7228071
-0.08033133 -0.0045361584 -0.34896505 -0.21983166 -0.49189845 -0.002028176 0.094050765 -0.20533516
00000000: 1b6d 5ebb bdc1 fe3c 8b87 b6bd 68e4 0dbd
00000010: 86f2 a83c 7256 02bd c6c6 01bd 3f1e 4c3d
00000020: b7c8 afbd a978 14bd e2aa 903d ef46 dbbd
00000030: 0827 ad3d 5736 493c 3e2f 5bbd d232 4abd
00000040: 1618 863c 39cd a7bc 0692 55bd 1fc3 ce3c
00000050: 33ab 98bd 41fe e33b 786f a9bb ece2 813d
00000060: aa2b b93c 43eb 433c 58f1 8dbd 449c 99bb
00000070: d44c e3bc d669 913c b053 3b3c a9f6 e63b
00000080: 9983 b13d a6af 9fbd 2929 843d 5ada 9a3b
00000090: ffbc 203d 1ec0 33bd b4e8 0abe b09d 663d
000000a0: 04be b33c 9c39 113d e5b2 2c3c a673 3bbd
000000b0: 99d6 71bd abfb d4bd a266 aebd c2f6 4cbd
000000c0: ae78 40b9 9f1d 3dbd 4b71 84bd 9908 923d
000000d0: 526a 803d 8887 91bd 8b61 833b d13e a3bd
000000e0: 2ac1 39bc 753d 38bd f4a5 95bd 7781 99bd
000000f0: c287 033b 0f72 28bd 633d 4a3c 77c0 373d
00000100: 5e6a c5bd 5ba3 febc 11f6 adbd 47ab 2cbc
00000110: 7380 9ebd 263e 27bd 34d3 87bc c1b4 b0bd
00000120: c9f6 5ebd 4cf3 acbd 262f 1c3d eaef bc3c
00000130: f864 9a3d f361 083d d3f9 a4bd d046 3e3d
00000140: 434d 823c a4b5 673d 122f 8abd 10ef f13c
00000150: 715d afbd 9940 c1bd 7ade d23c aade 873a
00000160: c926 403c 8fbe 5c3d e1cd 0e3d 43c3 f3bc
00000170: 7136 afbd b9de c6bd b3c8 f7bd 3443 a83c
00000180: a4da 93bd 41f5 3bbd fd2b ef3c 3ad9 febc
00000190: fe44 32bd fc63 7e3d a928 2d3d 7cde c3bc
000001a0: c1d3 e73c afd3 2ebd 2ce7 673d f2a7 32bd
000001b0: a603 03bd bac0 d6bd b6d7 9cbd cb20 923d
000001c0: 9eb2 82bd bf48 edbc 12b1 5dbd 4bab adbc
000001d0: f07d 27bd 7f8c b0bc facc 973c 95df 09bc
000001e0: 3051 04bd cdaa ddba 67bf 273d cf67 4d3c
000001f0: 09f6 0abd e086 8fbd add8 eabd 465c b9ba
00000200: 8120 a7be b8e4 a4bd 4cff 15be 8d4a e43b
00000210: 2f2a 18be bf39 903d 5288 123e f515 abbe
00000220: 0f0c 083e 8f04 57be b5e9 143e 01ce d0be
00000230: 2255 af3d 0f98 27bd fd25 11be 8b5f 92be
00000240: e21d bdbe fa5a 5c3d a994 f43e 3ac5 f83e
00000250: 08d3 a3bb ed6c e33c 7db9 023f 286c 283d
00000260: f03f c0bd e79c a9bd c8c3 423e 81c2 7fbe
00000270: f4cd 673f 2034 a9bd 6ddf e4bd 6564 ab3e
00000280: 1c08 443d 23a9 7fbc 8ba5 323b 9ec1 cabd
00000290: d56f ab3d 53e7 113d cb90 123e 3ed3 1bbf
000002a0: b4ba e3be 4cc3 4ebe 40fe 65bf a8ad e13d
000002b0: dece 093e 4a7b a2be 8956 09bd 59df 65bd
000002c0: f305 083e cc28 b43d 7c31 b5be b703 1bbb
000002d0: 22f5 16be 7868 97be 09c0 29be 3011 9fbd
000002e0: b431 f7be 9fa8 5bbc cca0 2d3d b26c 14be
000002f0: cc08 a8be ccdb ae3e 0bbe 013b 77cf 1e3e
00000300: ceb9 66bd c518 66be 94c7 853d 4e28 5b3d
00000310: 3ee4 32be 1e13 01bc 4299 6dbd f60b ec3e
00000320: b538 1c3d 8305 11bf 7401 6abd 358f f2be
00000330: 1aec adbd 1d5c 52bd 9bee 1fbe a1be d0bc
00000340: 659a 01be b7a6 803c d909 8a3c 4ab3 c73c
00000350: b4c6 8abe 7606 1dbd 7786 93bc 5f2b abbe
00000360: aaad b2bd cb21 9b3e 8387 293e 977c 8abe
00000370: 7df9 33bf bbbc 89be 800d 983d 4361 013f
00000380: d6df da3d ea29 1e3e 1358 83be 2aae 023d
00000390: 1432 66bd b4b1 10bf 458e e83d 9bfc 24bd
000003a0: c62b 67be 8049 5abc 3ff4 053c b456 07be
000003b0: 8de2 9fbf 7c6f c1bc fde5 9abe 0c46 6fbd
000003c0: c115 d9bc 8907 83bf cc1c d4be 8b05 883d
000003d0: 3bdb 78bf 9db9 b23d 0616 54bd e309 39bf
000003e0: c184 a4bd 0ea4 94bb 8cab b2be 8d1b 61be
000003f0: 1dda fbbe 26eb 04bb b09d c03d 6143 52be

net.2.bias f4 [128]
0.025505792 0.04533394 -0.08026126 0.17648171 0.19056657 0.082023986 -0.046816062 -0.0009829183
0.0450011 0.041843537 0.26002917 0.13114712 0.2987771 0.33682236 0.22961833 0.18975903
0.01951205 0.18043138 0.18804035 -0.0883709 -0.11844877 0.05028041 -0.01184248 0.1255603
0.4152713 0.16298003 0.044306688 -0.07648013 -0.0043536923 0.20295809 -0.014406486 0.1844835
0.24133006 0.30329943 -0.03592669 0.26903695 0.009752642 -0.08866606 0.13055535 -0.10236165
-0.029393036 0.21189709 0.1279158 0.17361143 0.047939498 -0.054955617 0.024676304 0.15344466
0.14191207 -0.031126533 0.041863788 -0.003123203 0.23543985 -0.054086547 0.047793016 -0.08488632
-0.040008146 0.0063151927 0.2315233 0.055982895 0.025957739 -0.12088453 0.011013536 0.18621
0.13553412 -0.010614799 0.018626463 -0.020627651 -0.09072649 0.13968903 0.22719793 0.23586297
-0.041939035 0.30884102 0.052482687 0.14400686 -0.06744021 0.08960154 -0.08123966 0.31918705
-0.09969612 -0.07382917 0.16802414 0.051639393 -0.058636356 0.03440366 -0.062200602 -0.10095629
-0.115895785 -0.11210792 0.11553924 0.0146342525 0.013167296 -0.10223234 0.25280175 0.30996066
0.29540083 -0.014174745 -0.020334717 0.189397 0.03270796 -0.029408185 -0.09736142 0.14157283
0.35275272 0.056692366 -0.10277153 0.10345772 -0.09875748 0.21442235 0.15174685 -0.051426563
0.20353322 0.2532949 -0.052461825 -0.0055324826 0.024100324 -0.11602749 0.03718442 0.19858284
-0.08401624 -0.03297955 -0.11880711 -0.017302955 -0.016053788 0.24107267 -0.08631209 0.2775388
00000000: 86f1 d03c 15b0 393d 0460 a4bd 9fb7 343e
00000010: e223 433e 31fc a73d 33c2 3fbd 44d5 80ba
00000020: 1353 383d 2164 2b3d 8b22 853e 6e4b 063e
00000030: 50f9 983e fb73 ac3e 1121 6b3e 3150 423e
00000040: bcd7 9f3c 01c3 383e a68d 403e cdfb b4bd
00000050: 4595 f2bd d5f2 4d3d f606 42bc e192 003e
00000060: 719e d43e 3de4 263e ee7a 353d 9da1 9cbd
00000070: 6ba9 8ebb 3fd4 4f3e 2f09 6cbc 3ee9 3c3e
00000080: 3a1f 773e 104a 9b3e dd27 13bd 36bf 893e
00000090: 8cc9 1f3c 8d96 b5bd 4db0 053e fca2 d1bd
000000a0: aac9 f0bc 8dfb 583e 5cfc 023e 32c7 313e
000000b0: 355c 443d 2419 61bd f625 ca3c 9920 1d3e
000000c0: 6651 113e 12fd febc 5d79 2b3d a7ae 4cbb
000000d0: 2517 713e db89 5dbd 9cc2 433d e1d8 adbd
000000e0: 95df 23bd adef ce3b 7214 6d3e 524e 653d
000000f0: 53a5 d43c 4f92 f7bd 1e72 343c d6ad 3e3e
00000100: 75c9 0a3e b2e9 2dbc 8696 983c 52fb a8bc
00000110: cfce b9bd a40a 0f3e 93a6 683e 1086 713e
00000120: 44c8 2bbd 6920 9e3e 16f8 563d 8976 133e
00000130: 181e 8abd 0381 b73d fb60 a6bd 7c6c a33e
00000140: 7b2d ccbd bf33 97bd 850e 2c3e d483 533d
00000150: ad2c 70bd daea 0c3d 0fc6 7ebd 2cc2 cebd
00000160: c55a edbd d698 e5bd d69f ec3d 81c4 6f3c
00000170: a4bb 573c 305f d1bd 3b6f 813e 2ab3 9e3e
00000180: c73e 973e 313d 68bc fe94 a6bc 4af1 413e
00000190: c8f8 053d 6fe9 f0bc 6d65 c7bd 78f8 103e
000001a0: 019c b43e 4136 683d e179 d2bd a4e1 d33d
000001b0: 5d41 cabd 8891 5b3e 8763 1b3e a9a4 52bd
000001c0: 036b 503e deaf 813e 36e2 56bd d449 b5bb
000001d0: 0b6e c53c d29f edbd b14e 183d 4d59 4b3e
000001e0: b510 acbd 9115 07bd 2451 f3bd edbe 8dbc
000001f0: 3c83 83bc c1db 763e 65c4 b0bd 9119 8e3e

net.4.weight f4 [6, 128]
0.04360792 -0.8829801 0.060140923 0.5292058 0.19082831 0.26019266 0.109141335 -0.015557401
0.015204161 0.01181434 0.19281238 0.46700197 0.18870455 0.575316 0.68503726 0.23114555
-0.036839165 0.44096193 0.46234542 -0.051694136 -0.0002284886 0.040827826 -0.043686748 0.263281
1.1441863 0.55057955 0.08835735 -0.05825257 0.0494709 0.45652825 0.054372273 0.15076652
0.15089515 0.22017781 -0.06554183 0.18457481 -0.24328138 0.27304837 0.12250429 -0.037093673
-0.07111885 0.11171917 0.054038018 0.015230559 -0.20863047 0.029905833 0.01586405 0.08495467
-0.0081131775 0.02560893 0.28484958 -0.04571652 0.14088763 -0.16053477 0.089369155 -0.025107952
0.017065259 -0.43002376 0.1253595 -0.051904555 0.48955756 -0.05942571 -0.019541437 0.21337456
0.34164143 0.07944512 0.9172123 -0.070671305 0.0025031348 0.35921916 0.11955215 0.07959642
-0.59909886 0.45128068 -0.5042256 0.4191683 0.074815124 0.25715092 -0.058023676 0.1617312
-0.05813889 -0.12096217 0.107697204 0.13105756 0.15665433 -0.013166873 0.0017652384 0.13382022
-0.4057721 0.05273288 -0.22521013 -0.088221 -0.0370082 -0.030125597 0.1772829 0.2081159
0.18818891 -0.017797148 0.021291798 0.1622825 0.23409125 0.009883731 -0.032764286 0.11476883
0.18954678 0.0691854 -0.015880974 0.5892656 0.42117447 0.112669826 0.20688604 0.01880832
-0.30512628 0.13105051 -0.025576055 -0.24809377 0.008515915 0.5341319 -0.021908175 0.23553717
-0.05095011 -0.07437862 -0.34853038 -0.06742678 0.744967 0.15078919 0.023263337 0.20437102
0.01794807 -0.2536879 0.07072887 0.50206465 0.26937956 0.06533667 -0.047678463 -0.022831598
0.040266253 -0.059224017 0.22413209 -0.34480768 0.08696683 0.54637915 0.51716095 0.22676258
0.07170955 0.90639216 0.20218036 -0.05196811 -0.023927683 0.054832965 0.07758751 0.41092038
0.96063066 0.222856 0.024282316 -0.027972061 -0.045769505 0.40445298 0.056724027 0.2438213
0.15552829 0.57416105 -0.024094984 0.23100834 -0.03210622 -0.34582067 0.105252 0.057165984
0.03011289 0.1878905 0.1881786 0.2173727 0.17330599 -0.0155747775 -0.0671271 0.085078456
0.735424 -0.00013259398 0.15458897 -0.08873405 0.21555424 0.2543381 0.1667762 0.026546456
-0.046622705 0.65018547 0.07197305 -0.004578259 0.34559217 -0.048484508 -0.055428945 0.1699722
0.117137924 0.16575783 0.53577596 0.009403489 -0.049181174 0.034241237 0.0886701 0.0015850321
0.15661414 0.27436104 -0.6190426 0.20735021 -0.079543084 0.5209029 -0.07806464 0.10336844
0.056365665 -0.33223763 0.29581317 0.2732772 0.2826098 0.061882786 -0.08291781 -0.034663644
-0.1327807 -0.059993777 -0.3001678 0.019429907 -0.04807278 0.046268597 0.10697309 0.27805898
0.123393975 0.04410049 0.052093513 0.20472647 -0.40001622 0.069376536 0.03127501 0.1880758
0.20455785 0.033536583 -0.042610947 0.2646288 -0.015028692 0.042366065 -0.24958669 0.016862629
0.072136424 0.054779656 -0.06778138 0.25394785 0.04402212 0.21353555 -0.06548847 0.21503133
-0.07352012 0.020837381 -0.6397231 0.028737491 0.47587392 0.07510432 -0.04126126 0.21566612
00000000: 389e 323d fc0a 62bf 5456 763d 087a 073f
00000010: 7f68 433e f937 853e 7e85 df3d 78e4 7ebc
00000020: e01a 793c ef90 413c 9c70 453e e21a ef3e
00000030: c43b 413e e947 133f 9a5e 2f3f 6bb1 6c3e
00000040: aae4 16bd c3c5 e13e 8ab8 ec3e 3bbd 53bd
00000050: 7196 6fb9 143b 273d e0f0 32bd c4cc 863e
00000060: b274 923f c8f2 0c3f b3f4 b43d 3f9a 6ebd
00000070: 00a2 4a3d 12be e93e 76b5 5e3d 8a62 1a3e
00000080: 4284 1a3e 4b76 613e cc3a 86bd 2e01 3d3e
00000090: c11e 79be ffcc 8b3e 87e3 fa3d 89ef 17bd
000000a0: c2a6 91bd 05cd e43d f856 5d3d 9889 793c
000000b0: 3aa3 55be 14fd f43c 53f5 813c b7fc ad3d
000000c0: 22ed 04bc d2c9 d13c ced7 913e 3f41 3bbd
000000d0: d944 103e 3a63 24be 2d07 b73d 31af cdbc
000000e0: 71cc 8b3c 132c dcbe 3e5e 003e df99 54bd
000000f0: 4aa7 fa3e 6068 73bd 5d15 a0bc dc7e 5a3e
00000100: a0eb ae3e 20b4 a23d 6dce 6a3f 1ebc 90bd
00000110: a20b 243b 93eb b73e c2d7 f43d 7303 a33d
00000120: 8b5e 19bf 430e e73e ee14 01bf 3a9d d63e
00000130: ac38 993d 49a9 833e 3caa 6dbd dd9c 253e
00000140: 0b23 6ebd 04bb f7bd 5a90 dc3d f433 063e
00000150: fe69 203e deb9 57bc 925f e73a 2b08 093e
00000160: 5cc1 cfbe 6ffe 573d 7c9d 66be 36ad b4bd
00000170: e995 17bd f5c9 f6bc a689 353e 561c 553e
00000180: 98b4 403e 53cb 91bc 236c ae3c 622d 263e
00000190: 9eb5 6f3e 5fef 213c d833 06bd ec0b eb3d
000001a0: 8d18 423e 13b1 8d3d d118 82bc 1cda 163f
000001b0: 2ea4 d73e 70bf e63d efd9 533e e813 9a3c
000001c0: 8339 9cbe 1b32 063e e084 d1bc 4b0c 7ebe
000001d0: 5686 0b3c debc 083f c678 b3bc a830 713e
000001e0: 10b1 50bd d153 98bd 9372 b2be 0d17 8abd
000001f0: 28b6 3e3f 7b68 1a3e c192 be3c a346 513e
00000200: d507 933c 61e3 81be 4cda 903d 4f87 003f
00000210: 1eec 893e 3bcf 853d 7e4a 43bd 5509 bbbc
00000220: 3aee 243d e294 72bd e282 653e a28a b0be
00000230: aa1b b23d 81df 0b3f a964 043f 7334 683e
00000240: 75dc 923d 5109 683f 5e08 4f3e 83dc 54bd
00000250: fd03 c4bc 8898 603d 33e6 9e3d 2864 d23e
00000260: e4eb 753f 5d34 643e b5eb c63c aa25 e5bc
00000270: ce78 3bbd 7614 cf3e 7457 683d 4aac 793e
00000280: cf42 1f3e 38fc 123f d862 c5bc 738d 6c3e
00000290: d081 03bd 680f b1be 5c8e d73d e126 6a3d
000002a0: 4faf f63c 5e66 403e e4b1 403e f396 5e3e
000002b0: 2077 313e 5a2d 7fbc ef79 89bd 9d3d ae3d
000002c0: bf44 3c3f ed08 0bb9 924c 1e3e 33ba b5bd
000002d0: 40ba 5c3e 9a38 823e 61c7 2a3e f477 d93c
000002e0: 73f7 3ebd 8e72 263f 9b66 933d 3805 96bb
000002f0: 75f1 b03e b197 46bd 7609 63bd 310d 2e3e
00000300: 02e6 ef3d 6cbc 293e 9d28 093f 1711 1a3c
00000310: 3372 49bd 8a40 0c3d ab98 b53d dac0 cf3a
00000320: 755f 203e 0d79 8c3e 9379 1ebf 9d53 543e
00000330: 7ce7 a2bd e459 053f 5be0 9fbd d5b2 d33d
00000340: afdf 663d 0d1b aabe d374 973e fdea 8b3e
00000350: 3bb2 903e ce78 7d3d d0d0 a9bd 77fb 0dbd
00000360: aaf7 07be 09bc 75bd 98af 99be 782b 9f3c
00000370: f7e7 44bd 2484 3d3d b514 db3d bf5d 8e3e
00000380: fbb5 fc3d b7a2 343d 0260 553d d1a3 513e
00000390: edce ccbe 4915 8e3d 3a1a 003d f196 403e
000003a0: 9d77 513e a85d 093d d188 2ebd 6d7d 873e
000003b0: e73a 76bc 0a88 2d3d a793 7fbe 7f23 8a3c
000003c0: 43bc 933d a260 603d f7d0 8abd 7405 823e
000003d0: 8a50 343d 10a9 5a3e d21e 86bd 2c31 5c3e
000003e0: b791 96bd 28b3 aa3c e5c4 23bf e36a eb3c
000003f0: bfa5 f33e 4bd0 993d 9101 29bd 94d7 5c3e

net.4.bias f4 [6]
0.12384945 0.20440121 0.11869983 0.2436806 0.2842082 0.1904506
00000000: c8a4 fd3d 8d4e 513e e518 f33d 6887 793e
00000010: bd83 913e 7b05 433e
