rl/models/best_model_run1.pth (torch, 79477 bytes, 6 tensors)

net.0.weight f4 [128, 13]
00000000: e178 90be 4673 46bd bbb9 273f b1d8 2d3c
00000010: c2f7 853d 58e7 10bf 3dc0 9bbd 8e86 843e
00000020: e945 183f 71f9 a63e 3e88 cf3e 1787 a7be
00000030: e550 30be ba1f 01be 918e cdbe 3b90 743f
00000040: 1902 bfbe 1418 413e 026d 01bd 86af ee3e
00000050: 4846 b03e d8b2 84be 9eaa bfbe d3e5 e2be
00000060: 0f0a 8b3d e7e2 333d dbfc 2c3e f78c c7be
00000070: b2b8 8fbf 58fb d03f 1269 a03e 8677 9c3e
00000080: f787 643e cd09 f43d 4f25 9abf b48f 0ebf
00000090: 7ad1 e73d be16 243f c155 803d 0177 3e3e
000000a0: d331 28be 51d2 3d3f d663 87bf c76b ab3e
000000b0: f21d 82bd c62b 4d3f ac39 93be b1a4 ecbe
000000c0: a25f fe3d 3abe 04bd 4650 66be 2050 1939
000000d0: 93d1 f43d 2080 533e 0995 1ec0 ecd3 bc3e
000000e0: 1af1 343e 6d3e c93d 048e 8d3e 6683 8b3e
000000f0: 5b9e eabe 74ae b73e e752 94be 795a b73d
00000100: d974 2abe fddf 50be 7b65 b33d 1031 76bf
00000110: 89b2 42be d73a 0e3f dedb 7a3e b81b 2e3c
00000120: 0c18 18bf 84f1 533e 8972 793c a56c e0be
00000130: 3a99 83bd 3f70 783e 2f0a dcbd 27df 55be
00000140: d3f8 733e 31d6 333e 034f 64be eb21 ee3b
00000150: e710 33be 71d2 573e 3170 11be 359c 58be
00000160: 618f 81bd 7335 bf3d 4106 3cbe 1c33 61be
00000170: b2c9 483a e853 f4bf d49b 113f 854c 80be
00000180: 81be 96be 2dc2 9c3e fd1e 4f3e 1c57 f6bc
00000190: b0c0 c1bd 5dce 09bf c596 e03e 6d8c c23d
000001a0: 0ba3 debe ab59 c23d 4e1b fe3d f4f1 9cbf
000001b0: 4cba 21bd 770b 6e3e 7f21 ea3e 0417 6b3e
000001c0: df99 143f 61b7 34be 3ecc 033d 5647 86be
000001d0: 4ba9 23be 227e 833e af7e ecbc 9e28 463e
000001e0: 4ee6 67bd 3580 02bd 9825 893d be65 11be
000001f0: 56a8 65be db91 dd3d 7e85 82be d922 0dbd
00000200: ad9d 883d 1b41 7f3d d650 58be 10b7 d9be
00000210: 3844 963f 06b9 a5be 7bfb cdbd ab84 8cbd
00000220: f48b 33bd 734d 8cbd 451d fcbe 0ab2 803e
00000230: 4d2d 573e 254f 843d a1ea b13e 7a5a 8bbd
00000240: 7ace 98be 0f50 c63e ec8f b4bf 9b9b 4c3d
00000250: 7246 21bf f5c2 e5bd e9b5 82be c912 a3bd
00000260: c02c cc3e 131a 663e 03ba 093f 05f0 4fbe
00000270: de67 d0be d3ad 963e 45b3 a5be 4540 fc3e
00000280: 94d0 0dbf bb38 c2be d1db 18bd 0e5a 37be
00000290: ba20 e7be 7800 913e 2883 e93e d256 9b3d
000002a0: 060d 713e 058a 28bd 11a5 76be ef13 90bb
000002b0: a655 99bf b3e2 0fbd e9ef d03e d25e 23bf
000002c0: b6cd 1cbe 504e 3dbe 0a9e 273e bee3 8b3e
000002d0: c150 1f3e e897 c1be a26a 48be 4fc0 72be
000002e0: 21b4 ccbd 4ab7 233d 345c b1be 7ae6 82be
000002f0: 4aae 3abe 59c0 35bd 59f0 eb3d 6d51 c73d
00000300: cd0c 88be a734 6bbe d3fe 013d 92bd 0bbe
00000310: 6c36 d1be 9db1 623e 18a7 ae3f fd56 cd3e
00000320: d059 b63d 9a39 203f 4c02 84be 7ad7 dc3d
00000330: 44cf 813e 374f 553e 0a4c 15be 0289 3fbe
00000340: 342a 28be 16ef d0bd 48e9 c23c b03b 83be
00000350: d987 f43d 8681 593e 49c4 88be 9830 82be
00000360: 99a9 2abd f43d 99bd 3992 7a3e 1124 57be
00000370: f4ad 57be 08cd 843e 3410 fdbe a444 31bf
00000380: e9c3 99bf 4669 d93e 5924 7cbf cfb1 6c3e
00000390: 744d ac3e e8d6 86bd a298 46be 6333 adbe
000003a0: e747 fb3d 9335 f33d 73c7 b63e 2e21 dfbe
000003b0: 53ac 57be 090e a33f 5d17 863e 2848 903e
000003c0: 769b 1fbe 12aa 20bf 1868 6e3e 3813 cdbe
000003d0: edbf fc3d b880 103e c00c b73d 6c9d 953e
000003e0: c58f aa3e ccb6 eb3e d0fd b93e 79d5 b6be
000003f0: 83eb 85be 9d4d e83d f2a2 4dbe c932 063e
-0.28217223 -0.048449777 0.6551778 0.010610745 0.06541397 -0.56603 -0.07605026 0.25883907
0.59481674 0.32612184 0.40533632 -0.32720253 -0.17218359 -0.12609759 -0.40147832 0.9553258
-0.37306288 0.18856841 -0.0315981 0.4661829 0.3442862 -0.25917697 -0.37434858 -0.44315967
0.06789028 0.043917563 0.16893332 -0.38974735 -1.122824 1.6326704 0.31330162 0.3055994
0.22317491 0.11915932 -1.2042636 -0.55688024 0.11319251 0.640972 0.06266356 0.18600084
-0.16425256 0.7414904 -1.0577343 0.33480665 -0.06353368 0.8014492 -0.28754938 -0.462194
0.12420584 -0.032407977 -0.2249156 0.00014621066 0.119540356 0.20654345 -2.4778464 0.36880434
0.17670098 0.0982636 0.27647412 0.27248687 -0.4582394 0.35875285 -0.289695 0.08952803
-0.16646136 -0.20397945 0.0875959 -0.96168613 -0.19013418 0.5555853 0.24497935 0.010626726
-0.5941169 0.206976 0.015225061 -0.4383289 -0.0642571 0.24261568 -0.1074413 -0.20885907
0.23825388 0.17562176 -0.22295766 0.007267227 -0.17486916 0.21076371 -0.14202954 -0.21153338
-0.063261755 0.093363665 -0.1836176 -0.21992153 0.00076594495 -1.9088106 0.568784 -0.2505838
-0.29442218 0.30616894 0.20226665 -0.030070834 -0.0946058 -0.5383051 0.43865028 0.0949944
-0.43483767 0.09489759 0.12407552 -1.2261338 -0.039484307 0.23246561 0.4572868 0.22957999
0.5804729 -0.17648079 0.032177202 -0.262263 -0.15982549 0.2568217 -0.028869001 0.19351432
-0.05661612 -0.03186055 0.066966236 -0.14198968 -0.22427496 0.10818835 -0.2549247 -0.03445706
0.06670699 0.06231795 -0.21124586 -0.42522478 1.1739569 -0.32367724 -0.10057732 -0.06861242
-0.04383464 -0.0685071 -0.4924108 0.25135833 0.21013375 0.06460408 0.3474932 -0.068043664
-0.2984503 0.38732955 -1.4106421 0.049953084 -0.62998116 -0.11218826 -0.2552941 -0.07962567
0.39877892 0.22470884 0.53799456 -0.20306404 -0.40704244 0.29429492 -0.32363334 0.49267784
-0.5539639 -0.37933907 -0.03731901 -0.17905447 -0.45142156 0.2832067 0.45607877 0.07584919
0.23540124 -0.04114725 -0.24086405 -0.0043969075 -1.1979263 -0.035128307 0.40808037 -0.6381656
-0.15312847 -0.18486905 0.16368881 0.2732219 0.15558149 -0.37811208 -0.19571927 -0.23706172
-0.09995294 0.03996972 -0.34640658 -0.25566465 -0.18230549 -0.04437289 0.11520452 0.097323276
-0.26572266 -0.22969304 0.03173716 -0.13646534 -0.40861833 0.22138067 1.3644743 0.4010543
0.08903849 0.62587893 -0.25783002 0.107832864 0.25353444 0.20831 -0.14579788 -0.18704608
-0.16422349 -0.10201852 0.023792878 -0.25631475 0.119399734 0.21240816 -0.26712254 -0.254277
-0.041665647 -0.0748252 0.24469842 -0.21009852 -0.21062452 0.25937676 -0.49426425 -0.6924536
-1.2012912 0.4246313 -0.9849296 0.23114704 0.33652842 -0.06583959 -0.19394162 -0.33828267
0.12269574 0.11875453 0.35699043 -0.43580002 -0.2106183 1.2738658 0.261897 0.2818005
-0.15586647 -0.62759507 0.23281896 -0.40053725 0.123412944 0.14111602 0.08937979 0.29221666
0.33312812 0.460379 0.36326456 -0.35709742 -0.26156244 0.113429286 -0.2008169 0.1310531

net.0.bias f4 [128]
00000000: 27bf e53c cbe9 9a3e 9d5c bf3c 022d 69be
00000010: 5ec2 35be 54d1 9dbe cf7b 093e 4cd2 8b3e
00000020: 9c0a 7fbe a555 2fbe 2b53 723e 5492 0c3c
00000030: 6371 663e 161f b03e cf9f 073e f08d e6bd
00000040: 15ca 44be 9f45 ee3d 5428 ed3d 820f 6d3e
00000050: e785 633e f7da dfb9 632e 52be 0d24 1abe
00000060: f6c5 45bc d967 a0bd 0fdc 7b3e a8b3 09be
00000070: 75fa 7b3e a1cc bcbc 48c5 963e 84bf 163e
00000080: 3a61 82be cfe9 883e 5aa3 c03e ee91 85be
00000090: ed4a 41be 5f50 abbd 61c8 28be b055 09be
000000a0: 0176 6ebe a676 d4bd 91b5 cebd d504 963e
000000b0: 5fbf a6bd 8600 3abe 620d 1d3d cc2f 64be
000000c0: 5e5a 40bd ab4a 88be fdd9 2f3e df9c 6dbd
000000d0: 0811 19be 0bb2 40be e284 02be 912d 84bc
000000e0: 259c 08be 34b2 44be 8664 833e 1a3d 53bd
000000f0: 408c 333e 62ae d83d cb0d dbbd 304e 2bbe
00000100: 64c7 ecbc 58f1 7e3e 3c76 983e d5e6 9d3c
00000110: 3087 aa3d d50c edbc 472a 953e 9450 b43e
00000120: 0cb6 55be 6371 8cbe eec6 6b3d 140c 5dbe
00000130: be7b 83be 017a 9ebe 8069 91be 6637 5ebe
00000140: b19c 163e c82b 933e 4dec d33d 89db 3bbe
00000150: 9535 c4bd 3e16 c63e 7813 513e de99 833e
00000160: f5b9 103e faf0 c0bd 3c7b 84bd fa4a 883e
00000170: c9b5 813e 2de5 873d 0ca6 bcbd 43cd bc3d
00000180: 0847 2b3e 5a4f 9e3e c2c9 e5bd e7e5 423e
00000190: 5f64 82be 24a4 993e 9ebb a53d b568 63be
000001a0: 2b6b d23d 29f3 453e c12a 52bd 1488 223e
000001b0: a7b8 8bbe 32f3 acbd e3c0 573e f4e1 a13e
000001c0: 27c0 e83d d7c0 fd3d b949 c0bd dfd1 443e
000001d0: 9c6d 5cbe af54 66bc 594d abbd eb2a 753d
000001e0: 0d56 5f3e 748d 6abe 0677 953e b62e 4abe
000001f0: a646 863d 1ea6 c13d 06d2 3abe 64ef a0bd
0.02804525 0.30256495 0.023359591 -0.22771075 -0.17749926 -0.30823767 0.13426135 0.2730888
-0.24906391 -0.17122515 0.23664539 0.008579809 0.22504191 0.34398717 0.13244556 -0.11257541
-0.19217713 0.11634373 0.115799576 0.23150447 0.22219048 -0.00042697016 -0.20525508 -0.15052815
-0.012071123 -0.07832307 0.24595664 -0.1344744 0.2460726 -0.023046793 0.2944739 0.14721495
-0.25464803 0.26740882 0.37624627 -0.26087898 -0.18876238 -0.08364939 -0.16482688 -0.13411593
-0.23287202 -0.10374193 -0.10093225 0.29300562 -0.0814197 -0.18164262 0.03834284 -0.22283858
-0.04696118 -0.26619467 0.17173 -0.058010932 -0.14947903 -0.18817918 -0.12746003 -0.016135009
-0.13340814 -0.19208604 0.2566263 -0.051571943 0.1753397 0.10580136 -0.1069599 -0.16729045
-0.02890367 0.24896753 0.29777706 0.019275108 0.08326566 -0.028936783 0.29133818 0.35217726
-0.20870227 -0.27430257 0.05756276 -0.21586639 -0.25680345 -0.30952457 -0.28400803 -0.2170082
0.1470821 0.2874434 0.10347805 -0.18345465 -0.095805325 0.38688844 0.20417583 0.2570333
0.14133437 -0.09420963 -0.064688176 0.26619703 0.25334004 0.06635509 -0.092113584 0.09218838
0.16726315 0.30919915 -0.11220123 0.19033013 -0.25467202 0.30008042 0.08092426 -0.22207911
0.10274347 0.1933104 -0.051310305 0.15872222 -0.27289316 -0.08444823 0.21069674 0.316177
0.11364775 0.12390297 -0.093890615 0.19220684 -0.21526188 -0.014058276 -0.08364362 0.059855383
0.2181017 -0.22905523 0.2919237 -0.19744381 0.06556444 0.094555125 -0.1824418 -0.0785816

net.2.weight f4 [128, 128]
00000000: 7f02 033e 71ef 273e 0e3e 68bf 1311 9f3e
00000010: 75f0 ea3d 2fc0 293f dea4 973d 9a43 98bd
00000020: c41c 093f 273e a53d e4fe abbd 438e 9a3e
00000030: c294 273e 5a03 e13d df75 a9bd ab48 75bc
00000040: bd7b 47bc e454 8dbc 7529 59be b30c a3be
00000050: 203f 053f 5cb4 bcbc bcf2 a1bd 0eb7 463d
00000060: 65c6 acbe b346 87bd af84 4f3e c265 d13b
00000070: ab63 46bc 2598 083e c6d9 963e e277 43be
00000080: c913 8a3d f831 9e3d 8399 1a3b 097f a4bb
00000090: 7fcb e43e a6a0 02bf e7e8 853d b3a2 32be
000000a0: fc34 3c3d 134d a8bc f581 9abe 0b29 79be
000000b0: 26b0 7cbd be45 2abe 10b6 febe 459d ccbc
000000c0: f6cb 603d dd68 993e 4fae 9c3e 98cb 003e
000000d0: 7246 2a3e 5777 903c 11d5 9d3e ccc9 68be
000000e0: 4c11 4c3e 950b 6fbd fb67 aabe 4d43 adbd
000000f0: 263b b93e 847c a2bc b112 bfbd 706b 093c
00000100: 01f2 91be 5df5 863d 33f8 013e 4b2e 39bd
00000110: 9847 6f3e e6fa 04be 9137 193e 6de5 6cbd
00000120: 6ec1 803b ffa3 933d 1925 58be 5305 2f3c
00000130: dc4c 903d d467 4a3e 2a34 43bc 1c7d 8e3d
00000140: 35b1 9a3e ca4a c5be 77ca 2dbd f5c6 acbc
00000150: 0289 603e aa3d 5c3e b8f6 fbbd 7c97 46be
00000160: 6972 193e 3432 1f3e 7641 973b a6b8 ac3e
00000170: 7876 973e dbd8 8d3e 2568 b13e a709 5ebd
00000180: ad15 48be ac3f 5bbd b73f 393d 3d20 9c3e
00000190: a144 b3bd 378b 9fbb 8d2e 9cbf bcb5 55be
000001a0: c376 b7bd 80eb 6dbe ac1f 0cbb f5a7 a6be
000001b0: 19ca 783d 784d 0ebe f8cc 14bd 0e9b 9d3e
000001c0: 2305 14bf 6f68 b43d 0f60 873e 3d42 193f
000001d0: a0ca 27bd 9cdd e2bd 4ea8 853d c413 803c
000001e0: 522e e9bd 2134 1bbe e04e ea3e c766 acb8
000001f0: 0af7 383d a60f 8bbd a54b 183d 5593 b8bd
00000200: c4cb 8cbd c67c d63c a76d e9bc 2a3b 343d
00000210: 9cb9 11bc a1dd 9dbc e71f c3bc d6f1 ebbc
00000220: 7571 7e3d 7c06 e13c 8ba2 89bd 67d2 23bd
00000230: f9ff 7f3d 6e60 d03b 0ffc 9cbc 23c0 d4bd
00000240: 0a49 a73b 744f 693c 5598 0b3d 972f 90bb
00000250: 15cb babd 22df b1bd f9ac 9cbd 7198 7f3c
00000260: 09ab 79bd bbf8 f33c ee38 c2bd d6f7 cf3b
00000270: 9cb2 1cbd e4e1 aa3c cb05 8e3c 1ce6 ce3c
00000280: 5aae a2bd 9010 c13c 43b1 eebc f397 4a3d
00000290: 2319 0cbd 264e 6fbd 522b 9e3b 43ee a33d
000002a0: e300 06bd ff35 15bd c3ad dcbd 1508 4abd
000002b0: fe9a 97bc 1ef5 3f3c 9913 c13b cbb2 9f3c
000002c0: fa3e 8c3d 96c5 94bd 12b6 e6bd 58d0 2b3d
000002d0: 267b ba3c b8f5 a0bc cc29 a0bd abbf 1d3d
000002e0: 1c4b ccbd 22b0 ac3d 2098 0dbd 4cd5 fb3c
000002f0: 404b adbc ca8e a3bd 7d1c 9c3c c997 5bbd
00000300: d90f 883d 913f 233d 921d 62bc 6f13 b33d
00000310: eb49 c0bd 106b 0fbc 932e 7e3c 35d2 aabb
00000320: 2bcb 14bd a413 07bd e049 32bc dc8d 403d
00000330: 937a 74bd 7082 9f3c 461d f53c 5129 53bd
00000340: 539d e3bd 0714 313d 1b70 d9bc b3a5 6f3d
00000350: d1ef 4ebb 7eff 90bd ea76 6fbd a7b2 c6bc
00000360: e0f1 293d b123 ecb9 a930 9bbc adf2 a6bd
00000370: c758 03be f6d9 f43c 6ea6 22bc 8b90 abbd
00000380: f2ba a3bc 0c25 e53c 0bad a2bd 17b5 e83b
00000390: 9ac8 c13c 026c 013d 95c7 96bd ce40 16bd
000003a0: 36b6 40bc 768e 9cbd a32b 253d e940 05be
000003b0: dccb d5bc a827 953c c1de 72bd 216d bcbd
000003c0: 6e23 76bd 3ab4 4c3d f36e 2ebd ba66 8cbd
000003d0: f052 273c ae28 c1bd f39f 44bd f3a5 a1bd
000003e0: df64 02be 41e2 c6bd 1604 3dbd 069e c0bc
000003f0: 241b 47bd 4eac b0bc 2f71 e1bd 7224 043d
0.12793921 0.16399933 -0.9071969 0.31067714 0.11471645 0.66308874 0.07404493 -0.07434769
0.5355952 0.08068495 -0.08398226 0.30186662 0.1636534 0.109869674 -0.08274435 -0.014970939
-0.012175498 -0.017252393 -0.21207221 -0.31845626 0.52049446 -0.02303522 -0.07907626 0.04851442
-0.33745113 -0.06605282 0.20265459 0.0063903043 -0.012108724 0.13339289 0.29463023 -0.190887
0.06742055 0.077243745 0.0023590035 -0.0050200266 0.44686505 -0.5102638 0.06538563 -0.17444877
0.045948967 -0.020544564 -0.30177274 -0.24332063 -0.061691426 -0.16628167 -0.49748278 -0.024977336
0.054882012 0.29962817 0.30601737 0.12577665 0.16628435 0.01763503 0.3082662 -0.2273323
0.19928473 -0.058360655 -0.33282456 -0.08460102 0.3617794 -0.019834764 -0.09329737 0.0083874315
-0.28504947 0.06589768 0.12692337 -0.045210164 0.23367155 -0.12986335 0.14962603 -0.057835985
0.0039293086 0.07209014 -0.21107902 0.010682422 0.0704591 0.1976617 -0.011914292 0.069574565
0.30213323 -0.38533622 -0.042429414 -0.021090964 0.21927264 0.21507898 -0.12302917 -0.19393724
0.1498505 0.15546495 0.004615958 0.33734626 0.29582572 0.2770451 0.34649768 -0.054208424
-0.19539519 -0.05352752 0.04522678 0.30493346 -0.08753324 -0.0048688906 -1.2201706 -0.20870107
-0.08958199 -0.23234367 -0.0021381183 -0.32550016 0.06073961 -0.1389674 -0.036328286 0.3078236
-0.5782034 0.088089816 0.26440474 0.59866697 -0.040964723 -0.11077425 0.06526242 0.015634425
-0.11385788 -0.15156604 0.45763302 -8.220743e-05 0.04515747 -0.06790094 0.037181515 -0.09012476
-0.06874803 0.026182543 -0.02849467 0.044001736 -0.00889435 -0.01927072 -0.023818923 -0.02880184
0.06211992 0.027468912 -0.06720456 -0.039995577 0.062499974 0.0063591516 -0.01916316 -0.1038821
0.0051051425 0.0142401345 0.034080822 -0.0044002044 -0.09120766 -0.08685137 -0.076501794 0.01560031
-0.060954127 0.02978169 -0.09483515 0.006346683 -0.038256273 0.020859666 0.017336747 0.02525621
-0.07943411 0.023567468 -0.02913726 0.049461316 -0.03420366 -0.058424138 0.0048269415 0.08004429
-0.03271569 -0.036428448 -0.1077533 -0.049324114 -0.018506523 0.011716155 0.005892229 0.019494435
0.06847949 -0.07264249 -0.11265196 0.04194674 0.0227638 -0.019648418 -0.07820472 0.038512867
-0.099752635 0.08432032 -0.034568906 0.030741356 -0.021154046 -0.07986219 0.019056553 -0.05361155
0.06643648 0.039855544 -0.013800995 0.08743941 -0.09389099 -0.008753553 0.015514034 -0.005213047
-0.03632657 -0.032977715 -0.010881871 0.047010288 -0.05968721 0.019471377 0.029921185 -0.051553074
-0.111139916 0.04323199 -0.026542714 0.058507632 -0.0031576047 -0.07079981 -0.058463015 -0.02425511
0.041490436 -0.0004504002 -0.018944101 -0.081517555 -0.12826835 0.029889088 -0.009927375 -0.08377179
-0.019986603 0.027971767 -0.079431616 0.0071016657 0.023655225 0.031597145 -0.07362286 -0.036682896
-0.0117621925 -0.0764436 0.04032482 -0.13013043 -0.026098184 0.018207386 -0.059294466 -0.09200502
-0.060092382 0.049976565 -0.04258628 -0.06855531 0.010212645 -0.09431587 -0.048004102 -0.078929804
-0.12733792 -0.09711123 -0.046146475 -0.023512851 -0.048609868 -0.021566536 -0.11007916 0.03226132

net.2.bias f4 [128]
00000000: 626f 49bd 8fbb 5ebd 42f9 39bd 7c88 ff3a
00000010: 7baf a13e 80a0 593e 11e3 8d3c c7a3 35bd
00000020: e8ac 733a 400d b73e ac52 76bd 4d96 8c3d
00000030: f5ba 343d 79eb a6bd 2f5e 023e ed7d 083e
00000040: 2ecc fdbc 8e42 28bd 40c0 89bd f49e 21be
00000050: 13b0 e13e bdb8 a5bd 714e 593b 9fd2 b83c
00000060: d30d fabd b809 5c3e 1e4f b13e dbd7 ae3e
00000070: a138 523a 45e3 f9bd d011 073e e993 9bbd
00000080: ec66 bdbc a18d 52bd d0ac fd3c f351 a2bd
00000090: fdab 18bd 4076 663c aefd a9bd 0cee 953e
000000a0: 5012 b2bd 88e1 d2bd a86d c73d 36d4 0e3d
000000b0: 539d d2bd b4ba 333e f674 8a3c ec6f 533d
000000c0: de6f 18be 5159 0d3d d279 c7bd c2b6 f2bd
000000d0: 6b3e bdbc 2621 983e 5b2c e3bd da49 a43c
000000e0: 20cd c1bd fb04 8fbd 302b 94bd 0c48 bcbd
000000f0: d002 88bd 43a4 7c3d cea0 a73e 6cc6 3fbc
00000100: 06a0 72bc 95a2 c23e 0af4 e1bd d0be 6a3e
00000110: 7de6 d93e 9179 f6bc 6bb8 d93e abb9 ee3d
00000120: d140 423d f26a 083e 87e2 73bd f7c7 90bd
00000130: 5f94 bebc 6049 4c3d 733d fcbd 1f2b 893e
00000140: 90f2 84be a3d5 4d3e f85f 463e 941a 833e
00000150: 94af 0f3e f718 e0bc e6b2 b83d e848 863e
00000160: 4ceb 84bd f50a 7c3d 80d3 29bd b821 ea3d
00000170: 15ed d93d ac58 703e 15f8 edbd b399 7bbd
00000180: afbd 093e 7766 f0bd ece9 04be 7012 b13d
00000190: 7153 233e 170b 863e f379 49bd 872d 4dbd
000001a0: 1256 3a3e 0a8a 7f3c 53f3 c93d 87fa c8bc
000001b0: 7b73 463c 4c17 f53d f832 38bd 9528 163e
000001c0: a8e7 79b8 13c6 ac3e 6d79 663c 7f73 05be
000001d0: 0075 0b3e 092f 17bd ba79 993e 2321 d43e
000001e0: a590 c3bd ce16 5cbe dd10 0dbd 8ffe c8bd
000001f0: f316 f13c d62a 08bc 1f45 423e 3f59 76bd
-0.04917849 -0.05437809 -0.045403726 0.0019495632 0.31579193 0.21252632 0.017320188 -0.044345643
0.00092954794 0.35752296 -0.060137436 0.06864605 0.04412361 -0.081503816 0.1273124 0.13329287
-0.03098115 -0.041079096 -0.06726122 -0.15783292 0.44079646 -0.08091877 0.0033158327 0.02256137
-0.12209668 0.21488082 0.34630674 0.3414906 0.00080193026 -0.12201551 0.13190389 -0.07596571
-0.023120366 -0.0514046 0.030966192 -0.07925787 -0.037273396 0.014066279 -0.08300339 0.29283178
-0.08694899 -0.10296923 0.09737712 0.03487035 -0.102839135 0.1755169 0.016901474 0.05162041
-0.14886424 0.034509007 -0.09740032 -0.118512645 -0.023101052 0.2971279 -0.110924445 0.020054746
-0.094629526 -0.06983372 -0.072348 -0.09193429 -0.066411614 0.06168009 0.32739872 -0.011705022
-0.01480866 0.38014665 -0.11032875 0.22924352 0.4255866 -0.030087264 0.42523512 0.11656507
0.047425095 0.13322046 -0.059542205 -0.0706939 -0.023264108 0.049874663 -0.12316408 0.2679071
-0.2596631 0.20101027 0.19372547 0.25606215 0.14031821 -0.027355654 0.09018497 0.26227498
-0.06490192 0.061533887 -0.041461468 0.114322126 0.10640923 0.23471326 -0.116195835 -0.061425876
0.13451265 -0.117382936 -0.12979859 0.08646095 0.15949799 0.26180336 -0.049188565 -0.050092246
0.18196896 0.015596876 0.098608635 -0.024533523 0.012112494 0.11967334 -0.044970483 0.14663918
-5.9581973e-05 0.3374487 0.014067036 -0.1303234 0.1361885 -0.03691009 0.29975682 0.4143153
-0.09549073 -0.21493074 -0.03443991 -0.09814178 0.029429888 -0.008310994 0.1897168 -0.060143705

net.4.weight f4 [6, 128]
00000000: 59f4 3b3e dff6 fa3a e1b4 b4bd 08db 9e3d
00000010: 58e0 aa3e 3a9d 64be 47eb 463a 46f7 f73c
00000020: 2a55 f7be 79e5 653e 95e7 c2bd 34ae a03e
00000030: 7f7d b7bd 158f 2e3d d120 693f 7591 08bf
00000040: 6971 c93c f5de b2bd bf34 313b 2661 c7be
00000050: 42f9 1c3f bee7 b43e a5b1 98bd bfcc 9bbb
00000060: 0f27 1bbf 21ee ae3e b81f a53e 413b 5c3f
00000070: 0e1e 523c 8268 c13c 3d07 97be d6a0 a0bd
00000080: e73e 27bd 0cd5 973d 6eb9 aabd 67ca a13d
00000090: 2c1a b73c ba6f 3b3d 0a89 acbc 7501 153f
000000a0: 7c82 31bd 6b2b a8bd 9b65 813f 9461 8a3b
000000b0: 9177 c2bc e62c 3b3e a5ac e8bc 9ea9 ba3d
000000c0: cf56 55bc 07e8 333f f187 ab3d ca06 5bbd
000000d0: 92a8 2a3f ddc8 d63e 6322 6dbc 3428 7b3d
000000e0: 7523 febc 2905 1ebb 2503 aabd 63f5 b83d
000000f0: 4d5c 8dbd 6181 ce3c 1efa 1c3f da30 64bc
00000100: b55a 5ebf ddab 363f a536 703e 5996 a63e
00000110: 0e54 403f a898 9cbd 47ba 2b3e ee5a 843f
00000120: 73e8 863d e4cc 2d3f 0cf2 55bf a841 79bd
00000130: 0a94 26bd d5f3 1b3f affc 10bd 6a76 0d3f
00000140: eefb 993d 5dfd f03e f940 73bf 4db1 883f
00000150: 8239 0dbe 268a 3e3d f67e 9d3e c4f2 683f
00000160: 0319 ddbc 822f 81bd 8528 3a3e e19d 593f
00000170: df4f 243f c185 eb3e f16f 88be db2c 14bd
00000180: 8e2f 043f b475 483f f5c4 c7be ccfe 06bf
00000190: 5520 223f beaf 3d3e b25e 7d3d e51c 143f
000001a0: 9a4d 1e3f 428f 95bd a46d c43e c7d5 aa3d
000001b0: 18c1 e7be 28c4 503f 9f05 2fbd 0ebb 07be
000001c0: 9640 1ebf cc98 a73e 3850 223d 0146 ed3e
000001d0: b2ec 8c3e d562 413d d2d0 573e 1ff5 693e
000001e0: 8ee7 86bc 3b80 e43e 34df 263f b741 35bc
000001f0: 524a 5dbc efe4 543d 2938 4a3f 71a0 453c
00000200: 61c4 ce3e 5f61 1dbd 9ad4 60bd fbec d03c
00000210: bfe8 8a3e c0dc 833e 3ddd 593c ec2d 7e3d
00000220: e6bc a4bd a25b 493f d933 a93d b2b0 e33e
00000230: 7c71 97be 50f6 66bd cc0e df3e f3da f63e
00000240: eaa8 3abd bbef 8cbb 2eca e73c 028c 27be
00000250: 73e5 063f 4222 01bf c7bc 923c f603 bcbd
00000260: 5be8 053e b0cf 373f bf06 2f3e 4603 59be
00000270: a4ca 3f3d 60b4 a73d 8d20 7a3e afe6 d5bc
00000280: 8a68 9f3d 1f85 d4bc cbbc a43d 6aed f3bc
00000290: a531 393d a200 153d de3d cc3c f9d1 0f3f
000002a0: 0c3e a03d 9080 b13d 2d53 1e3f cdbb 78bd
000002b0: 2be1 24bd c8f8 a03e f422 77bc 1b76 773c
000002c0: 67e5 ea3b ad4b 8b3e e153 853d 9f8e 55bc
000002d0: 31cb 813f 40e4 d23e 0ffa 5b3d c553 133d
000002e0: c4d7 993d 4508 b33d e329 0e3b b3eb 08bd
000002f0: d858 783d 2f12 593d 0472 3d3f 879e ae3d
00000300: 768d 10bf f265 0e3f 2435 fbbe 950d 803e
00000310: e399 143e 1050 6bbc 2747 753e 8460 473f
00000320: 34b4 1a3d 9a69 893f d0f3 57bf 8536 e1bd
00000330: 2248 953d 5bf7 933e 0f3a 433b 31e9 413f
00000340: e1e3 4fbf a5b8 b03e 1b5d 863e e4c7 6a3f
00000350: 93e2 273f b427 92bd 55a0 21bf 42b9 0f3f
00000360: 3d57 8fbd f9a0 c8bc 0fb0 c63e fca9 503c
00000370: 5921 153f 571e cf3e 7770 da3e 35da fdbb
00000380: ddc2 863d 994c 513f ab26 e13e 6e19 c73d
00000390: 8501 093f fe2b d33d 53e1 a63d ca61 253f
000003a0: 7e57 d03e e583 dc3c 54d9 863f 201e d43d
000003b0: cb1a f23e 1ee5 0a3f 2cd3 58bc 480d 823e
000003c0: b7d7 11be 998c 6b3e ef0d cabd 7927 653f
000003d0: 53ff 833e 59d8 b9bc c7eb 3b3e 8660 ae3e
000003e0: 8363 a13d feb1 1dbd 2d01 1bbe f254 0c3d
000003f0: d2cc 30b8 e0b6 2e3d 3d69 0f3f baa6 bf3d
0.1835493 0.001914706 -0.088235624 0.07756621 0.33374286 -0.22325602 0.00075881596 0.030269276
-0.48307163 0.22450818 -0.09516827 0.31382906 -0.08959483 0.042616922 0.910657 -0.5334695
0.024590211 -0.08733932 0.0027039496 -0.38941306 0.6131784 0.35333055 -0.07455758 -0.0047546322
-0.60606474 0.34166053 0.32250762 0.86027914 0.012824548 0.023609404 -0.2949771 -0.07843177
-0.040831473 0.07413682 -0.08336149 0.07899933 0.022351347 0.045760848 -0.021061439 0.5820535
-0.04333733 -0.08211406 1.0109133 0.004223058 -0.023738654 0.18278846 -0.028402636 0.09114383
-0.013021185 0.7027592 0.08375538 -0.05347327 0.6666347 0.41950122 -0.01447353 0.061317638
-0.031022767 -0.0024111962 -0.08301381 0.09031179 -0.069023706 0.025208177 0.6131915 -0.013927663
-0.8685716 0.7135599 0.23458345 0.3253658 0.7512826 -0.07646304 0.16770278 1.034025
0.06587305 0.67890763 -0.8357246 -0.06085363 -0.040668525 0.60918933 -0.035397228 0.5525881
0.07518755 0.470683 -0.95021015 1.0679108 -0.13791469 0.046518467 0.30760926 0.9099543
-0.026989466 -0.063078895 0.1817952 0.8500653 0.64184374 0.46000484 -0.26647905 -0.03617559
0.5163506 0.783046 -0.39017454 -0.5273254 0.63330585 0.18524072 0.061857887 0.5785659
0.6183716 -0.07302715 0.383649 0.08341556 -0.45264506 0.8154931 -0.04272997 -0.1325495
-0.618173 0.32733762 0.039627284 0.4634247 0.27524334 0.047213394 0.21075752 0.22847413
-0.016467836 0.44629082 0.6518433 -0.011063031 -0.013506489 0.05197614 0.78991944 0.012062178
0.403842 -0.03842294 -0.054890253 0.025503626 0.27130696 0.25754356 0.013297376 0.062055513
-0.08043842 0.78655446 0.08261842 0.44470745 -0.2957877 -0.056387246 0.43565977 0.4821392
-0.045571245 -0.004301039 0.028294649 -0.16362002 0.5269386 -0.504429 0.017912282 -0.09180443
0.13076918 0.7180128 0.17092417 -0.21192655 0.046824113 0.08188701 0.2442648 -0.026110975
0.07783611 -0.025942383 0.08043822 -0.029776294 0.04521336 0.036377557 0.024931844 0.5617977
0.078243345 0.086670995 0.61845666 -0.060725976 -0.0402538 0.31439805 -0.015084017 0.015103842
0.00716846 0.27206174 0.06510139 -0.013034492 1.0140134 0.41189766 0.05370527 0.03596856
0.07511857 0.08741812 0.0021692447 -0.033427905 0.060631603 0.052995857 0.740021 0.085263304
-0.5646585 0.55624306 -0.4906398 0.25010362 0.14511828 -0.01436235 0.23952924 0.77881646
0.03776951 1.0735352 -0.84356403 -0.10996727 0.07289149 0.28899655 0.0029789244 0.75746447
-0.8120709 0.34515873 0.2624291 0.9171126 0.655801 -0.07136479 -0.6313527 0.56142056
-0.06999061 -0.02449082 0.38806197 0.01273584 0.5825401 0.40452835 0.4266393 -0.0077469596
0.06580136 0.81757504 0.43974814 0.09721647 0.53517944 0.10311125 0.08148446 0.6460234
0.4069175 0.026918361 1.0535073 0.103573084 0.47286066 0.54255855 -0.013233941 0.25400758
-0.14242445 0.23002852 -0.09865939 0.89513355 0.25780734 -0.02268617 0.1835166 0.34058017
0.078803085 -0.038499825 -0.15137167 0.034260698 -4.2152424e-05 0.042654872 0.56019956 0.093579724

net.4.bias f4 [6]
00000000: 2a03 973e 7f43 b83e 2871 7e3e 929f cb3e
00000010: 25f6 9b3e 1685 d43e
0.294946 0.35988995 0.24847853 0.3977018 0.3046123 0.41507787
