rl/models/best_model_run0.pth (torch, 79477 bytes, 6 tensors)

net.0.weight f4 [128, 13]
000000 ad c8 66 be 66 48 a1 be 74 06 a8 be 6e 8b 4c 3f
       -0.22537489 -0.31500548 -0.32817423 0.7990025
000010 61 c7 e4 bd 8b 8e 03 3f 50 5c 1d 3c 76 10 73 be
       -0.11170841 0.5138938 0.009604529 -0.23736748
000020 d6 eb d7 3e 05 31 0c 3e c3 dc 24 be f0 22 ed 3d
       0.42172116 0.13690574 -0.16099839 0.115789294
000030 cc 65 c9 be b0 0e 41 3e c5 1a 62 3e a6 b1 c4 3f
       -0.39335477 0.18853259 0.22080524 1.5366714
000040 5a bb f1 bd bd 6b a2 be ca 1e aa 3e 5d 1d 10 3e
       -0.118033126 -0.31722823 0.33226615 0.14073701
000050 07 0b 63 bd 5c 4a e2 be 06 c7 fd 3e 52 4d a5 be
       -0.05543044 -0.44197357 0.49565905 -0.32285553
000060 cd 86 b0 be 2b 11 10 bb d9 52 aa 3e 83 69 0d 3e
       -0.34477845 -0.002198289 0.33266333 0.13809781
000070 3d 2f 14 bf 9c 89 5e 3f ed 4a 02 3d a6 d9 b2 be
       -0.5788458 0.86928725 0.031809736 -0.34931678
000080 64 8a 84 3d 38 d7 d7 be 4c 49 e2 3d 48 44 fb bd
       0.064717084 -0.42156386 0.110491365 -0.12268883
000090 67 86 09 bf 09 68 48 be b9 9a 24 3e 46 22 9e be
       -0.53720707 -0.19570936 0.16074647 -0.30885524
0000a0 b6 45 48 3e e3 ed d0 be a5 a4 d8 3e cd e6 fa 3d
       0.19557843 -0.40806493 0.42313114 0.12251053
0000b0 e0 3a 05 3f 4b a2 3a 3d 6f 73 67 be 6b 57 74 3e
       0.5204296 0.04556493 -0.22602628 0.23861472
0000c0 5b 82 ae 3e a0 98 6b bd bb 3e c0 be b3 08 7b bd
       0.34083828 -0.0575186 -0.3754786 -0.061287593
0000d0 6c e3 6a bd ec 39 4d 3e ef 67 73 3f 8b 4b 76 bc
       -0.057345793 0.20041627 0.95080465 -0.015032659
0000e0 a5 b3 c9 3e 6b 33 1b 3f 3d a2 07 be 25 09 b5 3d
       0.3939487 0.6062533 -0.13245483 0.08839635
0000f0 8c f4 cb 3e fc 46 cb 3d bb 5d 80 bf 9b e7 21 bf
       0.39835012 0.099256486 -1.0028604 -0.63244027
000100 64 a6 37 3d 0c 57 28 3e b0 e6 14 3c ed 0b 88 3f
       0.044836417 0.16439456 0.009088203 1.062864
000110 8b 12 f0 3e 63 99 9d 3e 46 5e e5 be 81 7c f9 3c
       0.46889147 0.30781087 -0.44798487 0.030454876
000120 68 ea e9 be 24 cf b6 bd 5d 9f 61 3e b1 00 8c be
       -0.4568665 -0.08926228 0.22033449 -0.27344278
000130 d6 02 90 3e 55 4c 1e be 17 cb 2e 3e 63 9b 5c be
       0.28127164 -0.15458806 0.1706966 -0.2154365
000140 70 a6 49 bf 0d a1 9d be 6c 7d fa be 28 6c 95 bc
       -0.7876959 -0.30786934 -0.48923814 -0.01824005
000150 9c 73 b1 bd bb db 04 3f e2 50 8b 3e 97 7d 9e 3e
       -0.08664629 0.5189778 0.27210146 0.30955192
000160 b1 62 11 bf 5a b5 2f 3e cc 06 d1 be 4d c6 ab 3e
       -0.56791216 0.17159024 -0.40825498 0.3354973
000170 01 11 17 3e 89 d5 90 3f 41 5c 05 3e e8 bf 41 3e
       0.1475258 1.1315166 0.13023473 0.18920863
000180 27 76 b9 bd 3f 47 9a 3e e8 e1 ef be 21 73 2d 3d
       -0.09055739 0.3013248 -0.4685204 0.042346124
000190 4b bb 48 3d 28 f4 85 3d 44 49 65 3e bb d0 ef be
       0.04900674 0.0654071 0.2239123 -0.46838936
0001a0 57 2b 2a be ba 90 e2 be 23 87 e5 bf a8 2b 03 bf
       -0.16618095 -0.44251043 -1.7931865 -0.5123849
0001b0 9f 0a 87 3e 80 57 fe be fc b0 8a 3c 36 a5 22 3e
       0.2637529 -0.49676132 0.016930096 0.15883335
0001c0 89 ba b2 3e 4c b5 63 3e 76 7b e7 bd 24 60 88 be
       0.3490794 0.22237128 -0.11302845 -0.2663585
0001d0 95 2d b3 3e d0 b9 af bd 36 90 1c bc 1e 13 ef bf
       0.34995714 -0.08580363 -0.009555867 -1.8677709
0001e0 40 77 a7 be 78 bf ad bd 63 25 25 3e 2d a3 97 3d
       -0.32708168 -0.084837854 0.16127543 0.0740417
0001f0 82 ed 4a 3d 8c 91 98 3d ce 9d 2e be 55 85 ab bc
       0.04954291 0.07449636 -0.17052385 -0.020937601
000200 48 a7 2c 3e bb 94 67 3e 2f 75 10 3e 7f 04 92 be
       0.16860688 0.2261533 0.14107202 -0.28519055
000210 a3 f1 e8 bf fd e7 18 3d f6 37 e6 3d 52 08 8e 3d
       -1.8198742 0.037330616 0.112411425 0.06935181
000220 36 b2 82 3d 41 31 aa 3e 9b 2a 6a 3c 05 c1 da be
       0.06381647 0.33240703 0.0142923845 -0.42725387
000230 03 23 3f 3c 65 66 ab 3e f7 13 88 3d e4 47 4d be
       0.011666062 0.33476558 0.06644433 -0.20046955
000240 00 6d 75 be b4 43 be bd 7d ce 88 3e b3 3b 71 be
       -0.23967361 -0.09290257 0.26720038 -0.2355793
000250 5b 48 08 3d 76 b2 88 be 4b c1 f9 3d 8e 31 3e 3e
       0.03327213 -0.26698655 0.12195071 0.18573591
000260 27 9a ff 3d 5b ca 8c bd 3d c4 8a be 06 a7 19 be
       0.12480574 -0.06874534 -0.27102843 -0.1500512
000270 2d 4b 39 be f4 98 85 be 5c 7c 85 3e cf fd 57 3e
       -0.18095084 -0.26093256 0.2607144 0.21092914
000280 0e a9 3f 3e 74 4e 90 3d 36 50 23 be 17 ff 8f be
       0.18716833 0.07046214 -0.15948567 -0.28124306
000290 d1 f3 ac bd 8b 35 54 3d f4 8c 6f be f4 9f 91 be
       -0.08444942 0.051808875 -0.23393613 -0.28442347
0002a0 64 94 83 3d c6 f7 9e be 7e d7 75 3e f3 5a da bd
       0.06424788 -0.3104841 0.24007985 -0.106618784
0002b0 76 a4 03 be 39 54 c7 be d2 9f 07 be 9b 3f fc 3e
       -0.12855706 -0.38931444 -0.1324456 0.49267277
0002c0 83 ea c3 3e 54 0e 80 3e 22 6a 20 be fa a3 95 3e
       0.38264856 0.25010931 -0.15665486 0.29226667
0002d0 85 88 95 be 51 88 0c bd 24 58 9b 3e ee 31 07 be
       -0.2920572 -0.03430969 0.30340683 -0.1320264
0002e0 6f a2 c8 3e c3 5b 04 bf dc d7 43 3e 48 0a b1 3d
       0.39186427 -0.5170252 0.19125313 0.08644539
0002f0 8e e6 56 be 96 de f2 b8 a0 db 9d bd c0 92 f6 be
       -0.20986387 -0.00011580919 -0.07707906 -0.48158836
000300 24 aa 09 3e 2b 99 6d bd e0 6b 46 3e 13 01 82 bd
       0.1344381 -0.0580074 0.19377089 -0.06347861
000310 a5 52 45 bd 05 ff 65 3f 67 a9 3d 3f 04 94 f8 3e
       -0.04817452 0.89842254 0.7408661 0.48550427
000320 58 53 28 3e 98 14 af be 87 8b d4 3c eb c4 a9 bd
       0.16438043 -0.341954 0.025945438 -0.08289512
000330 c4 57 ae 3e 06 fd 2e 3d 4a 83 c3 3e 8a 5b 1a bf
       0.34051335 0.04272177 0.38186103 -0.6029593
000340 df 30 84 be d9 d3 7e be 29 a8 de bd 28 77 8b bd
       -0.25818536 -0.24885501 -0.10871918 -0.068098366
000350 4d b4 3f 3e ee 6a 18 3d d8 d0 33 be 80 a0 f8 bd
       0.18721123 0.03721135 -0.17560136 -0.12139988
000360 e9 f0 20 3a be 22 59 be 99 39 31 3e 73 57 ac bd
       0.0006139414 -0.2120466 0.17307128 -0.08415117
000370 25 73 a7 bd ef dd d2 be 5c fa b0 3e af 82 86 3e
       -0.08176259 -0.41184947 0.3456601 0.2627158
000380 21 c1 fb bc 11 68 42 be 9a fe 6b be a9 82 fd be
       -0.03073174 -0.1898501 -0.23046342 -0.49513748
000390 f7 82 b7 3e e5 41 81 3e 57 ee f2 bc 1f 79 75 3e
       0.35842106 0.25245586 -0.029654665 0.23971985
0003a0 c6 ef e6 3d 0f 37 f0 3e 6b ac df bd 2b 18 e9 bd
       0.11276202 0.46917006 -0.10921558 -0.11381563
0003b0 83 92 00 bf 62 6c 17 bf 03 6d a5 be 30 96 da 3d
       -0.5022356 -0.59149754 -0.32309732 0.10673177
0003c0 99 50 a6 bd 13 5f c6 3e 0e fb 07 be cc 99 56 3c
       -0.081208415 0.3874441 -0.13279364 0.0130981915
0003d0 32 76 1a 3d 11 7a 12 3f e7 5e e5 3d f4 24 34 be
       0.037710376 0.5721751 0.11199742 -0.17592221
0003e0 e0 af 29 be 63 d2 99 3e 5a db bd bf c5 0e e1 be
       -0.16570997 0.30043325 -1.4832566 -0.4395658
0003f0 bb 20 84 bd 79 83 be 3e b1 f3 34 3e 85 f9 b1 bd
       -0.06451555 0.3720968 0.17671086 -0.0869017

net.0.bias f4 [128]
000000 92 b5 b1 3d 67 d5 ae 3d f0 1b 89 3e 64 6b d3 be
       0.0867721 0.08536797 0.26779127 -0.4129287
000010 4a a3 73 bd 96 1a 8c 3e 93 5a 8e 3e bb 72 0a be
       -0.059481896 0.27364033 0.27803478 -0.13520329
000020 80 89 38 3d 20 c5 3a be da bc 7b be 21 e8 f8 bd
       0.045053005 -0.1823926 -0.2458376 -0.1215365
000030 ca 06 d6 3c b2 8a 1c 3e 80 e9 de 3d 6d 61 c4 3c
       0.026126284 0.15287283 0.1088438 0.023972237
000040 6c c0 87 be 2a d3 06 be 4b 65 3c be 08 6b e9 3d
       -0.26513994 -0.1316649 -0.18398015 0.11397368
000050 bd b1 53 be 4e 76 5d be 05 79 da 3d 94 39 10 3e
       -0.2067327 -0.21627161 0.10667614 0.14084464
000060 7c d6 d2 3d f9 05 f0 3a a4 24 a9 bb 86 42 2b 3e
       0.10294816 0.0018312327 -0.0051618386 0.16724595
000070 4b c3 2a be f7 fc 5b 3e 3f 2a c5 3d a4 b9 0c 3e
       -0.16676061 0.21483217 0.096271984 0.13742691
000080 f1 47 16 3e 98 3d e3 3d 44 03 1d be d3 3a fd be
       0.14675881 0.110957325 -0.15333277 -0.49458942
000090 06 20 b7 3e 08 29 de 3d 2e 99 cb 3d 60 af 6f bd
       0.3576662 0.1084767 0.09941326 -0.05851686
0000a0 08 1b 06 be 7e 4e 73 3e ca 96 67 be 9e d4 56 3e
       -0.13096249 0.23760411 -0.22616115 0.20979545
0000b0 03 75 66 be c5 f7 a5 3e a6 0a e2 be e9 d2 9c bc
       -0.22505574 0.32415596 -0.4414875 -0.019143539
0000c0 23 a9 e3 bd 1a 92 65 3e fc a2 35 be 10 3a f3 bd
       -0.11116245 0.22419015 -0.17737955 -0.11876309
0000d0 7f cc 96 3d e7 77 82 3c 4c f1 35 3e 0b 15 b4 be
       0.07363223 0.015926315 0.17767829 -0.35172305
0000e0 f6 ed cb 3b 66 87 85 bd 40 1e b9 3d 7c 25 bb 3d
       0.0062234355 -0.06519966 0.09038973 0.09138009
0000f0 c3 c8 11 3e 38 19 5e be de 23 6a 3e 99 7c 07 3c
       0.14236741 -0.21689308 0.22865245 0.0082694525
000100 e3 cb 74 be 24 92 8a 3e 0b 27 99 be 45 54 36 be
       -0.23905902 0.2706462 -0.299126 -0.17805584
000110 4b 51 00 3e 7a e6 90 3e e3 4e 44 3e e7 e1 56 3d
       0.12531011 0.2830084 0.19170718 0.05246153
000120 11 be 43 bd ad a1 42 be 22 5c 41 be 3b d9 39 be
       -0.047788683 -0.19006987 -0.18882802 -0.18149273
000130 34 a7 d6 bd c8 01 e5 3d 7c 4a 18 3c ae 4f ae 3e
       -0.1048111 0.1118198 0.009295102 0.34045166
000140 22 a7 e2 be 66 fa 0a 3d 0f 1a c5 bd be fb 62 bd
       -0.44268137 0.033930205 -0.09624111 -0.05541586
000150 0f 91 d4 bd 23 db 63 be 3b ec 67 3e e9 90 33 bd
       -0.1037923 -0.22251563 0.22648709 -0.04383937
000160 e1 8a 41 3e 66 c0 da bd a0 c5 8b be c7 2d 05 be
       0.18900634 -0.10681228 -0.27299213 -0.13005744
000170 d5 f7 54 bc b9 75 b3 bc e9 9e 85 be 7f 75 34 be
       -0.012998541 -0.02190672 -0.260978 -0.17622946
000180 1c f4 52 3e ea ca a3 bd de 26 4d be 83 ae ba 3d
       0.20600933 -0.07997687 -0.20034358 0.09115317
000190 7a f3 af 3e ae 22 c6 3e fd 5f 17 be fb da 18 3d
       0.34365445 0.38698334 -0.1478271 0.03731821
0001a0 61 f8 84 bc 58 56 1c be ce e6 f0 3c d9 eb b0 be
       -0.016231718 -0.15267313 0.029406931 -0.34554937
0001b0 f3 74 5c 3e 3b 93 f4 bd 7a 23 5d be 4b 49 0a be
       0.21528988 -0.119421445 -0.21595564 -0.13504522
0001c0 51 7b 9b 3e 33 7b 04 be ae 79 05 3d 91 58 ff bd
       0.3036752 -0.12937622 0.032586746 -0.124680646
0001d0 7e f1 cc 3b 4f 16 ca b8 4b 42 7d 3d ac 9f 90 bd
       0.006254374 -9.636266e-05 0.0618308 -0.07061705
0001e0 c6 81 42 bd 03 22 77 3e e7 0d c0 3d 9f 39 0f 3e
       -0.047487043 0.24134068 0.09377652 0.13986824
0001f0 be 18 5e 3e ce 6e 18 be 5b 96 e5 3e 8d ef 84 be
       0.21689126 -0.14886019 0.44841275 -0.25964013

net.2.weight f4 [128, 128]
000000 3f 5d 14 3f 7c 94 15 3e 27 46 9e bf 3a cc 79 3e
       0.5795478 0.14607424 -1.2365159 0.24394313
000010 88 c2 f8 3e 39 0e 06 3e 1e 21 f3 3e f3 e2 5a be
       0.48585916 0.13091363 0.47486204 -0.21375637
000020 68 26 ff 3e 35 d3 f5 bd 35 8c 09 3f 09 05 18 bc
       0.4983399 -0.12003175 0.53729564 -0.009278544
000030 2d 39 7d 3d b8 f1 98 bd 77 53 f1 be 49 ec 62 3e
       0.061822105 -0.07467979 -0.4713399 0.22160448
000040 d5 fd 9b 3c c3 5a fd be 15 8c 07 bf 6c 1f c4 be
       0.019041935 -0.49483308 -0.52948123 -0.38305223
000050 7f 90 ec 3d df f5 38 3e 37 15 7d 3d 0e e9 6c 3d
       0.11550998 0.18062542 0.06178781 0.057839446
000060 ae c4 04 bc 3a 97 a2 3d cd 4d 3b 3c 26 7a 7d be
       -0.008103533 0.079390004 0.011432123 -0.24753627
000070 8c 86 b7 3e 67 c4 27 bd 8f 5b 65 be 97 f9 a9 3e
       0.3584484 -0.04095879 -0.22398208 0.33198234
000080 6c 0c ec be af 5a 6b 3d 2a ec 8d 3c 20 be 33 3e
       -0.46103227 0.05745953 0.017324526 0.17552996
000090 15 2d 28 bf e3 e1 3b bc 39 53 b4 be 58 07 53 bd
       -0.6569379 -0.01146743 -0.35219744 -0.051520675
0000a0 a1 31 d4 be 44 14 f3 3d a3 32 5f bd 7f 02 6c be
       -0.41444114 0.118691 -0.05449165 -0.23047827
0000b0 ea 37 5b bd b2 f4 80 bd fc 5f 66 3e 28 8d 0d bf
       -0.05352012 -0.06296672 0.22497553 -0.5529351
0000c0 d0 90 f6 bc 30 62 69 3f 38 34 41 bc 4a 53 34 bd
       -0.030098349 0.9116545 -0.011792235 -0.044024743
0000d0 e0 a7 38 bc 51 e9 da bd 17 52 97 be e7 f6 87 be
       -0.011270493 -0.10689033 -0.29554817 -0.2655556
0000e0 df d7 aa 3d e0 cc 90 bd ee 4c 4a 3d be 94 c5 be
       0.083419554 -0.07070327 0.049389772 -0.38590044
0000f0 e0 30 ab be 92 3f 1d 3d e8 88 ad 3d 91 44 0d bf
       -0.33435726 0.038390703 0.084733784 -0.5518275
000100 c3 91 db 3e 7f 74 27 bf 7c fb 79 bd d6 9a 09 bf
       0.42884645 -0.65412134 -0.06103085 -0.53751886
000110 bf 94 7a bf 86 ce 49 be a8 e5 81 be 30 a7 94 bd
       -0.9788322 -0.19707689 -0.25370526 -0.07258451
000120 23 f8 9f bd e7 88 bb 3c 41 b2 5b be 22 da 8e 3e
       -0.07811 0.022892429 -0.21454717 0.27900797
000130 c6 c8 89 3d c2 5f 85 be 0e b8 a2 bf 36 6f 95 be
       0.067277476 -0.2604962 -1.2712419 -0.2918641
000140 56 01 af 3e 47 2b 57 bf 9b 13 1f 3d f5 7a df bd
       0.34180707 -0.8405041 0.038837057 -0.10912124
000150 50 3f de 3e c9 06 a6 3d b3 08 cf be b8 68 10 bc
       0.4340768 0.08106763 -0.40436324 -0.008814029
000160 b8 a1 19 3e 13 a6 17 3e 32 21 12 3d f3 6d c9 be
       0.15003097 0.14809446 0.03567619 -0.39341697
000170 bf 4d df 3d f8 45 a8 3d 6a 4e af 3e da 4f aa bd
       0.10903501 0.082164705 0.34239513 -0.08316012
000180 4e bc ce bd fa 01 f2 bc 45 04 06 bd e9 b0 99 3e
       -0.1009451 -0.029541958 -0.032718915 0.30017784
000190 6f f3 4f 3d fa 43 cf bc 37 61 3f be 62 07 b4 bf
       0.050769266 -0.025300968 -0.18689428 -1.4064753
0001a0 2d 4d 5b bd 24 bd 3b bd b2 41 d2 3c ec 32 07 3e
       -0.053540397 -0.045834675 0.025666092 0.13203019
0001b0 d6 35 19 be 2b ef 9c bd e2 92 1c 3d e3 e3 42 3e
       -0.14961943 -0.07662805 0.038226016 0.19032244
0001c0 50 53 23 3e 9b 51 2c 3d 56 08 ca 3d 28 98 8f 3e
       0.1594975 0.042070013 0.09864871 0.28045774
0001d0 c1 5a 4f 3e 5b 37 11 3f 50 01 05 bd 27 b0 a7 3d
       0.20249464 0.5672509 -0.032471955 0.08187895
0001e0 1c f0 19 3d cf 70 99 3e b0 6d c3 be ef e8 b5 3e
       0.0375825 0.2996888 -0.38169622 0.35529277
0001f0 b4 11 8d bd 9f 23 26 bd 47 03 30 be be 11 9a bd
       -0.06888142 -0.040561315 -0.1718875 -0.07522915
000200 9c 32 3d bd 5c 1a 5a 3d 66 74 c6 bd ed cd 35 bc
       -0.046190843 0.053247795 -0.0969017 -0.01109646
000210 6e c5 5d bd 85 43 8c bd b1 21 88 3b 46 42 17 3d
       -0.05414336 -0.06848816 0.004154407 0.036928438
000220 a5 cc ca bd 04 b2 57 bd 21 d2 99 bd 5c 22 5b 3d
       -0.09902314 -0.052660003 -0.07510782 0.053499565
000230 57 e9 b2 bb 55 d0 4d bd 86 55 18 3d c5 50 f8 3c
       -0.005459945 -0.05024751 0.037190937 0.030311951
000240 e3 ab 0c 3d 54 02 b4 bd 2a f7 c3 bd 44 f9 db bb
       0.03434361 -0.087895066 -0.09568627 -0.0067130644
000250 1b 30 15 3d 30 4f c0 bd b9 0b 22 3d 8e 46 1e bd
       0.03642283 -0.09390104 0.03956196 -0.038641505
000260 83 f7 6f 3d d3 f3 4a bd 84 53 d5 3c 29 a1 7c bd
       0.058585655 -0.049548935 0.0260408 -0.06167713
000270 f8 c6 d9 bc da ef be b8 2f 3d 95 3d 23 fc 81 bd
       -0.026584134 -9.104582e-05 0.072870605 -0.063469194
000280 10 d0 41 3c 2e 91 b1 bd 4d 60 a6 bd 5c 35 ca bd
       0.011829391 -0.08670269 -0.08123837 -0.09873459
000290 c9 6f 12 3d 8c cc 4f 3d c9 46 ca bc e3 81 8a 3d
       0.035751138 0.05073218 -0.024691956 0.06763055
0002a0 c0 22 16 3d 56 0b 6f 3c dd 2f 78 bd 8d 1f e4 bd
       0.036654234 0.014590105 -0.06059252 -0.1113883
0002b0 cf 7c 75 bd 1f e4 03 bc de a9 81 3c 22 c5 42 bd
       -0.05993348 -0.008049994 0.01582807 -0.04755128
0002c0 22 77 80 3d 07 b5 85 bd 5e c4 fe bc 39 d9 19 3d
       0.06272723 -0.06528669 -0.031099495 0.037560675
0002d0 f7 12 95 bc 5c 22 99 bd 7f b4 ed 3c 18 ce 9c bd
       -0.01819752 -0.07477257 0.029016731 -0.07656497
0002e0 93 35 05 3a 08 14 8b bd c6 9c 8a bd d5 10 94 bd
       0.00050815305 -0.0679093 -0.067681834 -0.07229773
0002f0 e9 48 b6 bd 6b 23 a2 3d ca fa a5 bd da 39 8a bd
       -0.08900625 0.07916912 -0.08104475 -0.067493156
000300 13 67 ce bc fa 4d b8 bd 32 1d 9e bd 49 49 a2 3d
       -0.025195634 -0.08999248 -0.07720412 0.07924134
000310 d4 e7 85 bd e4 29 62 3d 50 5f e2 bc ca ed f8 bb
       -0.06538358 0.05521573 -0.02763334 -0.007596706
000320 12 98 18 3c 98 d6 af 3d 6c 6f 9c bd cc 42 33 bc
       0.0093136 0.085858524 -0.076384395 -0.010941219
000330 ca e7 8e 3d a5 5b 35 3d 6b 7c a9 3c 81 25 24 bd
       0.06977804 0.044276852 0.02068921 -0.04007483
000340 63 0f 1d bd 61 a8 aa bd 25 53 5c bd 82 70 b0 bb
       -0.038344752 -0.08332897 -0.05379023 -0.0053845057
000350 fc 25 88 bd 57 a2 dc 3c fe db 43 bd 49 ab fe bc
       -0.0664787 0.026932878 -0.047817223 -0.031087535
000360 ba 3d bf bd 3b 04 89 3d 0f 6c 8a 3d e2 83 03 3d
       -0.09337945 0.0669026 0.06758892 0.032108195
000370 80 56 cc bc 75 d1 f1 3c 1b e6 2d 3d 61 03 fd 3c
       -0.02494359 0.029518822 0.042455774 0.0308854
000380 23 d3 50 bc 32 2f 38 3d 06 d0 4c 3d 49 53 4d 3d
       -0.012745651 0.044966884 0.050003074 0.050128255
000390 e6 d3 97 bd d6 2c 0e 3d 23 dd d6 3c f5 15 34 bd
       -0.07413463 0.034710728 0.026228493 -0.043966252
0003a0 fa fe 0c 3d d0 bd 4a 3d 92 5d 5d bc 48 22 e9 bc
       0.034422852 0.049497426 -0.013511078 -0.02845873
0003b0 4c aa 2c 3d 43 61 9a bd 82 e1 aa bd ff 90 fc bc
       0.042154595 -0.075380825 -0.083437935 -0.030830858
0003c0 d1 b2 7f bd 88 e1 7f bc 3d 05 ac bc f9 ed 04 3c
       -0.062426392 -0.015617736 -0.020998592 0.008113378
0003d0 6f a3 e8 bc d3 81 e5 bc 4d ad 88 3c 1f be 03 3d
       -0.028398244 -0.028016007 0.016684199 0.032163735
0003e0 f3 da 4c 3d bd a8 d2 bd 10 96 7e bd 95 04 b1 bc
       0.050013494 -0.102860905 -0.06215483 -0.02160863
0003f0 a6 2c 28 3d 5a f8 3b bd 8b 31 41 3d fc df 57 3d
       0.041058205 -0.045891143 0.04716639 0.052703843

net.2.bias f4 [128]
000000 05 9a a2 3c 0d 86 2f 3d 31 27 b8 3e c7 0b 5f bd
       0.019848833 0.04285245 0.359674 -0.05445459
000010 04 d5 e7 bd 0b fd b0 3c 70 98 4e be 85 3b 5f bd
       -0.113199264 0.021605035 -0.20175338 -0.05450012
000020 e0 c6 a3 bb 8f 3a 74 3e e2 c3 fe bd e1 dc e2 3c
       -0.004998073 0.23850463 -0.124397054 0.027693214
000030 9b 0e 97 3e 42 cf 18 bb 4f 18 bb 3c f9 4e 70 3d
       0.2950333 -0.0023316895 0.02283874 0.058669064
000040 8d 95 84 bd 16 ea f4 bd 87 a0 ab 39 56 f8 ac bc
       -0.06473837 -0.11958711 0.00032735264 -0.02111451
000050 1d 48 dc 3b a0 67 b4 bb 03 30 54 3d 22 a8 d3 bd
       0.0067224638 -0.005505517 0.0518036 -0.10334803
000060 ed 17 b9 3b 0c 65 b3 3b 13 f4 87 3e 80 41 15 3e
       0.005648604 0.005474692 0.265534 0.14575768
000070 e0 ce 3d bd e7 b3 9b 3d 25 6a cd bd e0 bb cc 3a
       -0.04633987 0.07602673 -0.10030011 0.0015619956
000080 0a 17 a6 3e 85 70 3d 3d 4f c9 c7 3e 0f 17 f5 3c
       0.32439452 0.046249885 0.39020774 0.029918222
000090 2c 58 70 bd 68 ac 3d 3e 63 a1 b2 bd a8 1b 30 3b
       -0.058677837 0.18522799 -0.08722188 0.0026871953
0000a0 90 96 6b bd 93 b2 ee bc 54 d8 8e bd 2e 13 f3 bc
       -0.057516634 -0.029137885 -0.06974855 -0.029672232
0000b0 a5 24 d9 3c 25 d1 93 3d e9 3f 8b bc ed 17 37 bb
       0.026506731 0.072176255 -0.016998248 -0.0027937845
0000c0 0f a8 4b 3e a5 d7 90 bd ff 38 40 3c 0b fc 28 3e
       0.19888328 -0.07072381 0.011732339 0.16502397
0000d0 55 09 8e 3e dd 04 59 be 94 d4 6c bd 29 48 ad bb
       0.27741495 -0.21193261 -0.057819918 -0.005288143
0000e0 bf df b4 bd c7 9f e0 3c 34 f7 25 3e 59 51 64 bd
       -0.08831739 0.027419938 0.16207582 -0.05574164
0000f0 ff b0 f1 3d 35 14 0d 3e 32 69 04 bd 2a cd 81 3d
       0.118013375 0.1377724 -0.032326885 0.0633796
000100 d9 9b ab bd e9 42 c4 bd df 8b 11 bc 2c 67 cd bc
       -0.08379335 -0.095830746 -0.0088834455 -0.02507361
000110 59 10 a8 bd 8e 8c e1 bd 40 8e 97 bd c7 e6 5e 3c
       -0.08206243 -0.11013137 -0.07400179 0.013604826
000120 55 5a 4a 3e f2 6b 95 3e 80 33 86 3c 5a 44 55 bd
       0.19761021 0.29183918 0.016381979 -0.05206714
000130 c7 21 5f 3b 49 37 a6 bd bd 34 52 3e 03 bc 53 be
       0.0034047232 -0.081160136 0.2052793 -0.2067719
000140 ad 0f bb bd bd 31 94 bd 76 84 af 3c a6 d8 9d bd
       -0.09133849 -0.07236049 0.021425467 -0.07707338
000150 e8 df b4 bd f3 10 01 bd 7d 96 bb 3e 10 88 ec 3c
       -0.08831769 -0.031510305 0.3663825 0.028873473
000160 b6 d1 9b 3e fc 5f b6 bd e2 71 88 bc 44 d8 50 3d
       0.30433434 -0.08905026 -0.016655866 0.050987497
000170 b4 0b 90 3d e2 2c 90 3e f2 6d 05 bc 31 36 3e bd
       0.07033482 0.28159243 -0.008143889 -0.0464384
000180 f5 c3 74 3d 85 62 c1 3d d4 36 c7 bd ca a6 56 3d
       0.05975719 0.09442619 -0.097272545 0.052405156
000190 15 2c a0 bd 20 b5 33 ba de 38 95 bd 39 e2 2a bc
       -0.07820908 -0.0006855298 -0.07286237 -0.010429912
0001a0 79 87 ec bc 5f 9e 02 be 6b bb 50 bd bb d1 88 3e
       -0.028873192 -0.12755726 -0.050959986 0.26722512
0001b0 19 1c 25 be 7b 20 b6 3e 6e ac 4d bd 30 1a 0b be
       -0.16124 0.35571656 -0.05021327 -0.13584208
0001c0 be 91 1b bd 28 ff ed bb a4 e6 a6 bd 74 45 df bc
       -0.037980787 -0.007263083 -0.0814946 -0.027254798
0001d0 04 c5 14 be 1e 39 6c bd 3c 31 a4 3b 24 c9 0f 3e
       -0.1452828 -0.05767166 0.005010752 0.14041573
0001e0 6a c0 27 3c af 3c 34 be c4 8f 45 bd e4 8f 99 3e
       0.010238746 -0.17601274 -0.04823281 0.29992592
0001f0 8f be 89 3d 90 68 8f bc 99 f4 a4 3c bd db 68 bc
       0.06725799 -0.017505914 0.020136165 -0.014212546

net.4.weight f4 [6, 128]
000000 e3 41 fb 3d 62 07 67 3d c3 c8 b0 3e a7 e5 6f 3d
       0.12268426 0.056403525 0.3452817 0.058568623
000010 11 17 aa 3c 52 60 9c bd f3 10 6a bf f7 62 9d 3b
       0.020762952 -0.07635559 -0.9143211 0.0048030573
000020 7b 32 c0 3e 9b 76 d2 3e 94 50 de 3e 94 de bc 3e
       0.37538514 0.41106114 0.4342085 0.36888564
000030 75 0b 8d 3f 25 c1 44 bf 55 e8 0d 3e 5b 2c 9b 3e
       1.1019121 -0.76857215 0.13858159 0.30307278
000040 3c c1 c3 3d 16 4d 09 3d b4 65 6b 3d dd 2d 13 3e
       0.09558341 0.03352078 0.05747004 0.14372964
000050 90 67 a9 3e 7b 2b 5e bd b0 71 fd 3e d4 5a ad 3c
       0.33086824 -0.054240685 0.495008 0.021161474
000060 12 ef be bc 17 77 31 bf 85 32 44 3f 81 ee 91 3e
       -0.023307357 -0.6932234 0.76639587 0.28502277
000070 c8 3c 80 bc 02 f2 8a 3e 48 99 8e bd 71 0e 90 3c
       -0.015653983 0.27137762 -0.0696283 0.017585011
000080 f0 39 98 3f 18 99 22 3f 08 9b 03 3f 6a 57 40 bd
       1.1892681 0.6351485 0.51408434 -0.046958365
000090 40 32 5f bd 64 6b c8 3e 53 02 52 bd 4a ac 29 3d
       -0.05449128 0.39144433 -0.051271748 0.041424073
0000a0 2a 2a 3f 3d 5a 5e 59 3d d4 e8 f6 3e c3 c1 da 3e
       0.04667107 0.053068496 0.4822451 0.42725953
0000b0 6b 36 8e 3e 12 8e ac be a9 07 af 3e 87 85 cb 3e
       0.27775893 -0.3370214 0.34185532 0.3975031
0000c0 25 57 a1 3e 61 a2 f6 3e a6 7e 25 3d 50 66 85 bd
       0.31511799 0.4817076 0.040403984 -0.06513655
0000d0 b1 6b 14 3f d7 9e d5 3e 23 ba 82 3e d4 1d 09 3f
       0.57976824 0.41722748 0.25532636 0.5356114
0000e0 f1 f8 0b 3e bb f1 02 3f 57 48 fb 3e 83 90 03 3f
       0.13669182 0.511501 0.49078628 0.5139238
0000f0 93 ce c4 3e ca 9b 41 3f ee fc bc bc 49 d2 6b 3d
       0.38438854 0.7562834 -0.023069825 0.05757359
000100 b0 e6 a7 3d 2b 46 9d bc a0 cc a8 3e 4f 84 50 3d
       0.08198297 -0.019198498 0.32968616 0.05090743
000110 c4 b3 62 bc f7 dd ff bc de 1f bd 3e 60 f9 44 3d
       -0.013836805 -0.03123377 0.36938375 0.048089385
000120 36 60 44 3f 39 be 8e 3e 18 9d a9 bc df fb ff ba
       0.76709306 0.27879503 -0.020704791 -0.001953002
000130 d9 e2 7d bc 2c 88 af 3e 69 66 c5 3e 67 bc 14 3f
       -0.015495979 0.34283578 0.38554695 0.5809998
000140 27 db ca bd ea 3d 37 bf f6 27 01 bd 8c d8 40 bd
       -0.09905081 -0.7157885 -0.03153225 -0.047081515
000150 63 5c e5 3c ea b2 9d bc 08 dc 8b 3e d5 76 91 bd
       0.027998155 -0.019250352 0.27316308 -0.071027435
000160 b7 ef 0c 3e fd 31 18 bc 21 db 71 3e 2b cc c2 3e
       0.13763319 -0.009289262 0.23618747 0.38046393
000170 06 b9 a2 3e 5a 6d e0 3e e1 da aa 3d 36 69 a3 bd
       0.31781787 0.4383343 0.08342529 -0.07979052
000180 ac 86 d6 be 60 df 16 3f 42 b1 2b 3d 18 14 5d 3d
       -0.4189962 0.58934593 0.041917093 0.05397424
000190 28 fc 97 bd d1 58 51 bd 62 d2 0d bf 15 1d 0f bd
       -0.07421142 -0.051110093 -0.55399144 -0.034939844
0001a0 89 5b 9f 3d 14 3d ff 3d 1d 6c 69 3d 8c 35 3a 3f
       0.07781131 0.124628216 0.05698787 0.72737956
0001b0 df e8 f4 3e 22 d9 f6 3d 63 2a 11 be 73 89 2e 3f
       0.47833917 0.120531335 -0.14176326 0.6817848
0001c0 28 87 77 bd 9f 35 01 3c c2 08 32 3d 48 ea 38 3d
       -0.06043163 0.007886319 0.043465383 0.045145303
0001d0 24 76 4e 3e b8 b4 13 3f db 95 46 3f c2 8d 0a 3f
       0.20162255 0.5769763 0.7757241 0.54122555
0001e0 5c 41 51 bd 97 0e 0f 3f 80 4a 81 3d f3 a0 49 3e
       -0.051087722 0.5588164 0.06313038 0.19690304
0001f0 f7 7c 2a 3f 77 13 97 3e 3c 84 93 bd 7a 42 1b 3e
       0.6659693 0.29507038 -0.07202956 0.15162078
000200 81 15 04 3f ba b8 82 bd e7 92 a5 3e 61 75 f4 bb
       0.5159531 -0.0638289 0.3233864 -0.0074602817
000210 25 9d 34 3c 3c f1 20 3d d5 fe 34 bf 4c 4b 98 3c
       0.011023794 0.03929256 -0.7070134 0.018590592
000220 b2 3b bb 3e 58 15 f5 3e a1 15 f6 3e c6 02 d4 3e
       0.3656898 0.47867846 0.48063377 0.41408366
000230 83 bb 07 3f 63 09 0c bf b3 49 c3 3e d0 8d 4a 3e
       0.53020495 -0.54701823 0.38142166 0.1978066
000240 7f ce 86 bd 3c a6 08 bd d0 28 57 bd 5b f9 27 bf
       -0.06582355 -0.03336166 -0.052529156 -0.6561486
000250 1f f5 f5 3e 26 72 02 bd 65 6c ed 3e 04 3e 2c bd
       0.48038575 -0.03184714 0.4637176 -0.04205133
000260 52 81 18 3d 31 14 11 3e 0d 73 e9 3d 25 4d e0 3e
       0.037232704 0.14167859 0.11398897 0.43808857
000270 cc a6 ae bd c7 27 ee 3e 0b 5b ef 39 3a b6 9c be
       -0.08527908 0.46514723 0.00045653465 -0.30607778
000280 93 55 71 3f 30 c7 e9 3e 15 5c e7 3e 7d ef 08 bd
       0.942712 0.4565978 0.4518744 -0.03343152
000290 7d 3e 93 bd ff f5 b6 3e 3f d9 4a ba aa 18 a1 bc
       -0.07189653 0.35734555 -0.00077380607 -0.019665081
0002a0 41 8c 8a 3d d4 89 1b bd 39 19 67 3e fc e0 1a 3f
       0.067650326 -0.03797324 0.22568215 0.6049955
0002b0 c1 70 b6 3e 7a 4f 2f bf 16 7e 1d 3f 57 d8 3f 3f
       0.356329 -0.68480647 0.61520517 0.74939483
0002c0 3b 68 28 3f cc 6c 9f 3f de db 4d 3c 4f ea 91 be
       0.65784043 1.2455077 0.012564627 -0.28499076
0002d0 f2 80 1d 3f 22 79 06 3f 6a a2 d1 3e 11 fa 89 3f
       0.6152488 0.52528584 0.40944225 1.0779439
0002e0 ec ce f5 be 35 55 f8 3e e0 98 c7 3e 00 36 59 3f
       -0.4800943 0.48502508 0.38983822 0.8484802
0002f0 e8 e1 25 3f 4c 75 c2 3e 2e b1 d7 3b c6 fb c4 3c
       0.6479783 0.37980115 0.0065824008 0.024045836
000300 b1 95 69 bd 1c 34 de bc 55 54 b8 3d ae a2 de be
       -0.057027522 -0.027124457 0.0900046 -0.4348349
000310 dc ef a6 3c 3f 6b 9a 3c 74 67 10 3f fc bc 48 bd
       0.020378046 0.018849967 0.56407857 -0.049008355
000320 38 50 28 3e 4d d2 90 3e 9d 64 68 bd 3b ba 6a 3d
       0.16436851 0.28285447 -0.056736577 0.05730651
000330 7e 3a ac bd e7 b7 d3 3e e7 11 bd 3e fc e6 f1 3e
       -0.08409594 0.41351244 0.3692772 0.4724654
000340 27 30 c5 3d 31 e0 a5 be b2 9f 72 bc 7f 88 e7 3c
       0.09628325 -0.32397607 -0.014808582 0.028263329
000350 34 ee b5 bc d5 75 88 3d 6e 12 02 3e a8 df 21 bd
       -0.02220831 0.066631 0.12702343 -0.039519936
000360 23 af 65 3e 05 26 08 3d 1b 42 1a 3e 37 3a 35 3f
       0.2243009 0.033239383 0.1506428 0.70791954
000370 25 65 0b bf d9 38 4a 3f 6a 3e 37 bd 82 99 22 bd
       -0.5445121 0.7899299 -0.044737257 -0.039697178
000380 6a 33 3d be df dc ae 3e 85 f9 09 bd b7 6d 64 3e
       -0.18476644 0.34152886 -0.033685226 0.22307478
000390 3d 3a 23 bd 60 4b ce bb ee 28 55 be 73 d0 3b be
       -0.039850462 -0.0062956065 -0.20816395 -0.18341236
0003a0 49 6f 8b bd f7 0f 55 3e 05 aa 95 3d 62 eb 36 3f
       -0.06808335 0.20806871 0.07307819 0.71452916
0003b0 4a c1 9d 3e 7f 21 57 3e 12 c2 95 3e db 79 f2 3e
       0.3081153 0.21008871 0.29249626 0.47358593
0003c0 1c a6 89 be dd d1 5c 3d 05 d8 09 3d bf 9f 96 bc
       -0.26884544 0.05391108 0.033653278 -0.01838672
0003d0 27 39 b4 3d 74 16 98 3e 32 9f df 3e 18 0b 03 3f
       0.087999634 0.2970463 0.43676144 0.511888
0003e0 e6 f3 0c 3d d0 5f d2 3e 83 e6 6e bd e0 6c 62 3e
       0.034412287 0.41088724 -0.0583253 0.22111845
0003f0 fa 57 e4 3e 31 0b ad bb 6a 00 13 3d e4 e9 dd 3c
       0.4459837 -0.005280875 0.035889067 0.027089067

net.4.bias f4 [6]
000000 13 a7 ae 3e 93 3d b5 3e 4f ee 6f 3e d0 45 9d 3e
       0.34111843 0.3539854 0.23430751 0.30717325
000010 80 d6 58 3e 23 4c b6 3e
       0.21175575 0.35604963
