rl/models/best_model_run3.pth (torch, 79477 bytes, 6 tensors)

net.0.weight f4 [128, 13]
00000000: c36c bcbd 7fad e73e 7fad 6c3f 9cde d33f
00000010: 701a be3d 17ad 6d3d ff10 64be 559a 2bbe
00000020: 675f a0bd c68e 94be fab6 a73d cc7c e83d
00000030: 27ca 98bd 78a0 36be 3a88 7bbe 795b b7be
00000040: e4cf a2be 0288 d7bd 5a09 fb3c d9b2 143e
00000050: 3505 d9bb 6547 87bd 040c 9bbe 08bc 3abe
00000060: bd6c c63d 8d6f 6dbd e409 2bbe c847 68be
00000070: 1f41 8e3d acb1 75be 15a9 3a3e b7b4 333e
00000080: d586 35be 1bc9 61be 87d8 84be 1bc7 56bd
00000090: ad4c 4dbe 5659 54be 849f df3a da0d 8b3c
000000a0: e515 2e3d 0702 12be 395f 2dbe b864 0f3e
000000b0: aeaa 8fbe 7889 cbbd 2485 80be 1ee6 a0be
000000c0: afef c8bc b2da 7f3d 0ff6 1dbe 088e f83d
000000d0: b7df c5bb 053b 2f3e 2a87 953e de0c 213e
000000e0: e523 21be 7609 a43e c558 283e d1eb 64be
000000f0: d64a d73e 06cc 55bf aea8 d43e 3a44 3bbe
00000100: 7704 78bd d963 86be 6341 953e 6b2d dbbe
00000110: cca5 3e3f 2f5f 21bf 26e8 39be 2b9a a13e
00000120: 99f0 b5be da5a 683e 6680 37be 3ecb cf3e
00000130: 9c0c 24be 7a60 103f 0f52 10be e524 3b3e
00000140: bfe8 873f 391a 24be 5ab0 333e ab24 523e
00000150: b59c 933e 086b ecbd 90a5 0f3f dce1 a43d
00000160: 44ed d0be ac76 38be a22c e83d 9d46 85be
00000170: fcd2 ccbe 9182 d13e 2cc7 88bc d752 8abe
00000180: 3536 c53d ef06 373f 9c9f 66be 8ae3 ed3c
00000190: 29e1 5bbd dc52 8dbd e3f2 aa3e a2d1 bcbd
000001a0: 072b c73d fd59 4dbd 9490 51bf 559c e7be
000001b0: 6862 0ebe 2910 e53d 5136 d83e 65d9 8e3e
000001c0: 8b59 1d3d 5bc5 80be 9bc7 84be 6608 343d
000001d0: bf62 f8bd 71aa 353d e25c 423e 1c95 a13e
000001e0: 2aa3 673f 05fd a23e 8ed5 c5bd 189a cfbe
000001f0: 0cce d1be 249f 153d ec35 e53e 83b5 7c3e
00000200: 01b7 cb3e 03e8 dabe 873a a73d 1d75 4abe
00000210: 57e0 143e 4924 8f3e b982 bfbc 3bfc 52be
00000220: 42d3 193e 8942 15be a5f4 1dbe 7535 debd
00000230: 271b 1bbc cd8e 78be 9f80 fb3d eb8b 0d3e
00000240: cbb0 babd 8f9a d1be 9a30 603f b1d3 a5be
00000250: e2b6 133e b11f 3fbe 35a1 223e 311b 15bf
00000260: 2921 ad3e 41a1 21bf 945e cebd 5a4d c23e
00000270: 8695 ef3c 32d8 64be f421 7ebe d79f 533f
00000280: a13b 6e3e 56b4 083d 389d be3e b27e 56be
00000290: 77fb 5b3d bc1e af3d 07e6 94bd ec4a 863d
000002a0: db37 823d 425b 9cbe 9334 9e3d 2752 613e
000002b0: a2ba c3bd 7316 aa3d 1b92 533e 8a4b 84be
000002c0: 34e8 c53d bc5c 053e 42f4 633c 7bae 89bd
000002d0: 5b9e 47be 3a4a afbd eab1 cabe 7a89 b03e
000002e0: a24c 9fbf 73fd 413f 808b c83e d590 093e
000002f0: d1c5 ae3d fabc a0bc 00f9 ce3d 8e1f 983e
00000300: 2942 39bf 986e c53c 88ed 81be ddd9 133e
00000310: 9456 653b b158 673e 2c14 62bc ceb1 10bd
00000320: 6321 8bbd a636 d33c 22bd 76bd 3234 91bc
00000330: f292 2e3c e5bc ef3d 0c89 2ebe cf72 f5bd
00000340: dd8d 13be 05bb 52be b2b9 b6bf dcab 1cbf
00000350: d9fd b43e 438b 5c3e bf84 a0be 7ae3 803e
00000360: 9aa9 a03e 34c1 693d 8c1c b83d 4d35 a3be
00000370: a5a3 90bd 0aee d9bd 104a 8b3e 8e2c 85be
00000380: 68e5 c8bf 91a5 c23e 8292 32be 58f9 afbd
00000390: 1cc8 b6be 0e43 dcbd 8824 bcbe 4502 cdbe
000003a0: 94d6 013e 3d48 343e 97c3 bc3e 7b33 ad3d
000003b0: 2136 293e e6ee 46be dc2a 613d 3a8b 3cbe
000003c0: c2a6 d33e 36ad 5b3d 73e4 77be 5e1e 06bf
000003d0: fc4d 3ebe a82b 8d3e 106a 8a3e e14f 00be
000003e0: ea34 193e a5b6 813e 297e a43e 92aa e03d
000003f0: b249 f2be 256b f8bc 8a6d 4f3f 2300 243d
-0.09200432 0.45249555 0.92452234 1.655231 0.09282386 0.0580264 -0.22272108 -0.16758092
-0.078306966 -0.29015177 0.08189197 0.11351928 -0.074604325 -0.17834651 -0.24563685 -0.35811976
-0.31799233 -0.10523988 0.030644108 0.1452135 -0.006622935 -0.06605414 -0.30282605 -0.1823579
0.09688709 -0.05796771 -0.16702992 -0.22683632 0.069460146 -0.23993558 0.18228562 0.17549406
-0.17727216 -0.22049372 -0.25946447 -0.052435976 -0.2004878 -0.20737204 0.0017061089 0.016974378
0.04250135 -0.14258586 -0.16930856 0.14003265 -0.28059906 -0.099383295 -0.25101578 -0.31425565
-0.024528353 0.062464423 -0.15425895 0.12136465 -0.006038632 0.17112358 0.29204684 0.15727565
-0.15736349 0.32038468 0.16440113 -0.22355582 0.42049283 -0.8351444 0.41534942 -0.18287745
-0.060551133 -0.26248053 0.2915145 -0.4280809 0.74471736 -0.63035864 -0.18154964 0.31562933
-0.35535124 0.22690907 -0.17920074 0.4058475 -0.16020435 0.5639721 -0.14093803 0.18275793
1.0617903 -0.16025628 0.17547742 0.205218 0.28830495 -0.11543852 0.56112003 0.08050892
-0.4080602 -0.1801402 0.11336638 -0.26030436 -0.40004718 0.40919927 -0.016696535 -0.27016327
0.0962948 0.71494955 -0.22521824 0.029039163 -0.053681526 -0.0690057 0.33388433 -0.09219672
0.09725004 -0.050134648 -0.81861234 -0.4523646 -0.13904727 0.11184723 0.4222894 0.27900234
0.038415473 -0.2515057 -0.25933537 0.043953322 -0.12128209 0.044352 0.18980744 0.31559074
0.90483344 0.31833664 -0.09659873 -0.40547252 -0.40977514 0.03652872 0.44767702 0.24678616
0.39788058 -0.42755136 0.0816546 -0.19771238 0.14538704 0.2795737 -0.023377763 -0.20604031
0.15021995 -0.14576162 -0.15425356 -0.1085004 -0.009466923 -0.24273224 0.12280392 0.13822906
-0.09115752 -0.4093823 0.8757416 -0.3238807 0.14425233 -0.18664433 0.15881808 -0.58244616
0.33814362 -0.6313668 -0.10076633 0.3794964 0.029246103 -0.22348097 -0.2481764 0.8266577
0.23264934 0.033375107 0.37229323 -0.20946768 0.053706612 0.08550784 -0.07270437 0.06557259
0.0635831 -0.30538374 0.077248715 0.22003995 -0.09557082 0.08305063 0.20661204 -0.25838882
0.0966343 0.13023657 0.013913216 -0.06722733 -0.19494002 -0.085590795 -0.39588863 0.34479886
-1.2445261 0.7577736 0.3916893 0.13434155 0.08533824 -0.019621361 0.10106087 0.29711574
-0.7236658 0.024100587 -0.25376534 0.14438577 0.0034994232 0.22592427 -0.013798755 -0.035325818
-0.067934774 0.025782894 -0.060238965 -0.017725084 0.010655152 0.11705951 -0.17044467 -0.119847886
-0.14409585 -0.20579155 -1.427542 -0.61199737 0.3534992 0.21537499 -0.31351277 0.2517355
0.31379396 0.05706902 0.0898982 -0.31876603 -0.07062463 -0.106411055 0.27204943 -0.26010555
-1.5695009 0.38016942 -0.17438701 -0.085924804 -0.35699546 -0.10754977 -0.3674662 -0.40040794
0.12679511 0.17605682 0.36867973 0.08457085 0.16524555 -0.1942707 0.054972515 -0.18412486
0.41338164 0.053631984 -0.2420824 -0.52390087 -0.18584436 0.2757237 0.27034044 -0.12530471
0.14961591 0.2533466 0.32127503 0.10970034 -0.4732185 -0.030324528 0.8102652 0.040039193

net.0.bias f4 [128]
00000000: a017 8a3e 8c18 cd3d 0d04 123d 41d7 86be
00000010: b64c e8bd 89ee 33bd 8060 d3be 50b3 2c3e
00000020: cc63 abbb 0e5d 2cbe 26d4 6dbe f5cb ca3e
00000030: 5263 69be 51a3 80be c948 f5bd 339e 7fbe
00000040: 94f2 6b3e ede7 b63e e323 febd b606 1bbe
00000050: 9b00 8bbc c0b7 0ebd 0a19 4ebe d629 d0be
00000060: 7f06 91be edf3 a33e 42ab 54be bd49 143c
00000070: dc16 a6bc a390 b0be 87ca 4a3e f283 3c3e
00000080: 8d2d 26be 05cd 2cbe c4ec dbbd 8287 013e
00000090: 52ba 303d 3388 28be 5332 34be 65e7 ca3d
000000a0: f55d 103e 7ead 8abe dd3b 6a3d 3a18 2a3e
000000b0: ce06 b93d a439 333e bb78 8a3e 99b9 fb3d
000000c0: 06f7 c33e c503 4abe a4d7 8fbe 29d6 83be
000000d0: a001 30be 8787 2e3e 05ca 523e aef1 16be
000000e0: 9767 a83d fb2f e53b ec7f 973e 2921 86be
000000f0: bcaa 23bd 5803 6abe 03c9 da3e da0b 003f
00000100: fc92 38be 9440 85be 8e9b 8e3e b828 5d3e
00000110: 35ab 4c3e 16e4 be3e aaa8 91be b085 58be
00000120: 63f7 f7bd 45d9 36bd bdd8 3abe bf27 563e
00000130: 2ee6 4ebe 8778 7d3e 06b8 a7be a7b0 d0bc
00000140: 7685 aabd b254 963e d19b 73be cc0d 153d
00000150: f317 37be e749 13be 7560 13be f5d6 81be
00000160: 9e2a 263e eb32 82bd f5ec 58bd 3d65 9fbd
00000170: a4eb 3dbe 94bd 4cbd 2daa 63be 3fc1 933e
00000180: df19 21bd 5334 c3bc 2464 d0bb 3d00 22be
00000190: aa6d 5dbe 4e9f 59bd dd83 d5bd d01f 7dbe
000001a0: 7bf5 b5bd e1ba 2dbe 6994 f9bc 9de6 1fbd
000001b0: 225d 86be f7ce 5e3e 5c24 053e 0f9b 75be
000001c0: 6a2e c3bd 302c b8bc 4c92 8b3e 6303 213e
000001d0: 1b2f 353e de6b 363e 66ab 23be 6446 97bd
000001e0: 74e8 4c3d 9213 d13d c0ba a03e e015 d3bd
000001f0: df6d a03e 72ee b2bd bc08 e93d eaf1 bd3d
0.2697115 0.100144476 0.035648394 -0.263361 -0.113427565 -0.043928657 -0.4128456 0.16865277
-0.0052304026 -0.16832373 -0.2322546 0.39608732 -0.22791794 -0.251246 -0.11976773 -0.24962692
0.23041755 0.3572382 -0.124091886 -0.15139279 -0.016968062 -0.034843206 -0.20126739 -0.40656918
-0.2832527 0.32022038 -0.20768455 0.009050784 -0.020274572 -0.3448535 0.1980382 0.18409708
-0.16228314 -0.16875084 -0.10738519 0.12649348 0.04314644 -0.16458206 -0.17597322 0.09907416
0.14098342 -0.2708549 0.057185996 0.16610804 0.09034501 0.17502457 0.27045235 0.12291259
0.382744 -0.19728 -0.28094208 -0.2574933 -0.1718812 0.17043887 0.20584877 -0.14740631
0.08222883 0.006994245 0.29589784 -0.26197174 -0.039957747 -0.22852838 0.42731485 0.50018084
-0.1802482 -0.26025832 0.27853054 0.21597564 0.19987185 0.3728339 -0.28448993 -0.21144748
-0.12107732 -0.044640798 -0.18246742 0.209136 -0.20204994 0.24753009 -0.32757586 -0.02547486
-0.08326237 0.29361492 -0.23789908 0.03639011 -0.1788023 -0.1438366 -0.14392264 -0.25359312
0.16227195 -0.06357368 -0.052960355 -0.077829815 -0.18546921 -0.049985483 -0.22232886 0.28858373
-0.039331313 -0.023828661 -0.006359594 -0.15820403 -0.21623865 -0.05313044 -0.104255415 -0.24719167
-0.08884712 -0.1696582 -0.030466275 -0.03903829 -0.2624293 0.21758638 0.13002151 -0.23984931
-0.09530337 -0.022482008 0.27260053 0.15723948 0.1769375 0.17814586 -0.15983352 -0.07386473
0.050026372 0.10208811 0.3139248 -0.10306907 0.31333825 -0.08736886 0.11378619 0.09274657

net.2.weight f4 [128, 128]
00000000: 05be 4d3d 69cb 49bd ad0f 9abb f26e 943c
00000010: 179c 4f3d e116 4ebc 7b80 d3bd d85f 1c3d
00000020: d6a0 d2bc 1a30 b0bb 95ce ba3c d743 323d
00000030: 866a e43b 3f83 80bd 2451 223d be6e 91bd
00000040: 15d4 debc cbee 1fbd 32e8 6a3c 3eff 05bd
00000050: 5b17 66bc 527c 303d 825b 063d d13b e3bd
00000060: edf7 d73c 4501 7ebd aad1 dabd cd30 8e3d
00000070: 14b4 853d 3114 933d 3661 ec3b a02b dfbd
00000080: 29d8 a4bb 1959 15bd 98a9 6ebd eb62 71bd
00000090: 0083 09bd 3e24 5a3c 304b 9bbd f77c 77bc
000000a0: 4eeb 893c 688e 11bb 6175 51bd 7bab a0bd
000000b0: fec7 c1bd 27eb 3c3c ed1b 2e3d 9230 973c
000000c0: 147f 1a3d 4501 cdbd 0fea cabd 39f9 963d
000000d0: 77a0 843c 097e aaba d623 febc d771 5ebd
000000e0: 3cc3 76bd 2a49 eb3c 2269 1b3d 88b2 af3c
000000f0: bbae 743c b102 983d 3bc0 053d b172 81bd
00000100: 4655 303d 2da7 31bd 4979 7bbd 1d9b 093d
00000110: 2681 38bd f04d 6abd 9ac8 c1bc 8bac 073d
00000120: 450f 803c bf33 243d 3030 febd 88be ecbd
00000130: 1ea5 3cbd c4a7 ab3c 50b6 a3bd 323d 8ebc
00000140: 94f3 933d ed78 61bd 4076 823d 3364 9b3d
00000150: 0e19 abbd 013d 8dbd 0afd 513c 80c0 9abd
00000160: 6005 5c3d 06c5 693d 774b b1bd a84b 31bd
00000170: e83c 163d 5feb dcbd 9e7e e73a bad4 413d
00000180: c78e 99bd a601 6b3d e18b 363c 9d38 973d
00000190: f9fd fabc 34a5 51bd 98d5 43bd fede 8cbd
000001a0: 5a9e 54bd 75b7 503d 579d cc3c 8028 85bd
000001b0: 2171 99bd e3a4 d23c 96eb 1dbd c812 373d
000001c0: a448 0cbd d49b d5bd 03e9 cabd 13d8 a7bd
000001d0: 022a 463c d655 d4bc c4b1 263c d5f5 843d
000001e0: e048 0bbd 1b46 60bd 5236 99bc 4ec9 0d3d
000001f0: 16c3 fcbc a76b 52bd bccb 673c 63fe 25bd
00000200: 71d4 3e3e 6f48 4b3d 62af 923d 2df6 9b3d
00000210: 1de8 373e 7d45 be3d 05fc 3b3e 3af8 df3d
00000220: 88a9 ee3d 47ef 3f3e e618 d7bc 0ced 93bd
00000230: faf4 013e 3651 953d 01fb 5a3e b8d4 8ebd
00000240: 280f 8a3e 3fcc 573e 3aa3 dbbc 17d0 813e
00000250: c255 aebe 265d f63c bea4 81bd 2055 923e
00000260: 1c48 4dbc 4156 0c3e a8e6 cd3d 00ac 3abd
00000270: de4f f739 9095 9f3c c314 313e cfc1 753e
00000280: d8a3 dc3d 30ea b33d 6429 4f3d d2a4 e33c
00000290: 8567 4b3c bc19 943d 7378 9dbd 1c5f e63d
000002a0: e063 563f 0663 1a3c c336 e2bd 36ef 5f3e
000002b0: 3246 243e 8f52 11bf 1073 a9bd fb51 ca3e
000002c0: 576d dd3e 259e a73d 7ff9 9bbc 454b 013c
000002d0: b471 fa3d d5ef 033f 33bc 193f 4421 17bd
000002e0: 2021 223e 3fc8 703e 23fc 593e 9ded 2ebd
000002f0: f823 123e 3d8a b43d 7236 723d ffca 283e
00000300: 9971 a13e 8baf 973d fb22 ae3e 672b 373e
00000310: 787c bd3d 9585 613e b1ee b8bc 8aa3 89bd
00000320: 906e 493b 1ac7 043e b889 2e3b 8077 9d3e
00000330: 3141 5abc 592c 973c 4fb6 d63c 7dd7 623e
00000340: 528c 843d 9918 373f 3dcc 89bd c4c2 603d
00000350: a90a d93c 0dc7 b63d c216 b9bd b6ca 303e
00000360: b1ba 503e 0bb9 443e fff2 a43e 558f d03d
00000370: 96ba be3c 9af9 ef3c a22e 2abb 37a0 e0bc
00000380: d874 fa3e 7cd1 3e3e 542d 843e cc86 5abd
00000390: 5dfb c03c b6f4 17bc 327b 9d3d b243 6e3c
000003a0: 1861 b8bc cee6 8a3e 6334 583e e1e6 6a3b
000003b0: 1a86 8abe e027 653e ee17 ea3c d823 043e
000003c0: 7e8e 573e fa5e 043e ade0 1b3e d0a5 a3bd
000003d0: 1b30 2e3e 84b5 493d 25f1 113e 596f f8bb
000003e0: 0a31 3b3f daf0 c93e d0fa 46be e9dc 333d
000003f0: e9c6 873e efea 68bd 9966 4e3e 9f9e 643e
0.050230045 -0.049266253 -0.0047015757 0.01811931 0.05068597 -0.012578697 -0.1032724 0.03817734
-0.025711458 -0.005376828 0.022803584 0.04352173 0.0069707064 -0.06275033 0.039628163 -0.071012005
-0.027200738 -0.03904609 0.014337586 -0.03271412 -0.014043654 0.04308731 0.032802112 -0.110953934
0.026363337 -0.06201293 -0.106845215 0.06942902 0.06528488 0.071815856 0.007213737 -0.10896993
-0.005030651 -0.036461923 -0.058267206 -0.058932226 -0.033572197 0.013314305 -0.075827 -0.0151054775
0.016835835 -0.0022210125 -0.051137332 -0.07845207 -0.094619736 0.011530674 0.0425071 0.018455777
0.037718847 -0.10010008 -0.099079244 0.07371754 0.016189797 -0.0013007532 -0.031022947 -0.054307785
-0.060244784 0.02872141 0.03794206 0.021447435 0.014934237 0.07422388 0.03265403 -0.06320704
0.043050073 -0.043372322 -0.061394963 0.033595193 -0.04504504 -0.057203233 -0.023655225 0.033123534
0.015632281 0.04008841 -0.12411535 -0.115597785 -0.046055906 0.02095402 -0.07993758 -0.017363165
0.07224193 -0.055046964 0.06370211 0.07587471 -0.08354388 -0.06896401 0.012816677 -0.07556248
0.053716063 0.05707266 -0.08656972 -0.043285042 0.03667918 -0.10787081 0.0017661636 0.047322012
-0.07497936 0.05737462 0.011141748 0.07383845 -0.030638682 -0.05118294 -0.04781112 -0.0687847
-0.05190883 0.05095621 0.02497737 -0.065018654 -0.07492281 0.02571339 -0.03855475 0.044695646
-0.034248963 -0.104301125 -0.09907725 -0.0819551 0.012094976 -0.025919836 0.010174219 0.06492201
-0.034005046 -0.054754358 -0.01870266 0.034615807 -0.030854743 -0.051372197 0.014147695 -0.040525805
0.18635727 0.049629625 0.07162358 0.07615314 0.17959638 0.092905976 0.18357857 0.10936017
0.11653429 0.18743621 -0.02625699 -0.072229475 0.12691107 0.072908804 0.21384813 -0.06974167
0.26964688 0.21074007 -0.02681123 0.25354072 -0.34049803 0.030073714 -0.0633025 0.2858057
-0.012529399 0.13704778 0.1005376 -0.04557419 0.00047171017 0.019480497 0.17293076 0.23999713
0.10773438 0.08784902 0.050576583 0.027788553 0.012414818 0.07231471 -0.076889895 0.112486094
0.8374615 0.009423023 -0.11045601 0.21868595 0.16042402 -0.567666 -0.082738996 0.3951567
0.43247482 0.081844606 -0.019039867 0.007891481 0.122287184 0.5153783 0.60052794 -0.03689696
0.15832949 0.23513888 0.21287589 -0.042707074 0.14271533 0.08815429 0.059133954 0.16483687
0.3153198 0.07406529 0.34011063 0.1788765 0.09252256 0.22023614 -0.022574754 -0.06720646
0.0030736066 0.12966576 0.002663238 0.30755234 -0.013321207 0.018453764 0.026209978 0.22152515
0.064720765 0.7152191 -0.067284085 0.054873243 0.026494341 0.08924685 -0.09037544 0.17264828
0.20383717 0.19211213 0.3221664 0.101835884 0.02328233 0.029293824 -0.0025967737 -0.027420146
0.4891727 0.186346 0.25815833 -0.05335121 0.02355736 -0.009274652 0.07689513 0.014542507
-0.022507235 0.27129215 0.21113734 0.003584318 -0.27055436 0.22378492 0.028575864 0.12904298
0.2105045 0.12926856 0.15222426 -0.079906106 0.17010538 0.049245372 0.14252146 -0.007581633
0.731217 0.39441568 -0.19431615 0.04391185 0.26518944 -0.056864675 0.20156325 0.22326134

net.2.bias f4 [128]
00000000: 4767 c6bc 5735 f33e aeae 07be b0d0 423e
00000010: fad7 0abd 00df 123e 7ed3 b9bb e317 c23d
00000020: 75af 81bd fe44 da3d 7c4a 853d e6da bfbc
00000030: 402c f03c 7795 f43e 5d2a 823b dd7c 8abd
00000040: 38fc be3d c9d1 c6bd 4752 7c3e e56b dc3d
00000050: 0cc1 07bd 7120 19be 0eaa 033e 7c44 bd3e
00000060: ea9f 8f3d bba7 983d ee6b c9bd d731 7b3c
00000070: be30 9cbc f6e1 593e 66bd ffbc 18ea c63c
00000080: 9b17 e9bd 5e4d 17bc 6971 773c c6ad 32bd
00000090: 4268 b93c f44a c33d c941 1e3d abb6 10bd
000000a0: 37d2 cf3e c496 02bd 4f5f 82bd 945a c3bd
000000b0: a60b d0bd ba23 023e 4439 9d3c 3dde 8c3e
000000c0: f81c b83c 06f7 abbd 4572 4e3e 5a38 ed3c
000000d0: d108 d1bd ae28 0dbe 21df 2c3e 2d79 293c
000000e0: 8692 903b 35d4 12bd f365 babd 44b2 073e
000000f0: 1488 e1bd 58e1 843e 41c4 f13e 4c01 56bd
00000100: d0a8 39bd 79f0 b13e b804 f2bd 07db 233d
00000110: d18c 83bd 877b 003a efed 43bd 077f e73c
00000120: d9a5 d53c 8141 793e 86af 25bc ef8c ec3c
00000130: 4429 babd 87ab 34bc a80e 543e e038 07bd
00000140: 508a 0ebd c382 d7bd dd5d a6bd 8308 043e
00000150: cdd8 94bc f56d 5b3e c809 a6bd 20c5 e53b
00000160: 05ce 96bd 7ea2 3d3e bdd6 8c3b 8663 ebbd
00000170: 0a06 9bbc 0622 cabc 5d91 293c cbf0 3d3e
00000180: f7c3 3d3d f6f1 19bb ad39 343e 0093 f43c
00000190: 6dd7 b43d e8ec 38bc c80f 563e b3db a7bc
000001a0: 7ab9 bbbd 691c a83d bccb ad3d e3c0 94bc
000001b0: 703f 4f3c 006a 363e e1b3 073c 4503 573d
000001c0: 7905 c7bd b469 953e e9a6 1ebe f237 d93d
000001d0: 0908 debc bd82 35bd 9a8c 0c3c e463 c2bd
000001e0: 2953 aabd 0a51 4ebd 7235 a9bc f7d3 54bc
000001f0: 7328 d8bd 175c 2c3a 2b83 c73c 39ed ae3e
-0.024219168 0.47501633 -0.13250229 0.1902492 -0.033897378 0.1434288 -0.005670964 0.09477212
-0.06332294 0.106576905 0.065083474 -0.023419809 0.029317975 0.47770283 0.0039723353 -0.06762097
0.09325451 -0.09707982 0.24640761 0.10762767 -0.03314309 -0.14953782 0.1285784 0.36966312
0.07012923 0.07453867 -0.09835039 0.015331707 -0.01906621 0.21277604 -0.031218242 0.024281546
-0.113814555 -0.009234754 0.015102723 -0.043622755 0.022632722 0.095357805 0.038636956 -0.035330456
0.4059007 -0.031882063 -0.06365835 -0.09538761 -0.10158472 0.12708941 0.019192345 0.27513304
0.02247475 -0.08396725 0.20160778 0.028957535 -0.1020676 -0.1378505 0.16881992 0.010343832
0.004411998 -0.035846908 -0.091014765 0.13251597 -0.11012283 0.25953174 0.47220042 -0.05224733
-0.045327008 0.3475378 -0.11817306 0.040003803 -0.06423343 0.00049012195 -0.047834333 0.028258814
0.026080059 0.24341394 -0.010112649 0.028875796 -0.09089902 -0.011027223 0.20708716 -0.033013225
-0.034799874 -0.10522988 -0.08123372 0.12893872 -0.018169785 0.21428664 -0.081073344 0.0070120245
-0.07363514 0.18519017 0.0042980597 -0.11493592 -0.018923778 -0.024674427 0.010349599 0.18548886
0.046329465 -0.0023490167 0.17600127 0.029855251 0.08830152 -0.011286952 0.20904458 -0.020490503
-0.09166236 0.08208544 0.08486125 -0.018158382 0.012649402 0.17813873 0.008282633 0.052493352
-0.09717841 0.29182208 -0.15493359 0.10606374 -0.02710344 -0.044314135 0.008578444 -0.09491709
-0.08316643 -0.050370254 -0.020655368 -0.0129899895 -0.1055459 0.0006575002 0.024354538 0.34165362

net.4.weight f4 [6, 128]
00000000: a5de 0fbd f16d 823e ba26 7dbd 9018 073f
00000010: 31c1 6a3d 45de 1a3f 7e3f 1f3c 5f38 dc3e
00000020: 2464 86bd f34b 473e b0ed 94bf 4979 0c3f
00000030: 1b88 193d 7384 753e 2457 883c 693e 04bc
00000040: 9972 34bf 5ec3 af3e ec38 853e 4453 603f
00000050: 6139 823d 9790 8bbd 3fd3 013f b229 3b3e
00000060: 0f21 a43d 301b 883e 0656 94bc 115a 913d
00000070: b4d3 8c3d 744c 8f3e 1606 7bbd 9003 c43e
00000080: 4b92 ddbc 2546 f83d c99d c53e 7d8f c0bd
00000090: 38b3 5dbe 06b3 9d3b 1deb 5fbe e7dd 8fbb
000000a0: 1e7a 853e 2c10 20b8 a581 69bd 2b7b 873d
000000b0: 8452 b13d 24f6 7b3e 5b05 2bbe 6155 353e
000000c0: c1ae 4e3f f7ec 823d 2695 723f 4d1e 6f3d
000000d0: bcc9 9c3d abab adbe e6d5 e2be 3926 233d
000000e0: 2822 823d 1de0 743c 4529 983d e1a7 5e3e
000000f0: 4448 5b3d e351 0c3f 1a5d 883e 052f 673b
00000100: 11a9 87bd 5029 543e d14a 05bf 3137 08bd
00000110: 3b2d 11bd 2168 1c3d c0e8 393c b80d fc3d
00000120: ce01 963e 7a70 083d 7da0 423d c714 183f
00000130: 85bc 92bd 276e 373d 8508 ba3e b9c9 9f3d
00000140: dff8 45be c847 33bd 3314 00bd 23d1 993e
00000150: fdd7 83be 7df1 15be d265 4cbd b84a 8a3d
00000160: 577c ddbe 4501 223e e387 6bbd b9a0 19bf
00000170: bb1b de3c 709c 003d 571c adbe 62fe f83d
00000180: 7dd1 813b 68bd 9b3a 4cf5 e83e e303 aebc
00000190: 8bad b1be dc43 2fbd 8d0f d83e d2f4 7fbd
000001a0: 338e 5a3d 18d6 103f f8eb 88bf 4fa9 b1bd
000001b0: 4df4 c03d b763 1cbf 3248 403f ea87 333e
000001c0: 61c4 84bd aea9 4f3e edf9 063f 659c d03e
000001d0: b134 113c 4032 0fbd c45c 8c3d b593 123d
000001e0: 1d45 82be 43da dd3c ad3c 89be e2ed 93bd
000001f0: 1d0d bdbd 5e7a 1cbe dd6e 263f ca88 bc3e
00000200: cc69 94bd 60a5 583e c643 c6be 767d a93e
00000210: 7592 70bd 6604 503f 779f c83c 23e3 df3e
00000220: 418e 2cbd b91d 03be 0990 6bbe 1c68 003f
00000230: a640 3cba d45d 313e 25f1 04bd 776e e9bc
00000240: d61d 89be 2635 11bf c9b5 863e 96fd 1f3f
00000250: 6823 2bbc 3502 41bc 963a bf3e 1efb 063e
00000260: 8558 7f3e 9eb5 dd3e c40b 443d e9dc 88bd
00000270: f464 4bbd b058 173f 3e1c 93bd 038b 1c3e
00000280: ebed fbbc 7361 993e 7bef 1b3f 3b90 31bd
00000290: efae 83be 295b d7be 07d6 cb3e 0aa4 e63d
000002a0: ea25 4a3e d54b e53c 5104 d3bc 93bf 423d
000002b0: 36b9 05bd 0735 223e a584 223f 0217 f63c
000002c0: 1b97 1c3f 791a ad3a f500 5c3f 01fc 143d
000002d0: 1fd8 1ebc 9e24 d7be 4459 553e 7ae2 f93c
000002e0: e2b9 eabc bf25 1fbd 38e6 263c 344f 203e
000002f0: 6fe5 a2bd 9cac 7f3f f2af 3a3e e1ff c9bc
00000300: 1aa7 19bf 7697 3e3e c762 22be 2326 03bd
00000310: 01b7 23bd 9b78 ea3b 091e 79bc 458d e83e
00000320: c056 333d edf9 063f d348 a0bd b80f 8d3b
00000330: 5922 25bd a385 113c 5418 ff3e d394 8c3d
00000340: 6838 d7be 9218 8bbb 409a 043e f0cb 2e3f
00000350: 104d 21bf 8f68 2f3f 6e5d 25bd 269f 863c
00000360: b62b c9be b016 bc3d 7359 63bd 7eaa 38bd
00000370: 4e35 90bb 7e4c 5fbc 6619 2fbf 66df 843e
00000380: 8d3b 39bd ce21 2ebb fe20 c73e ba8d 8ebd
00000390: 1651 08be f906 ac3d 56c6 173f 54dd 983d
000003a0: 4d37 5c3d 20af df3c 065f 5bbf b184 3ebd
000003b0: 7b8c f73c f377 f0bd 8fa2 7b3e a883 50be
000003c0: 2ede 3a3d 4b87 3b3e b0db fe3e d1b3 ba3e
000003d0: 5f96 db3b ce4d e73c b84c d1bc e7f0 b03b
000003e0: b9db b7be b027 e8bc 3e2b 93be 671f b03c
000003f0: d95a f93b 8a99 e8be 1ebd 513f b72d d73e
-0.03512444 0.25474504 -0.06180451 0.52771854 0.057313148 0.60495406 0.009719728 0.43011758
-0.06562069 0.19462566 -1.1635036 0.54872566 0.037483316 0.23976307 0.016643114 -0.00807152
-0.7048736 0.3432874 0.2601999 0.87627053 0.063586004 -0.06814688 0.5071296 0.18277624
0.08014118 0.26583242 -0.018107425 0.07097257 0.06876317 0.27988017 -0.0612851 0.38283968
-0.027047297 0.12122754 0.38596943 -0.09402368 -0.21650398 0.004812601 -0.21867032 -0.0043904665
0.2606973 -3.8162034e-05 -0.057008404 0.06615289 0.08658317 0.24605614 -0.16701262 0.1770835
0.80735403 0.06392854 0.9475883 0.058378506 0.07655665 -0.33920035 -0.44303817 0.039831374
0.06354171 0.014946011 0.074297465 0.21743728 0.053535715 0.5481245 0.2663353 0.0035275829
-0.06624044 0.20718884 -0.52067286 -0.03325576 -0.035443526 0.038185243 0.011346996 0.12307304
0.29298252 0.03331039 0.047516335 0.59406704 -0.071648635 0.044782784 0.36334625 0.078021474
-0.19333218 -0.043769628 -0.031269263 0.3004237 -0.25750723 -0.14642902 -0.04990179 0.06752533
-0.43258926 0.15820797 -0.05750264 -0.6001087 0.027112832 0.03139919 -0.33810684 0.12157895
0.0039617405 0.0011882009 0.45499647 -0.021242088 -0.34702715 -0.042789325 0.42199364 -0.06248934
0.053358268 0.5657668 -1.0697012 -0.08674871 0.09421597 -0.6108965 0.7511016 0.17532316
-0.06482769 0.20279571 0.52725106 0.4074432 0.00886266 -0.03496003 0.06853631 0.035785396
-0.25443354 0.027081614 -0.26804104 -0.07223107 -0.09231017 -0.15281054 0.65012914 0.36823112
-0.07246742 0.21156836 -0.38723582 0.33103532 -0.058733422 0.8125671 0.024490101 0.4372798
-0.04212785 -0.12804307 -0.23004164 0.5015886 -0.0007181264 0.17320949 -0.032456536 -0.028495057
-0.26780576 -0.56721723 0.26310566 0.62496316 -0.010445453 -0.011780311 0.37349385 0.13181731
0.24936111 0.43302625 0.047862783 -0.0668276 -0.049656823 0.591197 -0.07183121 0.15287404
-0.030753097 0.2995716 0.60912293 -0.04335044 -0.257194 -0.42061737 0.39811727 0.11261757
0.19741026 0.027990261 -0.025758894 0.04754598 -0.032647334 0.15840541 0.6348365 0.030040268
0.6116807 0.0013206742 0.8593896 0.036373142 -0.009695082 -0.42020124 0.20834833 0.0305035
-0.028653089 -0.038854357 0.010186724 0.15655214 -0.07953917 0.99872756 0.1823118 -0.024658145
-0.600206 0.18612465 -0.15857993 -0.032018792 -0.039969448 0.0071554906 -0.015204915 0.4542028
0.043783903 0.52725106 -0.0782639 0.0043048523 -0.04031596 0.008881959 0.49823248 0.068643235
-0.42035222 -0.0042448724 0.12949467 0.68279934 -0.63008213 0.6851892 -0.040372305 0.01643331
-0.3929116 0.09184015 -0.055505227 -0.04508447 -0.0044008857 -0.013629077 -0.6839813 0.2595169
-0.045222808 -0.0026570442 0.3889236 -0.06960626 -0.13312182 0.083997674 0.5928701 0.0746409
0.053763676 0.027305186 -0.8569187 -0.046513263 0.030218353 -0.117416285 0.2457373 -0.20362723
0.045622043 0.18313329 0.49776983 0.36465314 0.0067012752 0.028235342 -0.025549278 0.0053998115
-0.35909823 -0.028339237 -0.2874393 0.021499349 0.007609707 -0.4542964 0.81929195 0.42027065

net.4.bias f4 [6]
00000000: 8a32 683e 64a6 4a3e 35a3 7c3e d842 ae3e
00000010: 4215 4d3e 6bee e03e
0.22675529 0.19790035 0.24671634 0.34035373 0.2002764 0.43931898
