rl/models/final_model_run9.pth (torch, 79489 bytes, 6 tensors)

net.0.weight f4 [128, 13]
00000000: 7fab 21bf 7315 0bbe efff 3140 b7e7 0e3f
00000010: 86fd f1be 07ba 313f f2aa 07bf 9619 eabe
00000020: 8125 dc3d bc28 67bf 1b5a 5e3f 4b1d 9b3f
00000030: caaa 6cbf 5fd7 8b3f 45f1 2dbf fb88 6f3f
00000040: c8ba 37c0 419b 86bf 1242 083f 63d9 4bbe
00000050: 846f 763e eba9 38bd d508 48be 7fb3 b6be
00000060: 2dff 783d 673f dc3b f6e1 173e 6af6 9e3f
00000070: 8d0e ed3e 6d8d a53e ebd8 0e3f 7a7f 953f
00000080: 5278 83bf fac9 3e3d 57b3 aa3d 5f95 0abf
00000090: 7914 96be 610d 67bd a2e2 f9be 7f49 a7be
000000a0: 38ae 0a3f 1c52 b13f 0a8b b1bf 883f 51bf
000000b0: b9a0 453f 3331 203f 82e1 0cbf 1536 36be
000000c0: 6690 6ebe 4b79 c63e 86ac 67bf e37a b33e
000000d0: 4ab1 d4bf 6af7 8f3f dc3f 58bf e393 0e3f
000000e0: d49f b23f 635b babf ea6c b4be e195 2c3e
000000f0: 40e5 12bd 0627 ad3d e30f 19bd 4b6b 2ebc
00000100: 933a 08be 006e dcbe d131 7e3d 2791 ad3f
00000110: 7e3e b53f dad5 033f c7f2 183f c90e e1be
00000120: 50df b73c f27f 0b3f 9639 f1be 4f8b 3fbd
00000130: c220 dcbd bd5c 343e b9d2 31bf 2cd3 6fbf
00000140: 8b4b 673f eaae 533f 1997 c53f 36c4 473d
00000150: f046 2bbf 36d4 15bf 1acf cbbe 9678 acbe
00000160: 0234 eb3e 1f8b 6cbe f9d0 3b3e 1628 043f
00000170: 3d2c d93b 0958 133f 525e 9c3e a72d e73d
00000180: 7c77 9fbe ad5d 1c3f 81b1 55bd 11fb 6cbf
00000190: b20a bfbe 951d 9abe 5c4a 9bbe 802b 8cbd
000001a0: ea03 e03f 598f 453d db14 c23e eb00 833f
000001b0: 9c4a e1bf a0c2 06be f26b 183e 1186 c4bd
000001c0: 32aa 48bd 90c7 e03c 26c2 d7bd ad9f 893b
000001d0: b096 66be 1b09 dcbd a337 593f 98fe c7be
000001e0: 1a4a bc3f 6485 a63f b282 233f 36a1 053e
000001f0: e6fc 5e3d 1c7b 2dbf f38a 063f 48d2 15bf
00000200: 4da8 a2bf f334 09bf e38e 5dbe 8985 b73e
00000210: c977 0bc0 830e 24c0 159c 2c3e b859 5dbf
00000220: 5306 713f 2517 7b3d 159e cfbe 3f56 2dbe
00000230: a6ed 0cbd 4cb0 09be 8717 91bc d926 983f
00000240: 2985 a93f 0286 d33e 6df1 f53e 42bb cebf
00000250: 8129 01c0 095b bc3e 90f7 903d 07cf b93d
00000260: 5582 aa3d cad3 acbd de0e dbbc 8212 043d
00000270: d9a9 883f 8a4f 033f 54e6 84c0 0259 5d3e
00000280: 24e9 28bf b7b1 81be a41a f2bd 9219 8e3e
00000290: b15d 68be f6ce a2bd 7ece 663d 01b1 bcbd
000002a0: 866b 893d 207f ea3f 8645 45bf f1e2 863f
000002b0: 5367 1abe 37e1 0bc0 4a33 0d3f fa2c a0bd
000002c0: 2edc 483e c34f d73d cdf1 a83d 5314 98bd
000002d0: 38f3 053d efb8 24bd 9238 38be e432 fdbe
000002e0: edab b63e d29a 42c0 b82a 4fbf a061 ec3f
000002f0: a790 c73e 4eae 3ebe 6b73 6f3e 497f 6fbd
00000300: e624 8e3c a450 8bbe 1c2e 46be 0bd0 adbf
00000310: 9006 193e b7c8 10bf 6db2 a73e b0e8 833f
00000320: 3e21 2c3f c9cb 3dbf 1fc4 b73e 93a9 9b3e
00000330: b773 52bf e187 263f 3735 a83d 600b 51bf
00000340: db9b 46be df1d ec3d 120e 783e 3763 aabd
00000350: d7be 6cbe da6d 78be d497 80be 0614 88bd
00000360: 9c0f c8bd aa31 b13d 8959 123e e31a 80be
00000370: 2d8f 62bc 2909 dbbc ff5c cf3d 569c 62bd
00000380: 2def b63e 352c 87bf 4018 90bf 599f 363f
00000390: cb02 79bf e056 d2be 8a86 433f 3a31 62bf
000003a0: a472 2ebd a2db dd3e d4c8 cdbd da2b 883e
000003b0: 3385 9fbd f220 1d3f 1d8b 41be 90a8 26bd
000003c0: cb93 42be c77e c03d 7c8c 15be f64b 1bbf
000003d0: c409 a93d 0db3 f33c cb90 bdbe 1bed 273f
000003e0: f61f 82bf 632f a23f 368a e2bf d5e4 a7bf
000003f0: 186b 013e b069 e0bd b0a6 1bbd a574 d83c
-0.6315231 -0.13582401 2.781246 0.5582232 -0.47263736 0.6942448 -0.52995217 -0.45722646
0.10749341 -0.9029653 0.8685624 1.2118315 -0.92448103 1.0925101 -0.67946273 0.9356839
-2.8707752 -1.051613 0.53225815 -0.19907145 0.24065977 -0.04508392 -0.19534619 -0.3568382
0.06079023 0.0067214253 0.14832291 1.241895 0.46300164 0.32334462 0.5579974 1.1679528
-1.0271094 0.04657934 0.083349876 -0.5413417 -0.29312494 -0.056409243 -0.4880572 -0.3267326
0.54172087 1.3853183 -1.3870556 -0.81737566 0.7719837 0.6257507 -0.550316 -0.17794068
-0.23297271 0.38764414 -0.90497625 0.35054693 -1.6616604 1.124738 -0.8447244 0.5569441
1.3955026 -1.4559139 -0.35239345 0.1685405 -0.03586316 0.08454709 -0.037368666 -0.010645698
-0.13303594 -0.43052673 0.062059227 1.3559922 1.4159696 0.51498187 0.5974545 -0.43956593
0.02244535 0.54492104 -0.47114247 -0.046763714 -0.107484356 0.17613502 -0.6946216 -0.936816
0.90349644 0.8268877 1.5436736 0.048771106 -0.6690512 -0.58526933 -0.39806443 -0.3368575
0.45938116 -0.23099945 0.18341435 0.51623666 0.006627588 0.57556206 0.3054071 0.11288004
-0.31145847 0.6108044 -0.052171234 -0.92570597 -0.37312847 -0.30100694 -0.3033017 -0.068442345
1.7501194 0.04823241 0.37906536 1.0234655 -1.7600894 -0.13160181 0.14884928 -0.09595884
-0.048990436 0.027438909 -0.10535078 0.004199943 -0.2251842 -0.10743924 0.8485052 -0.39061427
1.4710114 1.3009458 0.638713 0.13049778 0.0544404 -0.67765975 0.5255577 -0.5852399
-1.2707611 -0.5359642 -0.21636538 0.35844067 -2.179186 -2.5633857 0.16856416 -0.86465025
0.94150275 0.06130137 -0.40550295 -0.16927432 -0.034406327 -0.13446158 -0.017711414 1.1886855
1.3243762 0.41313177 0.48035756 -1.6150897 -2.0181582 0.36788204 0.07078469 0.090726905
0.0832564 -0.08438833 -0.026740488 0.032244213 1.0676833 0.5129324 -4.153116 0.21615985
-0.65980744 -0.25330898 -0.118214875 0.27753884 -0.2269199 -0.07949631 0.05634927 -0.09213448
0.067099616 1.8320045 -0.7705921 1.0538007 -0.15078478 -2.185621 0.55156386 -0.078210786
0.19615242 0.1051326 0.08249245 -0.074257515 0.032702655 -0.04021543 -0.1799033 -0.4945289
0.35678044 -3.0406995 -0.8092456 1.8467293 0.38977548 -0.1862118 0.23383872 -0.058470998
0.017351579 -0.2720996 -0.19353527 -1.3579115 0.1494391 -0.56556267 0.32753316 1.0305386
0.67238224 -0.74139076 0.35891816 0.30402812 -0.82207817 0.65051085 0.08213275 -0.8165798
-0.19395392 0.11529135 0.24224117 -0.08319705 -0.23119675 -0.24260655 -0.25115836 -0.06644444
-0.09768602 0.08652051 0.14291967 -0.25020513 -0.013828081 -0.026737766 0.101251595 -0.055324875
0.35729352 -1.0560366 -1.12574 0.71336895 -0.97269887 -0.41081905 0.76377165 -0.88356364
-0.0425898 0.4333163 -0.100480705 0.26595956 -0.077890776 0.61378396 -0.18900724 -0.040688097
-0.19001691 0.09399181 -0.14604372 -0.6066278 0.08253816 0.029748464 -0.3702453 0.6559617
-1.0166004 1.2670711 -1.7698429 -1.3116709 0.1263851 -0.10957658 -0.038000762 0.026422808

net.0.bias f4 [128]
00000000: ea1e 7cbd e091 443f 3bdb efbe 4982 2f3d
00000010: 4070 063f fdfa 803d 6d0d 123e 7606 303f
00000020: 81ed 6b3e d1b1 37bf d67a 9e3e d5e1 b23d
00000030: 966a 283e c858 1c3e 64de 69be 11b9 2a3e
00000040: 69b0 42be 0fe5 943e ea7f 29bb 38bc 023f
00000050: ddf6 a4be c359 333f a93e 22be 93c9 453e
00000060: b8f5 12bf c2e8 babe 3780 16bf a686 033f
00000070: d09a 74be 224e f5be fe5f 213e 049e b8be
00000080: 0fd5 d83e 30c1 4ebe 7f96 2dbe 34f8 82be
00000090: 861f 393f c3c4 a8be dad0 1dbe fb59 7a3e
000000a0: 527f cfbe 9a64 5b3e fcc0 d93c 0c0c c23d
000000b0: 1c88 3e3e b51b 0f3e f087 c03d 48e4 48be
000000c0: 7abc a8bd 424d c03d 06ba b43e 085d 68be
000000d0: 5851 933e c52e 52be a6f5 253e 24c4 fcbc
000000e0: 7780 c8bd f19d 0abe 6235 bd3e 993c c1be
000000f0: aa0f 723e a199 75be 4c87 cebe dd2c 1a3f
00000100: 0c15 393d f98c 44be 6172 223f 4f48 7b3e
00000110: 82f8 e63e 74eb 16bf e88f 41be 8239 59be
00000120: f799 f7be 27a6 9c3e 3c1e cfbd 4215 4ebe
00000130: f44e 173f 362c 42be e0ef fe3e 631c a0be
00000140: fb2d 563f 1215 c43d 0311 0cbe 8be3 25be
00000150: f24c d5bc a4b0 02bd c0d7 8abe f21a 793e
00000160: c8cf 833e 6530 823e 6123 a4bd 95bf 57be
00000170: 2b10 03bf d243 8b3e a130 a4bd 82e6 b23b
00000180: f837 093e 60c4 f73d 18ed 5abe 9fb8 0dbe
00000190: 180b fcbe f6c2 753e 5d97 ce3e c877 c73e
000001a0: a5ec e0bb 7f07 96bd d883 b5be 23a5 1b3e
000001b0: ded6 fd3e 4964 a5be 276f c03e 3b21 58bf
000001c0: a261 3bbd 0044 8e3e 7a64 0a3f 6f40 04bf
000001d0: bcb3 953e ab3b 85be 3af7 c83e 7c35 113e
000001e0: 3f13 723c f385 d3be 86d7 573f 380d bfbe
000001f0: 4ac3 193e eab9 e6bd 1d27 453f 24d0 873f
-0.06155292 0.7678509 -0.46846947 0.04284886 0.5251503 0.06297872 0.14262934 0.6875986
0.2303982 -0.717557 0.3095309 0.0873448 0.1644691 0.15268242 -0.22838742 0.1667216
-0.19012608 0.29081008 -0.0025863596 0.5106845 -0.32219592 0.7005884 -0.15844215 0.19315176
-0.5740619 -0.36505705 -0.5878939 0.5137733 -0.23887181 -0.47911173 0.15759274 -0.36058056
0.4235005 -0.20190883 -0.16951941 -0.2557999 0.72313726 -0.32962617 -0.15411702 0.24448387
-0.40526825 0.21425095 0.02658128 0.09474954 0.18606609 0.13975413 0.09400928 -0.19618332
-0.08239074 0.09389736 0.35298175 -0.22691739 0.28772998 -0.20525654 0.16206989 -0.030855246
-0.09790128 -0.13536812 0.3695479 -0.37741545 0.23638788 -0.23984386 -0.40337598 0.60224706
0.045186087 -0.19194402 0.6345578 0.24539302 0.4511147 -0.5895302 -0.18902552 -0.21213344
-0.48359653 0.30595514 -0.101131886 -0.20125297 0.5910485 -0.18962178 0.49792385 -0.31271657
0.8366391 0.09574331 -0.13678364 -0.16200082 -0.026037667 -0.03190674 -0.2711773 0.24326685
0.25744462 0.25427547 -0.080145605 -0.21069176 -0.51196545 0.2720018 -0.08017088 0.0054596076
0.13400257 0.120980024 -0.21379507 -0.13839959 -0.49227214 0.24000153 0.40349856 0.38958573
-0.0068641477 -0.073256485 -0.3545215 0.15199713 0.49577993 -0.32303074 0.37584803 -0.84425706
-0.045747407 0.27786255 0.54059565 -0.5166082 0.2923869 -0.26022086 0.3925112 0.14180559
0.014775096 -0.41313133 0.8431324 -0.37314773 0.15015903 -0.11265929 0.7701281 1.0610394

net.2.weight f4 [128, 128]
00000000: cda7 0d3d 414f c7bd 4924 943d d8f2 83ba
00000010: 830b babd ed74 a0bd e1cd e3ba 8331 163c
00000020: 42fd 95bb 61ff 00bc f122 6f3d 6b16 81bd
00000030: 9be1 39bd 6377 1fbd 6c87 843d e3d8 8a3d
00000040: 8b86 a5bd 92ca 35bd 8dc7 c03c 3081 c2bd
00000050: 34c9 463b b667 9bbd 8b51 373d 83e6 e6bc
00000060: 153d 93bd dc0b c7bc 79d3 953d 5327 b2bd
00000070: a6a3 81bd c0f4 723a 6ed5 e0bc 1a28 933d
00000080: 4742 6d3d 0672 4a3d 6aac 993b ddfe f3bb
00000090: 3fed eebc 6c40 223c d785 99bd 32fa 18bd
000000a0: eef0 5ebb 3017 b9bd 4aec dabc 92d3 45bd
000000b0: 1ed5 083c ed54 bd3c af56 e4bc 490e 3bbc
000000c0: f893 a7bd fc51 da3c c678 2138 0ac7 923c
000000d0: c152 30bb 88c9 1d3d f7b5 cc3c 4ea9 f63c
000000e0: 8a0d 1cbc 6e18 d6bd 8fa4 8bbd ce8e e2bc
000000f0: bc60 833d c178 71bd 5135 613d 82af 053d
00000100: 56da 90bd a242 073d ee46 5dbd 9623 dcbb
00000110: 8344 063c b867 ba3c f866 a2bc 32c9 1039
00000120: fe51 aebd d1b7 e53c 25c0 313d 5363 6abd
00000130: 63e7 073d 4592 84bd 5b52 1abd 9ef7 0b3c
00000140: 1ed0 97bd 9df7 bebd 5f76 d7bc 22e7 8d3c
00000150: a167 573d 1295 cb3b 0ff5 173d 4eb4 00bd
00000160: 5556 813d b0bd 0abd 9e78 a23d bc1e c2bd
00000170: 2397 3dbd 673b d3bd a5c7 a4bc 662a 02bd
00000180: 88e4 87bd 803d 493d 8014 323c b10a 9bbd
00000190: 6a11 debd 6ced 6dbd 5c24 443d 0b96 56bd
000001a0: 784d 98bd bc74 3cbd 5261 2d3d 5ab3 4cbd
000001b0: f8d9 563d c439 6b3d ae0c 90bc 5e06 a53d
000001c0: 7ced 6c3d 775b 0d3d 4eed 93bd 9603 12bd
000001d0: 01e7 cfbd 4bbc 74bd 078b 3f3d 2c09 653d
000001e0: 1c3d 07bd b422 8cbd c9cf 29bd bda1 85bb
000001f0: e0b1 263d ce24 f6bc b2cc 12bb b56a 47bd
00000200: 865f ae3f a981 02be 1a84 763f e65c 13bf
00000210: e81f b93d b57f 983e 98c1 1dbf f012 493e
00000220: 2d5b 8439 caba 7d3f 9871 4d3f 63d3 69bf
00000230: 431b 9b3d b17c 47bf 5e8f 3c3e 218a ecbf
00000240: 8d20 983d 0853 013f c669 4dbd e693 a63f
00000250: f16f 1f3e 570c 6a3e eb11 16bf d48e 0dbe
00000260: 202a 893d 79b8 543f b141 c43f 08f9 fcbd
00000270: 1a9e 40bd a02e fb3c 12e8 463f ec36 26bf
00000280: 08f8 9abc b72f 9c3f b0ad 38bd 04a1 183f
00000290: 657b 8abf 785f e63e d82a aabe 23f1 2ac0
000002a0: 4209 10bf 80a2 c63d d33b 023f f860 ecbf
000002b0: 58da eebf 4f29 823f a465 9f3e f73a b03d
000002c0: ed16 2fbf 3b83 893f 49b7 8dbf 17f6 173f
000002d0: 666d b6bf 5db8 3cbc cde5 93bd 5c58 0d3e
000002e0: 65a1 87bd ebd5 0b3f 475c 843d 6032 1f3f
000002f0: 3568 4fbc 1a9e af3d ff16 413c 8bb6 80bf
00000300: 6c63 09bf df75 d0bd 9004 99be f07d 7a3e
00000310: 1f34 16be b39b e4be e76f 18bf 18cb b13d
00000320: d52b 85bf ca99 cd3e f0ac 01bd 3831 7d3d
00000330: 4bd4 1b3f 0bdb 803d a938 cfbf d6d8 593d
00000340: b67b 97bd 75cc 873d 3b6a 093d 2b6d 47be
00000350: 2436 40be 88ba d0be 40cd 963d 4c5a 6a3c
00000360: 2e69 c6be d928 853e facc e83e 9c7c c0be
00000370: 2abe bebe 638a 1fbe cc89 01bf fb6c 74bf
00000380: c017 d5bc 991d 84bd 1e11 8cbc d1b1 a83e
00000390: fdd1 91be aa8f d9bd 0716 fabe 6346 5fbe
000003a0: 3b0a 78bf 7228 1d3f 5285 2b3f be87 f73b
000003b0: 2bf6 813e 3b79 aa3d 1558 36be 017c c7bf
000003c0: 4d6a 49bf fe5a da3d 50ff 91be 620a 45bf
000003d0: 10e3 60bf 586d 27bd 2f43 ed3e fa7e b6bc
000003e0: 262a a43e d1e8 243f 6c46 0ebe 284c 843f
000003f0: 727c acbd 690e 15bd 0fb0 33bd c5c8 bc3b
0.034583855 -0.09731913 0.07233483 -0.001006688 -0.09084227 -0.07834802 -0.0017380082 0.009167078
-0.00457731 -0.007873387 0.058382932 -0.06303104 -0.04538117 -0.038932215 0.06471142 0.06779649
-0.08082303 -0.04438264 0.023532653 -0.09497297 0.0030332329 -0.07588141 0.0447555 -0.028186088
-0.07189385 -0.024297647 0.07315726 -0.08698907 -0.063300416 0.0009268038 -0.027445521 0.07185383
0.057924535 0.049425147 0.004689743 -0.0074461536 -0.029165862 0.009903055 -0.07496231 -0.03734798
-0.0034018117 -0.09037626 -0.026724 -0.048297472 0.008351592 0.023111785 -0.027873365 -0.01141698
-0.0818252 0.026650421 3.849787e-05 0.017917175 -0.0026904794 0.038522273 0.024989111 0.030110028
-0.009524712 -0.10453878 -0.068184964 -0.027655985 0.06414935 -0.05895305 0.054982487 0.03263808
-0.07072894 0.03302253 -0.054022722 -0.0067181094 0.008195045 0.022754535 -0.01982449 0.00013807861
-0.085117325 0.028041752 0.043396134 -0.05722363 0.033179652 -0.06473211 -0.037676197 0.008542923
-0.07412742 -0.09324572 -0.02630156 0.017322127 0.052589063 0.006212839 0.03709894 -0.031421952
0.06315295 -0.033872306 0.07933162 -0.09478518 -0.046286713 -0.103140645 -0.02011473 -0.031778716
-0.06635386 0.049130917 0.010869145 -0.075703986 -0.10843165 -0.05808775 0.047886238 -0.052389186
-0.07436651 -0.046009764 0.04232914 -0.04997573 0.052453965 0.057428136 -0.017584171 0.08057855
0.05784367 0.034511056 -0.07222997 -0.03564795 -0.101514824 -0.059749883 0.046763446 0.05591695
-0.033017263 -0.068425566 -0.041457925 -0.0040781186 0.04069698 -0.030046847 -0.002239984 -0.048685748
1.3622901 -0.12744774 0.9629532 -0.57563627 0.09039289 0.29784933 -0.61623526 0.1963613
0.00025244933 0.9911314 0.80251455 -0.91338176 0.07573559 -0.7792464 0.18414065 -1.8479654
0.074280836 0.5051732 -0.0501497 1.3013885 0.15570046 0.2285627 -0.5862109 -0.13824016
0.06697488 0.8309398 1.5332547 -0.123521864 -0.047025777 0.030661881 0.7769786 -0.64927554
-0.018917099 1.2202061 -0.045087516 0.5962069 -1.0818907 0.44994712 -0.33235812 -2.6709678
-0.56264126 0.09698963 0.50872535 -1.8467093 -1.8660383 1.0168856 0.31132233 0.08604997
-0.68394357 1.0743173 -1.1071559 0.5935988 -1.4252136 -0.011518565 -0.072215654 0.13803238
-0.066225804 0.5462329 0.06462913 0.6218624 -0.012659122 0.08575077 0.011785268 -1.0055708
-0.5366733 -0.10178732 -0.29886293 0.24462104 -0.1466832 -0.4465004 -0.5954575 0.08681315
-1.0404001 0.40156394 -0.031659067 0.061814517 0.6087081 0.06291779 -1.6189166 0.053185306
-0.07396643 0.06630794 0.033548575 -0.19475238 -0.18770653 -0.40767312 0.07363367 0.014303755
-0.3875212 0.26007727 0.45468885 -0.3759507 -0.3725446 -0.15580134 -0.50600886 -0.9547879
-0.026012301 -0.06450958 -0.017098006 0.32948163 -0.2848052 -0.10623105 -0.4884493 -0.21804194
-0.9689061 0.6138984 0.67000306 0.0075540235 0.25383124 0.08323904 -0.17807038 -1.5584718
-0.7867783 0.10661887 -0.285151 -0.7696897 -0.8784647 -0.040875763 0.4634032 -0.022277344
0.32063407 0.6441775 -0.13894051 1.0335741 -0.084221736 -0.036390696 -0.043869074 0.0057612383

net.2.bias f4 [128]
00000000: 5eed d6bd 80cc b7bb 260d 033f 1f26 22bd
00000010: ffcd 99bc f1da ad3e 8f10 2f3f 8ee8 123f
00000020: 4ebf 9cbc ea9d 7c3d cd44 01bd 584c 27bd
00000030: 35f6 153f 3b28 a93f b399 263f 94ab ee3f
00000040: 21b0 15bd 1a8f 763e 3671 ab3d b614 7d3f
00000050: ed7a d5bd ba41 d53e a510 2f3b ceaa 6e3f
00000060: 3d15 91bd c3da 8c3f 550c 0d3f 4993 d83e
00000070: 219b 02be f7e6 69be 8e1b 2f3c 23e4 683f
00000080: ee29 c4ba 4e5e adbd 455a 313f 81e6 41bd
00000090: a7ac 673d 35fa 23bd 4f39 f03e 84dd 613e
000000a0: f214 833f 78ac 81bd 4472 a7bd 1cfa a7bd
000000b0: 83aa 763f 927d 07bd 58f9 3b3e 5794 ad3d
000000c0: dfdc 973f 5f53 df3e 3e3b 94bd a17b e73e
000000d0: b450 b83e 0908 8ebe 78f2 763e 93ef d2bd
000000e0: b867 983e 07d5 8b3e a8b9 cebd a541 b6bd
000000f0: 3948 d73e 23b6 f73c b01e 253a d873 e2be
00000100: 6ce0 78bf ba1e e1bd ec7e e4bd d6ff 293f
00000110: a39f 1f3f 1e3d 303f 108f c7bd 7f46 0c3f
00000120: 71c1 65bd 9640 823f 6f4c a7be ef17 643f
00000130: 679d 14bd 85e8 3a3c 35e0 383f afc2 083f
00000140: 0e5a 7fbc 9e1a 043d d99d b23f 2e0e 2a3f
00000150: b210 2e3f 4660 913e 6a9c 5d3f 7ce5 e43c
00000160: 76a2 62bd 2b32 c1ba 1a6c 4c3f 950b 1e3f
00000170: a20a e33e f292 323f a93a 503f da75 7abd
00000180: ce4e cd3c c462 b0bd 7be4 2a3f b6e6 353f
00000190: a336 933f e67b 0e3f 818b f53e 4863 6b3e
000001a0: 8b30 453f ca81 2ebc ed71 9d3f 7076 0fbc
000001b0: ecf2 5e3f 04a0 bb3f 1a72 a03f 212f 583f
000001c0: d3c6 233f 2fd9 453f cef7 c9bb 9520 463f
000001d0: 7bdc 463e 2095 adbd 662d 1e3f b63a ed3c
000001e0: 30ea 1e3f 67a5 873c 2fd1 5f3f 6a4a 88bd
000001f0: 6cf0 103f 5026 50be 7926 0e3f 29ee 473f
-0.10494493 -0.005609095 0.5119194 -0.039587136 -0.018774984 0.33956102 0.6838464 0.573861
-0.01913419 0.061674036 -0.031559754 -0.04084429 0.5857881 1.3215402 0.65078276 1.8646111
-0.036544923 0.24078026 0.08371203 0.9885973 -0.10423837 0.41651708 0.0026712802 0.9322938
-0.07084129 1.1004261 0.5509694 0.4229987 -0.1275449 -0.22842012 0.010687722 0.9097311
-0.0014966109 -0.08465253 0.69278365 -0.047338966 0.05656114 -0.040033538 0.46918723 0.22057158
1.0240767 -0.06331724 -0.08176091 -0.082020015 0.9635393 -0.033078738 0.18356836 0.08475559
1.186428 0.43618295 -0.07237862 0.4521151 0.35999072 -0.27740505 0.24115932 -0.102996014
0.2976663 0.27310964 -0.10094005 -0.088992395 0.4204729 0.030238217 0.0006298823 -0.44229007
-0.9721744 -0.10992189 -0.11157021 0.66406 0.6235296 0.6884326 -0.09744084 0.5479507
-0.056092683 1.017596 -0.32675502 0.8909902 -0.036282923 0.011407976 0.7221711 0.53422064
-0.015585436 0.032251947 1.3954421 0.66427886 0.67994225 0.28393763 0.86566794 0.027941458
-0.055330716 -0.0014739683 0.7985245 0.6173642 0.4434405 0.6975547 0.8133951 -0.06114755
0.025061991 -0.08612588 0.66754884 0.7105516 1.1501049 0.55657804 0.47957996 0.22987092
0.77027196 -0.010651061 1.2300392 -0.008756265 0.8708942 1.4658208 1.2534821 0.84446913
0.63975257 0.7728452 -0.006163574 0.77393466 0.19420044 -0.08475709 0.6178802 0.02895866
0.6207609 0.016558362 0.87428564 -0.06654818 0.56616855 -0.20327115 0.55527455 0.7809778

net.4.weight f4 [6, 128]
00000000: 901f 8ebd 6957 9a3f 5e68 5140 d12b 293c
00000010: 53e7 2dbf a2ae a6bf d9b0 d53d 71ad c3bd
00000020: e883 083c f046 39bc bf0c 70bd cfcf 803c
00000030: c46d 1140 2748 8dbf 44bd 0f40 21b3 d4bf
00000040: 35d8 9dbd 5682 82bf 6872 d13f 0f8d 2340
00000050: ccd7 54bd e793 a040 62d7 66bd 7e76 ca3d
00000060: 5aa3 a2bc 1348 3340 9807 3d40 9a60 a33e
00000070: fbbd 8abd acf4 c03f dbe7 1a3c d0af c8bf
00000080: da8b 8b3d d623 23bd 5b20 2a40 0173 723c
00000090: 9a60 b1bd 1048 acbd 7819 7340 2944 f53f
000000a0: 7a9e 383f 93a8 3cbd e511 61bd 1d79 313c
000000b0: f9bf 2140 cefd 38be a143 b940 a663 953d
000000c0: 14f7 87c0 8731 ac3e 083c 533d afc1 9440
000000d0: 9e19 2940 66e3 4840 e912 adbf 465e 5b3d
000000e0: 07d0 d4bf d2d7 0d40 c5bf 1cbe 228b ad3d
000000f0: 61a4 0340 0c1d 2240 66ec 52bc 7774 0bc0
00000100: 4eee d1bf 3026 803d 01b7 12bd 1c5d 0d40
00000110: bf19 0540 3409 4240 f462 62bd 1403 f13d
00000120: 9735 863c cbd6 3e40 8c60 cfbf 4eac 8e40
00000130: d21e bb3d b07d 74bf 4477 1e40 e9a2 eebc
00000140: 028a c6bd 07f6 ccbc 3e3b e33f b684 c93e
00000150: 787b dc3e 40ad 6340 7ef2 b2bf 7fff dcbc
00000160: 167f 2c3d 53ca 9f3f b89a 073e 905a 3440
00000170: 3f42 1040 2c7d f93f ff03 653f 63e2 ae3d
00000180: f50d 5c3d 95d9 493d 1567 a33f 0d19 2340
00000190: 72a6 d73f 840d 81be 9363 3240 9666 eebf
000001a0: 517e 0c40 ee14 603d 9d8f 07c0 8220 9b3d
000001b0: e481 be3e ca8e 823f 3fd9 46bf dd16 6340
000001c0: 2fe5 e33f a473 ea3e 2736 013e 8a2c 393f
000001d0: ef7e c840 e132 acbd 8394 043e d252 643d
000001e0: 14dc 1340 e336 8a3b cec1 aa3e 9ead 78bd
000001f0: 39e0 0640 4d81 bebf 44a8 413e fe71 3c40
00000200: f48e fd3b d7ac 7e3f d7ca 2d40 da4c 89bd
00000210: fc13 28be 19b3 a7bf ba90 213f 301e ed3e
00000220: 8fd2 86bc ebaf edbc 7a35 72bd ffcf 6cbd
00000230: f958 0140 36ba 70bf 41e2 0c40 8ac8 cbbf
00000240: a4c5 9c3d 57ab a5bf e664 d0be 70ff 0e40
00000250: a897 b3bd f549 7140 769a 24bd fdcc 823e
00000260: c0a2 0a3d 5560 2540 b2a4 3f40 6019 3b3f
00000270: 9584 40bd 87b5 22bf b5b4 d8bd acbc 04c0
00000280: a1d8 583c 8884 febb 839b 2140 ad26 e43c
00000290: 42ce 963f aace 0dbc 84b6 1a40 cebd b93f
000002a0: bce8 2c3f 77ac 313c 5f3f 95bd ab3a 0fbd
000002b0: 8ae9 1b40 e62c 7d3f e6ce a640 694b da3c
000002c0: e715 8ec0 1eea 0fbf 4860 5fbc 78c9 a440
000002d0: b414 2440 566f 5d40 3903 91bf d43d 4c3d
000002e0: f82a c7bf e8b8 ed3f 2263 61bd cff3 c4bc
000002f0: 3ede ef3f c8b9 cd3f 90a9 80bd b458 ebbf
00000300: 2c24 03c0 f979 273d 80ea 0d3d 6bea 1240
00000310: 2677 3440 86dd 3340 89f4 4bbc dcfe 363f
00000320: d7ca 90bd 0d76 4640 b0fb a6bf 9574 7340
00000330: 8178 623d c613 80bf 57f8 2540 f419 ccbd
00000340: 11ea 8cbc 1638 253d 6c67 d83f 18c6 853f
00000350: f7c7 7c3f c808 e83f e4ac 86bf a038 d3bb
00000360: ef42 2a3d c780 f43f 3c45 843d 7f97 4040
00000370: ee84 1740 d811 db3f eaf9 863f 98a5 4c3d
00000380: 7308 253d d323 763d 0f6c 81be a2a7 1840
00000390: 78ee ca3f f7ff 59bf 758d 3940 2ea7 d9bf
000003a0: 414b 0c40 eb0c 0b3d 767b 0ac0 bff0 993c
000003b0: c93a 3cbe 60d7 2d3f f8c8 5abf df4f 8140
000003c0: 1a0c ef3f a021 03bf e78c 4ac0 4a5f 1e3f
000003d0: 878e 9f40 34fb 3ebd 2362 c73e 4cf6 5bbd
000003e0: d2c4 1040 bcdb 93bd 9089 313f d9c9 943d
000003f0: 730d 0840 7c36 bcbf daa3 e2bd 3532 4a40
-0.06939614 1.2057925 3.271995 0.010325388 -0.679311 -1.3022044 0.10434122 -0.09554566
0.00833223 -0.011308417 -0.058605906 0.01572409 2.2723246 -1.1037644 2.2459269 -1.6617166
-0.07707254 -1.0196025 1.6363039 2.5554845 -0.051963612 5.0180545 -0.05635775 0.09885882
-0.019853283 2.801274 2.9535885 0.3190964 -0.06774517 1.5074668 0.009454693 -1.5678654
0.06813784 -0.039829098 2.6582248 0.014797927 -0.086610034 -0.08412182 3.7984295 1.9161426
0.72116816 -0.046059202 -0.054948706 0.010832098 2.527342 -0.18065569 5.7895055 0.07294397
-4.248911 0.33631536 0.051570922 4.648643 2.6421885 3.1388793 -1.3521396 0.053556703
-1.6625985 2.2162976 -0.1530753 0.08473803 2.056908 2.5330229 -0.012873745 -2.1789834
-1.640085 0.06257284 -0.035819057 2.208808 2.0796964 3.0318117 -0.05527015 0.11768165
0.016382976 2.98186 -1.6201339 4.4585333 0.09136738 -0.95504284 2.4760294 -0.029130416
-0.09694292 -0.025019659 1.7752454 0.39359063 0.4306295 3.5574493 -1.3980253 -0.026977299
0.042113386 1.248362 0.13242614 2.8180275 2.2540433 1.9491324 0.8945922 0.085392736
0.053724248 0.049279768 1.2765833 2.548404 1.684767 -0.25205624 2.7873275 -1.8625057
2.1952097 0.05470746 -2.1181405 0.0757456 0.37208474 1.0199826 -0.7767524 3.5482705
1.7804316 0.45791352 0.12618314 0.72333586 6.265495 -0.08408142 0.12947278 0.055743046
2.3103075 0.004217969 0.33350986 -0.06071245 2.1074355 -1.488321 0.18911844 2.9444575
0.0077379886 0.9948248 2.7155054 -0.067041114 -0.16413873 -1.3101531 0.6311146 0.46312094
-0.016457824 -0.029014548 -0.05913303 -0.057815548 2.0210555 -0.94034135 2.2013094 -1.5920575
0.076548845 -1.2942914 -0.4070198 2.2343407 -0.087691605 3.770139 -0.040186368 0.2554702
0.033846617 2.5840046 2.9944272 0.73085594 -0.04700144 -0.6355824 -0.10581342 -2.0740156
0.013235242 -0.007767264 2.5251167 0.027850473 1.1781695 -0.00865523 2.4173899 1.4511049
0.67542624 0.0108443415 -0.07287478 -0.03496806 2.436129 0.98896635 5.212756 0.026647286
-4.4401736 -0.5621661 -0.013633795 5.1495934 2.5637636 3.4599204 -1.1329108 0.04986365
-1.5559988 1.8572054 -0.05502618 -0.024042038 1.8739698 1.6072321 -0.062823415 -1.8386445
-2.0490828 0.040887807 0.034647465 2.2955577 2.8197722 2.8103957 -0.012448438 0.71482635
-0.07069939 3.1009552 -1.3045559 3.8039906 0.055290703 -1.0006034 2.5932825 -0.09965888
-0.017201455 0.04033669 1.6906562 1.0451078 0.9874262 1.812768 -1.0521512 -0.006445959
0.04156774 1.91018 0.06458518 3.0092466 2.3674884 1.711482 1.0545018 0.04996261
0.04029126 0.06009276 -0.25277755 2.3852315 1.5854025 -0.85156196 2.8992589 -1.7004144
2.1920931 0.033947866 -2.1637855 0.018791554 -0.183818 0.6790676 -0.85462904 4.041
1.8675568 -0.5122318 -3.16485 0.6186415 4.9861484 -0.046626285 0.3894206 -0.053701684
2.262013 -0.072196454 0.6935053 0.07265062 2.1258209 -1.4704127 -0.110664085 3.1593144

net.4.bias f4 [6]
00000000: 2e4d 283f 32a1 f93e 983f ba3f 3b96 733f
00000010: d2c2 653f bb6d 643f
0.65742767 0.48755795 1.4550657 0.9515111 0.897504 0.89229935
