rl/models/final_model_run6.pth (torch, 79489 bytes, 6 tensors)

net.0.weight f4 [128, 13]
00000000: 1bc6 dc3c 8b82 3dbd 3497 5cbc b5d2 47be
00000010: 2f64 0dbe b7bb 57bd 2ba7 53be bfd1 70be
00000020: efe6 af3d c1ab 4f3c 47ba ffbd adab f4bd
00000030: 4239 e5bd 1899 bfba a621 17bf 4132 7cbf
00000040: 0274 9ebc 637b 13bf 6591 dcbd 401b 9a3e
00000050: 1d18 d03e cdf3 933e 2413 6f3e 375d 023f
00000060: c031 843e 2398 41be f0ac f1bd 7eec 9abe
00000070: d9f4 96be ec31 08be 5f5b 57be 6cbc 973d
00000080: 9fff 023c b2f3 063e 02ff 4c3e 9d22 82be
00000090: 9cae f5bc 31dc 99be 9b8a 47be baab b63e
000000a0: aea2 87bd 0668 8d3f 024d dbbf 47c5 c73e
000000b0: d3a8 b13e d70d 273d a4de d2be 0c3e 06bf
000000c0: 6e09 54bf c2bf 78bd 0efa abbe c81a 363e
000000d0: bcd8 253f c6f5 903d bd99 11c0 0435 2a3d
000000e0: c50f 093e 18db 013e 378b f43e 058f 99bf
000000f0: 2267 2e3d f80a 16bf 487a 373e 2467 dfbe
00000100: f0f5 1f3f ec0c 0a3d db7c 80bd 67bc 8c3e
00000110: 0342 833e 0316 acbd 9a5a 84be 611b 6dbe
00000120: ef91 593d 9eb5 ddbc 3f09 33bd 38b6 edbb
00000130: 9579 203e bf92 68be 1cf5 2e3e 8f9b 5a3e
00000140: 9506 c1bd 5f0d b43d a7a7 4f3e 554c 6bbd
00000150: 7318 97be 2e89 6abe 3281 3abe ecac 223d
00000160: e25d 26be f178 c3bd a960 53be cce5 233e
00000170: d9a7 efbe 4388 b8bf 63e3 c33b 48a2 1abf
00000180: 4c71 1f3d b16e a53e 39d9 0abf e4cf 82bf
00000190: cffb 2d3f 5b8f 8c3e 4771 f73e 94e5 ebbe
000001a0: d16b 003d b53e 2abf 9db7 1a40 70b9 fe3e
000001b0: fcad a5be 3fd8 ae3f a8c5 eebe cd82 a63e
000001c0: f992 3e3f 0039 a8be caf0 693e 34d5 69be
000001d0: 14f4 0bbe 093c 313d a671 c3bd c894 de3e
000001e0: 8366 dfbf 942f b8be d759 073f 6ba3 af3e
000001f0: f2a6 7ebf 1e0f 2f3e 270f 753e 7456 8e3e
00000200: 19cc 80bf 73a1 053e 26b9 2dbf 01a9 a63e
00000210: 3d65 953f 171c 2fbf b533 2bbe ce9a 7dbd
00000220: efd6 393f 7021 953d 9e44 06be 3db7 183e
00000230: 5da0 18bf 4352 853e 4e8e debe 9d75 75bf
00000240: 3cd5 2e3e ba92 d4bf e624 06bf 4303 b03e
00000250: 2f72 d7be 489b 403f 00f4 643d a382 6e3f
00000260: 583b ab3e c473 1b3e f61c d0be 621b 3fbf
00000270: 7039 9e3d 48f0 35bf 2dd4 25c0 be6c 7dbf
00000280: 98ea a33c 10f4 e8be 0e4a 103d 81e5 83be
00000290: 03a3 e7be 6e07 ac3e 3a0b 04be 8700 c33e
000002a0: 123d 043f 6c03 20bf 7f17 10bf 6cf9 bf3f
000002b0: 66cf 09c0 533f c43e d50f c03c 3bde 4a3e
000002c0: ee33 bb3d f383 ac3e 72b5 b63e d1c5 1bbf
000002d0: 478d e73d e77a 5bbe 5bea 1dbf 0606 6a3f
000002e0: aa4e a7bf 11d9 4b40 c5e5 283d 1e96 223f
000002f0: 7da9 0dbf 9de5 25bf cad0 5e3e 4897 cd3e
00000300: cc57 25be f499 d83d 3886 0e3f 008f d43e
00000310: 074e 0a3f 7550 3bbf b481 1e3f 0b78 873e
00000320: 5996 cc3d 0ce2 1a3f 8c2e 1bbe 95af 70be
00000330: 6d01 89bf c3fc 22bf 18b7 78bf c68f 823c
00000340: 0e0b bf3e 534f f3be f768 2bbf 8ad8 08bf
00000350: 5876 8cbf 3a9c 473e a384 c53e 6226 353f
00000360: 23a6 3d3f bcdb 33bf a1c7 47be cce1 87be
00000370: d504 10bf 87d7 dbbe 388d 17bf 7a1e 0ebf
00000380: 3caf b6be 006e a33e 639c aabf af20 433f
00000390: 709e 1c3f 87f9 32bf 1446 a7be 5175 183f
000003a0: b6ec f7bc e4cb 11bf d5a5 e8bd 211e 7b3e
000003b0: dcf4 ca3d df40 d9bf 0c6f 9b3e eb6b b5bf
000003c0: f76b ab3e abd1 f13e fe04 9ebe be50 133f
000003d0: 10f2 78be 47b7 2c3e cfd2 f2be 21dc f53e
000003e0: 42dc 22bd 1105 293f 3edf 2ebe fdac 693e
000003f0: 8096 b73e 6d04 50bf 6021 703f f62d 21be
0.026949933 -0.046267074 -0.013463784 -0.19513972 -0.13807748 -0.052669253 -0.20669238 -0.23517512
0.08588969 0.012675227 -0.124867015 -0.11946807 -0.11192562 -0.0014617769 -0.5903572 -0.9851418
-0.019342426 -0.5761015 -0.10769919 0.30098915 0.40643397 0.28896943 0.23347145 0.50923485
0.25819206 -0.18905692 -0.11800563 -0.30258554 -0.2948368 -0.13300294 -0.21030949 0.074089855
0.007995515 0.131789 0.20019153 -0.25417033 -0.029990487 -0.30050805 -0.19486468 0.35677892
-0.066228256 1.104737 -1.7132876 0.39017698 0.34699115 0.040784683 -0.41185486 -0.52438426
-0.8282689 -0.06072975 -0.33589214 0.17783654 0.64783835 0.070781276 -2.2750084 0.041554466
0.13384922 0.12681234 0.47762462 -1.1996771 0.042578824 -0.58610487 0.1791774 -0.43633378
0.62484646 0.03370373 -0.06273814 0.2748749 0.256363 -0.08402636 -0.25850374 -0.23154975
0.05311769 -0.02706414 -0.04370999 -0.007254388 0.1567138 -0.22712229 0.1708569 0.21348403
-0.094250835 0.08791613 0.20278798 -0.057445843 -0.2951084 -0.22903892 -0.18213347 0.039715692
-0.16246751 -0.09544552 -0.20642342 0.1600563 -0.46807745 -1.4416584 0.0059780343 -0.6040387
0.038926408 0.32311013 -0.54237705 -1.0219693 0.67962354 0.27453122 0.4832861 -0.46073592
0.03135282 -0.66501933 2.4174569 0.49750853 -0.32359302 1.3659743 -0.46635175 0.32521668
0.7444301 -0.32855988 0.2284576 -0.22835237 -0.13667327 0.043270145 -0.09543161 0.43472886
-1.7453159 -0.359738 0.5287146 0.34304366 -0.9947349 0.1709561 0.23931561 0.27800333
-1.0062286 0.13049869 -0.6786064 0.32550815 1.167152 -0.68402237 -0.16718943 -0.06191521
0.7259359 0.07281768 -0.13112113 0.1491365 -0.59619695 0.26039323 -0.43467945 -0.9588259
0.1707353 -1.6607277 -0.5240005 0.34377488 -0.42079303 0.7523694 0.05589676 0.93168086
0.33443713 0.1518088 -0.40647095 -0.7465116 0.07725799 -0.71069765 -2.5910752 -0.9899405
0.020009324 -0.45498705 0.035226874 -0.25761035 -0.45241556 0.33599418 -0.12894908 0.3808634
0.51655686 -0.6250522 -0.5628585 1.4997993 -2.1532836 0.38329563 0.02344505 0.19811337
0.09140764 0.3369442 0.35685307 -0.6084872 0.113062434 -0.21433602 -0.61685723 0.9141544
-1.3070881 3.1851237 0.04123475 0.6351031 -0.55336744 -0.6480349 0.21759334 0.4015448
-0.16146773 0.10576239 0.5567355 0.4151535 0.5402531 -0.7316964 0.6191666 0.26458773
0.09989614 0.6050117 -0.15154475 -0.23504479 -1.070356 -0.63666934 -0.9715438 0.015937697
0.37313122 -0.47521457 -0.6695704 -0.5345541 -1.0973616 0.1949319 0.38577756 0.7076169
0.7408163 -0.70257163 -0.19509746 -0.26539457 -0.56257373 -0.42937872 -0.5919986 -0.55515254
-0.35680568 0.3191986 -1.3328975 0.76221746 0.61179256 -0.69912 -0.32670653 0.5955401
-0.03026424 -0.5695174 -0.11359755 0.24523212 0.099099845 -1.6972922 0.3035816 -1.4173559
0.33480808 0.47230276 -0.30863184 0.5754508 -0.2431109 0.1686679 -0.4742646 0.48019508
-0.039760835 0.66023356 -0.17077348 0.22819896 0.3585701 -0.81256753 0.93800926 -0.15740189

net.0.bias f4 [128]
00000000: 8095 223d c000 f9bd c11b e2bd 54b9 1d3f
00000010: eaca 883d 5d51 d0bc 510a 86be 54d1 d8bd
00000020: 8094 2ebe 1dd9 f83d a36b ce3e a172 73be
00000030: e606 bf3e 6774 d7bd 59e4 6dbe 24e2 0a3f
00000040: ccac bf3d 41b9 b4bd 7b90 29bc c1bf 8abd
00000050: 254d 1abe 1cf2 0ebf 2a2e c5bd 31f7 febc
00000060: 3da5 8b3e 529c 00bd d2d7 fa3d 10db 0b3e
00000070: 2ebc babd f7c7 9c3e f8ef ce3e 19db 5bbe
00000080: 1e9d 99be 643b cbbe 1b06 863e 4814 c63c
00000090: 07c1 0fbd d12a 923e 973c 60bc a079 6bbe
000000a0: 64ce 873e f8af 5d3d f950 80bd 0c5c 95be
000000b0: 1748 0abe 8fee 843e 4f83 f53c 5208 903e
000000c0: 4698 353e 0aa5 a03b f1f1 1a3f 965b a7bd
000000d0: 39d4 19be aa52 a2bd ce7b 30bd f391 36be
000000e0: 858c d53e b2e0 c4bd 0b09 a43e 745a a73e
000000f0: f921 583d dfad 4c3e b62e b6bc cd8c ca3d
00000100: f79c 90be fb19 f0bd 16c7 873e 20db 88be
00000110: 471e ed3e 0753 4cbe fb03 df3d 1b01 c93e
00000120: cdf6 b0bd 8db1 0e3e 2c04 d43e 88a1 0dbc
00000130: 3a26 ac3e 6bb3 2c3f 47e5 103f 0995 8e3e
00000140: b932 95be f8c9 80bd aee2 4a3f bf21 473e
00000150: 2ea4 b33d 0ac8 213e 17f4 89be 1380 31be
00000160: b826 0dbe 9782 ac3e 483e 58bb 19bd 8dbd
00000170: ae75 8ebd f6e0 f5be 034f 6c3d 5100 89be
00000180: 28f1 22bd 7ebe 393d 7d86 1f3f df5c 85be
00000190: 55b0 153e 8178 493e 09ea 6cbe d1a5 35be
000001a0: c484 853e 488b b43b 573b d83c 87f5 8a3e
000001b0: bae9 1fbc 1ad6 693d bc1c abbe 51e4 fc3d
000001c0: af83 e6bd ef02 8dbe 3022 f63e c690 fcbd
000001d0: 7be2 40be 523c 493e 834b 60be 25a8 523d
000001e0: 1477 c43d a64b 883e 9c8e 73bd 6e3c c4bd
000001f0: 1eba a9be 59ca 923d 7b7f 673d 3f09 2abe
0.039693356 -0.12158346 -0.1104045 0.61610913 0.06679328 -0.025429422 -0.26179746 -0.10586801
-0.17048836 0.12150786 0.40316495 -0.23774196 0.3730995 -0.10520249 -0.23231639 0.54251313
0.0935913 -0.08824397 -0.010349388 -0.067748554 -0.15068491 -0.5583818 -0.09627946 -0.03112373
0.27274504 -0.03139908 0.12248196 0.13657784 -0.09117924 0.3062131 0.40417457 -0.21470298
-0.30002683 -0.3969375 0.26176533 0.024179593 -0.035096195 0.2854829 -0.013686321 -0.22995615
0.2652465 0.054122895 -0.06265444 -0.2917179 -0.13504063 0.25963256 0.02996984 0.28131348
0.17733869 0.0049024867 0.60525423 -0.081717655 -0.15022363 -0.07925923 -0.04308682 -0.17829113
0.4170877 -0.0961317 0.3203815 0.32686198 0.052766774 0.19988202 -0.02223907 0.09890137
-0.28244755 -0.117237054 0.26519078 -0.2672968 0.46312162 -0.19953547 0.10889431 0.39258656
-0.086408235 0.13934918 0.41409433 -0.008644469 0.33622915 0.6746127 0.5659985 0.2784808
-0.2914026 -0.062885225 0.79252136 0.19446467 0.08771549 0.15798965 -0.26944038 -0.17334013
-0.13784301 0.33693382 -0.0032996107 -0.06920833 -0.06956039 -0.48023194 0.05769254 -0.26758054
-0.039780766 0.045347683 0.6231459 -0.26047418 0.14618047 0.19674875 -0.23136152 -0.17739035
0.26077855 0.0055097677 0.026395483 0.27140447 -0.009760315 0.05708895 -0.3342036 0.123482354
-0.112555854 -0.275413 0.48072958 -0.12332301 -0.18836395 0.19651917 -0.21903805 0.051429886
0.09593025 0.26620215 -0.059462175 -0.095818385 -0.3314981 0.07167501 0.05651806 -0.1660509

net.2.weight f4 [128, 128]
00000000: 22d5 53bd b55b 8fbd 611e cfbc 5472 f7bc
00000010: 20e4 b9bd 5f31 8dbd 7829 8dbd bc74 a9bb
00000020: 23c0 583d 5439 46bd 3136 c8bc a60c 8ebd
00000030: 8b33 273d 20e8 0cbc 88a1 bd3b c71a c1bd
00000040: e99e 2fbd 534b 3a3d e65b 72bc fb61 043d
00000050: 9976 563b bd03 8e3c c2c3 24bc 4d28 adbd
00000060: 5d4e 283d 3a37 953d b11c 83bd a634 983b
00000070: 043f 9c3c 46db 40bd 00d1 383d 7a77 68bd
00000080: 6bc1 833d 6ee6 a5bd 6571 5cbd 4e60 463d
00000090: 4939 d73c b02a 83bc 196b 6dbd df11 c33c
000000a0: 5d87 ccbd 7a77 9bbd 3b9a aabc 70d2 03bd
000000b0: b303 88bd 55e7 b1bd 54d0 d7bc 11a9 a6bc
000000c0: 23da 893d fa06 a3bd 9319 45bd 7d28 01bb
000000d0: 32c2 a7bd c1c6 2e3c 0ccd d23b b395 393d
000000e0: 5b83 613d d2c5 8ebc 9a8f 043d 9739 8f3c
000000f0: 78f8 a1bd c8ec 82bd 5499 d3bb f1b7 9fbd
00000100: e09c b13b a357 b33d 202a 403a 1118 a73d
00000110: b05e 4ebd 987d 36bd 72f9 50bd 043d 6f3d
00000120: c317 eabc 9c48 7d3d 058e 4e3c e43f 12bc
00000130: 8790 a4bd 1d7d d5bd 71d8 0b3d 8ca9 83bd
00000140: 74e9 cebd 4e8c 5bbd dc75 1dbd e8d4 76bd
00000150: 16f7 98bd 5449 593d 2a92 84bd efcd 983b
00000160: 65eb b0bd e9ec afbd 50fd 11bd 2d89 83bc
00000170: aafc 7bbd 83ca f7bc ca6f 003d dc34 7cbc
00000180: f898 193d 965b 2c3c e3f1 8dbd 1c56 ac3d
00000190: 38a4 90bb b15f 3bbd 7027 a13a c42f debc
000001a0: 1368 80bd 7230 7fbd 990f 3e3d ebba 2d3d
000001b0: c6aa a4bd 084d 3d3b b368 e5ba 63ce c5bd
000001c0: dc5f 95bd 08a7 893d aaa6 62bd c1cf b2bd
000001d0: ed82 91bd defb a5bd 76bc f5b9 b5cc 533c
000001e0: ecac 603d fa25 17bd bb50 aabc 4383 9abd
000001f0: 8deb a3bd 2ce5 6b3c 369e 91bd edc1 7cbb
00000200: 168f 593b 91e1 bb3e 9817 90bd 126b 5abf
00000210: 145e 97bf c3c0 eebc ac85 b43a 2cf9 c4bd
00000220: e2ec 0f3e 2363 84bf 4b2e c23e f373 a0bf
00000230: f6e7 c6bf 09d7 8ebe eb42 d2be 6d54 dfbf
00000240: bcea 003e f662 04bf db04 1dbf 5904 77bf
00000250: b984 79be e13e 9dbd 8cfe bb3c 458d d4bf
00000260: c848 ecbe 7649 8cbd ed4b fdbe ade9 663e
00000270: ee21 113f 182d 28bf 4efd 893e 26b5 97bd
00000280: 301f bc3c 65e8 c83c 8073 063f e485 e53c
00000290: 6396 29bf d2b2 4d3f 3b2b 16bf 553f 84bf
000002a0: 6303 323f ebc6 9cbe 7051 c9be 03db bcbc
000002b0: d016 083f 4834 6abd e7b1 55bd 6825 aa3d
000002c0: 28bc 22be caf5 0bbf c0a3 d1bd dc78 373b
000002d0: 0ba3 0f3d 3fbc 173c 580c 41be 01cd a4bf
000002e0: d0a7 fb3c 4105 b6bf d5aa 0abb 43af b53e
000002f0: c5d1 8bbe 8291 9abf dd5f 1a3e 69ff 173d
00000300: fc2a fbbe e190 d9bc c0c6 2d39 3a10 233d
00000310: a4d7 b4be 69a8 aabf 4b18 dc3d b755 033f
00000320: 499b c5be 74c4 5d3f 1ffb 8dbf b6ee 9cbd
00000330: 24cb 20bf 9847 9abe 6034 16bf a77b 81be
00000340: 3218 893e 0006 073f 1312 95bf 0468 c0bc
00000350: e7ab 453e 95a7 27be b666 99be 08d3 39be
00000360: 3a87 883d 9a4c 74be c002 03be 9839 81bc
00000370: 910c 603e d9f4 5abf eb91 403e dfc8 f7be
00000380: a147 8b3e a275 39bf 074c 1f3f c839 9f3d
00000390: 13ea af3c cbd7 0b3f 3799 dabe dec3 05c0
000003a0: fd65 963d ec99 4dbd 008c 9abd 3f29 41bf
000003b0: baeb 773f 176b 71be 6f55 923e eb3b 82bf
000003c0: ef4d 1c3c 88fc f5be 4789 84be a4de c1be
000003d0: 8e19 bdbf f079 363d 79ba 21bc 34bb 7ebf
000003e0: d956 ed3e 53cc 75bf d078 2ac0 d1af a8bd
000003f0: 681c 113d 588d 503f e17d 473f f35c e03e
-0.05171693 -0.069999136 -0.02528304 -0.030205883 -0.090767145 -0.068941824 -0.06892675 -0.0051713865
0.05291761 -0.048394516 -0.024439903 -0.06936006 0.04082064 -0.008600265 0.0057870783 -0.094289355
-0.042876158 0.04548199 -0.014792418 0.032320004 0.0032724498 0.017335767 -0.010056438 -0.084549524
0.041090358 0.07285924 -0.06401957 0.004644948 0.019073017 -0.047084115 0.045121193 -0.056754567
0.06433376 -0.081005916 -0.05381908 0.048431687 0.026272433 -0.016011566 -0.057963464 0.023812233
-0.09986756 -0.07591148 -0.020825496 -0.03218311 -0.066413306 -0.08686701 -0.026344456 -0.020344289
0.067310594 -0.07960315 -0.048120093 -0.001970797 -0.08191337 0.010667504 0.006433135 0.04530878
0.05505691 -0.017428312 0.03236351 0.017483516 -0.0790872 -0.06392819 -0.006457487 -0.07798756
0.0054203123 0.0875695 0.0007330496 0.08158887 -0.05038327 -0.04455337 -0.05101914 0.0584078
-0.028575784 0.061836824 0.012607102 -0.0089263655 -0.08035379 -0.10424254 0.03414196 -0.06428823
-0.101031214 -0.0536006 -0.038442478 -0.060261637 -0.07469003 0.053048447 -0.06473191 0.004663221
-0.08638648 -0.08590109 -0.03564197 -0.016056621 -0.061520256 -0.030247932 0.03135661 -0.015393462
0.037499398 0.010519883 -0.06930902 0.084148616 -0.0044141077 -0.045745555 0.0012295078 -0.027122386
-0.062698506 -0.06230206 0.046401594 0.042414587 -0.08040385 0.0028885026 -0.0017502516 -0.09658506
-0.07293674 0.06721312 -0.055334724 -0.08731032 -0.0710505 -0.081046805 -0.00046870456 0.012927224
0.05485241 -0.03690145 -0.020790448 -0.075445674 -0.08003912 0.014397901 -0.071102545 -0.0038567737
0.0033196858 0.3669553 -0.0703575 -0.85319626 -1.1825585 -0.02914465 0.0013772747 -0.09617838
0.14055207 -1.0342754 0.37925944 -1.2535385 -1.5539539 -0.27898434 -0.4106668 -1.744764
0.12589544 -0.517135 -0.61335534 -0.9649101 -0.24367036 -0.07678009 0.022948526 -1.6605612
-0.46149278 -0.06849949 -0.4947199 0.22550078 0.566924 -0.6569381 0.2695107 -0.07407598
0.02296409 0.024524877 0.5251999 0.028017946 -0.66245097 0.80350983 -0.58659714 -1.0331827
0.6953642 -0.30620512 -0.39319944 -0.023053652 0.5315981 -0.057178766 -0.052171614 0.08307916
-0.15892088 -0.5467192 -0.10236311 0.0027995622 0.0350676 0.00926119 -0.18852365 -1.2875062
0.030719668 -1.4220353 -0.0021158953 0.35485277 -0.2730848 -1.2075655 0.15075631 0.037108812
-0.49056232 -0.026558341 0.00016572606 0.039810397 -0.3532077 -1.3332645 0.10746821 0.51302665
-0.38595036 0.8662789 -1.1092261 -0.07662718 -0.6280997 -0.30132747 -0.5867367 -0.25289652
0.26776272 0.5274353 -1.1646141 -0.023487099 0.19303857 -0.16372521 -0.29961175 -0.18146908
0.066664174 -0.23857346 -0.12794018 -0.015774533 0.21879794 -0.8552986 0.18805663 -0.4839544
0.27203086 -0.7244512 0.62225384 0.07774693 0.02147392 0.5462615 -0.4269502 -2.0900798
0.073436715 -0.05019562 -0.07546234 -0.7545356 0.96844065 -0.23576008 0.28580806 -1.0174536
0.009540065 -0.4804423 -0.25885984 -0.37865174 -1.4773424 0.044549882 -0.009871119 -0.995044
0.46355322 -0.960149 -2.6636238 -0.08236659 0.03542748 0.81465673 0.7792645 0.43820915

net.2.bias f4 [128]
00000000: 94e2 ccbd 489a 09bd 8bb7 2f3d e792 09be
00000010: 9bed 5e3e 75db ba3d 20c4 be3e 1514 0abe
00000020: 2971 143f 8878 e8bd 4565 89bd edbf 69bd
00000030: bab0 ce3e e239 6b3c b25c e83d d4fc 26be
00000040: 043b 0ebd 456e 00be 5c5d 363d 9d2c 5abd
00000050: d8ca 8d3f b8e2 573e c206 dcbd 0d5b ccbd
00000060: 8061 86bd e5dc 8c3f 7d84 c5bd 5d71 00be
00000070: a80a fb3e 39c3 c33e e971 1b3f 9cef 273f
00000080: 5d17 16bd 657a e9bd 6c62 0ebe 5971 02be
00000090: 57dc 863e 33ae 1fbd a2f2 f1bd ca6c ed3d
000000a0: 63b5 c63c 06ef 0abe b800 72bd 175e 053f
000000b0: 1d31 bebd 386a 51bd 1a8b 91bc c6c8 313f
000000c0: 977c 1dbd 39ff 313d 670f 333e 510d 663f
000000d0: 1c65 be3e f7ec 82bd 40e3 92bc 4a6c 00be
000000e0: 5946 3c3e 06c6 8f3d eb0d 363f e4cd eb3d
000000f0: f4f5 efbe f960 e9bd 8b79 a3bd 2e83 063d
00000100: 9629 00be 3a58 253f 0f6a 423f cf67 bc3d
00000110: 3bd6 d5bd 2149 8ebd 7765 1f3d 7d58 7cbe
00000120: 757b 103f 94cf 323e 6074 e9bd c737 aebe
00000130: 17bd 583f 0502 97bd e509 12bd b188 65bc
00000140: d84a a23e 27ff 03be 4368 2f3f d6ce 853e
00000150: 5eca a6bd f9ec 98bd 12d3 1d3e c919 abbe
00000160: d4f5 2cbd ba3a 753e 7fd7 36bd f84a 80be
00000170: dc7b 883e 2c8b e13d 3d47 5a3e 40f6 413e
00000180: 6b5f 5aba 3cc6 b3bd 53fa 103f 4a20 863e
00000190: 5adc ffbd a896 813f 2516 a9bd c406 103f
000001a0: 5199 4e3c 7178 523f 8c5e abbd b7e6 583e
000001b0: fc95 c5bd 2579 243f 2ecf 863d ed40 c13e
000001c0: a930 cabc 1fbb c8bd 7f15 ffbd a0ec cbbe
000001d0: 49dd ccbd 089c a73d ae8f cdbd 5731 4b3f
000001e0: 6177 31bd 07ed b0bd d28f cb3e be5f e3bd
000001f0: 1615 803e ab58 c23d 778e 9fbc d063 bbbe
-0.10004154 -0.0335944 0.04289965 -0.13434945 0.21770327 0.09123889 0.37259007 -0.13484223
0.5798517 -0.113511145 -0.06708769 -0.0570678 0.40369207 0.014357062 0.11345805 -0.16307384
-0.03472425 -0.12542064 0.04452263 -0.053265203 1.1077528 0.2108258 -0.107434765 -0.09978304
-0.065615654 1.1004912 -0.09644411 -0.12543245 0.49031568 0.3823488 0.6072069 0.6559999
-0.036643375 -0.11400298 -0.13904732 -0.12738551 0.2633998 -0.03898449 -0.11813857 0.115930155
0.024256414 -0.13567743 -0.059082717 0.52096695 -0.09286711 -0.05112669 -0.017766524 0.6944698
-0.038448896 0.04345629 0.17486344 0.8986407 0.37186515 -0.06392854 -0.017930627 -0.12541309
0.1838621 0.07020192 0.7111499 0.1151388 -0.46867335 -0.11395449 -0.07982167 0.032839946
-0.12515864 0.6458775 0.7594308 0.091994874 -0.10441252 -0.06947542 0.038915124 -0.2464313
0.5643838 0.17461997 -0.1139915 -0.3402693 0.8466353 -0.07373432 -0.035653967 -0.014009641
0.31697726 -0.12890302 0.68518466 0.26134366 -0.08144067 -0.07467074 0.15412548 -0.3341811
-0.042226627 0.23948184 -0.044639107 -0.25057197 0.26656997 0.11012873 0.21316238 0.18941593
-0.00083302584 -0.087780446 0.56631964 0.2619651 -0.124932006 1.0124102 -0.08256177 0.56260324
0.012609796 0.8221503 -0.08367643 0.2118176 -0.09647748 0.6424735 0.06582485 0.37744847
-0.024681406 -0.098013155 -0.12455272 -0.39828968 -0.10003144 0.081840575 -0.1003717 0.7937216
-0.04332674 -0.086389594 0.39758164 -0.11102246 0.25016087 0.09489568 -0.019477112 -0.36599588

net.4.weight f4 [6, 128]
00000000: 6f8b a43d 0413 693f cad1 b3bd 1183 2d3b
00000010: 1065 233f 66e6 d03f 6710 513f 0436 efbd
00000020: 754a 7f3f 5116 41bb 0ec6 443d 40b3 b5bb
00000030: 3edf 5a3f 0a61 ac3d 773c c63f 640c 133f
00000040: 7b78 4d3c f2fd 5cbd fa7e a43f 2b60 f43c
00000050: 8623 f33e a010 a73f a05c 9cbd b727 09bd
00000060: df51 2a3c 45da bb3e 0026 bd3c c298 d03d
00000070: 4fe9 923f 1253 813f 45d5 743f f443 be3f
00000080: ca4d c73d 187c 42bd c39a 9c3f b8fc 92bf
00000090: bd7c 4e3f 670a 953d 229a 9fbc 395b 20bf
000000a0: b609 993c 00b1 7bbd 52a8 453d 494a 4b3f
000000b0: 65e5 2bbf b303 bcbc 97fc a3bc a3eb 263f
000000c0: eca1 cb3c 1b6c 3b3f 5ae6 13be d81f 013f
000000d0: 8c45 173f 8014 05bd d830 9a3c b51a aebc
000000e0: 868d 94bf e973 9e3f 78cb 1e3f 2ce9 c53f
000000f0: 4099 14bf c8d6 8ebc b444 acbd 7647 35bc
00000100: 426c 76bf 79b6 193f 72d4 8f3f 2c45 6b3f
00000110: 68bb a1bc 41a9 fabc 5cb9 0dbd 1f11 2fbf
00000120: 61fd 223f 04df b93e 6beb ad3d 780f 49bf
00000130: 338f bc3e c915 9fbf 0366 e1bc 6828 2c3d
00000140: a270 b23f ef2e 5bbd b925 753f 30a8 433f
00000150: 7c01 8c3d 3998 753d b80d c83f 6f10 55bf
00000160: 77b8 81bc 552d 223f f464 a63d b789 4abf
00000170: 721c 853f cdbd a7bf 7720 9e3f 0096 7dbe
00000180: 170b c7bb 2fa1 e939 372a a43f 844c 503f
00000190: f069 71bd d594 e03f 8795 bb3c a4c0 373f
000001a0: 63c7 793c 09b7 143f 10b0 8abc bd89 003e
000001b0: 33a1 60bd 678b 913f 4cec 803f 1d2d 933f
000001c0: 165f 32bc 2f95 b7bd d292 a33c 0dcd 81bf
000001d0: 3e23 b5bc a263 31be 77b8 68bd e90b d63e
000001e0: 4b25 06bd 99c2 6c3d 8472 623f 700b 2abc
000001f0: 1f15 8c3f d06f b53f 9c16 9b3d 592f 01bf
00000200: cc71 59bd 401f 763f 9f80 91bd 7839 a53c
00000210: 6f7a 223f 9f6f c63f e23a 473f b7a3 9cbc
00000220: 2909 803f e73d ac3d d750 c9bc b571 60bd
00000230: 389f 293f f8f5 aa3a 7526 3b3f ab7e 77be
00000240: 570e 87bd c9bc f2bc 9490 b43f 6d16 823d
00000250: cf9a 373f aaaf 813f 5c6b 4abd ce62 63bc
00000260: 786d 27bd 567e ab3e ef39 40bc 8b10 4cbd
00000270: bcdd 983f 3f07 743f 65c8 8b3f 9e63 9b3f
00000280: 3594 32bc d1b0 b6bc fdb5 a13f 668d 99bf
00000290: 5332 573f eec4 073d 0a46 2cbc f2d8 473f
000002a0: dee8 cd3c f1ec 583d 2b68 a5bd 1a7c 4f3f
000002b0: c27d 2ebf e147 1d3d b74e 42bd 0273 333f
000002c0: cbf6 a83b 544d 3f3f 90a9 a53f 9ac0 6a3e
000002d0: a7ff 843f d0ca 1ebd f9d3 7d3c 4719 b1bc
000002e0: 4402 3bbf deaa b23f 850c 103f 0239 e33f
000002f0: 8d7a 3ebf b578 c5bb 41dd 21bd 75e6 2b3d
00000300: d7b6 4fbf c371 243f 2971 8c3f 37db a13f
00000310: 26ac b1bd f0bc 573d 4dca f03c 1894 5abf
00000320: 6ec5 0b3f 5dd7 9a3f cb32 dc3c 7b5c 4ebf
00000330: c202 b63e 997d b5bf a774 e73c 35e2 293d
00000340: 8fbf ba3f fe5a 60bd a30f 823f 31ee 563f
00000350: 94da 90bd d274 a2bd 0ca9 c43f c02b 46bf
00000360: a1a6 7dbd d982 bdbe bf3d 823d 1b9a 46bf
00000370: a45f 8a3f 7547 88bf 5db7 933f e702 f8bd
00000380: a15b 33bc 4d85 91bb d938 a53f a6af 663f
00000390: a5ef 623c a99f fa3f 676c 5abd 6f65 213f
000003a0: 9ac5 6d3b 9602 113f 4914 9b3d 66f9 67bd
000003b0: 5135 2fbd acd3 723f b8ea 8f3f 2ac6 7a3f
000003c0: a9f1 6cbd 6ef5 963c 646d fbbc e72e 8dbf
000003d0: b44d f23c b9fb 073f a69d c7ba 6512 e83e
000003e0: 2b20 4a3d cabb 703d 76f6 693f e732 f5bc
000003f0: a3b9 9d3f 66ea e53f d89f 2ebd b945 23bf
0.08034407 0.9104464 -0.087802485 0.0026475827 0.63826084 1.6320312 0.81665653 -0.116802245
0.9972299 -0.0029462765 0.048040442 -0.00554505 0.8549689 0.08416946 1.5487202 0.5744078
0.012540932 -0.05395312 1.285125 0.029831013 0.4748804 1.3051949 -0.07634854 -0.03348514
0.010395496 0.36689964 0.023089409 0.10185386 1.147745 1.0103476 0.95637923 1.4864488
0.09731634 -0.047481626 1.223473 -1.1483374 0.80659086 0.07277375 -0.019482676 -0.62639195
0.018681388 -0.061448097 0.048256226 0.79410225 -0.67146903 -0.022950983 -0.020017905 0.65203303
0.024857484 0.7321183 -0.14443341 0.50439215 0.59090495 -0.032490253 0.018822119 -0.02125297
-1.160569 1.2379123 0.6202922 1.5461783 -0.5804634 -0.0174364 -0.084115416 -0.011064401
-0.9625894 0.60044056 1.1236708 0.9190242 -0.019742683 -0.030598285 -0.0346006 -0.683855
0.63667876 0.3630296 0.08492168 -0.7853923 0.36828002 -1.2428523 -0.027514463 0.042030722
1.3940623 -0.053511556 0.95760685 0.7642851 0.068362206 0.059959624 1.5629187 -0.832282
-0.01583503 0.6335042 0.08124724 -0.79116386 1.0399306 -1.3104798 1.2353657 -0.24764252
-0.00607432 0.00044561314 1.2825383 0.81366754 -0.05893892 1.754542 0.022898449 0.7177832
0.015245291 0.5809179 -0.016929656 0.12552543 -0.05484123 1.1370667 1.0072112 1.1498142
-0.010886928 -0.089640014 0.01996747 -1.0140702 -0.022111531 -0.17323163 -0.056816544 0.41805962
-0.03275041 0.05780277 0.88455987 -0.0103787035 1.0943946 1.4174747 0.07572672 -0.5046287
-0.05308704 0.96141434 -0.07104611 0.020169005 0.6346807 1.5502814 0.77824223 -0.019121034
1.0002795 0.084102444 -0.02457468 -0.05479594 0.66258574 0.0013043275 0.73105556 -0.24169414
-0.06594532 -0.029631035 1.4106622 0.06351934 0.71720594 1.0131733 -0.049418792 -0.013878537
-0.040875882 0.33494824 -0.011732562 -0.049820464 1.1942668 0.95323557 1.092053 1.2139776
-0.010899593 -0.02230111 1.2633663 -1.1996276 0.84061164 0.03314679 -0.0105147455 0.7806541
0.025135454 0.05296034 -0.08076509 0.8104874 -0.6816064 0.038398627 -0.04743835 0.70097363
0.005156373 0.7472737 1.2942371 0.22925034 1.0390519 -0.038767636 0.015492433 -0.021618498
-0.7305033 1.3958395 0.56269103 1.7751772 -0.7440575 -0.0060263523 -0.039517645 0.041967828
-0.81138366 0.64236087 1.0972034 1.2645024 -0.08675413 0.05267042 0.02939334 -0.85382223
0.5459813 1.2096974 0.026879689 -0.80609864 0.3554898 -1.4178954 0.028253866 0.041475493
1.4589709 -0.054774277 1.0161022 0.839572 -0.070729405 -0.07932438 1.5364089 -0.7741051
-0.061926488 -0.3701389 0.063594334 -0.77578896 1.0810437 -1.0646807 1.1540333 -0.121099286
-0.010947139 -0.0044409395 1.2907974 0.9011177 0.013851081 1.9579974 -0.053326037 0.630454
0.003628111 0.5664457 0.075722285 -0.05663433 -0.042775456 0.94854236 1.1243505 0.97958624
-0.057847653 0.018427577 -0.03069181 -1.1029938 0.029578067 0.53118473 -0.0015229478 0.45326534
0.049347084 0.05877284 0.91391695 -0.029931499 1.2322277 1.7962158 -0.042632908 -0.63778263

net.4.bias f4 [6]
00000000: 4df1 373f 9813 6d3f dc95 1c3f 7caf 0b3f
00000010: 2323 853f 08de 293f
0.7185257 0.9260802 0.6116617 0.5456464 1.0401348 0.6635442
