rl/models/final_model_run4.pth (torch, 79489 bytes, 6 tensors)

net.0.weight f4 [128, 13]
000000 e8 43 e8 3d 08 6d 2c bf 78 a5 3a bf 54 db 27 bf
       0.11341077 -0.6735387 -0.72908735 -0.65569043
000010 07 59 87 3d dd c0 41 be c0 4b 26 3e af 2c 23 be
       0.066087775 -0.18921228 0.16239834 -0.15935014
000020 c5 62 26 bf c1 3b a0 bd e6 a3 09 3e 5e 78 de 3c
       -0.6499446 -0.07823897 0.13441429 0.027157005
000030 ac 9f 46 be d0 eb ee 3d 32 90 9b be d7 49 42 bf
       -0.19396847 0.116660714 -0.3038345 -0.7589392
000040 2f ee 05 bf fa 3c 0e 3f fa f0 7f be 12 62 33 3e
       -0.52316564 0.5556179 -0.24994269 0.1751788
000050 b2 14 a1 bd 65 f2 2b 3d 91 71 bd 3e 35 35 24 bf
       -0.078652754 0.041979212 0.37000707 -0.6414369
000060 46 fc 57 3d f5 cc a4 3e 21 c1 28 bf 32 fb a1 bf
       0.05273082 0.3218762 -0.6591969 -1.2654784
000070 1b 4b de be 79 aa b5 bf 40 65 d4 3e 40 f1 d0 3f
       -0.43416676 -1.4192649 0.41483498 1.6323624
000080 00 ed c7 bd 6b 6b 50 3f ee be b5 3e 34 dc 97 be
       -0.09762001 0.81413907 0.3549723 -0.2966019
000090 40 41 6d be c2 7b a9 bd c3 d3 6b be 89 e6 70 be
       -0.23169422 -0.08275558 -0.2303 -0.23525442
0000a0 31 fb 70 be e8 1f 69 3d 56 49 9b 3e b5 ba 4f be
       -0.23533322 0.056915194 0.30329388 -0.20286067
0000b0 6c 14 52 bf 0d a9 1a bf e6 44 36 3f bb 60 aa 3e
       -0.8206241 -0.604142 0.7119888 0.33276924
0000c0 a8 ce d0 3b 23 96 01 3f 1f 10 3b bf c2 5f ca be
       0.0063722916 0.50619715 -0.73071474 -0.39526182
0000d0 e6 be 75 bf 51 cf 62 3e 0d 44 33 be 04 44 8a 3f
       -0.9599441 0.22149397 -0.17506428 1.0802007
0000e0 fd 25 0b 3f b2 09 d3 3e ea 37 be 3d 91 46 5f 3e
       0.5435484 0.41218334 0.092880085 0.21804263
0000f0 b5 c4 55 bf d4 9f 5a be 07 51 d8 bd a4 f8 a3 3e
       -0.83503276 -0.21350032 -0.1056233 0.32025635
000100 38 d8 47 bf 59 4a 49 bf 7d 07 cf 3e ce 54 8e 3f
       -0.780643 -0.7862907 0.404354 1.111963
000110 95 e6 9d 3f c8 30 47 3f 3f 90 0d be a9 2e bd 3e
       1.2335993 0.7780881 -0.13824557 0.3694966
000120 f2 86 ef 3e 6c 03 93 bf 64 89 a8 3d 4f 5e c7 3e
       0.46782643 -1.1485419 0.0822933 0.3893914
000130 1e 33 c0 bc 22 a3 1e be 53 bc 80 be 04 52 e1 3e
       -0.023461875 -0.15491918 -0.2514368 0.44007885
000140 1c 40 c1 be 3d a4 9d 3f 77 a4 7c 3f 21 89 ec bd
       -0.37744224 1.2315747 0.98688453 -0.11549593
000150 9d 83 76 3f fd 08 c2 be 65 51 82 3e 6f 22 dc bf
       0.96294576 -0.37897483 0.25452724 -1.7198008
000160 9f 70 48 bd bf 89 7a bd cc 76 34 3b 57 05 98 bd
       -0.04893553 -0.06116652 0.0027536629 -0.074228935
000170 a2 fc 7f bf 25 15 36 40 7e 32 e4 bf b3 5c 06 bf
       -0.9999486 2.8450406 -1.7827909 -0.524852
000180 fc a1 88 bf 55 06 dd be b2 5e 6c bf bd 1d e9 bf
       -1.0674434 -0.43168893 -0.92331994 -1.82122
000190 85 a5 b4 3e 18 d1 fa be fb 3e c0 bf c5 4d 23 3f
       0.3528253 -0.4898765 -1.501922 0.6379054
0001a0 61 84 b8 3d 65 5f ef 3d 9c 00 8e 3e 8c db d1 3d
       0.09009624 0.11688117 0.2773484 0.10246953
0001b0 58 d9 d7 3d 49 8d 02 be 65 8f a8 bd 00 63 37 be
       0.10539502 -0.12749209 -0.08230475 -0.17908859
0001c0 54 69 60 3d 82 b5 70 bd f6 18 17 be 69 c9 34 3b
       0.05478795 -0.05876685 -0.14755616 0.002758587
0001d0 24 d6 b0 3d 96 cb d3 bc 59 f4 3a be b5 37 37 3e
       0.08634594 -0.025853913 -0.18257274 0.17892344
0001e0 d1 af d3 3d df fa 48 3d 0f ee 4a be de 73 75 be
       0.10336269 0.049067374 -0.19817375 -0.23969981
0001f0 0e 54 8b bc 46 40 b2 3c c9 5d 8a bd 31 b8 50 3d
       -0.017007854 0.021759164 -0.06756169 0.05095691
000200 8d 1f 5f be 8f 0b 83 3e 4e a8 9c 3f 2c 2c be bf
       -0.2178938 0.25594756 1.2238863 -1.485723
000210 93 98 90 3f 57 1c 0d c0 08 c5 6a bf 15 8b b7 3f
       1.1296562 -2.2048547 -0.91706896 1.433932
000220 de 0d 83 be 01 72 a3 3c f8 f5 9d 3e 73 ef 43 be
       -0.25596517 0.019951822 0.30851722 -0.19134311
000230 fb 92 0c be 40 74 ad bd 78 24 94 bd 56 5c 8f bf
       -0.13727944 -0.084694386 -0.07233518 -1.1200054
000240 38 3b c7 3e 89 e2 e3 bf 8a 0c c3 3f 3b ca 78 3c
       0.38912368 -1.7803508 1.5238202 0.015184934
000250 4d dc 3d 3d de c2 95 be 9b 0e 29 bf a2 af 33 be
       0.046352673 -0.29250234 -0.6603791 -0.17547467
000260 37 b7 7d 3f b2 2b 2d bf d6 5a 22 bf fc 83 de 3e
       0.9910769 -0.676448 -0.63419855 0.4346007
000270 f2 51 9d 3f d1 47 d2 3f 67 6d 82 3d 48 5f 1c 3f
       1.2290633 1.6428167 0.06368523 0.6108289
000280 73 69 b5 bf 63 d7 dc bf 2d 64 b6 bd f8 b7 46 3b
       -1.4172806 -1.7253231 -0.08905826 0.0030322056
000290 46 65 57 bd 00 1f 88 bd ec 2c 04 3d 36 1a 5b bd
       -0.052586816 -0.06646538 0.032269403 -0.053491794
0002a0 fe 61 e7 bb 4c 6e 24 bf bb fd 7f 3e f1 9c 3c bf
       -0.007061242 -0.642308 0.24999134 -0.73676974
0002b0 c7 7f ab 3e 4a d3 23 40 5a 04 a3 bf 3b 62 75 be
       0.33495924 2.559771 -1.2735703 -0.23963253
0002c0 57 74 2b be a5 5d 11 3f b7 a1 87 be 4d 8f 31 be
       -0.16743599 0.56783515 -0.26490566 -0.17339821
0002d0 b7 64 2f bf 74 f1 88 3e e5 f9 84 be 9d 42 36 be
       -0.68513054 0.26746714 -0.25971904 -0.17798848
0002e0 fb 8e c7 be 2b 91 74 be 59 08 95 3e 76 e5 b5 3d
       -0.38976273 -0.23883502 0.2910793 0.08881657
0002f0 46 a9 0c 3e 7b b5 30 3e 8a af df 3e d5 85 21 bf
       0.13736448 0.1725673 0.43688613 -0.63094836
000300 d6 32 b2 be 5e fe 33 be 6b db 65 bd 4d b3 d0 bd
       -0.3480441 -0.17577502 -0.056117456 -0.10190449
000310 a0 26 e0 bb 6d d8 81 bd d1 f4 69 3d c7 db 3a be
       -0.006840542 -0.06340108 0.05711824 -0.18247901
000320 8c e9 9a bd 75 5a 9f bd 8b e4 7c 3e bb a8 64 be
       -0.07564077 -0.07780925 0.24696557 -0.2232999
000330 28 2c 01 3e 4e 61 51 be 3a 96 fd bc b9 49 f0 bd
       0.126145 -0.20447275 -0.030955423 -0.117328115
000340 01 49 a9 3f bd 5e f6 3e c8 50 1c bf e5 a5 d6 3f
       1.3225404 0.48119155 -0.6106076 1.6769377
000350 8d b2 df 3e 9e f6 08 3e 79 d2 b3 be d7 e8 bd be
       0.4369091 0.13375327 -0.35121515 -0.37091705
000360 93 f1 ad be 8f 68 a1 be 0e 1a 4f bf 01 b8 fc 3e
       -0.3397337 -0.31525084 -0.8089913 0.49359134
000370 ae 2b b2 be c7 10 a7 be f3 68 0f bf 12 3a c4 3f
       -0.3479895 -0.32629988 -0.56019515 1.5330222
000380 10 8f 41 be e4 c2 f3 3e 55 10 34 bf 05 e2 1d bf
       -0.1890223 0.47609627 -0.7033742 -0.61673003
000390 41 0d 6f c0 db 36 1f bf f2 b5 8c be 71 42 ab 3e
       -3.735184 -0.6219308 -0.27482563 0.33449128
0003a0 c5 8f a3 3e 15 1f c3 3c b8 d3 4a be 3e 76 86 be
       0.31945625 0.023818532 -0.19807327 -0.26262087
0003b0 47 27 45 be bf 03 d5 3b d4 93 db 3d 59 7f f1 bd
       -0.19253264 0.0065006907 0.10721555 -0.11791868
0003c0 d6 bf f3 bd 89 d7 5b be 35 65 77 be 2a 85 b1 bd
       -0.11901824 -0.21468939 -0.24159701 -0.08667977
0003d0 5f 06 e2 bd a5 3a 37 be 3e 6c e0 bb f8 e6 2d be
       -0.110363714 -0.17893465 -0.006848841 -0.16982639
0003e0 14 09 87 bf 97 8e 41 3f e8 18 83 bf 84 a3 97 3f
       -1.0549645 0.756082 -1.0241976 1.1846776
0003f0 08 d4 1a 3f e3 96 53 bd 69 e3 86 3d 59 18 38 3f
       0.60479784 -0.05165757 0.06586344 0.7191215

net.0.bias f4 [128]
000000 d0 65 46 3f ae c5 0e 3f 5d 07 55 be 6a 35 ea be
       0.77499104 0.55770385 -0.2080359 -0.45743877
000010 f8 ec 4d 3f ee a7 e5 3e 32 03 c1 bd 71 ea bb 3d
       0.8043971 0.44854683 -0.094244376 0.091755755
000020 e1 e5 76 be c1 9d 5c be 8a 63 11 3e 1d a9 67 be
       -0.2411113 -0.21544553 0.14198127 -0.22623105
000030 32 15 95 3e 0d 8c ed be 1f c3 0d 3f db bc 70 be
       0.29117733 -0.46395913 0.55375856 -0.23509543
000040 ba 6b de be b3 54 76 3e bd 19 ac bd 81 14 05 3f
       -0.43441564 0.24055748 -0.08403347 0.5198441
000050 64 62 52 3e 86 02 9a 3d 61 80 a8 3e 58 b3 df bd
       0.20545346 0.075200126 0.32910445 -0.10922879
000060 51 9b 03 3f 0f bb 6f be 3d 51 71 3f 4b 7c 7c bd
       0.5140887 -0.23411201 0.94264585 -0.061641973
000070 03 fd 74 3f b0 7b 0d 3f 4e 2d a3 3d fa bd 98 3e
       0.95698565 0.5526686 0.079676256 0.2983244
000080 fc 5a 95 3e 6e c1 90 3e c9 c9 07 3f 90 39 3a 3e
       0.29170978 0.28272575 0.53042275 0.18186021
000090 d2 b5 05 be 70 b6 16 3d de 77 40 3e 31 c3 fa 3e
       -0.1305764 0.03679508 0.18795726 0.48977044
0000a0 36 5f 77 3d f4 0e 61 be ae 53 64 be 89 97 90 bd
       0.060393535 -0.2197836 -0.22297546 -0.07060153
0000b0 c0 94 72 3d b1 81 e3 bb 74 a8 3d bf 11 2a b8 3e
       0.05922389 -0.0069429507 -0.74085164 0.35969594
0000c0 4c 73 40 3e cc 0f 57 3c c0 5d 3b 3e 56 32 91 3e
       0.18793982 0.013126325 0.18297482 0.28358716
0000d0 dc 92 d0 3e 0d 35 3a bd c9 71 69 bc 70 9e fd be
       0.40737045 -0.04546075 -0.01424832 -0.4953494
0000e0 80 4c 0d 3f 56 74 e9 be be 20 26 bf 3c 42 2d 3f
       0.55194855 -0.4559657 -0.6489371 0.6767919
0000f0 f7 dc 6f be 41 15 ce bc 35 08 32 3f 53 6b 72 be
       -0.23424135 -0.025156619 0.6954377 -0.23673753
000100 57 71 c0 3e a5 27 5c be e2 65 af be 54 cc a0 3e
       0.3758647 -0.21499498 -0.34257418 0.3140589
000110 fd d8 80 be 5d 4e cb bd d2 23 a4 bd 03 a8 12 bf
       -0.2516555 -0.09927056 -0.08014645 -0.57287616
000120 cd c1 42 bc d8 0f 1e 3c bb a6 53 3f 73 e7 f3 3e
       -0.011887026 0.009647332 0.82676286 0.4763752
000130 37 d9 65 3f 3a fa 04 be 42 95 e5 3e fb 47 e1 3e
       0.8978457 -0.12986079 0.44840437 0.4400023
000140 6d 9a c1 be a5 7f 75 bf 05 74 61 be e5 ec a9 3e
       -0.3781313 -0.95897895 -0.22016914 0.3318855
000150 fc 0b 2b be e9 4f d3 3e bb 0c b3 bd 7f 34 73 3e
       -0.1670379 0.41271904 -0.087426625 0.23750494
000160 44 df 1a 3e 49 3f 4d 3e 37 9b d3 be a4 cc 86 be
       0.15124232 0.20043673 -0.41329357 -0.26328003
000170 51 e7 3c bc be 44 e4 be 1a 9c 8b be e3 e0 5d bd
       -0.0115297595 -0.44583696 -0.27267534 -0.054169547
000180 8f ba b1 3e 8e df 19 3e 95 23 57 3f c3 35 e2 be
       0.34712645 0.15026686 0.8403867 -0.44181642
000190 91 79 34 bf 90 ec 4b 3e f0 fa 0f bb 99 e6 6d be
       -0.70497996 0.1991446 -0.0021969639 -0.23232497
0001a0 7b 77 2a bf 4c 5f 9b bd 7b b2 46 be 5e 83 b7 3e
       -0.6658856 -0.07586536 -0.19404022 0.35842413
0001b0 7f d4 07 bf 73 de 2c 3d 43 36 bf bd a7 91 7b bb
       -0.5305862 0.04220433 -0.093365215 -0.0038386376
0001c0 df 0f 52 bd 53 18 7a 3f 8d 86 90 be a4 31 c4 be
       -0.051284667 0.97693366 -0.28227654 -0.38319123
0001d0 c3 e0 0b 3e 0f 7a cb 3d 7e 76 87 bd 99 8b 04 bf
       0.13659959 0.0993539 -0.066143975 -0.5177551
0001e0 47 99 89 be f5 b2 21 3f 44 78 2b 3d e1 91 c0 3d
       -0.26874754 0.6316369 0.04186274 0.09402824
0001f0 7d f5 c5 be 37 5e 7d 3f 66 ae 1f bf 89 b0 07 bc
       -0.38663855 0.98971885 -0.62375486 -0.008281835

net.2.weight f4 [128, 128]
000000 99 27 5c 3d 13 df a5 be 9f 66 2c c0 c8 fe 80 bf
       0.0537487 -0.32396755 -2.6937635 -1.0077753
000010 68 a2 33 be 8a 58 3f 3e e1 f9 80 bf ee 61 e6 bf
       -0.17542422 0.18686119 -1.0076257 -1.7998636
000020 2a 26 56 3b 51 14 59 bc 51 d7 0e 3f 8a f1 37 40
       0.0032676556 -0.013249473 0.55797297 2.8741174
000030 d4 9d 71 bf 11 51 a5 be 28 f3 d5 3d f9 72 4a 3d
       -0.9438145 -0.3228841 0.10446769 0.049426053
000040 4c 01 fe be 60 75 da bf 72 1b a0 ba fc 11 a1 bf
       -0.49610364 -1.706707 -0.0012215211 -1.2583613
000050 78 83 d7 3e 00 66 e4 bf 27 17 b0 bf 69 15 bd bf
       0.4209249 -1.7843628 -1.3757066 -1.4772159
000060 7b 82 3a 3f 3c 66 25 3d ce 7c 1d 40 d5 b8 a3 bf
       0.7285535 0.0403807 2.4607425 -1.2790781
000070 ab ba 10 3f 75 5c 9c bf 61 df ad 3f 26 bc 1a c0
       0.5653483 -1.2215716 1.3583795 -2.4177337
000080 3a cb 56 c0 13 29 3b 40 41 b4 1d c0 77 27 43 bf
       -3.356154 2.924382 -2.4641268 -0.76232094
000090 1f 29 59 3d 05 b3 a7 3d f2 ff 0b c0 ff 8e 36 be
       0.05301773 0.08188442 -2.1874967 -0.17827986
0000a0 65 96 34 c0 78 13 5e bd 64 97 82 3b 8e 36 de be
       -2.8216794 -0.054217786 0.0039853323 -0.43400997
0000b0 76 0d e4 bf be 52 94 bf 9a 6b 08 c0 f2 b5 a3 be
       -1.7816608 -1.1587751 -2.1315675 -0.3197475
0000c0 36 90 b7 3f 6b a9 91 bd 7e 75 9f bd d2 2d 6a 3e
       1.4340885 -0.07112392 -0.07786082 0.22869042
0000d0 13 b9 01 bd fe ef 89 3f 18 bd 06 c0 a3 33 15 3f
       -0.03167064 1.0776365 -2.1052914 0.58281916
0000e0 68 4b d1 3e 60 ed f1 3e 32 bf 20 c0 b6 75 6d bd
       0.40877843 0.47251415 -2.5116696 -0.057973586
0000f0 ec eb 6c 3e 76 1e ce bf ab 24 1d 3e 19 29 e3 bf
       0.23136872 -1.6103046 0.15346019 -1.7746917
000100 ca c2 f3 be c6 b7 2e 3d a4 a4 cd bf 7d 56 ea 3f
       -0.4760955 0.04265573 -1.6065869 1.8307644
000110 13 27 99 bf 77 44 af bd 60 a0 ba 39 98 9d 33 3e
       -1.196505 -0.085579805 0.00035596173 0.17540586
000120 70 42 5c 3f cf ae 4a c0 10 10 e6 3d 56 34 91 3d
       0.86038876 -3.1669195 0.112335324 0.070900604
000130 ac a7 66 3f d4 28 9b bd 38 22 44 3f 47 df 9d bf
       0.90099597 -0.07576147 0.76614714 -1.2333764
000140 c2 be 2b 3f a5 f7 05 bf 5f fe f5 3e 20 57 02 bc
       0.6708795 -0.52331 0.48045632 -0.0079553425
000150 eb 34 32 3f b0 79 8b bf 82 f4 73 bc a0 e7 a7 bf
       0.69611996 -1.0896511 -0.014889838 -1.3117561
000160 9a d5 8b bf 9e c4 18 3e 71 b7 f2 3f 05 3a bf bc
       -1.0924561 0.14918754 1.8962232 -0.023343096
000170 81 8f 73 bb 9e 7b e0 be 8b 2c 91 3d fa 4c 5f c0
       -0.0037164392 -0.43844312 0.07088574 -3.4890733
000180 79 a9 c8 3e 94 7c e2 3d aa 3a 70 3e 3e 0c 28 c0
       0.39191797 0.11058918 0.23459879 -2.6257472
000190 b9 b0 bc bf 37 3c 5c 3f 94 86 83 bf f2 92 26 be
       -1.4741431 0.8602938 -1.0275445 -0.16266993
0001a0 79 b8 40 bf b0 c1 80 bf 44 1c be 3e 86 a8 53 bf
       -0.7528148 -1.0059109 0.3713094 -0.8267902
0001b0 9b 1b c4 3f 1c 1a d4 be 63 15 41 c0 d1 03 0c c0
       1.5320925 -0.4142617 -3.0169303 -2.187733
0001c0 29 31 eb bf 3e f9 f2 3f 4d 89 88 3f 45 ac ad 3d
       -1.8374377 1.8982313 1.0666901 0.084801234
0001d0 21 94 60 bf 3d 0c 1f 3f 68 50 62 3d 89 ef ca bf
       -0.87726027 0.6212805 0.055252463 -1.585435
0001e0 82 19 9a bc c1 ed 6b bf 86 a2 be ba d9 0e 82 3f
       -0.018810991 -0.9215966 -0.0014544285 1.0160781
0001f0 cb 9e 59 bf 0e 6c b9 be 78 5f 9a bf 09 dc 21 c0
       -0.85007924 -0.36215252 -1.2060385 -2.5290549
000200 17 30 aa bc 54 a7 c4 bc c7 98 88 bc 1d c9 90 bd
       -0.020774884 -0.02400557 -0.016674412 -0.07069609
000210 e1 c7 81 3d 12 0d 9f bd aa 32 90 3d 84 c7 9a bc
       0.06336952 -0.07766165 0.070409134 -0.018893965
000220 48 db 50 3d 4f ca 09 3d ca 19 36 3d 1f a0 64 3d
       0.050990373 0.033640202 0.044458188 0.055816766
000230 5f 77 d5 3b ee c0 8e bd be 2a 7f bd 42 33 cb bc
       0.0065144743 -0.06970392 -0.06229662 -0.024804715
000240 24 f6 8f 3b d8 0d 98 3c e0 e6 9e bd 96 3d 59 3c
       0.004393356 0.018561289 -0.0775888 0.013259312
000250 e2 4b 86 3c 20 f8 1a bd 7b 82 c6 3c e8 8f 40 bc
       0.016393606 -0.037834287 0.02423214 -0.01175306
000260 5e 81 cd bc 97 7a 0a bd 83 18 2e 3d b8 5b 62 bd
       -0.025086101 -0.033808317 0.042503845 -0.05526325
000270 05 f3 c6 bd 83 e9 28 3d 47 fb 28 3d 12 41 48 3b
       -0.09714321 0.04123832 0.04125526 0.0030556363
000280 95 fd 27 bd d1 b2 10 bd f9 3e 90 3d af b0 9f bd
       -0.04101332 -0.035326783 0.07043261 -0.077973716
000290 63 e2 a5 3d f0 6c 11 bd d2 18 8e bd 98 d0 51 bd
       0.080998205 -0.03550428 -0.06938328 -0.05122432
0002a0 e6 7e 8f bd c6 4c 6c 3d 18 62 8e 3c 8d 2d 36 3d
       -0.07006626 0.057690404 0.01738076 0.044477034
0002b0 82 a6 f5 ba 15 f6 7f 3c 59 18 aa bd d5 db 36 bd
       -0.001874164 0.015622635 -0.08305425 -0.044643242
0002c0 c6 cf 38 3d 0b 14 b5 3c fb 80 85 3d 44 15 77 bc
       0.045120023 0.022104284 0.06518742 -0.015080754
0002d0 2f 62 b1 bd 57 59 1f bd 79 8a 49 3d 97 dd 5f b9
       -0.08661305 -0.03890356 0.049204323 -0.00021349486
0002e0 d0 ff 53 bd a0 39 93 bd 3d 6d 8f bd 2b a5 6f 3d
       -0.051757634 -0.071887255 -0.070032574 0.058507126
0002f0 73 22 99 bd 23 e7 1c bb 2d 69 88 3a a4 9f c8 3a
       -0.07477274 -0.002394148 0.0010407321 0.0015306366
000300 ce 1c 68 3c 52 f6 73 3b 26 0c 64 3c 34 15 8f bd
       0.014167024 0.0037225676 0.013918912 -0.06986466
000310 af 6d bf bd 36 28 4b bd d5 82 25 3d 05 21 10 bd
       -0.09347092 -0.049598895 0.040407974 -0.03518774
000320 a6 b1 ff 3c cf 84 da 3c ad 5f b7 bd 85 65 86 bd
       0.031212639 0.026674656 -0.089537956 -0.06562332
000330 ec 41 19 bd 99 90 cf 3a 18 14 a2 bd 82 bb d9 3c
       -0.037416384 0.001583594 -0.07913989 0.026578669
000340 b7 d4 09 bc 53 01 65 bc 96 4c 4c bd 25 46 58 bd
       -0.008412532 -0.0139773665 -0.049877726 -0.05280127
000350 94 b2 93 3d 9c bf 04 bb 85 92 8d 3d fd 76 3a 3d
       0.072117954 -0.002025581 0.06912712 0.045523632
000360 9e 35 16 bc 8d 8a 65 3d d6 1c 8d 3d 08 58 fd 3c
       -0.009168057 0.056040335 0.06890266 0.030925766
000370 8f 2e 88 3d 4a a9 6b bd 57 8f 29 bd 38 f5 27 3c
       0.06649505 -0.057534494 -0.041396465 0.010251336
000380 ea 57 76 bd 16 e3 48 bb b2 33 59 3c 86 ef 3d 3d
       -0.060142435 -0.0030652932 0.013256954 0.046371005
000390 16 00 71 bd 1b 07 80 bb ad 91 00 bd df 82 9c bc
       -0.058837973 -0.003907097 -0.031388927 -0.019105373
0003a0 1b 63 b9 bd c3 54 86 bc 2b a6 9b bd 33 22 88 3d
       -0.09052106 -0.01639784 -0.076000534 0.06647148
0003b0 d8 d0 d1 bd 67 f4 16 bd 7e 18 94 3d 6a a9 a8 3d
       -0.10244912 -0.036854174 0.07231234 0.08235438
0003c0 10 73 b6 bb 37 4b 25 bb b7 f5 27 3d 71 66 ec bc
       -0.0055679157 -0.0025221833 0.041005816 -0.028857442
0003d0 60 e6 7d bd 01 56 ad bd 14 ac a7 3d 3a d0 b4 bd
       -0.06198728 -0.084636696 0.08187118 -0.088287786
0003e0 26 50 d2 bc 97 48 a1 3d f6 56 0d 3c ef 94 7e bc
       -0.025672983 0.078751735 0.00862669 -0.015538438
0003f0 4c f8 a8 3d dc 99 14 bd 5e 2c dd 3c 17 6a 97 bd
       0.08250484 -0.036279544 0.026998695 -0.07393282

net.2.bias f4 [128]
000000 84 2f 1c 3f 8f 32 67 bd 36 11 1e bd c9 b2 37 bd
       0.61010003 -0.0564447 -0.038590632 -0.044848237
000010 3c 7d 89 3d f1 48 25 3d a2 a7 08 3f 98 d8 28 3d
       0.0671334 0.040352765 0.5338079 0.041222185
000020 e1 dc 7c bc 82 52 41 3f 14 2d c1 bd bf d5 a9 bb
       -0.015433521 0.7551652 -0.09432426 -0.005182951
000030 7a d7 c3 bd 5f f3 02 3c 11 46 67 3f 49 b6 83 3f
       -0.09562583 0.0079925945 0.9034129 1.0290004
000040 e6 f6 59 3f 5e 98 b5 bd ea 67 91 3e 76 8b 89 3e
       0.8514236 -0.08866952 0.28399593 0.26864213
000050 36 fd b2 bd 3d 0c 17 3f d7 d3 c6 bd 93 ee 16 3f
       -0.087397024 0.5900305 -0.09708374 0.58957785
000060 df 1b 92 b9 bd 18 74 3f 57 22 a6 3f 01 79 6f 3d
       -0.00027868056 0.9535025 1.297923 0.058465008
000070 20 ce c4 bb 4f 7f 84 3f 21 da 6c 3f 6c 85 ce bd
       -0.0060060173 1.0351351 0.9252034 -0.10084042
000080 31 51 25 3f 03 28 35 3f cc ec 96 bd 63 4a 37 3f
       0.64577013 0.7076418 -0.07369384 0.7159788
000090 ad f2 10 3f 92 40 82 3f 10 b4 94 3e 17 b3 2c 3e
       0.56620294 1.0175955 0.29043627 0.16865192
0000a0 d4 30 24 3f 86 1b aa 3e 1c 9c 83 3f e1 ac a7 3e
       0.64137006 0.33224124 1.0282016 0.32749084
0000b0 ea 55 30 3f 84 53 c3 bd 78 ed 73 3f 01 1f eb 3e
       0.68881094 -0.09537414 0.95284224 0.45922092
0000c0 ca 6b c5 3e f7 c8 c5 3e 75 ef 0d 3f e3 6c 04 3f
       0.385588 0.38629887 0.5544351 0.5172865
0000d0 1f 83 e3 bd 34 c1 e9 3d 9b 3a 82 3e f9 85 6c be
       -0.11108994 0.11413804 0.25435337 -0.23097982
0000e0 44 ed 63 bd a4 92 0c bf 03 aa ab 3c 19 51 36 be
       -0.055646196 -0.54911256 0.020955091 -0.17804374
0000f0 75 cb c6 bd 7f b4 88 bd a4 6f 9f 3f 99 be 4b 3f
       -0.09706775 -0.06675052 1.2455945 0.79587704
000100 b7 17 e8 3e c1 87 cf bd 5a d5 fe 3e 85 c9 03 be
       0.45330593 -0.10133315 0.4977215 -0.12869842
000110 b4 8e 4e be aa fd 9b 3e f7 d4 1e 3d 15 54 a1 bd
       -0.20171624 0.30466968 0.038777318 -0.078773655
000120 08 e5 94 3d 10 b3 cb 3d 9a 50 bb bd 1a f9 a9 bc
       0.07270247 0.09946263 -0.09146233 -0.020748664
000130 79 19 34 3f b4 9c 21 3f 63 90 9e 3f c3 04 9e 3e
       0.7035137 0.63129735 1.2387813 0.30863008
000140 79 3d b1 3c dd 35 b9 3c b1 d6 85 3a da 0d f1 bc
       0.021635758 0.022608692 0.0010211078 -0.02942555
000150 55 49 29 3f ce d9 3e 3f 7e 00 9f bb 5d cb 2f 3e
       0.6612752 0.74551094 -0.0048523536 0.1716742
000160 70 1e 8a 3f f6 b1 0d be 5d 50 69 bd e9 8f d5 bd
       1.0790539 -0.13837418 -0.056961406 -0.10427839
000170 60 54 10 bd cc 88 5f 3f b0 11 d7 3e a2 0a 20 3f
       -0.035236716 0.8731811 0.42005682 0.62516224
000180 a5 4d 29 3f ba db 20 bd 63 2f 2a 3f 9d 41 2c 3f
       0.661341 -0.039272048 0.66478556 0.6728762
000190 37 f0 a1 bd 41 87 0b 3e 35 5d ea 3c 74 13 1d 3f
       -0.079071455 0.13625814 0.028608898 0.6135781
0001a0 92 73 29 3d db a1 83 3f 5f b1 88 bd 06 fc ce 3d
       0.041369982 1.0283769 -0.06674456 0.101066634
0001b0 07 5c 49 3f 6a 5c 79 3f 90 db 6e bd 80 63 bc 3c
       0.7865605 0.9740664 -0.05831486 0.022996664
0001c0 b9 68 08 be 2a b8 05 3f 8a 63 44 3e f0 03 ee bd
       -0.13321199 0.5223414 0.19178596 -0.11621845
0001d0 50 7e cb bd 2e c8 8b 3d 1c bc 0f 3f e5 27 4d bd
       -0.099362016 0.068252906 0.5614641 -0.050086875
0001e0 37 b1 d8 3e d9 00 f8 bc be a0 16 3f 01 9d 38 3f
       0.42322704 -0.030273842 0.58839023 0.7211457
0001f0 c7 45 43 3f 7a 9d 83 3f 57 a0 a4 3f fa b0 59 bd
       0.76278347 1.0282433 1.2861432 -0.053147294

net.4.weight f4 [6, 128]
000000 8b 4c 79 40 71 3e f1 bb 04 f1 17 3f 9a 80 c1 bd
       3.8952968 -0.00736218 0.59352136 -0.09448357
000010 b6 67 fb bc 86 79 56 bd ce bc c8 3f 3e 14 16 bc
       -0.030689102 -0.052361988 1.5682619 -0.0091601
000020 5b 5b 94 bd 6e dc db 3f 37 7b 85 bd 6d 94 5b bd
       -0.07243987 1.7176645 -0.06517642 -0.053608347
000030 66 87 72 bd 48 f0 86 3b 27 f7 90 3f 04 10 ae 3e
       -0.059211157 0.004117999 1.1325425 0.33996594
000040 be c2 04 40 5a f5 9d bd 1d e0 0e 40 bc 7b 7e 40
       2.0743861 -0.07712813 2.2324288 3.9763021
000050 3f ed 23 bd bb 84 3b 3e 1b 95 86 bd 88 93 1c 3f
       -0.040021177 0.18312351 -0.06571408 0.61162615
000060 46 57 5e bc 25 a3 a6 c0 cb 39 dd 3f 08 d2 aa 3c
       -0.013570612 -5.207415 1.7283262 0.020852104
000070 ae 25 9a bd 68 1f 05 3f cf 6c b0 3f d6 c1 24 3d
       -0.07526718 0.5200105 1.3783206 0.04022392
000080 7e dc a3 40 c6 af 82 be 6a 94 5d 3d a5 b4 f2 3c
       5.1206656 -0.2552473 0.054096617 0.029627154
000090 fa 18 f9 3f b9 f3 93 3f 19 c1 ba 40 4e 87 00 3f
       1.9460747 1.1558753 5.8360715 0.5020646
0000a0 fb a7 53 40 d2 09 df 3f 1b d9 f6 3f 47 11 2b c0
       3.3071277 1.7424872 1.9285005 -2.6729295
0000b0 16 d5 b3 3f ee c3 2f bd 87 60 27 be e6 e0 7b 40
       1.4049404 -0.042911462 -0.16345416 3.9356017
0000c0 46 d9 09 40 c3 78 92 3f b0 77 ea 3f a0 1b 97 be
       2.1538863 1.1443104 1.8317776 -0.29513264
0000d0 00 73 00 bc 41 aa 03 40 07 60 4d 40 58 09 73 bf
       -0.007839918 2.0572665 3.208986 -0.9493613
0000e0 7e 02 83 bd 75 16 0c 40 f5 4b 83 bd f1 8e 22 bf
       -0.0639696 2.1888707 -0.06410972 -0.6349936
0000f0 62 9b 46 3b 57 3b 6b 3c 63 99 99 3f 17 3c 9e 3e
       0.0030305018 0.014357409 1.1999935 0.3090522
000100 32 03 2f 40 cb b9 7a bd 03 c1 29 40 b5 a3 54 bd
       2.73457 -0.061212342 2.6524055 -0.051913936
000110 78 11 ac bf 43 0f 43 40 45 93 71 3d e2 ef 32 bd
       -1.3442831 3.0478065 0.058978338 -0.0436858
000120 fc 02 5d 40 0d 6a 7d 3d 7e 2a 1c 3d 70 9c 62 3d
       3.4533072 0.061868716 0.03812646 0.05532497
000130 0b 5c f5 bd 51 f2 f9 3e 36 87 dd 3f 98 bc f1 3f
       -0.119804464 0.48817685 1.7306888 1.8885679
000140 71 31 95 3d 7c 0e 89 3c 1e 8e 08 bd 79 b6 8c 3c
       0.07284821 0.01673054 -0.03333866 0.017176853
000150 ec 39 53 3e 16 a4 1f 3f ca cf ea 3c 7c 7a 41 40
       0.20627564 0.6235975 0.028663535 3.0231009
000160 93 21 44 40 ce 7f 68 3e 62 6e 08 40 e6 a8 85 bd
       3.0645492 0.22705004 2.1317372 -0.065263554
000170 d9 df 09 3c 99 74 3d 40 4f 6c 5d 40 61 0d be 3f
       0.008415186 2.9602416 3.4597356 1.4847833
000180 52 ef 5b 40 9d 93 bb 3f 2a 4c ae 40 6c e9 5c 3e
       3.436482 1.4654423 5.4467974 0.21573418
000190 89 9b 3f 3d 0d 2d b1 3e e7 2c 50 bf b4 53 9b 3f
       0.04677919 0.34604684 -0.81318516 1.2134919
0001a0 24 8f 2b 40 ce e4 99 3e 60 7d 88 bd e5 b6 4c 3f
       2.6806116 0.30057377 -0.066645384 0.79966575
0001b0 40 84 0b c1 6c 38 93 3f ed d6 7c 3d dc 82 9a bd
       -8.719788 1.1501594 0.061728407 -0.07544491
0001c0 a3 39 ac bc c3 65 01 bf fd db 9a 3e 03 b2 7e 3c
       -0.021023577 -0.505459 0.30245963 0.015545371
0001d0 5a 75 68 3c 3e 7a 0a bd 3c 78 d4 3d ca 58 9b bd
       0.014188135 -0.033807985 0.103744954 -0.075852945
0001e0 a8 1b b1 3f f3 1d 9e 3a 6d 2f 1a 40 a2 23 0a be
       1.3836565 0.0012063369 2.4091446 -0.13490155
0001f0 73 0c 9d 3f 21 c6 48 3f ec f5 86 3f ea f2 ce 3c
       1.2269424 0.7842732 1.0543799 0.025262315
000200 84 27 70 40 be e6 a0 3d 61 19 09 40 29 2b 5a bd
       3.7524118 0.078565106 2.142174 -0.053263817
000210 87 18 5d bd 03 95 04 3d 4f 6a e0 3f 59 a5 7d 3d
       -0.05397847 0.03236867 1.7532443 0.061925266
000220 a4 27 2c 3c f4 e8 ca 3f f8 f8 b2 3c 79 86 c8 bc
       0.010507498 1.5852342 0.021847233 -0.024478184
000230 0e cb 6b 3d 95 4c bf bc 80 ad 82 3f f7 00 34 3f
       0.057566695 -0.023351947 1.0209198 0.7031397
000240 ee 25 f5 3f 80 a7 d4 bc ea 76 f9 3f 83 3e 4e 40
       1.91522 -0.025958776 1.9489415 3.2225654
000250 17 7e af bd ff db 19 bf 6e 1b 77 bc 21 94 5f 3f
       -0.085689716 -0.6010131 -0.015082223 0.873354
000260 b2 bc 9f 3d d8 36 a9 c0 2a 85 f5 3f 12 44 dc bc
       0.07799663 -5.287945 1.9181263 -0.026887927
000270 2e 04 d0 bc 7e f2 b4 3e 13 18 ba 3f 91 82 3a bd
       -0.025392618 0.35341257 1.4538597 -0.045534674
000280 ab b6 92 40 fd 96 cf 3e 3d 88 55 bd d7 13 8f 3e
       4.5847983 0.40544882 -0.05213188 0.27944824
000290 1a 1d d7 3f 29 30 c2 3f 09 9e b2 40 1e 8e e4 3e
       1.6805756 1.5170947 5.5817914 0.44639677
0002a0 b5 34 40 40 bd c3 b8 3f af ab 06 40 79 34 23 c0
       3.003217 1.4434735 2.1042287 -2.5500777
0002b0 1d 26 fb 3f cc ab 29 3d 38 18 f7 3e f0 0a 95 40
       1.9621006 0.041423604 0.48260665 4.657585
0002c0 1a b8 e9 3f ff 1b b0 3f 9c fa f1 3f ce 5f 97 bf
       1.8259308 1.3758544 1.8904605 -1.1826112
0002d0 9b 3b 4f bd cf 5a 7e 3f d3 0b 25 40 63 c5 93 bf
       -0.050593954 0.9935731 2.5788467 -1.1544613
0002e0 60 8a dc bd 03 c1 21 40 90 5a 28 3d 65 1c 1c bf
       -0.107685804 2.5274055 0.041101992 -0.60980827
0002f0 a3 bc a0 3d ab 29 92 bb 86 90 a1 3f aa 3b 60 3e
       0.078484796 -0.0044605336 1.262223 0.2189776
000300 aa 18 47 40 11 9e 6e 3c d6 1e 20 40 c1 44 00 bd
       3.1108804 0.014564053 2.501882 -0.03131557
000310 df 54 6e bf fe 2d 10 40 f5 8e 94 3d 28 37 55 3d
       -0.93098253 2.2528071 0.072538294 0.052054554
000320 6e 17 8b 40 75 cc 28 bf 22 0f 8f bc 97 8b 06 3d
       4.34661 -0.65936977 -0.01746327 0.032847967
000330 5a 28 ea b9 0b da 95 3e 07 1c da 3f 71 e2 0a 40
       -0.00044662022 0.29267916 1.7039803 2.170071
000340 fc 56 19 3d 75 11 00 be 82 fc 71 bc ca 35 45 bc
       0.03743647 -0.1250666 -0.014769675 -0.01203675
000350 7c 04 b2 be aa 3d 53 3f cf 29 df bc 6b cd 42 40
       -0.34769046 0.82515967 -0.027241616 3.0437877
000360 35 86 4e 40 25 84 ac 3f fe 89 e1 3f bf 46 61 bb
       3.2269413 1.3477827 1.7620237 -0.0034374443
000370 f9 e5 eb 3c 2e a3 3c 40 5d e1 4a 40 05 3e ca 3f
       0.028796183 2.9474597 3.170005 1.5800177
000380 42 9a 63 40 7c 47 7a 3f 37 f2 aa 40 42 93 9c 3d
       3.5562901 0.97765326 5.3420672 0.07645275
000390 94 71 68 bd 15 eb a0 bf 21 e4 77 bf eb d8 b4 3f
       -0.05674894 -1.2571741 -0.9683247 1.4128698
0003a0 b8 98 19 40 24 22 1a 3f 7d 92 2d bd 00 04 66 3f
       2.3999462 0.60208344 -0.04237603 0.89849854
0003b0 af a5 f0 c0 97 a8 b7 3f d8 ee 2e 3d 1f 68 57 bd
       -7.520225 1.4348325 0.042708248 -0.052589532
0003c0 a3 f5 93 bc d8 fa cf 3e d4 b0 93 bf 01 25 51 3d
       -0.018061465 0.40621066 -1.1538339 0.05106068
0003d0 ab cb 48 bd fa 87 a4 3c 6e d3 97 be 6d 7e 23 3d
       -0.049022358 0.02008437 -0.29653496 0.03991549
0003e0 28 d0 a5 3f 9b 53 d8 3c df b4 36 40 e1 13 9f be
       1.2954149 0.026407054 2.8547895 -0.31069854
0003f0 ff 54 c4 3f 0a 75 70 3f d3 ca 62 3f 9e 54 cb 3c
       1.5338439 0.9392859 0.88590735 0.024820622

net.4.bias f4 [6]
000000 86 cb 0a 3f 69 e4 29 3f c5 1e 99 3f 36 6e 26 3f
       0.542168 0.6636415 1.1962515 0.6501192
000010 c9 ce 8e 3f 71 2b 56 3f
       1.1156856 0.83660036
