rl/models/final_model_run3.pth (torch, 79489 bytes, 6 tensors)

net.0.weight f4 [128, 13]
000000 48 e0 2d 3e 95 43 b8 3d 40 d8 e9 3d 59 ed 90 3d
       0.16980088 0.08997265 0.114181995 0.070765205
000010 ba b0 85 bb d7 26 50 be ac 29 42 be b3 96 95 3c
       -0.0040799053 -0.20327316 -0.18961209 0.018260336
000020 6c 62 04 be fe 24 1a bd 6b 44 81 be 8c 59 de bd
       -0.1292817 -0.037632935 -0.2524751 -0.108569235
000030 42 bb e8 bd 90 55 95 3f 1f b6 0e c0 3e 31 74 3f
       -0.113638416 1.1666737 -2.2298658 0.9538764
000040 05 66 56 bc 26 12 26 3f 68 e5 92 bc 60 46 0f be
       -0.013085847 0.6487144 -0.017931655 -0.1399169
000050 55 50 83 3d 55 11 a9 3e 96 6d a5 bd 6f 36 90 bd
       0.064118065 0.33021036 -0.080775425 -0.070416324
000060 08 2f 21 3e db 0d b6 bd 6d fb d0 3e d0 4d fd 3f
       0.15740597 -0.088893615 0.40816823 1.9789371
000070 3a a6 ab 3e 3a e7 9f 3f 16 ba 4c bf d1 d1 16 bf
       0.33525258 1.249244 -0.79971445 -0.58913904
000080 49 b1 4c 3e 02 e1 82 3e 8c af a0 be 2d 8b 23 be
       0.19989504 0.25562292 -0.31383932 -0.1597106
000090 12 df 14 3e e2 38 f0 bd cc 67 df be e1 38 87 be
       0.1453822 -0.117295995 -0.43633878 -0.26410583
0000a0 ef 74 1e bf 6e cc b6 3f c0 d7 8e 3f 0a 1e 7d 3f
       -0.61897177 1.4281137 1.1159592 0.9887396
0000b0 db 02 fc be 9e 14 8a bf d9 be 85 3e 6e 96 19 3e
       -0.4922093 -1.0787542 0.26122168 0.1499879
0000c0 4d 8c ea 3d ea 47 e6 be 39 d5 58 bf 39 8e 0b bf
       0.114525415 -0.4497674 -0.8470035 -0.5451389
0000d0 15 25 d4 3d 33 c7 67 bd a7 c4 32 3f 96 86 6d bf
       0.10358635 -0.056586456 0.6983132 -0.92783487
0000e0 80 b9 8d 3f 5f e0 5c bf 3d 92 b7 bd 71 05 75 bf
       1.1072235 -0.86279863 -0.089634396 -0.9571143
0000f0 75 eb 9b bd 12 15 a4 bf 01 23 82 3f 1b 7c a9 be
       -0.07613269 -1.281893 1.0166932 -0.33102497
000100 e5 84 25 be cc e4 17 bf 17 3f 1a 3f d7 79 e4 bf
       -0.16163976 -0.5933349 0.6025252 -1.7849683
000110 0e d3 0d 3f bd 56 1a 3e 48 2e ba bf a5 eb 39 bf
       0.5540017 0.1507215 -1.4545374 -0.7262519
000120 07 a1 97 3e 71 cb b5 bd d7 0f 73 3e bf 0f 70 3d
       0.29615042 -0.08876694 0.23736511 0.058608767
000130 9f 82 3b 3f a3 90 8d be 2e eb 6f 3f 0a 4d 41 3e
       0.73246187 -0.27649412 0.9371823 0.18877044
000140 4a 52 11 40 71 53 e3 be 37 d8 ac be bc 20 62 bf
       2.2706475 -0.44399598 -0.3375871 -0.883312
000150 75 48 c8 be 6a ac 21 3d 5a 21 7f c0 e8 c2 1d 3e
       -0.3911778 0.039471067 -3.9864106 0.15406382
000160 e3 33 b0 3e 81 e6 86 3e f3 9d 35 be ea 83 14 c0
       0.34414586 0.26347736 -0.17736034 -2.3205514
000170 91 7e 5c 3f 0d 36 54 3f cf e3 86 bf 8c 1f 3d 3f
       0.86130625 0.82894975 -1.0538272 0.7387626
000180 96 4d 43 bf f1 d4 68 bc 58 73 b8 3e 64 90 2f bf
       -0.7629026 -0.014210925 0.360255 -0.685797
000190 02 ab 0c bf 10 42 e0 3e e5 52 78 be 60 f5 92 3d
       -0.5494844 0.43800402 -0.24250372 0.07175708
0001a0 7e b3 6d bf d8 cc b0 be 4e c6 44 bf b7 fc d0 3e
       -0.9285201 -0.34531283 -0.7686509 0.40817806
0001b0 15 de e4 3f 61 a9 ce be b4 60 ae be 39 1a d1 bd
       1.7880274 -0.403636 -0.34058154 -0.1021008
0001c0 3f d8 fa 3e 5d 77 fa be 63 f3 ff 3e c3 e6 41 3e
       0.48993108 -0.48919192 0.49990377 0.18935685
0001d0 df b7 7a be be 3a e6 3f 95 82 1c bf a4 e4 ec 3e
       -0.24484204 1.7986677 -0.6113675 0.4626819
0001e0 91 0b be bf f6 7d 8d bf 14 4d c3 3f 96 bc a8 bd
       -1.484728 -1.1054065 1.5257897 -0.08239095
0001f0 a1 1f 46 be bb 1d c6 be 24 08 05 3e f6 c9 f7 3d
       -0.19348003 -0.38694558 0.12991387 0.12099068
000200 40 eb c8 bc 53 d2 26 3e c0 dc fc 3c 3b cc 1c be
       -0.024526238 0.1629117 0.03086698 -0.15312283
000210 98 0e 55 be 23 ca 82 bd 99 ad f1 bd 4e 7d 86 3d
       -0.20806348 -0.06386211 -0.11800689 0.06566869
000220 b8 35 7a be 30 e2 01 3e c9 94 41 be 7b 11 4b be
       -0.24434555 0.1268394 -0.18904413 -0.19830887
000230 9f 20 86 be 23 e0 3e be 4d 34 0c be 71 ef 0e be
       -0.26196763 -0.18640189 -0.13691826 -0.13958527
000240 2f 85 04 3d 2c 30 45 3e 60 4d 41 be 7d 6e 67 be
       0.032353576 0.19256657 -0.18877172 -0.22600742
000250 98 50 52 3c 85 2e 76 be e4 51 86 be f7 92 38 3e
       0.012836598 -0.24041183 -0.26234353 0.18024813
000260 5e b7 09 3e 15 bc bd bd 93 82 e1 3c 58 9a 00 be
       0.13448855 -0.092643894 0.027528083 -0.12558877
000270 63 67 10 c0 da 9c 67 bf 7a 7a 8f bf c3 83 0c 40
       -2.2563102 -0.9047371 -1.1209252 2.195542
000280 9c 16 33 bf ce b5 14 3d c7 b0 51 bf 77 c5 58 3f
       -0.69956374 0.036306195 -0.81910366 0.8467631
000290 bb 8e c0 3d 99 b7 95 3f 0a 06 b2 3e 73 21 32 3f
       0.09402224 1.1696655 0.34770232 0.6958229
0002a0 6a 7e 97 be a7 2f 0e bf dc fa 06 bf d4 25 ad bf
       -0.29588634 -0.5554146 -0.5272653 -1.3527169
0002b0 86 3d 00 40 3a 91 0c 3f 53 09 95 3e ae 1b 9c be
       2.003755 0.549091 0.29108676 -0.30489868
0002c0 ba c0 92 3f 88 2b a2 3f 2f 80 99 bd ef 75 11 be
       1.1465065 1.2669535 -0.07495152 -0.14205144
0002d0 8a cc 79 3e 86 7e 00 bd 2a 11 98 3e b8 6d 17 be
       0.24394432 -0.031370662 0.29700595 -0.14787948
0002e0 80 17 b6 bf ac f6 26 3f cf e3 b7 be 85 15 42 3e
       -1.4225922 0.6522014 -0.35915992 0.18953522
0002f0 ac bb 49 bf f2 48 a5 bf 74 86 00 3e 02 09 e0 bd
       -0.7880199 -1.2912886 0.1255129 -0.10939218
000300 4f b1 c0 bf a0 72 a9 3e 02 f6 88 bf 4b a1 45 bf
       -1.505411 0.33095264 -1.0700076 -0.7719924
000310 9b df ac bf 20 31 87 bf a5 91 0d be f8 6e 8c be
       -1.3505739 -1.0561867 -0.1382509 -0.27428412
000320 89 84 04 bf fa 7c 4f be 21 93 1b 3f 6e d7 b7 3e
       -0.5176473 -0.20262519 0.60771376 0.35906547
000330 c2 90 f5 3c 40 be 64 be 9e 5a dc 3d 3d 5e e6 be
       0.029976252 -0.223382 0.10759471 -0.44993773
000340 8b 13 31 bf 7a 77 09 3f e7 50 10 c0 63 59 7e 3f
       -0.69170445 0.5369793 -2.254938 0.99355143
000350 b4 69 3c bd b3 36 64 bf a9 4e 32 3f cb ce 43 3f
       -0.045999244 -0.89145964 0.69651276 0.76487416
000360 07 6f 65 3f 02 5b 6b be 74 a4 a8 be 28 0f 8f be
       0.8962254 -0.22983935 -0.32937968 -0.2794125
000370 fd 25 8b be 7a e8 a8 3e 9c 18 e5 be 95 53 35 3f
       -0.2717742 0.32989866 -0.44745338 0.7083066
000380 10 eb 09 c0 ae 38 4b 3f 97 00 78 bf 8e c4 29 bf
       -2.154972 0.7938336 -0.968759 -0.66315544
000390 3c c8 13 3f 43 00 d5 be 06 18 f9 be 25 26 20 3f
       0.5772741 -0.41601762 -0.4865114 0.62558204
0003a0 28 53 f4 bd da 6b 05 be f4 0b 04 3e bf 94 da be
       -0.11929923 -0.13029423 0.12895185 -0.4269161
0003b0 ee 7c 31 3f a4 71 af 3f ee 71 bf bf 6c 96 20 bf
       0.6933125 1.3706555 -1.4956644 -0.62729526
0003c0 b2 ea 8b bf db ee ec 3e 56 45 1e bf e7 18 c5 3e
       -1.0930998 0.46275982 -0.6182455 0.3849556
0003d0 37 1c b3 be ef 5d a6 be 07 b9 84 3f 36 8d 73 3e
       -0.34982464 -0.3249354 1.0368966 0.23784336
0003e0 68 53 72 bf 6d 09 4a 3e 7c 99 32 bf 2e 56 01 3e
       -0.9465852 0.19730158 -0.6976545 0.12630531
0003f0 8b f7 c0 bf da a1 81 3f 94 3c a6 3d 6f eb 3e 3e
       -1.5075544 1.0127518 0.08117023 0.18644498

net.0.bias f4 [128]
000000 85 b4 e7 bd b3 18 f7 bd 79 67 ce be 7d 14 60 be
       -0.11313728 -0.12065258 -0.40313318 -0.21882816
000010 70 e6 ab 3e 4e 9b 6b 3e 18 1d e5 3e fb 53 19 3f
       0.33574247 0.23008463 0.4474876 0.5989377
000020 cc 55 4e be 23 a1 1c bf 47 0d a3 bd 05 50 15 be
       -0.20149916 -0.61183375 -0.07961517 -0.14581306
000030 be f8 67 3e 50 88 93 bf 89 b4 92 3e 21 6c a0 3f
       0.22653481 -1.1525974 0.28653362 1.2532998
000040 11 a2 ee be 5c 3b 39 be ec 0a bf bd 51 63 8d 3e
       -0.46608022 -0.1808905 -0.09328255 0.27614835
000050 55 cc e4 3e b3 d6 9e 3e 2b 82 69 3f c1 5f 46 3e
       0.44687143 0.31023178 0.91214246 0.19372465
000060 6e a1 9a 3e f1 bd 27 3d e5 27 5d 3f 56 74 8a be
       0.30201286 0.040952627 0.86389 -0.27041882
000070 43 0f 62 be 6d 94 ae 3d dc c5 02 3f ec 17 1f bf
       -0.22076134 0.08524404 0.5108316 -0.62145877
000080 70 4b bb ba 30 ad 25 3e ab 77 80 be ae 46 87 be
       -0.001428945 0.16179347 -0.250913 -0.26421112
000090 b3 ec 54 3e a2 88 58 3e 38 ff 4f be 2f 2e d4 3e
       0.20793419 0.21145871 -0.20312202 0.41441485
0000a0 4d 39 5b be 47 9a 02 bf fe 1e 2a be 88 05 ac 3e
       -0.21408577 -0.5101666 -0.16613385 0.3359797
0000b0 76 37 57 3f 88 88 f4 3e ca 35 d6 3d 36 7b 2f 3f
       0.84069 0.47760415 0.10459478 0.6854738
0000c0 b2 01 7d 3f 7d 2b ee 3e e3 f9 bb bd 57 54 3f 3d
       0.9883071 0.46517554 -0.091785215 0.046711292
0000d0 f8 03 95 be ff 83 30 be 9f c8 89 3d 16 14 f0 be
       -0.2910459 -0.17237853 0.067277186 -0.46890324
0000e0 88 8c d6 be 1a e2 2f 3d e1 d0 12 3e dd 18 13 be
       -0.41904092 0.042940237 0.14337493 -0.14364953
0000f0 be c3 d2 be 60 e8 2c 3d 80 e9 07 3e 74 4f e2 3e
       -0.41164964 0.042213798 0.13272667 0.44201243
000100 cb e7 99 3b 36 65 7f 3f df 45 f9 bd 93 bf 81 be
       0.0046968213 0.9976381 -0.1217153 -0.25341472
000110 49 6c 3e be 8c 1c c9 3d ff 2e 02 be 20 ce 62 be
       -0.18595995 0.09819898 -0.1271324 -0.22148943
000120 23 63 62 be 06 72 15 3f 48 37 6b be 1a cc 7f 3f
       -0.2210813 0.5837711 -0.22970307 0.9992081
000130 95 ec 6e be a4 2b e0 be 2a cb d9 be 15 26 8a bf
       -0.23332436 -0.43783295 -0.42537814 -1.0792872
000140 a2 11 36 be 65 68 80 be 31 a8 af 3e b0 ed ef be
       -0.17780164 -0.25079647 0.34308007 -0.4686103
000150 93 5b 05 bf 5b 67 af bd de 58 cb bc c6 a2 34 3e
       -0.52092856 -0.08564635 -0.024822649 0.17640218
000160 d3 0e 55 be ec 01 cb 3b d6 b0 17 3f 55 96 66 be
       -0.20806436 0.0061952975 0.59254205 -0.22518285
000170 42 a3 82 be 13 44 8d 3d f3 b4 8a be 17 d9 59 3f
       -0.2551518 0.0689775 -0.27091178 0.8509688
000180 79 0c 79 3e d5 bd 99 3e 07 b7 09 be 62 75 b7 3e
       0.24321164 0.30027643 -0.13448726 0.35831743
000190 1d 6b a0 3d ab 59 8c be 8f da c7 be f1 7c 8b 3e
       0.0783293 -0.2741216 -0.39033934 0.2724376
0001a0 34 fc 1e bd 8a 90 4d 3e aa 10 f8 be ec d3 50 bc
       -0.03881474 0.20074669 -0.48450214 -0.012745839
0001b0 bc e2 62 be 1d e4 c9 3e 6a df 6e be c2 b2 9d bd
       -0.22156805 0.3943185 -0.23327413 -0.07700111
0001c0 62 8d 41 3e e1 f4 43 3e ae 02 0a 3e 80 eb 81 be
       0.1890159 0.19136383 0.13477585 -0.25374985
0001d0 1c 9f 21 be a6 73 96 3f 0e b8 7c bd d1 aa 66 be
       -0.15783352 1.1754043 -0.061698966 -0.22526099
0001e0 aa 88 9e be 5d b8 d9 be 6d 5a 28 3d 2a 14 92 3d
       -0.3096364 -0.4252347 0.04110186 0.07132752
0001f0 fb f7 9c be e3 67 a6 3e e7 a3 f2 be b2 1a 1c be
       -0.30657944 0.32501134 -0.47390673 -0.15244558

net.2.weight f4 [128, 128]
000000 27 d7 a2 bd 98 09 4b 3d 28 d8 8a bc f7 c3 c5 ba
       -0.07951193 0.049569696 -0.016948774 -0.0015088309
000010 3a 5d 98 bc b1 38 97 bd 73 9c fc 3c ec 0d 3b bd
       -0.018599141 -0.0738386 0.03083632 -0.045667574
000020 51 a5 c2 bd 17 3f 1f 3d c0 e7 23 bd 0b 79 38 3d
       -0.09504188 0.038878527 -0.040015936 0.04503731
000030 8d 47 ed bc 01 e1 d0 bd a1 4f 99 3b 77 76 98 bd
       -0.028964782 -0.10199166 0.004678682 -0.074444704
000040 9e 6f d6 bb 17 ad 36 bd 33 9c ff bb a2 4b 50 bd
       -0.0065440675 -0.044598665 -0.007800603 -0.05085338
000050 f9 9d 8b 3d c3 4b 51 bd 2c 50 23 3d e7 a0 17 3d
       0.0681724 -0.051097643 0.03987138 0.037018683
000060 6f 78 1b 3d 52 4c 82 3d 78 84 aa bd 88 3e 90 3b
       0.03795665 0.06362213 -0.08326048 0.0044019856
000070 ac 5e 7d 3d 12 b3 a7 bd dd aa c4 3c bf d8 75 3a
       0.061857864 -0.08188452 0.024007255 0.0009378306
000080 90 d5 60 bc e6 0f 22 bc 22 4b 94 bd b2 6a bb 3c
       -0.013722792 -0.009891486 -0.07240893 0.022878025
000090 a6 85 57 3d 72 16 82 bd 3d ff 14 3c 26 54 a1 bd
       0.05261769 -0.06351937 0.009094057 -0.07877378
0000a0 e3 06 68 3d 4f 5e c2 bc 39 ca 6e bc 15 be 28 ba
       0.056647193 -0.02372661 -0.014574581 -0.0006437016
0000b0 b3 b4 f4 bc 58 2b af bd d9 89 69 bb 8f e6 a7 bd
       -0.02987132 -0.08553189 -0.0035635142 -0.081982724
0000c0 59 5b c6 bd 6a a8 97 3a 31 d3 35 3b 38 7c 8d 3c
       -0.09685392 0.0011570577 0.0027744288 0.017271146
0000d0 1f ca b9 bb 03 bc ad bd a3 ac 08 3d 70 8a 3b bd
       -0.0056698467 -0.08483126 0.033367764 -0.04578632
0000e0 e8 d4 8b 3d d3 4a 30 bc 11 73 3c 3d 73 3d cf bc
       0.06827718 -0.010760027 0.046008173 -0.025297856
0000f0 0c 45 f3 3c 34 92 ab 3c 2d 45 11 bc 8e 90 2c bd
       0.02969601 0.020943739 -0.00886659 -0.042130046
000100 bb c1 f5 3c 9f ca c0 3c cd aa 72 bd 9a f3 04 3d
       0.029999604 0.023534117 -0.05924492 0.03245888
000110 d6 d6 92 bc 93 8e 34 3d ca 1b 50 bd eb 30 71 bc
       -0.017924707 0.044081282 -0.05080775 -0.014721136
000120 96 f1 af bd 2d 90 5a bd 7e 01 cc bb ee a7 92 bd
       -0.08591001 -0.053360153 -0.006225764 -0.07160936
000130 1d 4e 7a 3d b4 93 12 3d 2b 19 1c bd c0 04 44 bd
       0.06110965 0.035785392 -0.03810994 -0.047856092
000140 3d 2c a0 bd ec a8 33 bd d2 91 a4 3d 83 4d a4 3d
       -0.07820938 -0.04386227 0.080356255 0.08022597
000150 31 4f c4 bd 69 ba 8b bd a1 c2 ec bc f5 fc 69 3c
       -0.09585417 -0.06822664 -0.0289014 0.014281501
000160 c0 b8 57 bd c2 e6 2f bc a0 b8 17 bd 29 3c 9d bd
       -0.052666426 -0.010736169 -0.037041306 -0.0767749
000170 6b 90 95 bd bc 2c fe bc 09 4c 2d bd 24 1f d2 bd
       -0.07302936 -0.03102719 -0.04230884 -0.10259846
000180 52 36 91 bd 7c bb 11 3c 27 76 31 bd 31 a2 db 3c
       -0.07090439 0.008894797 -0.04332557 0.026810737
000190 fe e0 06 3d 9a ad ae bd d5 e1 94 3d 34 78 b2 3b
       0.032929413 -0.085292056 0.072696365 0.0054464582
0001a0 a1 d5 86 3d 51 98 ed bc 09 90 c0 bc f5 6d 3d 3d
       0.06583715 -0.029003294 -0.023506181 0.04624744
0001b0 60 d9 66 bc f0 f7 b3 3d 08 62 9e 3c e2 af 97 bd
       -0.014089912 0.08787525 0.019333854 -0.07406594
0001c0 8b 4e 6b 3c 95 c5 81 3d ba 0d c5 bc 3a d7 15 bd
       0.014361988 0.06336514 -0.024054397 -0.03658221
0001d0 8a 78 24 bc 9d e8 a1 bd 92 89 6e bc fb 6a 6c 3d
       -0.010038504 -0.079056956 -0.0145591665 0.057719212
0001e0 28 f9 c6 3c 54 ba 5b 3d da d8 e1 bb 8d 24 15 bd
       0.024288729 0.053644493 -0.006892306 -0.03641181
0001f0 ee 03 08 bc 23 b4 3d bd 01 48 6c bd 71 22 8c bd
       -0.008301718 -0.04631437 -0.057685856 -0.06842507
000200 d6 85 ae 39 54 5d 24 3d e7 0a ae be 3a 28 90 be
       0.00033287582 0.040128067 -0.33992693 -0.2815569
000210 5d fb 02 40 84 19 cf 3f c0 fd d6 bf a3 1b 4e 40
       2.046592 1.6179662 -1.6796188 3.2204368
000220 d1 aa 3e be 39 3d b8 be 04 de 92 3c 12 98 9c 3d
       -0.18619849 -0.3598421 0.01792813 0.076461926
000230 c1 a6 c9 bf bc 55 24 3e 17 11 e8 3e 49 94 47 be
       -1.5754014 0.1604833 0.4532554 -0.1949016
000240 18 51 77 bf 1b f0 58 3f 22 3d d7 3f d0 29 b9 3e
       -0.96608114 0.8474137 1.6815531 0.36164713
000250 db 5c a1 3e 46 57 29 3f ed c3 13 3f 0e 2a 9a 3f
       0.31516156 0.66148794 0.57720834 1.2044084
000260 e2 ac 7f 3f 1d 7b 8d 3d 12 1b 41 3d df 6e c4 bb
       0.99873173 0.069082476 0.047144957 -0.005994662
000270 f9 96 ac bf ac ed 24 bf fc 31 aa bf a2 63 07 bf
       -1.3483573 -0.6442516 -1.3296504 -0.528864
000280 db 14 6e 3e b7 ea 29 bf 13 07 c5 bc 8a 1f 27 bd
       0.23250143 -0.6637377 -0.024051225 -0.040801562
000290 b8 82 60 bf 84 b2 15 3f 61 99 71 bd 58 63 99 bf
       -0.8769946 0.5847552 -0.058984164 -1.1983442
0002a0 80 23 89 be b3 f3 78 3e 94 c4 0d 3f 4e 25 ef be
       -0.26784897 0.24311714 0.5537808 -0.4670815
0002b0 e8 66 dc 3e 9c af fc 3e 03 14 8b be 83 02 21 bf
       0.4304726 0.4935273 -0.27163705 -0.6289446
0002c0 2d 1d 41 3e 73 b1 20 3e ab e3 fb 3e c9 8d 8d bc
       0.18858786 0.15692692 0.49197134 -0.017279522
0002d0 6a 28 9e 3d 73 55 c6 bd f0 79 83 3f 90 bb 5e be
       0.07722552 -0.09684267 1.0271587 -0.21751237
0002e0 f0 f7 ec be 63 62 90 bd c0 e5 30 c0 c5 6c a7 3c
       -0.4628291 -0.07050016 -2.7640228 0.020437608
0002f0 97 95 9e bf 87 06 8b bf 25 34 e0 3c 41 de 0d c0
       -1.2389401 -1.0861367 0.027368614 -2.2166903
000300 a6 a2 41 bf f9 9a ae 3d 46 1a 37 3d d0 14 83 3d
       -0.75638807 0.085256524 0.04470279 0.06400454
000310 3e b5 a4 3c 68 db 22 c0 07 c0 da b9 29 a4 0f bc
       0.020105954 -2.5446415 -0.00041723272 -0.008767166
000320 c4 7f 35 3d ae 91 c6 bf 2b e3 48 3d 60 12 73 bd
       0.0443113 -1.5513208 0.04904477 -0.059343696
000330 70 c8 0c 3c f3 31 a5 3f 09 5d cb be 3a 04 81 3f
       0.00859271 1.2905868 -0.39719418 1.0079415
000340 24 c9 15 3f 2d 17 94 bb 04 be b5 3e 78 f4 bf 3e
       0.5851004 -0.0045193643 0.35496533 0.37491202
000350 24 20 9b 3e 8d 5e a5 bf 08 b4 94 bf b4 86 9c 3e
       0.3029796 -1.291948 -1.1617441 0.3057152
000360 b1 82 11 bf 14 0a 40 bf ca c3 89 be f4 fb 29 3e
       -0.56840044 -0.7501538 -0.26907188 0.16600019
000370 9f 48 35 3d 2c 6b 86 3e 1b 0c 3d c0 6d 66 cf 3c
       0.04425871 0.2625364 -2.9538639 0.025317395
000380 a2 27 b5 bd 60 0c 54 3e 75 55 85 b8 5c 32 cd 3c
       -0.0884545 0.20707846 -6.357852e-05 0.025048427
000390 a5 83 00 3f 4d d0 f0 bc e1 d6 c2 3f 99 18 6f 3f
       0.50200874 -0.0293962 1.5221826 0.9339691
0003a0 cd 2b 23 bf 37 4f 2e 3f 0d 92 3f bf f0 72 ea bf
       -0.6373871 0.6808962 -0.7483223 -1.8316326
0003b0 5c 54 c7 bc e4 db d8 3f d6 aa 49 3d bd f5 9d bd
       -0.024332218 1.6942105 0.049235187 -0.077128865
0003c0 a1 6c ac 3e c9 40 08 c0 6d 2d 72 3d 7e bf 55 bd
       0.33676627 -2.1289542 0.059125353 -0.052184574
0003d0 57 59 ae 3e 7d ce b0 3e 47 0a 86 bd 8f 6e 64 bd
       0.34052536 0.34532538 -0.06544929 -0.0557695
0003e0 52 eb 6d bf 09 00 df be 1e 06 8b bf 70 6e 96 3e
       -0.92937195 -0.43554714 -1.0861242 0.29381132
0003f0 e6 04 a7 3f 16 10 58 3f 43 6d 55 bf 83 1d 66 3f
       1.304837 0.84399545 -0.83369845 0.8988878

net.2.bias f4 [128]
000000 cf be b8 bd d4 56 31 3f 55 f4 e6 3e 7e ba 26 3f
       -0.09020769 0.69273114 0.45108286 0.65128314
000010 b2 29 6c bd 65 16 88 3f 7f 14 7f 3f 8b e3 90 3f
       -0.05765695 1.0631834 0.9964065 1.1319441
000020 40 91 bd 3f 67 1f b4 3a 2c 74 7d bd 7a e8 a4 3e
       1.4809952 0.0013742269 -0.06187837 0.32208616
000030 3f 90 b5 bd f5 8e 17 3f 76 d0 85 3f ab a6 3b 3f
       -0.088654034 0.5920251 1.0454242 0.7330119
000040 0f d1 93 3f ed 4f a7 bd cd 85 97 3f 43 3d 02 bd
       1.1548175 -0.081695415 1.1837708 -0.031796705
000050 9d be 0d 3f 47 a9 98 3e 3a 56 8e 3b 36 3a a7 3e
       0.5536898 0.29816648 0.004343775 0.326616
000060 64 aa c3 3e 21 d4 89 3f fb c3 f7 3e af 1a 71 3f
       0.38215935 1.0767862 0.4839171 0.9418134
000070 91 a3 9e 3f f8 31 91 3f 36 d5 bb be e3 d1 94 3f
       1.2393667 1.1343374 -0.36686105 1.1626552
000080 fb dc 52 bd b1 93 c0 bc e5 bb 92 3f 00 31 7a 3f
       -0.051480275 -0.023507925 1.1463591 0.9773102
000090 2f 0d 34 3f 55 08 b6 3d 1a 1d d1 3e 65 7f a1 bd
       0.70332617 0.08888308 0.40842515 -0.07885627
0000a0 e0 b4 ea bd 76 75 2b bd 18 43 aa 3c 28 ec 62 bd
       -0.114602804 -0.041860066 0.020783946 -0.055400997
0000b0 50 83 a9 bd 2e ea cb bd 67 5b b1 bd fa 9e 10 3f
       -0.08276999 -0.099567756 -0.08660012 0.5649258
0000c0 02 f1 39 bd 76 9d 45 3f c5 43 16 3b 54 05 be 3f
       -0.04539586 0.7719339 0.0022928577 1.4845376
0000d0 11 89 70 3f 53 8d 9c bd 32 4e e2 bd d7 0a 19 3f
       0.93959147 -0.07644143 -0.11050071 0.59782165
0000e0 63 b1 7b 3f d2 7f 5d bc 9c 75 8a bd 1e de 87 bf
       0.98317546 -0.013519244 -0.067607135 -1.061466
0000f0 85 c0 4f 3f 26 a9 21 3f 15 f8 a7 3f 80 99 3d 3d
       0.81153136 0.63148725 1.3122584 0.046288967
000100 8d b4 84 3f 9f b6 82 3f c5 a6 67 3f f4 af 2b 3f
       1.03676 1.0211982 0.90488845 0.6706536
000110 96 59 c6 3e ae 10 6e 3f ea 5c ed bd 6b 03 b4 3e
       0.38740224 0.929942 -0.115899876 0.35158858
000120 ba 76 4d bc eb ee 5e 3f ac 40 cf bd d5 b6 6b bd
       -0.012540514 0.8708331 -0.10119757 -0.05754741
000130 e2 86 88 bd 04 28 c4 bd 1a b3 bc bd 18 15 e6 bc
       -0.06666352 -0.09577945 -0.092138484 -0.02808623
000140 97 94 3f ba 08 32 20 3f 04 85 0a 3d 1d 18 33 3f
       -0.00073082134 0.6257634 0.03381826 0.6995867
000150 8e 0d 64 3f 99 37 ca 3c bf e7 90 3f 37 e2 d0 bd
       0.8908318 0.024684714 1.1320723 -0.10199397
000160 3d 5b 44 3f f9 a4 92 3f a6 98 43 3d a5 4c df ba
       0.7670172 1.1456596 0.047753 -0.0017036392
000170 9f 09 fa 3c ea 7a 01 be 37 eb 94 bd 90 35 97 3f
       0.030522166 -0.12644544 -0.07271426 1.1813221
000180 40 fc 75 3f e7 76 41 3d a9 7d 56 3f 29 3f 48 3f
       0.9608803 0.047232535 0.8378549 0.78221375
000190 83 1a 8f 3f 2f 6d 6e bd 2a 9b 0c 3f 3b 95 0e 3d
       1.1179966 -0.058209594 0.5492426 0.034810286
0001a0 e9 71 0a bd 90 8e e6 bd 0c c5 75 bc 1f 89 fd bc
       -0.03380004 -0.112576604 -0.015000593 -0.030949173
0001b0 92 c0 3a 3f 3c 1b ea bd fe 82 9e 3f 1b 5f ac 3f
       0.7295009 -0.11430976 1.2383726 1.3466524
0001c0 9b 0c 43 3e 4a 88 9b 3f 86 98 8f 3f 1f 41 1d bd
       0.19047777 1.2150967 1.1218421 -0.038392182
0001d0 36 45 7e 3f a1 4d 5a 3f 9b 6e 4e bd 9e e2 9b 3f
       0.9932436 0.852747 -0.05039845 1.2178533
0001e0 2a 65 80 3f 7a 16 93 3e 5d 7f 96 3f c0 58 04 3a
       1.0030873 0.28728086 1.1757618 0.0005048625
0001f0 2a 28 14 3e 40 d3 49 3d fc 9b 6a 3f c1 b5 77 bd
       0.14468446 0.04927373 0.91644263 -0.06047607

net.4.weight f4 [6, 128]
000000 fb ea 90 bd 30 53 c0 3f 09 29 19 c0 fa 3f 87 40
       -0.07076069 1.5025387 -2.3931296 4.2265596
000010 27 cf 9e 3d d7 76 d3 3f 02 97 c7 3f 6c 9a a0 3e
       0.07754355 1.6520642 1.5592959 0.31367815
000020 c6 7d 5e 3f f2 70 8e bd ef 73 04 3d 6e c5 20 40
       0.86910665 -0.06955136 0.032337125 2.5120502
000030 6d 56 5a 3b 54 e4 b4 c0 dd a3 df 3e c4 0e ba c0
       0.0033315674 -5.652872 0.43679705 -5.8143024
000040 e2 2f 6e 3f 77 fb 90 bd 46 16 d4 3e cd 63 5d bd
       0.93041813 -0.07079213 0.41423243 -0.054050256
000050 55 97 2f 40 18 ce 6c 40 a4 74 a6 bf 59 6b 24 40
       2.7436116 3.700079 -1.3004346 2.569052
000060 b8 03 91 3f 76 f0 92 3e 29 8a 40 40 ad 41 93 3e
       1.132926 0.28699082 3.0084326 0.28761044
000070 9f 9f 24 3f 12 0e 50 3e 26 70 2b 40 4a 0e 8d 3e
       0.6430606 0.20317867 2.67872 0.27549964
000080 8a 4c b2 3b 7c bf 34 bd 8c 59 f7 3e 83 c6 48 3f
       0.005441253 -0.044127926 0.48310506 0.78427905
000090 f5 b8 76 40 5e e9 8b 3f d0 01 85 bf 20 a9 9c bd
       3.855039 1.0930593 -1.0391178 -0.076494455
0000a0 ba bf a1 bd 16 18 90 3c 15 42 ae 3e ef 80 bf 3c
       -0.07897897 0.01758961 0.34034792 0.02337691
0000b0 9c d2 7e 3d b4 d7 43 bd b5 44 9b ba c8 0d 74 40
       0.06221257 -0.047813132 -0.0011846038 3.8133411
0000c0 24 d2 12 bd 27 22 2e 3f 09 56 7a bd b1 c6 c5 3f
       -0.035844937 0.6802086 -0.061117206 1.5451261
0000d0 16 25 31 3e d7 57 83 3d 7e 9c 91 3f 8e d2 68 c0
       0.17299303 0.064132385 1.1375883 -3.6378512
0000e0 71 31 0b c0 95 af f1 3d ff e1 81 3c a0 e3 a5 bf
       -2.1748927 0.11801068 0.015854834 -1.2960091
0000f0 74 49 b0 40 61 a4 11 3f 8f 39 1e c0 8a 01 74 3f
       5.5089664 0.5689145 -2.472263 0.9531485
000100 fb 38 c0 3e 17 53 c9 3e 1d 26 d9 3d f8 2b 14 3f
       0.37543473 0.39321205 0.10602973 0.5787959
000110 1f 99 94 40 19 58 ee 3f 84 36 87 3d 02 91 3a c0
       4.6436915 1.8620635 0.06602195 -2.9151006
000120 ff 91 13 bd d2 d6 eb 3d 97 6f 26 3d 83 af bd bc
       -0.036027905 0.11515583 0.040633764 -0.02315498
000130 61 f2 94 3c a0 bc 0e bd 5e 69 57 bd 25 5a 88 bd
       0.018181982 -0.034847856 -0.05259072 -0.06657819
000140 1d 6a 89 3d ed 97 00 40 fc 00 a4 3d 63 35 fa 3f
       0.067096926 2.0092728 0.08008 1.9547542
000150 b4 cb cc 3f a2 ed 95 ba f1 af 8b 40 bf a7 26 40
       1.5999665 -0.0011438618 4.365227 2.6039884
000160 98 a8 3c c0 8c 83 0f 3f 87 29 7c bc cc b2 1e 3d
       -2.9477901 0.560601 -0.01539076 0.038744733
000170 3b db a8 3c 03 dc 15 bd 00 47 f2 3c 2b bc 08 3f
       0.02061235 -0.036586773 0.029574871 0.5341212
000180 5e 55 4d 3e fe eb 96 3d eb 2c dd 3e 7a 5c 02 40
       0.20052096 0.07369231 0.43198332 2.0368943
000190 8d 8a 7e 3f 6d 59 f3 bf 21 84 03 c0 60 03 42 bd
       0.9943016 -1.9011666 -2.0549395 -0.0473665
0001a0 d9 38 58 3a 2e 95 9d 3d 20 37 0e ba 42 bc a9 bc
       0.0008248217 0.076944694 -0.00054250844 -0.020719651
0001b0 15 84 af 3e a1 52 ac 3d c8 b0 64 3f c5 69 de 3e
       0.34280458 0.08414198 0.89332247 0.4344007
0001c0 e9 47 12 3f 7b 43 d9 3e de 21 e7 3e f3 a3 6b 3d
       0.57140976 0.42434296 0.45143026 0.0575294
0001d0 82 f2 c2 3f f0 73 a1 3e 9f f3 96 3d 0a 6d a5 3e
       1.5230258 0.31533766 0.07370686 0.32309753
0001e0 44 49 14 3f 2e 05 42 c0 58 b3 71 40 5f 4e 5f bd
       0.57924294 -3.0315661 3.7765713 -0.0545181
0001f0 32 b9 cf bf ae b4 ff bc 0f fa cd 3e 6c 27 a0 3d
       -1.6228392 -0.031214084 0.40229842 0.07820019
000200 34 90 89 bd aa c5 cc 3f 96 7c 34 c0 4d 39 64 40
       -0.06716958 1.5997822 -2.8201041 3.5659974
000210 b3 c6 9f 3d 3c 68 f0 3f 35 61 c2 3f 38 77 bc 3e
       0.07801571 1.878181 1.5185915 0.36809707
000220 4a 89 86 3f b8 d3 10 3b 6c a6 9a 3c ca f9 54 40
       1.0510647 0.002209885 0.018878184 3.327746
000230 d5 cd 13 3c 45 3e b5 c0 35 0b c4 3e 00 a9 a8 c0
       0.009021242 -5.6638513 0.382898 -5.27063
000240 96 77 19 3f db 83 63 bb 9c 7b ba 3e 01 76 75 bd
       0.599481 -0.0034716043 0.3642243 -0.05992699
000250 02 3f 29 40 d7 e8 9b 40 53 77 a9 bf 11 a8 13 40
       2.6444707 4.872173 -1.323954 2.307133
000260 fe 0c fc 3f 74 36 02 3f f4 28 49 40 e3 96 d0 3e
       1.9691465 0.5086434 3.1431246 0.40740117
000270 e9 91 8b 3e bb 7a 85 3e 6b 34 58 40 dd 8b 0e 3f
       0.27259758 0.26070198 3.3781993 0.55682164
000280 ff cc eb 3c 2a 0a 7d bd 9e 53 1d 3f 53 cc 64 3f
       0.028784273 -0.06177727 0.61455715 0.89374274
000290 32 61 88 40 fc 60 64 3f 7e 06 02 bf ba b9 43 bd
       4.2618647 0.89210486 -0.50791156 -0.047784545
0002a0 4b 59 4c 3d 62 3a 9a bd 46 08 91 3f 48 98 64 bb
       0.049889844 -0.07530667 1.133065 -0.0034880806
0002b0 8a 13 2a bd b8 7f fe 3b e1 6e 89 bc a3 b6 41 40
       -0.04152254 0.00776669 -0.016776504 3.0267723
0002c0 f3 ff 70 3c 8c 75 22 3f 3b 78 0b 3c d0 33 b3 3f
       0.014709461 0.6346061 0.008512552 1.4000187
0002d0 2a 3d 1d 3e 8e fa 75 3c e6 a2 71 3f e8 a4 61 c0
       0.15355363 0.01501335 0.9438919 -3.52569
0002e0 87 73 37 c0 b2 b8 d5 bc 26 26 16 bd e8 d3 96 bf
       -2.8664262 -0.026089046 -0.036657475 -1.1783419
0002f0 ae d0 a4 40 32 28 0e 3f d1 d7 d3 bf c0 e9 5b 3f
       5.1504736 0.55530083 -1.6550237 0.8590355
000300 13 61 8f 3c 0c 67 95 3e bf 8f 28 be 02 25 04 3e
       0.017502343 0.2918018 -0.16461085 0.12904742
000310 31 24 af 40 f2 13 02 40 97 98 ad 3d b9 47 19 c0
       5.473168 2.0324674 0.0847637 -2.3950026
000320 20 a8 82 bc fc 57 78 bd 5d 05 9a bd 65 08 9b 3d
       -0.015949309 -0.060630783 -0.07520554 0.075699605
000330 a9 e4 db 3c 2e 94 6a 3d 13 56 6c 3d 9a 4f 90 3b
       0.026842432 0.05727022 0.057699274 0.0044040205
000340 33 c2 98 3c 4c a8 ec 3f b1 ba 14 3c 7d 3b 0e 40
       0.018647289 1.848886 0.009077714 2.2223809
000350 1f e5 fa 3f 51 04 80 3d f8 6a 8a 40 8f 2b 3d 40
       1.9601172 0.06250823 4.3255577 2.9557836
000360 0e 0b 3c c0 4d 2d fe 3e 02 47 b3 bd 0d 3e 3a bc
       -2.9381747 0.49643937 -0.08753778 -0.011367333
000370 92 cc 5c bd a7 de ad bd 72 e8 42 3b 6d 12 10 3f
       -0.05390603 -0.08489733 0.00297406 0.56278116
000380 36 46 cd 3e 1b e8 d3 bc a6 20 b3 3d 58 e5 0b 40
       0.4009263 -0.025867512 0.087464616 2.185873
000390 a6 68 8f 3f 83 95 14 c0 ff 9b 20 c0 51 21 ca 3c
       1.1203811 -2.3216255 -2.5095212 0.02467409
0003a0 77 93 95 bc e8 e3 53 3c d9 b5 8d 3d f4 56 e7 3c
       -0.018258793 0.012932755 0.0691945 0.028239705
0003b0 f7 1d 5a 3f 2b 29 89 bd e9 a8 46 3f ac e1 20 3f
       0.8520197 -0.06697305 0.77601486 0.6284435
0003c0 00 94 f0 3f e9 40 2c 3f 80 bb f1 3e 7e a8 9d bd
       1.8795166 0.67286545 0.47213364 -0.07698153
0003d0 31 e6 bc 3f 3f 8d bf 3e a2 c7 81 bd 24 95 bf 3e
       1.4757749 0.3741245 -0.06336905 0.37418473
0003e0 25 73 36 3e 01 48 54 c0 55 b2 58 40 e0 8c 95 bd
       0.17817362 -3.3168948 3.3858845 -0.073022604
0003f0 37 ed d8 bf 8c 50 20 3d 23 34 4a 3e 7a 84 9e bd
       -1.6947392 0.039139315 0.19746451 -0.07740112

net.4.bias f4 [6]
000000 6a fe 8f 3f 91 9a 99 3f 60 df 8a 3f a1 06 a2 3f
       1.1249516 1.2000295 1.0849419 1.2658273
000010 82 37 39 3f 82 1b a9 3f
       0.72350323 1.321152
