rl/models/final_model_run0.pth (torch, 79489 bytes, 6 tensors)

net.0.weight f4 [128, 13]
00000000: f5b0 54bf 9f01 543e ddf7 3540 3f5f abbe
00000010: 5b48 933f be10 30bf fbdd 4cbd de40 123f
00000020: 4095 e9be cac1 89bf 151c dd3e 48b6 48be
00000030: ea53 60bb 5cc2 033e 6402 7dbf 3d44 203f
00000040: 7132 1240 2888 8a3f 2fa4 82bf 9b59 31bf
00000050: 48e0 51be 6f6c 5f3d 5104 7a3f 9bdd 9e3f
00000060: 8dfd 3cbf 9fc1 2cbe eb04 b83e f9cf 1dbf
00000070: 857f 9dbe 1b10 4440 0d7e e4be c5fb a83f
00000080: bdfc 59bf 3e6c 1f3f bfc4 103f 2d7c 3a3f
00000090: 74eb 09bf bf45 0f3e b07d 20be cca5 a7be
000000a0: 1ff6 643e a78f bdbc 2b31 0a40 c605 14be
000000b0: 1cc8 84bf d2d4 b2bf 47a0 c73f f678 8b3f
000000c0: 800d 1cbe d186 8bbf 11f3 ed3e 083f 7a3e
000000d0: de6e 89be e536 40be 7df1 4ec0 5960 923f
000000e0: d23e 493f ce36 983f 6e6b 73bf 028e d13f
000000f0: acb9 16bf fe6c a3be cd1e 75be 9f59 b3be
00000100: cf97 cebe 57b8 913f 744c 8dbd 25e5 d3bf
00000110: 0a1c 57bf 77ef 0abe 3a73 da3c 8aa4 d1bf
00000120: 0824 9a3f 51cd bbbd 9a2c b33e e20f 803f
00000130: 9c10 9cbf 1bff 7e3e c6e1 7ebe 99f4 ac3f
00000140: e568 293c 29fd d73f 00cc c43e fee1 7e3d
00000150: 72a8 033f 502a debf 9590 cc3d 543f 1abf
00000160: bd73 17bf 64a1 983d de7b f6bd 65ab 87be
00000170: 6ced 82be e6c8 2dbd 33bb 1c3e dd9e 403e
00000180: 78fe e13c 5094 14bd 6610 403e 91fb 36bd
00000190: b150 053d 921d 5bbe cd30 75be e028 c0bd
000001a0: b690 f8bd 548b 05be f524 a63d 4533 943d
000001b0: 4e83 92be d4b2 a33d 2cc7 9abe 2e8c 96be
000001c0: e9af aa3d 6d27 40be bd03 853d fdee 2c3e
000001d0: a165 0e3e a324 f83e bef1 df3e 175a 4abf
000001e0: c965 a43f b351 e5be f487 13bf 60f7 96bf
000001f0: 53f8 2c3f ca68 58bf 2438 82bc 2593 1d3f
00000200: 505e a13f f3c3 34bf 8ffa eabf 9963 1b3f
00000210: 5121 ff3f ba57 0dc0 c125 7a3f c9e7 c6bc
00000220: 0e06 9c3e c5e0 55bd 3fd8 64be 4940 883d
00000230: f799 103d 3cdf 333f e8ce a3be c40b 85be
00000240: c6df 643e 1dac 733e f575 6fbe f2ba 41be
00000250: 791e 3fbe b443 89bd 0d2c 0b3e 37d5 73be
00000260: f278 3bbe eb2b 933d 66df 33be 7aa5 393e
00000270: 9446 8ebe c25d 87be 7caf 97bd 35cd 2cbe
00000280: fb9c 743e 8377 ea3d b58b 4abe 3772 1dbe
00000290: 2d45 11be 5df9 623d 6add 6fbe ea51 91bd
000002a0: 298b bc3d 3e3e 793e b20e 863e 788d 453f
000002b0: 4d5e e63f 56df 23bf 3938 e0bf 0997 fd3e
000002c0: 10cb 333f 7b94 92bf a2a1 07bf 6f87 923e
000002d0: de7e ebbf 8c53 673f 99b1 e83e 84d4 1040
000002e0: 8228 a73f dc43 adbf 230b 6dbf df39 bbbe
000002f0: d8d4 b23e 22f7 893e 6ad8 553c bf3a eebe
00000300: 7d7e 16be 9678 12be a3c6 513e 3e20 69bf
00000310: b259 64bf 7539 13bf 11b4 4b40 f139 6d3f
00000320: 7ad2 56bd b4c1 80be 4296 d93e 6f30 0c3e
00000330: f2ea 3cbf ed95 79bf 43ac 82bf f5e3 c53e
00000340: 5d8b 9abd 27c5 5f3f 4a1a a13f 5057 943e
00000350: 2cce ac3c db8d 13be 82b9 4abf 8f8c 72be
00000360: ab09 1d3f 8c90 55bf 224c d3bd b58c 183f
00000370: 51a5 d6bf c929 9cbe 11ca b3bd 82aa 193e
00000380: 3199 1ebe 1c76 e63c fa6e a8bd c425 cd3d
00000390: 037e 89be 0819 cabd 53d6 2e3e 83e6 133b
000003a0: 0d55 7cbe f442 cb3d 4312 383f 360d 553f
000003b0: a878 4440 e09d 2d40 e929 b7bb c7c1 833f
000003c0: 3b7c fd3e 0d56 97be 8994 b6be b6e1 05bf
000003d0: 29bf b53d a5ac e1bf 701e cc3b 0fae 07c0
000003e0: ed69 a03e fd56 a93e 9c07 35be 4495 e23f
000003f0: f3cd 733f 19f8 a73e 0e4e 02be 428b b2be
-0.83082515 0.20703743 2.8432534 -0.33471105 1.1506456 -0.68775547 -0.050016385 0.5713023
-0.4562168 -1.0762265 0.43185487 -0.19600785 -0.0034229704 0.12867111 -0.9883177 0.62604123
2.2843287 1.0822802 -1.0206355 -0.6927735 -0.20495713 0.05454677 0.97662836 1.2411379
-0.7382439 -0.16870736 0.35941252 -0.61645466 -0.30761352 3.063483 -0.4462742 1.3201834
-0.85151273 0.6227454 0.5655021 0.7284573 -0.538749 0.1399145 -0.15672946 -0.3274368
0.22359513 -0.023139788 2.159251 -0.14455327 -1.0373569 -1.3971198 1.5595788 1.0896289
-0.15239525 -1.0900518 0.46474507 0.24438107 -0.26842397 -0.1877094 -3.2334893 1.1435653
0.7861148 1.1891725 -0.950858 1.6371462 -0.5887706 -0.31919092 -0.23937531 -0.35029313
-0.40350196 1.1384381 -0.06899348 -1.6554304 -0.8402716 -0.13567911 0.026666272 -1.6378338
1.2042246 -0.0917002 0.34994966 1.0004847 -1.2192569 0.24902003 -0.24890813 1.3512145
0.01033995 1.6874133 0.3843689 0.06222724 0.514289 -1.7356663 0.09988514 -0.6025288
-0.5916098 0.07452658 -0.120353445 -0.2649795 -0.25571764 -0.04242792 0.15305786 0.18810602
0.02758716 -0.036274254 0.18756256 -0.044673506 0.032547656 -0.21397999 -0.23944397 -0.09382796
-0.121369764 -0.1304143 0.08112518 0.072363414 -0.28615803 0.07993093 -0.3023008 -0.29403824
0.083343334 -0.1876504 0.06494854 0.16888042 0.13905956 0.48465452 0.43739122 -0.79043716
1.2843562 -0.44788894 -0.57629323 -1.1794243 0.6756641 -0.84534895 -0.01589591 0.6155265
1.2606907 -0.70611495 -1.8357714 0.6069885 1.9932042 -2.2084794 0.9771386 -0.024280446
0.3047337 -0.05221631 -0.22348116 0.066528864 0.035303082 0.70262504 -0.31993794 -0.2598554
0.22350988 0.23796125 -0.23384841 -0.1891897 -0.18663968 -0.067023665 0.13591023 -0.23811804
-0.18307856 0.07186111 -0.17565688 0.1812953 -0.27788222 -0.2643872 -0.07406518 -0.16875155
0.23888008 0.11448576 -0.19779857 -0.15375601 -0.14186545 0.055413593 -0.23424307 -0.07095702
0.0920623 0.2434015 0.26183087 0.7716899 1.7997528 -0.6401266 -1.7517158 0.49529293
0.70231724 -1.1451563 -0.5298101 0.28618953 -1.8398092 0.9036186 0.45447996 2.262971
1.3059237 -1.3536334 -0.9259512 -0.3656759 0.34928012 0.2694636 0.013052085 -0.46529195
-0.14696689 -0.14303812 0.2048593 -0.9106482 -0.89199364 -0.5750955 3.1828654 0.92666537
-0.05244682 -0.25147784 0.4249745 0.13690351 -0.73796 -0.97494394 -1.020882 0.3865048
-0.07546113 0.87410206 1.2586148 0.28972864 0.021094404 -0.14409582 -0.7918931 -0.23686431
0.6134288 -0.83423686 -0.103172556 0.595897 -1.67692 -0.3050063 -0.087787755 0.1500645
-0.15488125 0.02813249 -0.08224292 0.10016969 -0.26853952 -0.098680556 0.17073946 0.0022567816
-0.2464182 0.0992488 0.71902865 0.83223283 3.0698643 2.712761 -0.005589713 1.0293511
0.49508843 -0.2955784 -0.35660198 -0.5229753 0.088743515 -1.7630812 0.0062292144 -2.1199987
0.31330815 0.3307418 -0.17678684 1.7701802 0.9523613 0.3280647 -0.12725088 -0.3487187

net.0.bias f4 [128]
00000000: 0d13 0a3f 7160 04bf 0009 c4be 1f35 b33e
00000010: 82eb a9be 9d74 35bf 3ad6 9d3d 5d52 32be
00000020: 4d5b 9cbe 03b7 b4be ed9f 2d3c 7c7d 4abe
00000030: 323d 82bd 49ab 633f fd57 23bf 1f7a 4e3f
00000040: 81b0 483f 98e8 9cbe 14da 2fbf a898 e2bd
00000050: 1a69 babd 7c5a 17bf 5a94 14bd 02dc 613f
00000060: d110 373e 6f11 b73e 340a 013f 6110 5ebe
00000070: dbf7 d03d f84c cabd f55f 383e ff1b 6ebe
00000080: d1bd 26bd c8a3 5e3e 601f debd 5227 36be
00000090: b3ac 35be 2472 e63e 277a 913e 14b3 32be
000000a0: c497 233f cf13 103f 53c3 edbd 071f a7bd
000000b0: 93a5 f8be 4c8e 113e 7397 7ebe a20a e63d
000000c0: 9687 9ebe 4867 2cbf 2259 e1bd d9ca ec3e
000000d0: 0b28 37be f144 473e dfbf cd3e a081 62bf
000000e0: cc0d 573d 1060 c4be eb7d 74be 2caa 2dbe
000000f0: 4c2d eb3c d950 0dbe 2bbd 2fbe 760d e9bd
00000100: 4860 803c 5364 50be 5313 2bbe 8a49 83bf
00000110: 9ac6 9dbe 1a51 8f3f 0ffe e23d c565 42be
00000120: ff83 6a3f 9410 10bf 9364 d43e f706 033f
00000130: 0b38 8c3e db1f 093d a5b4 b03e d84a c73e
00000140: dc5f d9bc c463 3dbd 9a04 36be e00f aeba
00000150: 237a 8bbe 8a3b 2fbd 3055 203f f3ed cdbe
00000160: 4292 bf3e 6e98 febe 4be2 77bc 833b 6ebe
00000170: 69cb 783f 0e7a 833e 2175 22be 9168 873b
00000180: 7114 eebe ddde 17be 5d8b 033f 95fc 2abe
00000190: 242a 253e ec71 febe cd3f 5c3e f483 d7bd
000001a0: e0ec 4cbe 727b 653e d3da 963e 007f a43d
000001b0: 28dc 7ebe f210 91be e215 563f 1083 b13f
000001c0: cf37 a33d 4632 bc3e b1da 05bf 3d92 e93d
000001d0: 2280 98be f649 183c ee4f 40bf ee76 403e
000001e0: a1d6 93bd 04b5 92bd 1270 2ebd 2721 173f
000001f0: 62ca ddbe ac48 da3e ace6 16bd cdf0 563d
0.5393532 -0.5170966 -0.38288116 0.35001466 -0.3318749 -0.7088106 0.07706876 -0.17414232
-0.30538407 -0.35295877 0.010597211 -0.19774431 -0.06359328 0.88933235 -0.63806134 0.8065509
0.78394324 -0.30646205 -0.68692136 -0.11064273 -0.09102078 -0.59122443 -0.03627429 0.8822633
0.17877509 0.35755488 0.50406194 -0.21685936 0.10203525 -0.09877962 0.18005355 -0.23252867
-0.040708367 0.21742165 -0.10845828 -0.17788437 -0.17741661 0.45008957 0.28413507 -0.17451125
0.6390345 0.56280226 -0.11609521 -0.08160215 -0.48563823 0.14214438 -0.24862461 0.11232497
-0.3096282 -0.67345095 -0.11003329 0.4624851 -0.17886369 0.19459893 0.4018545 -0.8847904
0.052503392 -0.3835454 -0.23876159 -0.16959447 0.028708123 -0.13800372 -0.17162006 -0.113795206
0.01567091 -0.2035077 -0.1670659 -1.0256817 -0.30815583 1.1196625 0.11083614 -0.18984134
0.9160766 -0.56275296 0.41482982 0.511825 0.27386507 0.033477645 0.3451282 0.3892429
-0.026534967 -0.046237722 -0.17775193 -0.0013279878 -0.2724162 -0.04278139 0.62629986 -0.40220603
0.37416273 -0.4972567 -0.015129636 -0.2326489 0.9718538 0.25679058 -0.15864994 0.0041323383
-0.4649997 -0.1483111 0.51384526 -0.16697915 0.16129357 -0.4969629 0.21508713 -0.10523215
-0.20012236 0.22410372 0.29463825 0.08032036 -0.2488867 -0.2833324 0.8362714 1.3868122
0.07969629 0.36757106 -0.5228682 0.11404846 -0.29785258 0.009294977 -0.75121963 0.18795368
-0.072186716 -0.07163432 -0.042587347 0.5903496 -0.43318468 0.4263357 -0.03684108 0.05247574

net.2.weight f4 [128, 128]
00000000: 98fe a7bd 9bd2 3dbd 2a94 d8bc 0870 babd
00000010: 83d6 bfbd c0ea 92bd 4fba 9c3d d29e 9a3c
00000020: 7772 67bd 1efe f0bc f946 a6bd 1b81 71bd
00000030: 1c65 8d3d 87f9 0dbd 9079 a7bd 5101 a6bd
00000040: 6b6b 6fbd 9f55 363d e140 363d 2ae6 2dbd
00000050: c3e4 63bd aa69 cfbd 99c3 c43b b4ce 15bd
00000060: 3b7f 8bbd ede0 15be bdfe 673c 5dfb 7f3d
00000070: a3ae 60bd 997f 093d cd78 75bd 8f63 4cbc
00000080: 9aef 863c 5fa3 1abd e648 a83c 3267 a9bd
00000090: 7f49 6b3d 277f 64bc 6ddc 05bd df63 84bd
000000a0: 4068 79bc a842 65bd 3246 a4bd cda2 f6bb
000000b0: df7b a9bd 919f cabd eac5 d5bd db85 94bd
000000c0: 83ee 553d 8d5b babd 4e8f 5ebb 1599 443d
000000d0: ea02 18bb 4769 09bc 9d95 8dbc 360f 9cbd
000000e0: d20b 74bc 139a 9dbd 4043 94bd bc21 a13d
000000f0: d546 22bd c10a 5ebd 76e4 87bd 426b 1c3d
00000100: e418 40bd fcea ecbd 3afa a43d dc38 b4bb
00000110: d33f d53c 195a d6bd 30fb 99bd cd16 6abd
00000120: fd1f 603d 34fd b13d 7eed fdbd 25e6 1bbd
00000130: d60c 7dbc 4a77 893c 2a13 553c 47a0 d3bc
00000140: 44a9 833c 09e1 99bd 4e4c 9bbc 9ae0 a33c
00000150: 69f4 94bb 3f6f 9cbd ce06 e93c 8f71 2a3d
00000160: 79f2 343c 9cf3 cabd 743b d63c f30f 683d
00000170: f329 633c 971a ddbc 198a adbd ff7d 843d
00000180: 41a6 08bd ef2d 433d 627f 0dbe 0441 fa3a
00000190: c64c e93a 4711 ff3c 7638 9ebd 669f 13bd
000001a0: dbca 713d c51a 87bd fdcf 09bd 804e abbc
000001b0: fa91 3d3d bfac ae3d bf56 f6bd b65c ddbd
000001c0: 41c8 203d e9f3 fabd 4d2c f9bd 3640 59bd
000001d0: 2644 0dbd 461f 273d 1b5d 263d 2c6b 53bd
000001e0: e267 2cbd 8b4c 8fbd 31d3 a23d 1496 2f3d
000001f0: dff9 21bd 9c47 dabd 8fb3 90bd 470b 57bd
00000200: 3225 d3be 36e8 893e 84a7 16bf 4f7d 0540
00000210: 957b 90bf 3da5 cbbf 88e2 1b40 c3ae 12bd
00000220: 6d56 a13c 4737 88bf 1410 b93d b5ef 8f3c
00000230: e23d a93d 7e40 3fbe 63c2 60bf 30b1 cc3f
00000240: 9a5f 033f e98d b2bd df99 9f3f b8bc 6b3f
00000250: 3c2f 99bd 0ff6 3abf 69a2 883f a509 afbf
00000260: 7707 373e 3f13 21bf f545 463f 5bbe 93bd
00000270: ecef 3c3e 8ed8 37bd 8547 d23d 22b2 703d
00000280: c201 b23f b553 09bb bfbd 7f3d 6a00 babc
00000290: 793d a03d d9cd ae3e 7eaa e13f 21af 48bd
000002a0: 9eed 103d b349 6b3d 54e6 60bf a509 50be
000002b0: 0ce3 84bf 05cf 6f3f 81a1 19bf 038b acbf
000002c0: 474b 80bd d766 84bf 126f 7dbf 7cf5 b83e
000002d0: 563c 73be 3049 a6bf a832 2f3f 3283 083e
000002e0: 5b85 d9bf 6833 01bf 5a35 b3bd f796 643d
000002f0: d1d0 8abf 79fe 4d3c e9c6 e4bf a8b7 083d
00000300: 8e19 6fbd 9a82 2b3f 4445 ab3d 30b0 4dbf
00000310: bc00 2bbc 4b68 66bf 9217 253d 5d38 ae3c
00000320: a1bd 9cbd 0840 73bf fb66 b3be 217c 343f
00000330: 401c f43f 9372 413c 5075 4cbe 3423 163f
00000340: 17b5 16bf a6da 00c0 4194 ddbc f758 bcbf
00000350: c49f 8abc af67 10bd fae6 b2bd 33b3 57bf
00000360: aaef ebbe 921a 95bf 1dc2 e9be a314 51bd
00000370: 00c9 c53e 45cb aebd f29c 283d bd48 97bc
00000380: 3a8b 90bf 9481 803d de4d c03d cb3e c23e
00000390: 7a97 d5bd 6a6d 2bc0 9077 53bf aafa 8bbd
000003a0: 3eec 7cbd 1c07 433f ad15 803e d677 efbe
000003b0: d6ab 9ebc 99ef a6bc d95b c13f 171e 533f
000003c0: 7a0b dfbd 5d67 97bf df29 70bf d16a 073f
000003d0: a903 a83f 7073 b3bd f564 e33d a923 133f
000003e0: a1b3 92bd d4eb 533d 299f aa3c 2b8a b8be
000003f0: ed48 893e f42e 89bf e925 32be c9ad debc
-0.08202857 -0.046343427 -0.026437838 -0.091033995 -0.09367087 -0.07173681 0.07652723 0.01887456
-0.056505647 -0.029418048 -0.08119006 -0.058961015 0.06904051 -0.034661796 -0.08177483 -0.0810572
-0.05845205 0.04451525 0.044495467 -0.04245583 -0.055638086 -0.10127576 0.0060047624 -0.03657408
-0.06811377 -0.14636584 0.014159855 0.062495578 -0.054854047 0.033568952 -0.059929658 -0.0124749085
0.016471673 -0.03775346 0.020542573 -0.08271636 0.05744314 -0.013946331 -0.032680918 -0.064643614
-0.015222609 -0.05597177 -0.08021201 -0.0075267316 -0.0827558 -0.09893716 -0.1043814 -0.072520934
0.052229416 -0.09099493 -0.0033959928 0.047997553 -0.0023195096 -0.0083869165 -0.017283255 -0.07620089
-0.014895396 -0.07695403 -0.072393894 0.078677624 -0.039618332 -0.054209474 -0.06635372 0.038188227
-0.046898738 -0.11568257 0.080555394 -0.005499942 0.02603141 -0.104664035 -0.07518613 -0.05715065
0.054718006 0.08690873 -0.12398814 -0.03806128 -0.015444955 0.016780514 0.013005057 -0.025833262
0.016071923 -0.07513625 -0.018957283 0.02000456 -0.0045457375 -0.07638406 0.028445628 0.041612204
0.011044138 -0.09909746 0.026151396 0.056655835 0.013864982 -0.026990218 -0.08473606 0.06469344
-0.033361677 0.047651228 -0.13818124 0.0019092862 0.001779937 0.031136168 -0.07725613 -0.036040686
0.05903135 -0.06596903 -0.03364562 -0.020911455 0.046281792 0.085290425 -0.12028264 -0.10808699
0.039253477 -0.122535534 -0.12166653 -0.053039752 -0.03448882 0.04080131 0.040616136 -0.05161588
-0.042091258 -0.06997021 0.07950438 0.042867735 -0.039544936 -0.1065819 -0.07065498 -0.05250099
-0.41239315 0.26934975 -0.5884936 2.0857732 -1.1287714 -1.5909802 2.4357014 -0.035811197
0.019694531 -1.0641869 0.0903627 0.017570356 0.08263756 -0.18676946 -0.8779661 1.5991573
0.5131775 -0.087184735 1.2468833 0.92084837 -0.07479712 -0.73031706 1.0674564 -1.3674818
0.17873941 -0.6291999 0.77450496 -0.07214042 0.18450898 -0.044884257 0.102675475 0.05876363
1.3906786 -0.0020954434 0.062436815 -0.022705276 0.07824225 0.34141424 1.7630155 -0.04899514
0.03538286 0.057443332 -0.8785145 -0.20316179 -1.0381789 0.9367526 -0.6001206 -1.3479923
-0.06264358 -1.0343884 -0.98997605 0.3612479 -0.23753485 -1.2991085 0.6843667 0.13331297
-1.6993822 -0.50469065 -0.087504104 0.055808034 -1.0844976 0.012572878 -1.7873203 0.033378273
-0.05837398 0.6699616 0.08362821 -0.80346966 -0.010437187 -0.9000289 0.04030568 0.02126711
-0.07653356 -0.9501958 -0.35039505 0.70501906 1.9071121 0.011807102 -0.19966626 0.58647466
-0.5887007 -2.0133452 -0.027048232 -1.471465 -0.016921885 -0.03525513 -0.087354615 -0.8425781
-0.46081287 -1.1648734 -0.4565591 -0.05104507 0.38629913 -0.08534864 0.0411653 -0.018467302
-1.1292489 0.06274715 0.09389852 0.37938532 -0.104292825 -2.678553 -0.8260431 -0.0683492
-0.061748736 0.76182723 0.25016537 -0.46771115 -0.019369047 -0.020377921 1.5106155 0.8246779
-0.10890861 -1.1828419 -0.9381389 0.52897364 1.3126117 -0.08762252 0.111032404 0.5747629
-0.07163168 0.051738575 0.020827847 -0.36042914 0.2681345 -1.0717454 -0.17397274 -0.027182477

net.2.bias f4 [128]
00000000: 818d 4cbd 73fb e23e 1f16 263f 42b0 05be
00000010: c2a7 993f 8bec bd3a 289a 483e 74f5 fd3e
00000020: df50 903f 27cf 613e 88c0 a53f e3d4 6a3f
00000030: 0ae9 db3e 3494 8bbd d242 b6bd 51d6 4b3f
00000040: 3ff4 013f 2d72 81bd 2944 a2bd 9ea0 d53b
00000050: 56c6 fbbd cae6 c53c 1377 163f e765 963e
00000060: 63ce e53e c33d 853f 37c4 c93e 7a0e 89bd
00000070: 82bb 20bd dafa cd3f f0bb 5b3f fd49 8c3f
00000080: 23e0 68bd 0898 36be a1a8 91be a400 183f
00000090: aa29 6dbd 2228 1cbf a6e5 e5bd efd4 9f3e
000000a0: afab 27be 571f 1c3f c895 0f3f 80b6 64bd
000000b0: 7834 b6bc f961 533f f1d3 4e3f ad73 b4bd
000000c0: 343c 2a3e f0dc c8bd 5d74 efbc bd0e 953e
000000d0: ee0c ae3c da25 dd3c a994 c53f cc13 773d
000000e0: 3625 64bd 46d3 f03e 6624 253f 6b46 9f3f
000000f0: b7e2 ecbc b051 0b3f 0ce7 bbbd 4f5d 3c3f
00000100: 754a 9b3f 15d4 043f d0b5 e9bd 2665 423f
00000110: 89c9 20be 7670 90bd b828 423f 8b4d 0b3f
00000120: d647 063f 5954 48bd d46e 5d3e 056d a13d
00000130: bb49 a8bd d16d b2bd e463 89be d3f6 e43e
00000140: 994b 01bd 92aa 80bd 637b af3e ea82 ffbd
00000150: e664 f63e 47f5 9ebd d7a6 ddbd c5b1 df38
00000160: 135c 3f3f 0139 023c 841f 093f 133f 133d
00000170: a862 ae3e 8955 d7bd 5af7 aabd 3a90 23be
00000180: ea44 f8bd 1598 633c 2846 debd 2845 823c
00000190: 68a8 56bd 0ca3 8dbd 2198 5f3d 7021 bc3e
000001a0: b030 8abd 0923 00be cbc2 e7bd 9e44 2dbe
000001b0: 2860 5c3f 8a12 b93e f74d 3b3f 4eb5 e93d
000001c0: aa74 ccbd 28b9 25bd c572 24bf 4c80 a1bd
000001d0: dfad 213f 24b1 e4bd b5ee 5b3f 9a02 0dbd
000001e0: 41b8 a3bd 8958 a23c 6d8e 643a 7909 743f
000001f0: 5182 813f 02ad ccbd 1408 753f 237e a93e
-0.049939636 0.44332466 0.64877504 -0.13055518 1.2004321 0.0014490051 0.19590056 0.49601328
1.127468 0.22051679 1.2949381 0.9173109 0.42951232 -0.06815377 -0.08899464 0.79623896
0.50763315 -0.063206054 -0.07923157 0.006519391 -0.12293689 0.0241579 0.5877544 0.2937462
0.44884023 1.0409473 0.39407513 -0.06692214 -0.03924132 1.6092179 0.85833645 1.096008
-0.05685438 -0.17831433 -0.28448966 0.5937598 -0.057901062 -0.6099874 -0.112254426 0.31217143
-0.16374086 0.6098532 0.56087923 -0.055838108 -0.022241816 0.8257137 0.80792147 -0.08811126
0.16624528 -0.098077655 -0.029230291 0.29112807 0.0212464 0.026995588 1.5435992 0.060321614
-0.05569955 0.4703619 0.64508665 1.2443365 -0.0289167 0.5442152 -0.09174928 0.7357988
1.2132097 0.5188611 -0.11411631 0.7593559 -0.1570188 -0.070527 0.7584338 0.54415196
0.5245336 -0.048908565 0.21624309 0.07882122 -0.08217188 -0.08712352 -0.26834023 0.44719562
-0.031566236 -0.06282534 0.34273824 -0.12476142 0.48123854 -0.07761627 -0.10822838 0.00010666581
0.7474987 0.007948161 0.53563714 0.035948824 0.34059644 -0.105143614 -0.0834796 -0.15972987
-0.12122519 0.01389124 -0.10853225 0.015902117 -0.0524067 -0.06915864 0.05458844 0.3674426
-0.06747568 -0.12513365 -0.11316451 -0.16920707 0.8608422 0.36146957 0.7316584 0.11411534
-0.099831894 -0.040459782 -0.64237624 -0.07885799 0.6315593 -0.111665994 0.85911113 -0.03442631
-0.07994128 0.019817607 0.0008718733 0.95326954 1.0117894 -0.09993936 0.9571545 0.33104047

net.4.weight f4 [6, 128]
00000000: ab2b 0abd e6be b53f b24c 4140 20c1 1dbd
00000010: c31a 3840 afc2 323f 58dc 8dbf 8c12 1740
00000020: 3bdd 8f3f 9fbb 1840 c566 c1bf 664e d23f
00000030: 06a6 ba3f 8bab 833c 169a 73bc dbe8 ec3f
00000040: e0e9 973f 1806 dc3b d8f7 5abd 05ba 6e3d
00000050: a4a7 903f e9be e9bf 0b5d bf3f cfda 4e3f
00000060: dd4e f63f 2fdb 4340 43e9 87bf bc14 62bd
00000070: 62f6 92bc 83e6 e8bf 1a02 2240 90dc 5e40
00000080: e151 97bc 7046 b53f 8efb 14c0 bd0d c83f
00000090: 88da 7b3d 6e8a fcbf a307 153d 2367 a83f
000000a0: cd08 4dbc d3e6 2440 f45d 1440 e07e 64bd
000000b0: 1805 503d 42be 0f40 263f 963f 1155 073d
000000c0: fd1a c8bf 6abe 803d 4a7c f53c 8056 5140
000000d0: 1eeb 903f 123b 8dbe 34a6 6f40 a385 03bd
000000e0: 1aea 9ebd 6612 863f 247b 533d 076e e2bf
000000f0: b38a aebc 7794 e93f a41b d03c d2bb 04c0
00000100: e29e 4140 0a03 2d40 0b7c 483d a74a 623f
00000110: b828 a3bd 004c ca3c 5a62 523f f2e6 1740
00000120: 6f74 923f fc39 5f3c 6e65 793f b082 fb3e
00000130: 491f efbc 7bb3 4e3d ff51 ef3f 1a8b 2140
00000140: a3a8 25bc 1f90 3f3d 5a79 bd3f 9946 2bbc
00000150: c680 1240 4837 323c e05b 263d 3d8a 5b3c
00000160: 39de f13f c6ca 273d ce6a 963f fda5 733d
00000170: 5c78 943f 4e67 e1bc 6eda fd3c 9ded 17bd
00000180: d234 48bd 37b9 433d 8c0c 163c 6490 25bd
00000190: ddcc 0f3c 04eb 803c 9b44 ac3f 21bb e13e
000001a0: 5096 c83a 9dc4 e73b 2ae8 a63c efca 1840
000001b0: b8a4 83bf 5b8c 653f 3404 e93f 98b1 aa3f
000001c0: 3555 20bc cdc5 9ebd 49b5 d0bf edc2 64bd
000001d0: 7eea ef3f 327e 1cbb 2a7e 2940 c696 a53f
000001e0: d0d6 8a3f 0eb3 9a3c 6ad0 a93f 2d8d 0b40
000001f0: b76a 2a40 a616 993d 2201 2b3f 4370 853f
00000200: ee77 09bd 1713 b33f a6f5 5140 3fa4 903d
00000210: ca21 3540 5ac8 703e 7b6b a0bf 7ec3 1b40
00000220: 9cf9 8e3f 9809 2040 ed25 ebbf 0f19 a83f
00000230: f077 a83f 2763 7cbd 5717 d43c a0f4 fa3f
00000240: a830 9a3f 0882 203d 534d 903d dbeb 4fbd
00000250: 473d fe3e 9b55 dbbf 316d c63f b94d f8bd
00000260: 5d7b 0440 6eb1 4a40 df2e 41bf 851d 2fbd
00000270: 7572 28bc 8292 e2bf 6ae0 2640 c5da 5040
00000280: 206c 2fbd ca5f 29c0 a064 dbbf 03cd d23f
00000290: a892 6e3c 53bd e3bf 08e0 9a3d 404b 9f3f
000002a0: 68f3 913d de28 1840 5956 1a40 a538 6f3d
000002b0: 202e 283d 3215 1140 3d79 9b3f 2cd9 563d
000002c0: 2c43 cfbf 13ff babc d6e2 c63d c80f 7b40
000002d0: 7d6c 953f a021 a7be 965e 8140 6a14 9d3d
000002e0: f342 8fbc fe10 a53f b781 213f 5ac7 b9bf
000002f0: 0d1d b43d d9a5 eb3f 9645 7bbd 9896 f3bf
00000300: da35 2340 97ab 2940 be30 94bb 229c 723f
00000310: 86e5 913d c5aa b03c b1c0 c63e 513a 2040
00000320: 3196 a53f 2839 8f3d 8427 903f 7df1 4d3f
00000330: d8a2 1e3d 45fc 17bd 7f6e dc3f 6147 2340
00000340: 4e48 babc c32d e13c e906 c73f 7b73 dc3c
00000350: 88a0 2340 3f29 a53d a488 6fbd 77f7 c1bd
00000360: a72a fe3f a69c 0dbc 3a4e 823f 7eb3 02bd
00000370: fa4e a03f e398 7d3d 8325 d63c 4ce6 4ebd
00000380: 8b6a 9a3d 4816 53bf 47fd f83c 544f 0ebd
00000390: 9a89 49bc 0294 b4bc 0458 cc3f 36e7 93bd
000003a0: 3fc4 933d 0f46 19bd 8535 11bd 3081 ee3f
000003b0: 2663 acbf 15d7 743f 7f1a e23f a46b ab3f
000003c0: ed7b a3bc 5bf5 febb c474 cabf d9e2 993d
000003d0: a55c ef3f 0653 b03d cd07 3040 7526 8a3f
000003e0: 075b 0f3f 3030 17bc 3ed5 a63f ba9d 0a40
000003f0: 9c92 1d40 4474 24bd a4d0 8a3f 4527 ac3f
-0.03373305 1.4198883 3.020306 -0.038514256 2.8766334 0.69828314 -1.1082869 2.360507
1.1239389 2.3864515 -1.5109488 1.6430175 1.4581916 0.016073009 -0.01486828 1.8508562
1.1868248 0.0067145936 -0.05345902 0.05828287 1.130116 -1.8261386 1.495027 0.80802625
1.9242817 3.060253 -1.0618061 -0.055195555 -0.01793975 -1.8195347 2.5313783 3.482212
-0.01847166 1.4162121 -2.3278537 1.5629193 0.061487705 -1.9729745 0.036384236 1.3156475
-0.012514305 2.5765884 2.3182344 -0.05578506 0.050786108 2.2459874 1.1738021 0.03304011
-1.5633236 0.062863186 0.029966492 3.2709045 1.1321752 -0.2758413 3.7445192 -0.032109868
-0.07759495 1.0474365 0.051631108 -1.7689828 -0.021306371 1.8248433 0.025403805 -2.0739636
3.0253224 2.7033105 0.04894642 0.8839516 -0.07966751 0.024694443 0.8218132 2.3734708
1.1441783 0.013624664 0.97420394 0.49123144 -0.029189723 0.050464135 1.8696898 2.524115
-0.010111007 0.046768304 1.4802659 -0.0104538435 2.2891097 0.010877438 0.040614963 0.013399658
1.8895942 0.040964864 1.1751344 0.05948447 1.1599231 -0.02751508 0.030987944 -0.03709184
-0.0488785 0.047784057 0.009158265 -0.040420905 0.008776871 0.015737064 1.3458437 0.4408808
0.0015303586 0.0070729987 0.020374376 2.387386 -1.0284643 0.8966729 1.8204408 1.3335447
-0.00978594 -0.07752571 -1.6305324 -0.05584996 1.8743436 -0.002387893 2.6483254 1.2936637
1.0846806 0.018884208 1.3266728 2.1804917 2.6627634 0.07475023 0.66798604 1.0424885
-0.03356164 1.3990201 3.2806182 0.070625775 2.8301873 0.23513928 -1.25328 2.433807
1.1169925 2.5005856 -1.8370949 1.3132647 1.3161602 -0.061617997 0.025890036 1.9605904
1.2046099 0.039186507 0.070459984 -0.05076204 0.49656126 -1.71355 1.5502073 -0.121241994
2.0700295 3.1670794 -0.75462145 -0.04275276 -0.010281195 -1.7700961 2.6074471 3.2633526
-0.042827725 -2.6464715 -1.7140083 1.6468815 0.014561333 -1.7792152 0.07562262 1.244484
0.07126504 2.3774943 2.4115202 0.05840363 0.041059613 2.2669187 1.2146374 0.052453205
-1.6192374 -0.022826707 0.09711234 3.9228382 1.1673733 -0.3264284 4.042796 0.07669909
-0.017487979 1.2895811 0.63088554 -1.4513962 0.087946035 1.8409988 -0.06134566 -1.9030333
2.5501618 2.651098 -0.004522412 0.9476949 0.07123856 0.021565804 0.38818887 2.5035594
1.293646 0.069933236 1.1262059 0.80446607 0.03872952 -0.037105817 1.7221221 2.5512316
-0.022739556 0.027487641 1.5548984 0.026910534 2.556673 0.08064508 -0.05847992 -0.09471028
1.9856766 -0.008643305 1.0180123 -0.03190946 1.2524102 0.061913382 0.026140934 -0.050512597
0.07539853 -0.82455873 0.03039421 -0.034743622 -0.012300873 -0.022043232 1.596436 -0.07221834
0.07215165 -0.03742033 -0.03545143 1.8633175 -1.3467758 0.9564069 1.7664336 1.3392224
-0.019956553 -0.0077807135 -1.5816884 0.07513971 1.8700148 0.086095855 2.7504761 1.0792986
0.5599827 -0.009227797 1.3033826 2.1658769 2.4620733 -0.040149942 1.0844922 1.3449484

net.4.bias f4 [6]
00000000: b425 353f 7faa 1d3f 473b 663f 698d 0d3f
00000010: a4e3 9d3f f2f3 8b3f
0.70760655 0.6158828 0.899342 0.552939 1.2335095 1.0933821
