rl/models/final_model_run3.pth (torch, 79489 bytes, 6 tensors)

net.0.weight f4 [128, 13]
000000 f3 a6 be bf 2e 19 18 3e ff 53 78 bf e6 f7 d8 3e
       -1.4894699 0.14853355 -0.9700317 0.42376631
000010 f6 03 64 be db a7 91 bf 83 d3 f6 3e 9f 33 e4 3c
       -0.22267136 -1.137935 0.48208246 0.027856646
000020 21 8d 88 3f 22 9d 1e bf 04 ee 8e 3f 4c b8 b3 bd
       1.0668069 -0.61958516 1.1166387 -0.08775386
000030 d8 f8 89 3d b4 60 8e 3e c4 a8 94 3e 90 61 73 3f
       0.06736916 0.27808154 0.29035008 0.95070744
000040 dd b6 a6 3f 8e 38 29 3f 48 6e b3 be 0d f8 c1 be
       1.3024555 0.6610192 -0.35045075 -0.3788456
000050 5b 32 47 bf c0 2c e0 bf 06 08 0c 3f 33 59 51 3e
       -0.7781121 -1.7513657 0.5469974 0.20444183
000060 08 16 3b 3f de 92 74 bf 41 fa 12 be 35 e2 49 3e
       0.7308049 -0.955366 -0.14353277 0.19715197
000070 df 80 0f 3f 2b fd 48 c0 93 84 06 3f df a6 93 3f
       0.56056017 -3.1404521 0.5254604 1.15353
000080 ba 21 6c 3f e4 c1 d6 3d f8 3e 52 bf 4d 6c d0 be
       0.9223896 0.104862005 -0.8212733 -0.40707627
000090 ae c8 3d bf 5a c9 3e bf de b1 7d be fe 6e ad 3f
       -0.7413434 -0.7452599 -0.24774882 1.3549497
0000a0 bd 63 fd be e6 b4 4f 3f 01 50 89 3f ba d9 7f 3e
       -0.49490157 0.81135404 1.072754 0.249854
0000b0 00 d9 1f bf 7f 6b ef be 04 4d bb 3e 6b 4d 4e bf
       -0.6244049 -0.467617 0.36582196 -0.8058688
0000c0 c7 63 85 bf 00 c4 97 be 1b dc 07 3d 64 11 2f be
       -1.0421075 -0.29641724 0.033168893 -0.17096478
0000d0 2a f4 5e bf f1 39 2d bf f9 ff 40 3d 3e 54 c3 3d
       -0.87091315 -0.67666537 0.047119115 0.09537552
0000e0 39 70 f2 3f 02 7d 70 3f 78 a2 94 3d 60 59 95 be
       1.8940498 0.93940747 0.07257551 -0.2916975
0000f0 50 79 cd 3e 01 0e 32 3e d7 7a 82 be 05 1c 8a be
       0.40131617 0.17388155 -0.25484344 -0.26974502
000100 36 78 3b be 55 38 2e bf e3 e7 57 3e d3 08 52 3e
       -0.18307576 -0.68054706 0.21084552 0.20511179
000110 ed fa 11 3d d1 d3 fd be 43 91 14 3f cd b6 47 bf
       0.035639692 -0.49575666 0.5803415 -0.78013307
000120 37 ee c8 be b3 c4 2f 3e 92 f3 5d bf 9e 8d 1b bf
       -0.39244244 0.17164879 -0.86699784 -0.60762966
000130 9c 38 da be 5e ce 0e 3e 14 17 d6 bd f1 db 42 3d
       -0.42621315 0.1394591 -0.104536206 0.047573034
000140 60 bd 5e be 7a 33 ff 3d 08 d6 82 be 64 8b d7 bd
       -0.21751928 0.1246099 -0.25553918 -0.105246335
000150 ed 6b 09 3e b9 0e 51 be 44 f7 93 be 06 7f 2e 3c
       0.13420077 -0.20415772 -0.28899586 0.010650402
000160 a1 6b 7b 3e cb fc 75 be 79 c6 85 be da 19 be be
       0.24552776 -0.24022214 -0.26127985 -0.37129098
000170 12 86 3d c0 6a 04 b6 3f 7b 50 a8 bf ee 7c 91 3c
       -2.961308 1.4220097 -1.3149561 0.017759766
000180 7d d3 d1 3d 8a 74 92 be 42 06 d6 3e 02 2d ac 3e
       0.10245416 -0.28604537 0.4180165 0.33628088
000190 d1 17 0f 3e 5c a4 26 3e eb bb 4e 3f bd ea 63 3e
       0.13973929 0.16273636 0.8075549 0.22257514
0001a0 15 a7 a4 bf ca e6 16 3e 58 b6 ea bc be 86 ac 3f
       -1.2863489 0.14736477 -0.028651401 1.347862
0001b0 c5 b6 60 bf 2d be cc 3c b6 28 a4 bf 65 88 a4 bf
       -0.87778884 0.024993027 -1.2824924 -1.2854124
0001c0 12 5c e7 3e 0a ec 35 bf fa be 07 3f 8b 07 8a 3a
       0.45187432 -0.7106329 0.5302578 0.0010530812
0001d0 96 b9 7d bd c6 3b 8b bf 39 98 3e bf 75 9b 6e bf
       -0.061944567 -1.0877616 -0.74451023 -0.9320596
0001e0 ae 3c 83 bf 37 3e 20 bf 01 35 1a bf 24 2a 60 3f
       -1.0252893 -0.6259493 -0.6023713 0.875643
0001f0 e9 56 e0 3e 17 4c 30 bf e0 7a 36 3c 2f 9b fe 3d
       0.43816307 -0.68866104 0.011137694 0.12431943
000200 da 32 9d bb 60 36 d9 be b8 59 b5 3e 4f f6 11 3e
       -0.0047973217 -0.42424297 0.35420012 0.14254116
000210 bf e5 45 40 0e 15 dd bf 5d e4 20 bf 36 11 92 bf
       3.0921476 -1.727205 -0.62848455 -1.1411502
000220 19 e9 cd 3e 57 04 5d 3e 42 60 a8 3e ce 6d 0c be
       0.40216902 0.21583687 0.3288594 -0.13713762
000230 10 77 f9 3c bc 51 a8 3e 74 f4 d4 be e0 20 22 3e
       0.030452281 0.32874858 -0.41592753 0.15832853
000240 8d 44 55 3e 5d 79 50 bf 57 11 24 3f d1 a0 82 3e
       0.20826931 -0.81435186 0.6408896 0.25513318
000250 88 6c 55 bf 7a 62 a4 be 1f 80 68 bf 5a 76 51 bf
       -0.8336873 -0.32106382 -0.908205 -0.81821215
000260 08 8b 69 bf fa e8 61 3e 5d 89 89 bf 85 16 b8 3e
       -0.9122777 0.2206153 -1.0745045 0.3595468
000270 d0 7d 4a bf d9 9b 4d 3e 3c 19 9d be 1d a9 26 3c
       -0.79098225 0.20078982 -0.30683315 0.010172156
000280 f9 a4 aa bf 9e d3 d1 3d 35 c7 bd be 57 cb 00 bf
       -1.3331596 0.10245441 -0.37066045 -0.5031027
000290 fc 90 a8 3d c5 10 47 3e 60 7a 76 bf f9 fa 69 3f
       0.082307786 0.19439991 -0.9628048 0.9139858
0002a0 87 b0 08 3f a5 65 dd 3d b8 c1 a8 be fd b2 b3 bf
       0.5339436 0.10810403 -0.32960296 -1.4038998
0002b0 d1 6f 12 bf 02 ad a2 bf 18 62 85 3e 8d c3 21 bf
       -0.5720187 -1.2709048 0.26051402 -0.6318901
0002c0 f2 7e e6 be b9 88 91 be 7e 17 96 be be 20 c9 3e
       -0.45018727 -0.28424624 -0.29314798 0.39282793
0002d0 86 99 11 bf 00 40 fe 3e a3 22 3d bf 01 c3 19 bf
       -0.56874883 0.49658203 -0.73880976 -0.6006318
0002e0 4f ab 00 bc f2 ce ce bf 42 b4 cb bd f1 d4 60 bf
       -0.007853343 -1.6156905 -0.09946491 -0.8782492
0002f0 9f 5a 42 bf 68 74 06 3f 15 88 b7 bf 58 59 c3 3e
       -0.75919527 0.5252137 -1.4338404 0.381541
000300 fd 8c 48 3e 60 88 37 bf 59 20 47 bd 2d dd f5 be
       0.19585033 -0.71692467 -0.048614834 -0.48020306
000310 3c 38 f8 be ff 34 ac 3f a4 5e 43 bf 75 fd 63 bf
       -0.48480403 1.3453673 -0.76316285 -0.8905862
000320 6c 58 f5 3d bc 63 ba 3e d6 5a 78 bd 91 9e 42 be
       0.11979756 0.36404216 -0.060633503 -0.19005801
000330 d4 b8 f7 be a4 89 58 bd 41 10 13 be 93 13 9b 3e
       -0.483832 -0.05286564 -0.14361669 0.3028837
000340 a9 8e 26 bf 57 33 95 bf 16 0a 74 bf 84 9b 90 3f
       -0.6506143 -1.1656293 -0.9532789 1.129746
000350 1c 0a 5e 3f 75 dd 15 3f be d7 1e 3f 02 31 e7 3c
       0.86734176 0.5854104 0.62047946 0.028221611
000360 1d 74 29 3f 1d da 4e 3e 95 30 3c bd 5a 86 12 bf
       0.661928 0.20200391 -0.04594477 -0.57236254
000370 21 24 a6 bc 96 6e 1a 3e 9b 59 e5 3e 31 a0 7c bf
       -0.0202809 0.15081248 0.44794926 -0.9868193
000380 75 8b 3c 3f 07 66 a3 3f 4d 44 a9 3d 57 37 0d be
       0.73650295 1.2765511 0.082649805 -0.13790642
000390 32 bb 7e 3e 86 c6 05 c0 03 a5 ea bd 83 d4 99 bf
       0.24876097 -2.090242 -0.11457255 -1.2017978
0003a0 5e 2c 8a 3e 9d 0c bf 3d 5e 36 69 bf 08 65 3f bf
       0.26986974 0.09328578 -0.9109858 -0.74763536
0003b0 f4 05 79 bc d1 f8 40 be cd 45 a8 3f 78 b7 45 3f
       -0.015199173 -0.18844916 1.3146302 0.77233076
0003c0 47 2b 57 bf ce 22 10 3f bd ed ea 3d 41 b7 bc 3e
       -0.8405041 0.5630311 0.11471126 0.36858562
0003d0 0e b1 a7 bd 0a 4c 71 bd f3 f9 2d 3e cf 7d 1f 3e
       -0.081880674 -0.058910407 0.1698988 0.15575336
0003e0 6e 2f 75 be ff 22 3e be 5c 50 4e 3e 12 46 8a 3d
       -0.23943874 -0.18568037 0.20147842 0.06751646
0003f0 d9 0a 73 bd 9c c5 8a be 93 be 2d be 5d 4a 8b bd
       -0.059336517 -0.2710389 -0.1696723 -0.06801293

net.0.bias f4 [128]
000000 e4 f5 c5 bc 52 1d 16 3e 69 75 d2 be f9 1e 41 bf
       -0.024165101 0.14659622 -0.41105202 -0.75437886
000010 43 83 fb be c1 6f e2 bd 14 97 7d be 06 ff 42 3d
       -0.49123582 -0.110564716 -0.24764663 0.04760649
000020 8d 23 a5 be 65 16 ab be eb 3a 89 3d d3 62 3d 3d
       -0.32253686 -0.33415523 0.06700691 0.046236824
000030 5d 25 b6 3e 9f 7a ff be 1a fb 0b bd 4e e9 9b be
       0.3557538 -0.4989824 -0.034175016 -0.30451435
000040 74 a3 27 be 9a 5f d1 3d f5 41 22 be c3 fd 4a be
       -0.16370946 0.10223313 -0.15845473 -0.19823365
000050 92 e8 a5 be c0 65 b0 bd 95 57 48 3d 4d 2a c6 3d
       -0.32404 -0.08613157 0.04891165 0.09676037
000060 33 da 49 be bd 6a 10 3e ae 52 ff 3e 86 d7 e6 3d
       -0.19712143 0.14103217 0.49867767 0.112715766
000070 11 ca bf 3e 2a 47 ad be 91 cc cb 3e 0f 77 04 3f
       0.37458852 -0.33843356 0.3980451 0.5174417
000080 af 74 c4 3c 37 b6 2e 3e 4f e1 aa 3e 3c 5b 13 bd
       0.02398142 0.17061697 0.33375022 -0.03597568
000090 a0 8e 5f 3e c8 89 55 3e 88 d7 56 bd 18 6c 4f 3e
       0.21831751 0.2085334 -0.05245164 0.20256078
0000a0 86 39 80 be 20 01 1e 3e 51 a8 27 be 35 8a 0c be
       -0.25043887 0.15430117 -0.16372801 -0.13724597
0000b0 9c 68 04 bf 51 b6 d9 bd 25 aa d1 be 01 0d 93 be
       -0.5172212 -0.10630477 -0.40950122 -0.2872086
0000c0 0f 6e 25 3f da a5 28 3e 6b 40 8a be 9f f7 33 be
       0.6462106 0.16469517 -0.27002272 -0.17574929
0000d0 dc d1 2e 3f ea 87 4c 3f b8 ee 87 3e ec 28 27 3d
       0.6828897 0.7989489 0.26549315 0.04081051
0000e0 7e bb d7 3e 9f 1f 5d 3f dc 9c b3 3e b6 dd 31 be
       0.42135233 0.86376375 0.35080612 -0.17369732
0000f0 ea 67 5a 3e 0f 23 0e be b3 87 34 3e 29 42 3c bd
       0.21328703 -0.13880561 0.1762989 -0.045961533
000100 56 5e 1e 3f 54 bf 90 be f9 21 3d be 29 e5 2a 3e
       0.61862695 -0.28270972 -0.18469991 0.1668898
000110 eb 54 10 3f 2c 4f 0e bc 87 72 64 be 6f b2 a4 bc
       0.56379575 -0.008685868 -0.22309314 -0.020104615
000120 b6 a9 ec be dc 38 1c bf cb 46 1d 3d 81 bf 6f 3e
       -0.4622323 -0.6102426 0.03839759 0.23412897
000130 9d 82 52 be d7 b5 85 3d 25 c5 07 bf 2f ea c1 3e
       -0.20557638 0.06528824 -0.53035194 0.3787398
000140 8f c7 19 be 2f 88 2f 3e 2d d5 02 3f 7d 8f 3f 3f
       -0.15017532 0.17141794 0.5110653 0.7482832
000150 91 18 1f 3f ba 71 01 bf c4 4a aa bd 66 91 f8 3e
       0.6214686 -0.5056416 -0.08315042 0.4854843
000160 d8 15 f8 bc 26 af 48 3d f8 c3 44 3e 13 a9 16 3f
       -0.030283853 0.04899516 0.19215381 0.58851737
000170 9a 03 73 be 76 cc af be c4 e7 7f be b8 51 90 be
       -0.23731843 -0.3433568 -0.24990755 -0.28187346
000180 e7 04 87 be 71 c0 0a bf 7d f8 42 3e 2a f6 d1 3e
       -0.26370928 -0.5419989 0.19040103 0.4100812
000190 ab 80 dc bd 43 a7 b7 bd e6 19 75 3d a5 f8 56 be
       -0.10766729 -0.089674495 0.05983915 -0.20993288
0001a0 93 7a f1 3d c5 06 0f 3f 61 8a 64 bd 4a eb b6 3e
       0.11790957 0.55869704 -0.05579603 0.35726386
0001b0 18 c2 3c 3f fe 13 ac 3e 9e a1 da be 31 d8 2c 3e
       0.73733664 0.33609003 -0.4270143 0.16879345
0001c0 ff 66 46 3d c6 ca 55 3e 21 19 9a 3e 1e ba 82 3f
       0.04843807 0.20878133 0.30097297 1.0213048
0001d0 11 76 81 be 4f 0e 48 3e e4 49 5d bf 21 c4 a5 be
       -0.2528539 0.19536708 -0.86440873 -0.32376197
0001e0 0b 0d 9b be 45 7e ad 3e 7a 7a a6 3e 74 6e 74 be
       -0.30283388 0.33885399 0.32515317 -0.2387026
0001f0 f8 63 ca be b3 51 21 bf f7 54 c7 3e be 88 84 be
       -0.39529395 -0.6301529 0.3893201 -0.25885576

net.2.weight f4 [128, 128]
000000 68 21 41 be 67 6d e5 3e 20 e2 3c bf 3c 4b f5 bf
       -0.188604 0.4481003 -0.7378254 -1.9163585
000010 9f 09 39 3f fe 81 9e 3f 34 a4 ad bd 31 2a e8 bf
       0.72280306 1.238342 -0.08478585 -1.8137876
000020 dc d7 dd be 68 4a 12 c0 15 a0 af bd 8c 57 2c 3f
       -0.4332875 -2.2857914 -0.08575455 0.67321086
000030 8f a3 3d 3f 67 e8 aa 3f b2 c3 a5 be f7 07 8e 3f
       0.74077696 1.3352174 -0.32375866 1.1096181
000040 26 c1 4b be ae 5f 3b 3d 1e 00 1e 3f 7f df 77 3c
       -0.19897899 0.045745544 0.6171893 0.015128969
000050 5e 6d 19 3f 87 98 89 3d d8 cc 02 bf 8b 81 11 40
       0.59932506 0.067185454 -0.51093817 2.2735317
000060 bc a6 17 3d cf a3 a2 3f 4d 91 90 3d 71 b0 03 40
       0.037024245 1.270624 0.07058964 2.0576441
000070 bc 62 6f 3f 46 6f 21 be f9 50 f5 bd 77 24 c9 be
       0.9351003 -0.15765104 -0.11978335 -0.39285633
000080 93 af 55 be 43 04 54 be c5 68 e3 bf 7d c3 20 bf
       -0.20867757 -0.2070475 -1.7766348 -0.6279829
000090 e5 25 db 3b 88 6c a2 3f bc ae 8e bd f2 99 c8 3e
       0.006687867 1.2689371 -0.06966922 0.3917995
0000a0 b2 b9 03 be ff 11 bd bf cb 33 72 bf 05 d0 3c be
       -0.12863806 -1.4771117 -0.9461028 -0.18438728
0000b0 57 1f b5 bf 8c 23 e9 3c 3f c5 d3 3e 3f 1e 67 3f
       -1.4150189 0.028459333 0.41361424 0.90280527
0000c0 06 60 82 be 3d c1 39 bf a1 85 be bc 52 36 d6 bd
       -0.25463885 -0.72560483 -0.023257079 -0.104595795
0000d0 64 52 44 3e ce 34 04 bd df 9d 85 bf 95 98 5d bc
       0.19172055 -0.03227692 -1.0438803 -0.013525148
0000e0 08 dd e8 3f 89 df c1 be c8 14 b7 bc 34 55 18 3d
       1.8192453 -0.37865856 -0.022348776 0.03719063
0000f0 42 59 0d bf a3 5c 01 3c 06 c9 fe bb 50 a2 08 3f
       -0.5521432 0.0078956215 -0.0077754287 0.5337267
000100 02 d5 6d 3f cd 60 f7 bd 57 1c 47 be 75 e6 4a bf
       0.9290315 -0.1207901 -0.19444405 -0.792579
000110 dd 24 8e be 46 7f 28 3f dd 9c c2 3c 43 0d 2f 3c
       -0.277625 0.65819204 0.023756439 0.010684314
000120 31 f1 bb 3f c1 66 03 bf 97 71 2f 40 eb f9 35 be
       1.4682981 -0.51328665 2.741308 -0.17771117
000130 b4 e3 54 bd a3 80 7f bd d5 c9 a1 be 1b 44 e1 3f
       -0.051974967 -0.062378537 -0.31599298 1.7598909
000140 35 75 44 be 9f ce d3 3d 9c 79 66 bd 45 7f fb bc
       -0.19185336 0.10342144 -0.05626832 -0.030700335
000150 e1 30 1f 3e d2 03 a8 bf 23 46 55 bf b0 01 3a 3f
       0.1554599 -1.3126166 -0.83310145 0.72658825
000160 ee 54 4c ba b2 6e b1 bf 45 ef 90 be c1 0e 51 bb
       -0.0007794638 -1.3861907 -0.28307548 -0.0031899663
000170 28 64 15 3d 32 94 48 bf b0 d0 b0 bc db c8 7d bf
       0.03647247 -0.7835113 -0.021583885 -0.99134606
000180 c9 3c bc 3e 63 e6 a1 bf 84 91 e4 be f3 28 f7 3f
       0.36765125 -1.2648433 -0.4464227 1.9309372
000190 7f 41 0f 3f 9f ba fe be 90 26 35 bf 85 3f a7 3e
       0.55959314 -0.49751756 -0.70761967 0.3266565
0001a0 92 37 a4 be a5 d7 52 bd cc b3 75 3c 21 85 30 3e
       -0.32073647 -0.051475186 0.01499648 0.17238285
0001b0 ce a9 82 bf 70 53 42 3e 10 6f 3f bf 04 5a 80 3e
       -1.020807 0.18977141 -0.7477884 0.25068676
0001c0 b6 95 cf bd 1c 9b 2b 3e 98 c3 c8 bd 03 71 a6 be
       -0.10135977 0.16758388 -0.098029315 -0.32508096
0001d0 88 1e e0 3e 41 d1 a2 3e f2 52 cd bb 55 e8 77 bd
       0.43773293 0.31800273 -0.0062659914 -0.060524303
0001e0 73 0c c5 bd 3c b1 46 3e c8 2c 34 3e 63 b2 1c bc
       -0.09621515 0.19403547 0.17595208 -0.009564015
0001f0 b0 7a 89 bf 71 86 85 bf f3 59 bf 3e 43 1b a6 be
       -1.0740566 -1.0431653 0.37373313 -0.32442674
000200 7d 04 ae bd e6 97 5c 3f 0a cc bd be d1 07 e5 bf
       -0.0849695 0.8616928 -0.37069732 -1.789301
000210 c6 48 ef 3e a2 12 94 3f 25 31 b0 3c 85 69 fe bf
       0.4673521 1.1568186 0.021507809 -1.9875952
000220 3b 7a 25 bf ed 11 a9 bf 75 d7 85 bf 84 40 27 3f
       -0.64639634 -1.3208596 -1.0456377 0.6533282
000230 2c 9d 94 3f 24 12 a4 3f 94 57 b9 3e b2 00 98 3f
       1.1610465 1.2818036 0.3619963 1.1875212
000240 c9 5f 97 be f5 4c 57 3f 14 21 7c 3d 30 e9 b1 3d
       -0.29565266 0.841018 0.061554983 0.08687055
000250 33 04 62 3f e3 74 18 be dc c1 8a bf 89 8c a1 3f
       0.8828766 -0.14888339 -1.0840411 1.2621013
000260 38 77 8d 3d 68 17 82 3f 22 df 5d 3e d7 f1 85 3f
       0.06907505 1.0163393 0.2166715 1.0464429
000270 2d 0c d0 3f 56 2c b3 bd f9 53 42 be de f3 93 be
       1.6253716 -0.08748691 -0.18977346 -0.28896993
000280 a4 8d 0e bf 38 bb 12 3f 3c f3 c4 be ed 9e dc be
       -0.55684876 0.57316923 -0.38466823 -0.4309
000290 ac 4f c3 bd 13 54 0b be 8f f2 99 bd 53 c9 3d 3f
       -0.095366806 -0.1360629 -0.075169675 0.7413532
0002a0 1b 9d f9 be 3c 14 44 bf dd 6a 39 bf ef 21 41 bf
       -0.48752674 -0.76593375 -0.72428685 -0.75442404
0002b0 6f 95 a8 bf e7 b6 9b bc 33 5b 13 3f f7 0e c0 3f
       -1.3170604 -0.019008113 0.57561034 1.5004567
0002c0 6d 18 05 bd 1f ee 8f bf 29 b6 10 bc 11 cd 20 bf
       -0.032493997 -1.1244544 -0.008832493 -0.62812907
0002d0 28 45 fc 3e f8 b8 57 bc b1 32 57 bf 9a 71 27 3e
       0.49271512 -0.013166659 -0.84061724 0.1635193
0002e0 0b 33 81 3f 36 7b 7d be 33 63 eb 3e 8e 41 84 bd
       1.0093702 -0.24754032 0.4597412 -0.06457816
0002f0 4d 68 a3 be d6 c3 fa 3b 23 99 6c 3a 04 74 bd be
       -0.31915513 0.00765274 0.00090255047 -0.37002575
000300 57 3a 66 3f 0e 8c be bb a9 cd 44 3f 30 1c 0b bf
       0.8993277 -0.0058150357 0.7687631 -0.54339886
000310 e9 25 95 3d 4f aa 0e 3f f4 99 b2 3d 33 b9 22 3d
       0.072826214 0.5572862 0.087207705 0.0397274
000320 7d 05 ab 3f a4 e3 e1 be f3 70 32 40 84 08 6a 3d
       1.336105 -0.4411899 2.7881439 0.057137027
000330 8e 82 62 3d fe b0 49 3d 14 0a 3d bf 56 17 8f bf
       0.055300288 0.04924106 -0.73843503 -1.1178997
000340 5c 65 0e be 5c 1e c1 bd eb 7a 14 3f 31 34 47 bf
       -0.13905853 -0.09429619 0.5800006 -0.7781401
000350 57 b2 69 bf ad 88 a7 bf 2f 92 b9 bf 59 51 68 3f
       -0.9128775 -1.3088585 -1.4497737 0.90749127
000360 80 c6 6b 3c 1f 39 34 3e 55 6b 32 3f 0b 1f e8 3d
       0.014390588 0.17599915 0.69695026 0.11334046
000370 ba 3b d3 3b d9 b1 fa bd 7f 0b 1d 3d 80 50 30 bf
       0.006446329 -0.12240953 0.03834104 -0.68872833
000380 2c 82 6b 3e ee 4f 13 c0 5f 31 bc 3d c4 b8 b1 3f
       0.22998875 -2.3017535 0.09189104 1.3884511
000390 80 29 17 3f 6d 03 80 3f 25 a0 89 be 40 b1 3b 3f
       0.590477 1.0001045 -0.26879993 0.7331734
0003a0 5f 45 2b 3e 24 81 e2 3e 62 33 03 3d 7f 28 ae 3e
       0.16725682 0.4423915 0.032031424 0.3401527
0003b0 68 ef 93 bf 14 a6 66 bf ae 85 5b bf c8 15 ab bd
       -1.1557436 -0.90097165 -0.85750854 -0.08353764
0003c0 6c 09 5c 3e b6 41 38 3e fc 05 04 bf db fa 31 bf
       0.21487969 0.17993817 -0.5157163 -0.695234
0003d0 95 0d fe be 91 b1 e7 3e 7c 59 2c be e9 52 42 3f
       -0.49619737 0.4525266 -0.1683101 0.7590776
0003e0 bf 1a 59 3e 79 af e7 3e 61 db 5f 3e da 1a 19 bd
       0.21201609 0.45251063 0.2186103 -0.037379123
0003f0 48 36 fe 3e 65 2e b2 be 13 db da 3e db 52 01 3f
       0.49650788 -0.3480102 0.42745265 0.5051705

net.2.bias f4 [128]
000000 79 b6 29 3f 5e 41 33 3f 56 16 c3 bc b3 ab 0a bd
       0.66294056 0.7002162 -0.023814362 -0.03385515
000010 bc 02 1e 3f f4 54 08 3f fa 92 62 3f 96 6e f9 bd
       0.6172292 0.5325463 0.8850552 -0.12179296
000020 90 2d 3c 3f ea 9b 80 3f 19 c4 80 3f 17 eb 26 3f
       0.7350702 1.0047581 1.0059844 0.6520247
000030 b4 95 aa be 5e 74 57 bd 70 be 86 3d 71 af 5a 3f
       -0.3331734 -0.05260121 0.06579292 0.8542395
000040 21 58 d1 bd f5 4f 3e bb e2 68 89 3e 8f 01 f8 bd
       -0.102218874 -0.0029039357 0.26837832 -0.12109672
000050 eb 12 d5 bd b4 68 2a 3f da c0 0f bd 67 1f 26 3f
       -0.10403999 0.66566014 -0.035096027 0.64891666
000060 6b d5 00 bc d2 93 d5 bd c4 fa 3e 3f dd 8d 67 be
       -0.007863383 -0.10428585 0.7460139 -0.2261271
000070 fa d2 29 bc 98 5f 38 3f 49 df c1 bd 9b 26 0b bc
       -0.010365242 0.72020864 -0.094664164 -0.008493091
000080 0d 60 ab 3e 7b 05 8c 3f 99 de b9 3e b7 fa 42 3f
       0.33471718 1.0939173 0.3630264 0.7616381
000090 af 48 d3 bd d1 52 1b bd 32 44 ec bd 09 31 1b 3e
       -0.10316598 -0.037920777 -0.11536445 0.15155424
0000a0 75 4b 9e 3d 37 6b 51 3f 43 dc 5a be 17 87 40 3f
       0.07729236 0.8180422 -0.21373086 0.7520613
0000b0 ba 81 84 3d d4 95 96 bd 00 55 67 be ef 5c be bd
       0.06470056 -0.07352796 -0.22591019 -0.092950694
0000c0 ab 75 79 3f da 21 b4 3f 78 f4 21 3f 30 88 3f 3f
       0.9744517 1.4072831 0.63263655 0.7481718
0000d0 6b 77 82 3e 5c 8b 05 3f 22 57 41 3f 02 2b 86 bd
       0.25481734 0.5216577 0.7552358 -0.06551172
0000e0 e3 b3 94 3f 7a 8f 40 3f 66 cd 0b bd 22 cf 6c be
       1.1617397 0.7521893 -0.03413143 -0.2312589
0000f0 87 63 83 bd 8d bf 56 3c bb 35 51 3e a5 9d 57 3f
       -0.06415468 0.013107193 0.20430653 0.8422492
000100 38 4c 50 3f ca 90 5f bd 06 8e 49 3f 58 62 bb 3e
       0.813663 -0.05458144 0.78732336 0.36598468
000110 e1 18 76 bd 16 5c ae 3c e4 02 88 3f d8 13 57 3f
       -0.06008232 0.021284144 1.0625882 0.84014654
000120 a4 cd 4b bf e6 d0 45 3f fc 2e be 3e 68 fd b8 bc
       -0.7961066 0.7727188 0.3714522 -0.022581771
000130 b7 5f b3 bd 94 f8 12 3f 90 1c 4a 3f b5 3c 5d bd
       -0.087584905 0.5741055 0.7894983 -0.054012973
000140 0c 85 9c 3e c5 ee a5 bd c0 e4 2d 3c 79 a5 69 3e
       0.30570257 -0.08102182 0.01061362 0.22817029
000150 2d d1 b7 bb de 6b da 3e d2 65 37 3f df 84 bc bc
       -0.0056096525 0.4266042 0.7163974 -0.023012577
000160 20 74 01 be 96 6a 9b bd c6 4d 1e 3d 6f bb 0c bd
       -0.12641954 -0.07588689 0.03864839 -0.034358438
000170 24 ca 6b bc df a7 25 3f 4e 34 4d 3f df ba 9a 3e
       -0.014391456 0.64709276 0.80157936 0.30220696
000180 7e 13 c1 3e 6d aa 57 3e f8 ea 38 3f 75 8e 06 3d
       0.37710184 0.21061106 0.72233534 0.0328507
000190 8b cd 9b 3e c4 7c d1 bc 87 e0 28 bd 5d c9 04 be
       0.30430254 -0.025572188 -0.04122975 -0.12967439
0001a0 61 f6 52 3f 7b 14 c5 be 19 be b5 bd 18 9c 39 3d
       0.82407194 -0.38492188 -0.08874149 0.04531488
0001b0 09 6e e7 bd b6 81 00 be dd c1 65 3f 09 36 1c 3f
       -0.113002844 -0.12549481 0.89748937 0.6101995
0001c0 07 5c fd 3e 5c 17 db bd d4 e1 de bd e7 00 24 bd
       0.49484274 -0.10697815 -0.10882917 -0.040039923
0001d0 f1 d2 4b 3f ea e0 10 3e 72 8e aa bd 6a 2e 35 3f
       0.79618746 0.14148298 -0.083279505 0.7077395
0001e0 f4 f1 86 bd b6 a0 42 3d 94 40 a4 bd 51 6d c8 bd
       -0.06589118 0.047516547 -0.0802013 -0.097864754
0001f0 fb 53 e3 bd de c9 3a 3f 72 52 0c 3d aa c1 13 3c
       -0.111000024 0.72964275 0.034258313 0.009018341

net.4.weight f4 [6, 128]
000000 88 e1 19 3e 41 5f c0 3d 61 bb c2 3c cb 56 36 bc
       0.1502744 0.09393168 0.02377099 -0.0111290915
000010 86 61 ae 3f e6 50 79 40 ca 4b 9c 3e 13 71 86 bc
       1.3623512 3.8955626 0.30526572 -0.01641134
000020 45 ff b1 40 75 90 9b 3f 10 0b 98 c0 5c 55 d2 3e
       5.562411 1.215346 -4.7513504 0.4108075
000030 b6 9c 9a 40 df 6d 87 bd 76 86 66 bd 39 f6 e3 3e
       4.8316298 -0.06612753 -0.056280576 0.4452379
000040 f2 8f 5e bc 9f 1d 21 bd 91 d9 77 3f 0a 61 2a 3c
       -0.013584124 -0.03933489 0.96816355 0.0103991125
000050 6e da c0 3c dc 95 83 3e 54 ed 6b 40 e3 e7 b0 c0
       0.023541655 0.2570027 3.6863604 -5.5283065
000060 54 e5 86 3a 0a 08 36 bd 38 12 46 40 10 10 89 3f
       0.0010291734 -0.04444126 3.094862 1.0708027
000070 dd bb 92 bd 5f 45 9f 3e ea e8 11 3a 81 21 19 3c
       -0.07164738 0.31107613 0.0005566018 0.009346367
000080 d0 5a f6 3f 5d 87 96 c0 35 ba 1a c0 c4 7a 19 40
       1.9246464 -4.704024 -2.4176152 2.398118
000090 f4 f4 a5 bc 77 74 c2 3a ef 53 7f 3c 90 c2 40 40
       -0.020258404 0.0014835735 0.015583976 3.0118752
0000a0 ba d0 d9 bf 16 78 97 3e 4d c1 4d 40 02 f8 86 40
       -1.7016823 0.29583806 3.2149231 4.2177744
0000b0 5e 7c 31 40 1b c0 21 3d a3 f7 98 3e 83 6c 81 bd
       2.7732158 0.039489847 0.29876432 -0.06319525
0000c0 58 1f 81 3f 4b 05 f4 3f 4d 0c 09 3e 37 53 46 40
       1.008769 1.9064115 0.13383599 3.098829
0000d0 a5 57 32 c0 47 7a 11 40 2c fa 43 3e 9d a1 63 3d
       -2.7865994 2.2730882 0.19138402 0.05557405
0000e0 d9 c3 b7 3f 60 93 8a 3e 75 03 a2 bb ad 1d 78 bf
       1.4356643 0.27065563 -0.0049442598 -0.9692028
0000f0 bd 0d 8f bd db 46 6d 3c 4e 18 89 c0 e6 1e bf 3e
       -0.06985042 0.014482225 -4.284217 0.3732826
000100 a5 a0 6a 3e 9e 00 55 3d 03 0f 15 3d 19 4d bb 3f
       0.22912844 0.05200254 0.03639127 1.4632903
000110 d8 d9 c1 40 a0 05 aa 3d 9b 17 fd 3f 27 62 92 3e
       6.0578423 0.08301854 1.9772829 0.2859051
000120 89 2f c9 bf 05 ab 75 3e 19 b5 c5 3e ee 6a 7c 3d
       -1.5717632 0.2399102 0.3861473 0.061625414
000130 da ab 8a 3b ea 22 ac 3e c9 d2 35 c0 a0 69 7c bd
       0.004231912 0.33620387 -2.8409903 -0.06162417
000140 67 82 82 bf 64 39 31 40 01 e7 6b bc d7 73 f9 be
       -1.0196046 2.7691278 -0.014398337 -0.4872119
000150 49 b4 f3 bc f2 d1 83 40 0b b7 2a 40 6c db 4c 3c
       -0.029749053 4.119378 2.667422 0.012503486
000160 d0 3b d1 3c 5c c9 34 bd 63 cf a4 ba 9d d3 9f 3f
       0.025541216 -0.044137344 -0.0012574013 1.2486454
000170 b2 99 54 40 fb da 5e 40 1d 09 1f 40 86 66 71 40
       3.3218808 3.4821155 2.4849312 3.7718825
000180 2f 14 93 3f ed 95 8d bf 37 60 40 3f 86 8b 7f bd
       1.1490535 -1.1061379 0.7514681 -0.06238892
000190 33 f9 58 40 70 06 bf bc b8 b9 03 3c b8 7d 92 40
       3.39021 -0.0233185 0.008039884 4.5778465
0001a0 57 70 a7 3e 78 be 69 40 02 b9 b6 bb ba 85 b2 3b
       0.32702896 3.6522503 -0.005576254 0.0054480704
0001b0 bc e6 fd 3c 25 8b c9 3f 91 20 83 3e 0c 06 93 3f
       0.030993812 1.5745589 0.25610784 1.148622
0001c0 7c b7 4b 40 c4 ec 83 3d f8 a6 b7 bd 92 0c 7c 40
       3.183074 0.06441644 -0.08967394 3.9382672
0001d0 9a fc ae 3e ee 55 5d 40 d7 5b 04 3d b0 60 c3 bd
       0.34177095 3.4583697 0.032314148 -0.09539926
0001e0 07 7b 61 be b2 5a f0 bb 08 cb 74 3d d8 5d 7f 3d
       -0.22019587 -0.0073350305 0.05976394 0.062345356
0001f0 ba d7 cb 3c 36 b0 91 3e e8 3e f7 bc d9 b1 a4 bc
       0.02488314 0.2845475 -0.030181363 -0.020104336
000200 db 59 03 be 2f 4c 18 3f 9d a2 0c bd 13 c8 08 bd
       -0.12827246 0.59491247 -0.034334768 -0.03339393
000210 08 c0 98 3f 20 6e 7e 40 fb c2 ed 3e 4c 4c 78 3d
       1.1933603 3.9754715 0.4643782 0.060619637
000220 c5 88 c1 40 00 96 b6 3f 82 8e a8 c0 b6 af 4b 3e
       6.0479455 1.4264526 -5.267396 0.19891247
000230 2d 33 65 40 33 30 f7 3c d1 be 88 bd 7e 93 24 3f
       3.5812485 0.03017435 -0.0667702 0.64287555
000240 74 b9 b5 bc aa 1b d2 3d a9 9a f5 3f f3 0b 1a bd
       -0.022183158 0.10259183 1.9187824 -0.037609052
000250 0f 01 7a 3d f6 71 f0 3d 9e 36 3e 40 a3 04 a6 c0
       0.061036166 0.11740486 2.9720836 -5.188066
000260 fe cc f9 3c 73 b6 6f 3d 8d ab 44 40 74 25 57 3f
       0.030493256 0.058523607 3.0729706 0.84041524
000270 8c fb a5 bc a0 93 fc 3e ce d1 9d bd ac 1c ce 3b
       -0.020261548 0.4933138 -0.07706033 0.006290039
000280 d9 6c ee 3f 70 df 8b c0 9a 8d 40 c0 eb e0 21 40
       1.8626968 -4.371025 -3.0086427 2.529353
000290 0b 79 bd 3c 3f fa b1 bd 0b d3 80 bd 07 fd 24 40
       0.023129007 -0.08690309 -0.06290253 2.5779436
0002a0 99 8c 5b bf b0 3d 8a 3e 80 a8 56 40 43 51 93 40
       -0.8576141 0.2700019 3.3540344 4.6036696
0002b0 ab e5 1e 40 6e c1 69 3d 88 71 58 3f dc 88 ee 3c
       2.4827678 0.057069235 0.84548235 0.029117994
0002c0 86 0a 8a 3f e0 b9 f4 3f 06 f9 57 3e 4e 6f 5b 40
       1.0784461 1.9119225 0.21091089 3.4286685
0002d0 c1 e9 e9 bf 95 04 08 40 ef 84 90 3e b6 fd 97 bd
       -1.8274461 2.1252797 0.2822642 -0.074214384
0002e0 c7 fe 90 3f 7f bf dd 3e 7a c3 74 3d d3 d6 89 bf
       1.1327752 0.43310162 0.059756733 -1.0768684
0002f0 82 bf 03 be ef 59 29 3d 59 72 54 c0 fa 13 30 3e
       -0.12866023 0.041345533 -3.3194792 0.1719512
000300 e0 ce 3a 3e e9 7e 84 3d 38 8c 1c 3f 57 7c c8 3f
       0.18242979 0.06469519 0.61151457 1.5662946
000310 4e 8b bb 40 6f 92 5f bd 6e 6a e9 3f d9 99 90 3e
       5.860755 -0.05458301 1.8235605 0.28242376
000320 f1 91 a1 bf b1 ff ca bd cf e8 e5 be a3 e0 ca bc
       -1.2622663 -0.099120505 -0.4490418 -0.024765318
000330 f0 cf 70 bb f4 51 01 3e 15 3b 15 c0 0f c0 ea 3b
       -0.0036745034 0.12628919 -2.331731 0.0071640084
000340 33 39 77 bf ef b5 50 40 b0 3c 29 bd ca 5c 8b bf
       -0.96571654 3.2611043 -0.04131764 -1.0887692
000350 39 59 91 bd c8 b7 47 40 92 52 3e 40 56 58 43 3d
       -0.07097096 3.120592 2.9737897 0.047691666
000360 14 14 a4 3d dd f5 b4 3c 94 4b 2e 3d 19 a4 bd 3f
       0.08011642 0.022089893 0.042552546 1.4815704
000370 5f e4 5a 40 2c 2e 6b 40 4c 75 21 40 24 1a 36 40
       3.4201887 3.674693 2.5227842 2.8453455
000380 84 b5 c7 3f 37 be 63 bf 5b 24 25 3f 0e d1 bf bc
       1.5602269 -0.8896212 0.645086 -0.023415115
000390 b6 77 77 40 38 76 aa bd 2a b8 50 bd 5c 1d 7f 40
       3.8666816 -0.0832333 -0.050956883 3.986167
0003a0 53 a8 3e 3d 6f df 85 40 a5 f9 7c bd 00 ac aa 3d
       0.046547245 4.1835246 -0.061761517 0.08333588
0003b0 2c 0a 40 bd b1 e2 ad 3f a5 c9 96 3e fa b6 60 3f
       -0.0468847 1.3584806 0.29450718 0.877792
0003c0 3c 31 68 40 9f 24 ca 3c 97 ec 51 3d 06 cc 77 40
       3.628005 0.024675665 0.05125102 3.8718276
0003d0 0f 84 8c 3e ee 40 59 40 5e da 5c 3d 3d ef 06 bd
       0.27444503 3.394588 0.05391919 -0.032943
0003e0 69 22 50 bf 5b 58 1f 3b 9e c6 e5 bc d1 c7 8c 39
       -0.81302506 0.0024314139 -0.02804881 0.00026851756
0003f0 85 d4 15 3c e8 dc f8 3e 13 c9 4a 3d 3c cc 01 bd
       0.009144907 0.48606038 0.049508166 -0.031688914

net.4.bias f4 [6]
000000 9a 98 3f 3f fd 14 53 3f 0e 8d 56 3f 7e db 69 3f
       0.74842227 0.824539 0.8380898 0.91350543
000010 f3 31 4e 3f 1b df 71 3f
       0.80544966 0.94481057
