rl/models/final_model_run1.pth (torch, 79489 bytes, 6 tensors)

net.0.weight f4 [128, 13]
000000 16 01 59 be 70 a5 de bd ab 9b 75 3e e8 ec 09 3e
       -0.2119182 -0.108713984 0.23985164 0.13469279
000010 b6 c3 69 be 23 1c 5a bc cb 01 9a 3c 42 a5 7d bd
       -0.22828564 -0.013312372 0.018799683 -0.06192518
000020 f4 66 de bd e8 28 6c 3b ef 52 65 be 93 13 8c be
       -0.108594805 0.0036035124 -0.22394918 -0.27358684
000030 5d 24 68 3d 47 8a a4 be e9 53 74 c0 01 9f 3b 3e
       0.056675304 -0.32136747 -3.8176215 0.18322374
000040 78 01 9d be 6b ba 0f 3f 9c f2 b0 40 84 e6 53 be
       -0.30665183 0.56143826 5.5296154 -0.20693403
000050 45 cb b5 3d 71 22 a3 3e 73 34 8a be c3 96 1a be
       0.08876661 0.31862214 -0.2699314 -0.15096574
000060 76 ad 6e be c8 2c 1b 3e 97 d6 8c 3e aa 2e c4 c0
       -0.23308358 0.15153801 0.2750747 -6.1306963
000070 7f 31 0e 40 61 85 48 bf b7 f3 3c bf fd 72 42 c0
       2.221771 -0.7832852 -0.7380938 -3.0382683
000080 e1 64 14 bf 42 07 a8 3f 27 9b ab c0 39 a7 0e 3e
       -0.5796643 1.3127215 -5.3626895 0.13930978
000090 b2 28 a2 3f da 68 a7 be 08 d6 0d 3f 38 b2 e5 bf
       1.2668669 -0.32697183 0.5540471 -1.7945013
0000a0 a3 24 5c 40 6a 62 b4 40 8e 24 28 40 04 41 c7 bf
       3.4397361 5.6370134 2.6272311 -1.5566716
0000b0 b1 8b b4 3f 18 06 f9 3f 68 e6 f8 bf 9a c4 8f bf
       1.410513 1.9454985 -1.9445314 -1.1231873
0000c0 08 4d c2 3f 27 51 65 bf 0e e2 66 c0 c8 d4 0b bf
       1.5179758 -0.89576954 -3.6075473 -0.54621553
0000d0 e0 39 07 be 85 aa d9 3d cf 4a 2f 3e e2 8a 6b be
       -0.13205671 0.10628227 0.17118381 -0.23002198
0000e0 89 9f 2d 3c 77 43 c3 bd f4 af b0 3c 14 79 4c 3c
       0.010597118 -0.09534352 0.021568276 0.012480039
0000f0 ab 88 de 3d 09 a6 c5 bd 9d 3a 86 be 47 ea 3b bd
       0.10865911 -0.09650809 -0.26216593 -0.04587772
000100 a3 d0 99 be 21 23 8b 3e 35 74 c0 3e 5d 0b 52 40
       -0.3004199 0.2717524 0.3758866 3.2819436
000110 5b 8b c1 40 35 bd 92 bf fb f5 b0 be 7c 8a 70 c0
       6.048261 -1.1463991 -0.34562668 -3.7584524
000120 b0 8e d3 3f b2 2f 83 3e fa 26 79 3f 4a 38 1c 40
       1.652792 0.25622326 0.973251 2.4409356
000130 02 7f ad bf cd 8e 02 3f bc 5c af bd 7f d1 0b be
       -1.3554385 0.50999147 -0.085626096 -0.13654135
000140 0c 4e cb 3d ec 42 83 3e 7b 2c 6b be 8f ea 89 be
       0.09926996 0.25636995 -0.22966187 -0.26936767
000150 76 64 71 be 08 c9 5d 3e 49 9b 13 be 88 91 15 bd
       -0.23573479 0.21658719 -0.14414705 -0.036515743
000160 28 81 fc bb 04 57 9d bd c0 d0 7d 3e 16 5f 8e be
       -0.0077058263 -0.076826125 0.24786663 -0.2780692
000170 7e 7f 57 be b3 b7 ff 3d 42 8b 51 3e 80 48 0d bd
       -0.21044728 0.1248621 0.20463279 -0.03449297
000180 bc ed 06 be be f3 5c be 46 90 5d be 6e c8 47 3e
       -0.13176626 -0.21577355 -0.21637067 0.19510052
000190 86 e7 0b be 01 57 45 3e 31 7b 44 be 37 04 b7 bd
       -0.13662538 0.1927147 -0.19187619 -0.08936351
0001a0 7a fe 8a be 16 38 96 be 50 2b 09 bd 58 7c 59 3d
       -0.27147275 -0.29339665 -0.03348857 0.0530971
0001b0 49 eb 57 3d ce 42 f7 bd 06 b3 ab bd 26 51 94 be
       0.05271462 -0.12073289 -0.083837554 -0.2896816
0001c0 d5 05 90 bd bc f3 4e 3d 2e d9 25 be ec 4e 23 3a
       -0.07032362 0.050525412 -0.16196129 0.0006229717
0001d0 be 4b 75 3e 16 f4 2c 3f d3 80 48 be 4e 0d 74 c0
       0.23954675 0.67559946 -0.19580393 -3.813312
0001e0 5a 9e 33 40 96 28 c3 3e 46 45 3b bf 76 ce 51 3f
       2.80654 0.38116902 -0.7315258 0.8195566
0001f0 31 ce b2 c0 0d dc ea 3f 9b 7d 9c bf 5b 60 f9 3e
       -5.58767 1.8348404 -1.2225832 0.48706326
000200 7b 98 9c 3f 81 07 9a 3e 92 4d e1 be 09 23 b3 bf
       1.2234033 0.3008385 -0.44004494 -1.3995067
000210 c6 fc 2a 40 78 2d 1e bf 6b 8e f4 bf b0 d6 e8 bf
       2.671678 -0.6178813 -1.9105963 -1.8190517
000220 a3 85 9a be f9 4f 8b be 98 03 c2 c0 02 21 8f bf
       -0.30180082 -0.27209452 -6.0629387 -1.1181948
000230 6e 05 b3 3f 40 35 03 3f 25 3e 6e 3f 95 f8 7f bf
       1.3986032 0.5125313 0.93063575 -0.9998868
000240 48 e1 ce bf f6 37 dd 3f 3b a2 27 bf 88 b4 fe be
       -1.61625 1.7282703 -0.6548192 -0.4974711
000250 63 18 7d bf dc ad e2 bf 56 f6 83 bf 90 70 f2 3f
       -0.98865336 -1.7709308 -1.0309551 1.8940601
000260 06 53 45 c0 35 d1 fc 3c 12 ef 4a 3f 2b d4 14 40
       -3.0831923 0.030861476 0.7927104 2.3254497
000270 79 09 f4 3f fb d7 75 3f c6 36 58 40 6b 01 67 3e
       1.9065391 0.96032685 3.378343 0.22559135
000280 63 91 3f 3f ed ae 9c 3f da e1 aa bf 90 27 6d bf
       0.7483122 1.2240883 -1.3350174 -0.9263849
000290 53 f6 92 3f e4 de d9 bf ff 0a 7b be f1 09 1c c0
       1.1481422 -1.7021146 -0.24515913 -2.4381068
0002a0 36 17 10 c0 cb e8 65 c0 50 cf 3a 40 00 0c e3 bf
       -2.2514167 -3.5923336 2.9189034 -1.7738037
0002b0 06 28 38 3f f6 76 76 40 7c 0d 6d c0 d7 72 f0 3d
       0.7193607 3.8510108 -3.703948 0.11740654
0002c0 2b 65 28 be a7 52 63 3d a8 d7 8c 3e 69 ec bd be
       -0.16444843 0.055498745 0.27508283 -0.3709443
0002d0 3c f2 d2 3d bc 69 a9 3e 90 2d 2f 3f 1c 4b ef bf
       0.10300109 0.3308848 0.684289 -1.8694797
0002e0 a3 73 d0 c0 19 b1 85 c0 fb 45 b4 3f a6 07 50 3f
       -6.514116 -4.1778684 1.4083856 0.8126167
0002f0 a7 c0 a7 3f 23 bb 8d bf 71 db a8 3f 00 00 31 c0
       1.3105668 -1.1072735 1.3191968 -2.765625
000300 8d 0a f7 bf 34 47 3b 3e d4 50 9e 3e 7a fd 6a bf
       -1.9300095 0.1828888 0.30921042 -0.91793025
000310 d1 ab f1 3f bb d4 25 40 58 1d 9d c0 f3 ed dc be
       1.8880559 2.591109 -4.909832 -0.4315029
000320 30 9f 4c 40 03 42 c6 3c ab d3 9d bf 15 3f c2 bf
       3.197216 0.024201399 -1.2330221 -1.5175501
000330 49 77 bb bf 26 02 e0 3d d3 28 04 3f 34 4e b3 3f
       -1.4645778 0.1093791 0.5162479 1.4008241
000340 15 e6 be be c9 9c 48 c0 15 09 95 3f fe b0 1f 3f
       -0.37284914 -3.1345694 1.1643397 0.62379444
000350 06 27 17 3e 1b 22 ff bf 92 7b ca be 1c b7 91 3e
       0.1476098 -1.9932283 -0.39547402 0.28460014
000360 b8 c7 d8 3f 35 3e 34 c0 25 94 20 40 fb 1b 84 bf
       1.6935949 -2.8162968 2.509042 -1.0321039
000370 6e 89 f4 bf 99 0a 6c be 93 6d 53 3f b7 bd 82 40
       -1.910444 -0.23050918 0.8258907 4.0856586
000380 7d 69 bd 40 50 64 c7 bf 2d 85 9c 3f 73 e1 09 c0
       5.919127 -1.5577488 1.2228142 -2.1543853
000390 12 5b af 3e 25 38 16 40 eb a9 d3 bf bf ff 09 3f
       0.3424917 2.3471768 -1.653623 0.5390586
0003a0 8f a4 74 bf e5 87 6b bf 70 65 61 c0 d1 ca 23 c0
       -0.95563596 -0.92004234 -3.5218163 -2.559254
0003b0 79 70 a5 3f e8 95 6c c0 83 e2 d8 bf 69 01 c0 bf
       1.2924949 -3.6966496 -1.6944126 -1.500043
0003c0 e8 84 8a be 7c 89 38 40 c1 c8 c1 bf 2f 20 17 3f
       -0.27054524 2.8833914 -1.513939 0.59033483
0003d0 83 3f ef 3f a4 66 0c 3f 76 11 a5 be e0 87 51 3f
       1.8691257 0.5484412 -0.32239884 0.81847954
0003e0 3c f5 02 c0 7a 88 45 c0 21 f4 f6 bf b4 3c c3 bf
       -2.046218 -3.0864549 -1.9293252 -1.52529
0003f0 ef 29 c7 40 90 ae 2d bf b8 cc 22 be fe cb 42 3d
       6.223869 -0.67844486 -0.15898407 0.047557823

net.0.bias f4 [128]
000000 77 a3 07 bd 92 40 33 be ea 7a af 3f ac 86 67 3e
       -0.033114877 -0.175051 1.3709385 0.22609967
000010 d6 22 d9 bd 47 42 83 bf ad b3 5a be 8d ab c3 bd
       -0.106023476 -1.0254601 -0.21357603 -0.09554205
000020 d2 5c 3d be 7a ea 0a 3f be 1c 92 3e 24 0e 38 bf
       -0.1849244 0.5426403 0.28537554 -0.71896577
000030 cd 9a 0f c0 23 bd a0 be 01 a5 1d 3f 59 b2 1f 3f
       -2.2438233 -0.313943 0.615799 0.6238151
000040 d4 a6 97 be 2e c7 9a 3f 3d ee 6c 3f 99 2b ef 3d
       -0.29619467 1.2092035 0.9255102 0.116782375
000050 57 db 7b 3f 7a 49 41 be a6 0a 2a bf cf a8 8d 3f
       0.9838156 -0.18875685 -0.664225 1.1067141
000060 94 69 85 3f 7b 4a ea 3f 1a 67 fa be 1d ed 5b 3e
       1.0422845 1.830398 -0.48906785 0.2147717
000070 89 be e5 bd 5d a6 48 be 1a f1 4f 3f 5b 43 f6 3e
       -0.11217982 -0.19594713 0.81227267 0.48098263
000080 08 13 5a 3f cd b2 24 c0 98 65 5c bf f1 f7 ea 3d
       0.8518529 -2.5734131 -0.8609252 0.11473072
000090 af 24 d0 bf d3 02 fc 3e 3a 74 5f 3f 06 69 fc bf
       -1.6261195 0.49220905 0.8728672 -1.9719551
0000a0 09 80 df 3e 42 9b bf bd b7 57 4a bf 9b 5f 29 bf
       0.4365237 -0.09355785 -0.7904009 -0.6616151
0000b0 3a 0a 40 bf 72 d3 fd 3f cf 2a 50 3e 08 b8 46 bf
       -0.75015604 1.9830153 0.2032883 -0.7762456
0000c0 fb 1c 39 bf f6 29 00 bf 22 4d 08 be 1c 46 a6 be
       -0.72309846 -0.5006403 -0.13310674 -0.32475364
0000d0 b0 a0 a8 3f f8 b3 0d 3e e0 eb bc 3e cb 47 8f 3e
       1.3174038 0.13838184 0.36898708 0.2798446
0000e0 ea 7c c6 bf 44 cb 27 bf 75 f5 91 3f 09 1c 50 3e
       -1.5506871 -0.65544534 1.1403033 0.20323195
0000f0 41 46 98 bd 2b 00 93 bf 26 d4 11 bf 1a 61 13 be
       -0.07435275 -1.1484426 -0.5696434 -0.1439251
000100 52 0c 6d be eb 43 88 bc de 9a da 3e e0 38 10 40
       -0.23149231 -0.016633948 0.4269628 2.2534714
000110 22 ac 57 3e 42 50 92 3f fa 36 46 be f6 18 be bd
       0.21061757 1.1430743 -0.1935691 -0.09282105
000120 f2 fb 07 40 7a 01 1a bf 9c b0 1a bf 88 c8 7d bf
       2.1247525 -0.60158503 -0.60425735 -0.9913411
000130 d6 25 96 bf 9d b9 5e 3e b0 4e 83 3d 0c 71 c1 3f
       -1.1730297 0.21750493 0.06411493 1.5112624
000140 61 54 0c 40 2c 49 00 3f 7e f2 e0 bb e3 5a 5b bf
       2.19265 0.5011165 -0.006864845 -0.8568556
000150 ef b7 50 3f 04 83 cb bf f1 cb 17 bf b4 5e f9 3f
       0.8153066 -1.5899358 -0.59295565 1.9482026
000160 af e8 73 be e7 66 f8 be fb 38 55 be d5 9e 7c bf
       -0.2381923 -0.48516008 -0.20822518 -0.9867986
000170 a7 5c 84 3e f1 dc bd bf 3a cb 35 bf 2b 1a 55 be
       0.25851938 -1.4833051 -0.71013224 -0.20810764
000180 d2 b0 dd 3f 3c 2b f0 3d 35 f7 f7 3f e3 eb fd 3f
       1.7319586 0.11726996 1.9372317 1.9837612
000190 b4 c8 7e 3f af 13 22 bd b9 21 33 c0 59 c5 ad bf
       0.99525 -0.039569553 -2.7989333 -1.3575851
0001a0 8c d8 61 3d 0e 46 bd 3f fa 55 45 3f 05 0e 27 40
       0.055138156 1.4787004 0.77084315 2.6102307
0001b0 eb f2 6e 3f 92 85 91 bf 02 aa 15 bd cb d0 7d bf
       0.93339413 -1.1368887 -0.036539085 -0.9914672
0001c0 40 4d 7d be 8d b3 22 3e cc 64 2e 3f 69 ec 50 40
       -0.247365 0.15888806 0.68122554 3.2644293
0001d0 85 22 0a 3d 4f 07 7e bf 33 d3 da bf e4 ab 81 3f
       0.033724327 -0.992299 -1.7095703 1.0130582
0001e0 c5 fc 68 be b2 24 58 be 35 d3 7d 3d 27 0c 41 bf
       -0.22752674 -0.21107748 0.061969 -0.7540917
0001f0 05 94 87 be 46 1b 87 bf 41 16 7f be 37 e6 92 3e
       -0.26480117 -1.0555198 -0.24910833 0.28691265

net.2.weight f4 [128, 128]
000000 62 d1 ab 3d cb 9a 10 be 79 30 eb 3c 35 96 04 be
       0.08389546 -0.14121549 0.028709637 -0.12947924
000010 9f d8 d6 3b 41 48 b2 bd 7d fc 73 3d 33 4a fd bc
       0.006556585 -0.087051876 0.059566963 -0.03091917
000020 b8 26 6f 3b 1d a4 8a bc 63 13 3f bc 21 8b c6 bd
       0.0036491584 -0.016923958 -0.011662337 -0.096945055
000030 38 ac f0 bc 31 dd 7d bd f1 e8 4d 3d b3 27 e0 bc
       -0.029378995 -0.061978523 0.05027098 -0.02736268
000040 26 8a ba bc 1f 95 e8 bd 39 36 48 bd 2f c4 9b bc
       -0.022770952 -0.113565676 -0.048879836 -0.019014446
000050 f8 4f 1a be 82 74 94 bd 22 19 02 be ee 5a 78 bd
       -0.15069568 -0.072487846 -0.127049 -0.060633592
000060 0f 5e 3e be 9f 95 10 bc 7d 28 35 bd f7 0c 04 be
       -0.18590568 -0.008824735 -0.044228066 -0.1289557
000070 3c 04 bb 3c 92 8d 4f 3d 69 d6 93 bd b2 ed bf bd
       0.022829168 0.05067212 -0.0721863 -0.09371509
000080 7e 0d c4 bd b7 a4 3e bd 46 8b 8b bd eb 11 af bd
       -0.09572886 -0.046543803 -0.06813674 -0.085483395
000090 a0 f2 b9 bd 2c b9 95 3c 29 52 59 bd 47 a4 bb bd
       -0.0907948 0.018276773 -0.05305687 -0.09162193
0000a0 b9 fc 0a bd 81 2a c8 bd 6e cd 23 3d 15 f7 8e bd
       -0.03393242 -0.09773732 0.039990835 -0.06980721
0000b0 73 41 56 bd 68 08 21 be 66 e4 c7 3c e3 82 bd 3d
       -0.05230851 -0.15725863 0.024400901 0.0925348
0000c0 5a 8f 09 be 42 2b 6e bd 16 7a 0f bd e8 30 3a bd
       -0.1343359 -0.058146723 -0.03502854 -0.045456797
0000d0 b0 d8 1d bd 17 69 a4 bd 54 76 31 3d ac 9f 0c bd
       -0.038536727 -0.08027857 0.043325737 -0.034331962
0000e0 b0 e8 5d bb 6d 1c 8a bd d8 c5 b5 bd b5 14 e0 bc
       -0.0033860616 -0.06743703 -0.08875626 -0.027353624
0000f0 24 3f 2b bd 9e cc 7c bd c7 38 95 bd ef a8 12 bd
       -0.041808262 -0.061718576 -0.0728622 -0.03580564
000100 d2 07 94 3c 36 84 4b 3d 49 23 92 bd 80 19 de 3b
       0.018070135 0.049686633 -0.07135636 0.006777942
000110 dd c0 1c bd 05 c6 9f bd b8 ff 9d 3d 9e b7 84 3d
       -0.038269866 -0.07801441 0.0771479 0.06480335
000120 11 97 be bb fd 1e cf bc 3e 11 b2 3c 1a 85 2d 3d
       -0.0058163484 -0.025283331 0.021736737 0.042363264
000130 0f cf cb bd 21 b5 6d bd a8 ea 82 3d 7d 0d 9b bd
       -0.09951603 -0.058034066 0.063924134 -0.07570932
000140 bd fd bb 3b f4 b6 d8 3c 55 24 f3 bc 4d 2a ed bd
       0.005737035 0.026454426 -0.02968041 -0.11580334
000150 b7 34 43 bd 59 f4 a9 3c bc da 34 bd 72 96 96 3b
       -0.047657695 0.020746397 -0.044153914 0.004595571
000160 b4 64 8d bd 86 eb 47 be 69 9c 8e 3d 20 0b b7 bd
       -0.06903973 -0.19523439 0.069634266 -0.08937669
000170 bc 55 5a bd 3b 23 37 bd ab 6b 48 b8 03 78 bd bd
       -0.05330442 -0.044711333 -4.778399e-05 -0.09251406
000180 fb 6d 26 3d 71 ae a7 bd 31 63 ef bd ea 26 7e bd
       0.04063223 -0.08187569 -0.11688841 -0.06204883
000190 02 5c d7 bd 36 3f 05 3c f1 8c 1e bd cd 26 a0 bd
       -0.10515596 0.008132746 -0.03870863 -0.07819901
0001a0 44 5b d5 3c 86 16 90 bd 13 82 1a bd 67 d8 4e bd
       0.026044495 -0.07035546 -0.037721705 -0.050499346
0001b0 e0 6e 02 be e6 72 84 bb 3b e3 90 bd 45 c7 f8 bd
       -0.12737608 -0.0040420173 -0.07074591 -0.12147383
0001c0 97 3d 5e bc 1e f3 a6 bd cc 17 ae bd 71 fd c2 bc
       -0.013564489 -0.0815184 -0.08500633 -0.02380249
0001d0 d9 3f 82 bd 5e 41 a7 bd 33 85 80 3c d7 bb 20 be
       -0.06359834 -0.08166765 0.015688514 -0.15696655
0001e0 f2 77 78 bd 4a ed a1 bd 9e 4f ae bd 6e b3 7f 3c
       -0.060661264 -0.079065874 -0.085112795 0.015606744
0001f0 fb b7 bd 3a 4d ff 99 bd b1 21 5b 3b 48 bd a2 bd
       0.0014474386 -0.07519398 0.003343683 -0.07946259
000200 13 dc 8e bd 89 b5 11 c0 0b b4 b9 c0 1d e1 e6 3f
       -0.069755696 -2.276705 -5.803228 1.8037449
000210 24 aa 09 bc 95 01 b8 be 88 0b 97 bd 93 c5 bd 3c
       -0.008402381 -0.35938707 -0.07375246 0.0231655
000220 36 90 38 3c c4 16 2e c0 d8 af 73 c0 b3 ce ab c0
       0.011264851 -2.7201395 -3.8076077 -5.368982
000230 1b c4 4d c0 97 e4 dc bf 97 eb 3e 3f 3d 51 37 bf
       -3.2150943 -1.725726 0.7457823 -0.71608335
000240 1f 3a 97 c0 13 c4 06 3e 4e 33 8a c0 70 df 19 c1
       -4.725845 0.13160734 -4.318763 -9.61705
000250 a1 e4 c1 bf 33 4a e4 3c 7d 3d 86 3f 32 73 32 bf
       -1.5147897 0.027867412 1.0487515 -0.69707024
000260 15 1b f3 be f5 4e 47 bf fb 44 72 3f 81 cc 5c 3e
       -0.474816 -0.77854854 0.94636506 0.21562387
000270 38 2d ae 3d a6 de 42 bd 91 56 6e 3e af 72 3d bf
       0.085047185 -0.047575615 0.2327521 -0.7400312
000280 71 0f 0e 3f b4 b1 5c 40 98 b6 0d bf 4a d3 0a c1
       0.5549231 3.4483461 -0.5535674 -8.676584
000290 20 17 3c c0 34 3e 24 c0 87 a2 e3 bf 7f 6a 49 c0
       -2.9389114 -2.5662966 -1.7783974 -3.147125
0002a0 7c 81 a3 bf 9f 04 f1 3f 8d b0 bc bf 73 75 64 c0
       -1.277389 1.8829535 -1.4741379 -3.5696685
0002b0 97 61 9e bf 8c 94 34 bf d2 b0 81 bf c7 33 28 c0
       -1.2373532 -0.70539165 -1.0132086 -2.6281602
0002c0 49 31 8f bf 3d 5a 86 be 2f 7f 8f 3d 6a eb a5 3d
       -1.1186916 -0.2624072 0.0700668 0.08101542
0002d0 66 e4 b0 c0 aa 0b 1f bb b1 75 4f be 0c ca 16 3f
       -5.5278807 -0.0024268427 -0.2025974 0.5890205
0002e0 0c 6e 10 c0 8a 3e b5 bf 24 c0 71 3f 35 69 8c 3f
       -2.2567167 -1.415971 0.9443381 1.0969607
0002f0 3c b9 77 bd fb 88 14 40 5f e9 18 bf 87 f8 ac c0
       -0.060479388 2.3208606 -0.59731096 -5.405338
000300 50 3a 20 bd ac cf 89 bd d9 dc ab be d4 b7 9c 3f
       -0.03911811 -0.067290634 -0.3356693 1.22436
000310 9e 38 01 40 41 1b 0a bf 97 9e db 3b 59 5d b1 c0
       2.0190806 -0.53947836 0.006702255 -5.542645
000320 c1 c6 16 3d 59 70 91 3e 68 19 1b 3f b0 4e 4b c0
       0.03681064 0.28406027 0.6058564 -3.1766777
000330 0e fa 93 bf d8 db 52 3f ee ae db 3b 2c b7 bc bf
       -1.1560686 0.82366705 0.006704203 -1.47434
000340 16 5d 0d c0 ae 1b 2f 3e 99 4a e8 3c bb fc b2 bf
       -2.2088065 0.17100403 0.028355883 -1.3983377
000350 51 66 f6 bf 46 ec 85 bf c8 63 02 c0 f6 96 5a c0
       -1.9249974 -1.046273 -2.0373402 -3.415464
000360 04 a8 3a 3c ce 5b 4d bd d1 4f 3f bd 20 0c 96 bf
       0.011392597 -0.05013638 -0.04670698 -1.172245
000370 49 30 93 bf d5 8a 19 c0 f0 96 c4 bf 2e 15 b3 3f
       -1.149911 -2.3990986 -1.5358562 1.3990839
000380 5e b8 50 c0 57 58 7f 3b a6 bc 9f bf 0a 0e 0e 3f
       -3.2612529 0.0038962567 -1.2479446 0.5549017
000390 23 6d 81 3f 3b ea 76 3e 18 8d 9f c0 05 72 d1 bf
       1.0111431 0.2411279 -4.9859734 -1.6362921
0003a0 b4 22 d4 3e 9f 11 4e be b1 18 09 c0 d7 cf 63 bf
       0.41432726 -0.2012391 -2.142132 -0.88989013
0003b0 a3 35 78 c0 37 10 b1 bf 14 81 6e 3d 09 79 c6 3e
       -3.8782737 -1.3833073 0.058228567 0.38764217
0003c0 d3 91 92 bb b0 7f 4a bf 0f 22 6b 40 26 6a 57 bf
       -0.00447295 -0.79101086 3.6739538 -0.84146345
0003d0 b2 e9 06 be f9 83 f4 3e 91 22 8b c0 c1 9c 11 3f
       -0.13175085 0.47756937 -4.3479695 0.5687981
0003e0 f4 d7 48 3d ad 09 68 3d 32 ad f3 c0 6f 22 bc c0
       0.049034074 0.056649853 -7.614892 -5.8792033
0003f0 29 bc 1f 3c 80 48 b5 c0 28 35 58 bc 08 ea 54 3f
       0.009749451 -5.6651 -0.013196267 0.83169603

net.2.bias f4 [128]
000000 21 08 6e bc 89 28 15 3d a3 2e 5e 40 23 60 cd 3e
       -0.014528305 0.03641561 3.4715965 0.4011241
000010 1c fa a2 bd 00 01 0a be e6 89 b0 3e 8d 2f 61 3c
       -0.07957861 -0.13476944 0.34480208 0.013744247
000020 5f 90 f5 bd 49 00 06 bd 23 b2 e6 bd f7 86 bf bd
       -0.11990427 -0.032715116 -0.11264446 -0.093519144
000030 99 7f d6 be 18 de 02 40 a3 98 0b 40 68 b4 ad bd
       -0.41894224 2.0448055 2.1811912 -0.084816754
000040 68 c3 37 3e 4f 23 ac bd 33 e4 ae bd cc 78 65 bc
       0.17945635 -0.08405172 -0.08539619 -0.014005851
000050 0c c9 dc bd 87 60 a4 be b6 16 d0 bd 57 f9 7f bf
       -0.10780534 -0.32104895 -0.10160582 -0.9998984
000060 dd f8 43 3f 57 d4 f4 bd 7b 62 41 3f 5f 80 1f 40
       0.7655161 -0.11954563 0.75540894 2.4922101
000070 cf 8f 7a 3d 30 bd 20 3d 2c c0 6f be 68 59 b1 bd
       0.061172303 0.039242923 -0.23413152 -0.08659631
000080 ad ae 17 be 9e 1b eb bd 4f 00 1c bf 38 aa 90 3b
       -0.14812727 -0.11479877 -0.6093797 0.004414823
000090 e0 13 88 be 29 05 08 be 54 96 a5 bc 18 d7 8c bc
       -0.26577663 -0.13283218 -0.020213284 -0.017192408
0000a0 cf cb 89 bb b1 7d 8f 3e 28 5b 2f 3e 56 c0 99 bd
       -0.004205204 0.28025582 0.17124617 -0.07507388
0000b0 f2 97 c9 3f 68 b8 66 40 a0 65 9f bd 62 37 38 be
       1.5749495 3.6050053 -0.07783055 -0.17989877
0000c0 18 8f 55 40 24 d0 15 be f6 c3 4c bd 3d 80 1f bd
       3.3368587 -0.1463018 -0.04999157 -0.038940657
0000d0 12 74 b5 bd 12 93 a4 be 8d 27 35 bf cd 21 dc bd
       -0.08860029 -0.32143456 -0.70763475 -0.107486345
0000e0 37 49 55 be 6a 01 67 40 28 c7 8f 3f 00 aa 82 bd
       -0.2082871 3.6094613 1.1232653 -0.06380081
0000f0 b8 70 e8 bd 05 3a 0a be 32 a6 25 40 c3 31 80 3e
       -0.113496244 -0.13498695 2.5882688 0.25037965
000100 de 8b af 3f ca 72 f6 bd 5c b4 ed bd 6d ff 96 bd
       1.3714559 -0.12033613 -0.116066664 -0.07372937
000110 1f 4f 71 bd 4b dd 3b bb 64 ff 6b 40 3f 37 24 40
       -0.058913346 -0.0028665836 3.6874628 2.565872
000120 05 b4 27 3e 71 2c cb 3f cb 12 37 be 6f c7 15 be
       0.16377266 1.5872937 -0.17878263 -0.14626859
000130 cb b9 3a 3e 08 11 fc be 8d e6 5b 3e 2e 92 53 3f
       0.18234937 -0.49231744 0.21474667 0.8264493
000140 54 0e 91 bc 8a d4 1b bd 0b 07 61 3e d3 96 42 40
       -0.017707027 -0.03804449 0.21975343 3.0404556
000150 86 51 b4 3f ee 85 0e bf 9c 1e 49 3d 14 7a 33 bf
       1.4087379 -0.5567311 0.049101457 -0.7010815
000160 ac 81 ef 3e 77 d3 ae 3f a9 b5 1c 40 d2 19 98 be
       0.4677862 1.3658284 2.4485877 -0.297072
000170 b1 2e 8b 3f 2e 51 9b 3e cc 18 2f be f0 41 09 bd
       1.0873624 0.30335373 -0.17099303 -0.03351015
000180 64 19 97 40 94 0e 20 bf 68 47 e6 be b8 0f d8 3d
       4.7218494 -0.62522244 -0.44976354 0.10549873
000190 84 cc c6 3e bb 83 d0 bd f4 cc af bf f2 7c 71 40
       0.38827908 -0.101813756 -1.3734422 3.773251
0001a0 8f e4 9c 40 2e 5e 6b bd 1f 0b ee 3f fc 7a 5d be
       4.9029 -0.057462864 1.8597144 -0.21628946
0001b0 95 c9 15 bd 5c 18 be bc ab 26 06 bf c1 e5 6b 3f
       -0.036569197 -0.023204975 -0.5240275 0.9214745
0001c0 f7 56 67 3d d5 cc e4 bd f0 77 39 40 89 f7 9e 3c
       0.05647942 -0.11171881 2.8979454 0.019405143
0001d0 0d de fa 3d 72 7c d0 bd be f0 da bd 8d 34 0e be
       0.12249384 -0.10179986 -0.10690449 -0.13887234
0001e0 c3 45 85 bd df d9 2a 3e c4 a1 d2 be 77 b3 08 be
       -0.065074466 0.16684674 -0.41139042 -0.1334971
0001f0 9f 22 d0 bd f8 b1 db bd f8 a1 28 3f e8 3c ba 3f
       -0.101628534 -0.10727304 0.65872145 1.4549837

net.4.weight f4 [6, 128]
000000 41 2f 4d bd a1 01 b6 40 24 73 28 40 e5 02 15 41
       -0.050093893 5.687699 2.6320276 9.313207
000010 61 9e 6a 40 d5 aa 8e 40 34 21 a1 40 1a 91 dc 40
       3.6659167 4.4583535 5.035303 6.8927126
000020 7c 85 a2 bc 5f 18 e6 bd 8f af b1 3c 96 ec 5d 40
       -0.019839041 -0.11235117 0.021690158 3.467565
000030 f7 d7 ab 40 83 e2 e6 3f 6e 7d 19 c0 a3 cf 39 3d
       5.370113 1.8037876 -2.3982806 0.045364033
000040 32 d2 96 40 1d 97 ed 3c 1b 0b 41 bd a8 53 a9 bb
       4.7131586 0.02900272 -0.04712973 -0.0051674433
000050 b7 61 ca ba 54 6c 9d 40 76 2a 90 bc 43 5a b1 bf
       -0.0015440498 4.9194736 -0.017598372 -1.3855671
000060 fc 5b b5 40 f7 4e 23 bd fc 79 9f 40 ff a5 eb bf
       5.6674786 -0.03987023 4.9836407 -1.8410033
000070 5a 98 d8 40 60 4f b8 3d c4 be f5 3e 84 e6 83 bd
       6.7685976 0.089995146 0.47997105 -0.06440452
000080 73 15 e2 bc ad 98 4b 3c 80 9e d7 40 5b ad 0f bb
       -0.027598118 0.012426537 6.738098 -0.0021923396
000090 0d 2a bd 40 4e 34 c1 3c f0 47 dd 40 f2 d0 1c bd
       5.911383 0.023584511 6.9150314 -0.038285203
0000a0 c4 b6 a6 bc 55 12 e8 40 68 e5 e0 40 ce 0c e7 3b
       -0.020350821 7.252238 7.0280037 0.007051087
0000b0 66 3c c8 40 ad 18 7b 40 c8 c8 00 bd 00 1d 85 bc
       6.257373 3.923381 -0.03144148 -0.01624918
0000c0 02 33 6c 40 23 b8 a8 3d 6d 4b 5b bd da 0a 9d 3c
       3.6906133 0.08238246 -0.05353873 0.019170213
0000d0 61 25 5f bd 87 3c 94 40 bb 24 81 40 6f 39 24 3c
       -0.054479007 4.6323886 4.0357337 0.010023459
0000e0 01 ee 7d 40 b6 a0 86 3f 49 78 d1 40 14 68 67 3d
       3.9676516 1.0517795 6.5459332 0.05649574
0000f0 0d 1e f4 40 8e aa 2b bc 38 5a 32 c0 eb 96 18 41
       7.6286683 -0.010477675 -2.7867565 9.536845
000100 03 c2 72 40 32 96 0d 3d e9 d8 3b 3c 87 f2 2c bd
       3.7930915 0.034567066 0.01146529 -0.04222348
000110 95 18 cc 3c d1 02 87 3d d0 44 e6 3f 13 9b 99 bf
       0.024914065 0.06592334 1.798975 -1.200045
000120 58 43 c7 40 a2 34 a0 c0 f7 01 c0 3f d2 8a f1 40
       6.2269707 -5.006425 1.50006 7.548196
000130 46 f2 a8 40 57 7f ef 40 14 90 b1 40 59 fa 3d 40
       5.2795744 7.4842944 5.5488377 2.968405
000140 10 67 63 bc f4 c8 f5 bb c9 bb aa 40 78 04 5e bf
       -0.0138795525 -0.007500762 5.335423 -0.8672557
000150 9c 30 49 40 ff 47 ad 40 04 8f d1 40 6b b7 e5 40
       3.143592 5.4150386 6.548708 7.17864
000160 2e 30 95 40 4a ab cd 40 b6 ce 85 40 12 7a d4 40
       4.6621313 6.4271593 4.1814833 6.639901
000170 bb 95 62 40 2a de f7 40 3e ec 69 3d 23 18 8e 3d
       3.5403888 7.7458696 0.057110064 0.069381975
000180 6d 57 8e 3f a2 8a a0 40 ce 8a c1 40 a4 f7 76 40
       1.112043 5.016923 6.048194 3.8588648
000190 c3 80 eb be 7a 99 09 bd 61 2d 19 40 f5 95 65 40
       -0.45996675 -0.033593632 2.3933947 3.5872777
0001a0 72 38 0e 40 b0 e6 ba 3c a0 43 9b 40 b4 a8 97 40
       2.2221951 0.022815078 4.852005 4.7393436
0001b0 8a b7 8a 3b 6f c9 bc 3d b2 c9 b8 be 1b 46 17 41
       0.0042333053 0.09218108 -0.3609138 9.454616
0001c0 30 01 97 40 67 c6 5f bd cc 0e 98 3f 7f 5c 56 3f
       4.718895 -0.05463257 1.1879516 0.8373489
0001d0 90 e6 08 40 57 da 6a bd f2 e7 15 3d 2b f8 3d bd
       2.1390724 -0.05733713 0.036598153 -0.04637925
0001e0 d6 ca 65 bd 4e 21 be 40 63 fc a5 40 a6 b0 ab 3c
       -0.056101643 5.9415655 5.187059 0.020958256
0001f0 bf 60 4d 3c 5a 62 33 3d 44 54 d2 40 a4 be 8e 40
       0.012535273 0.043794967 6.5727863 4.4607716
000200 22 80 eb bd 57 93 a2 40 ea 6a 19 40 03 8a 2d 41
       -0.11499049 5.080486 2.3971505 10.846194
000210 7a 93 4e 40 9c 6c 00 40 00 4c 4e 40 14 bf 04 41
       3.2277513 2.006629 3.2233887 8.29665
000220 28 8a 41 bd f3 4e a6 3b ac 4a 10 bd a9 92 8c 40
       -0.047250897 0.0050753294 -0.035227463 4.392903
000230 06 cc 75 40 7c 43 93 40 4b 09 f1 bf b0 7f a2 bc
       3.8405776 4.601988 -1.8830961 -0.019836277
000240 a5 4a b1 40 ad 42 81 bc 59 ed ab bd 80 71 14 3c
       5.540362 -0.015778864 -0.0839488 0.009060264
000250 a7 b9 b4 bd fa c3 a0 40 7d 59 8f bd db 58 a1 bf
       -0.08824473 5.023923 -0.069994904 -1.2605242
000260 38 0e b2 40 80 0f 70 3d 08 91 c6 40 c5 09 1d c0
       5.5642357 0.058608532 6.205204 -2.4537213
000270 20 6c e0 40 6c 2c 5c bd 2a 41 f8 3e 90 9f 90 bc
       7.013199 -0.0537533 0.48487216 -0.01765421
000280 9a 80 e7 3c c7 cc 24 3d 64 31 e6 40 77 6e 98 bc
       0.028259564 0.040234353 7.193529 -0.018607361
000290 4d 26 c5 40 b7 53 26 3a 11 ff e5 40 4d 9e 18 3c
       6.1609254 0.0006344872 7.187386 0.009315086
0002a0 9f 3a 0a bd dd 0b c6 40 8e 60 db 40 41 9a 1d bc
       -0.03374731 6.188948 6.8555365 -0.0096192965
0002b0 83 28 ba 40 87 8f 5a 40 c5 ed 0c 3c 8a bd 61 3c
       5.8174453 3.4150102 0.008601611 0.0137781
0002c0 aa c1 85 40 02 f9 e2 bb 15 03 51 3d f2 d4 c1 3d
       4.1798906 -0.0069266567 0.05102833 0.09464444
0002d0 c1 4f 1c bd 83 41 a3 40 ec 04 71 40 65 40 50 bd
       -0.038161997 5.101747 3.7659254 -0.05084266
0002e0 16 2b 8f 40 d5 c6 9b 3f ea 8a bd 40 85 a3 1d 3d
       4.4740095 1.2170054 5.9232073 0.038486023
0002f0 bb ae 8a 40 ba 40 1c 3d 46 fa 00 c0 b9 01 dd 40
       4.3338294 0.038147666 -2.0152755 6.9064603
000300 e9 71 9b 40 1c 52 d0 ba ac 80 63 3b 56 4f a6 3d
       4.857655 -0.0015893611 0.0034714146 0.08120601
000310 5e 4e 80 bc 03 ec cb bc 5e ff ef 3f bb c8 b4 bf
       -0.015662368 -0.024892813 1.8749807 -1.4123758
000320 8a e5 e0 40 7e e1 a3 c0 d2 b0 ee 3f a2 60 1f 41
       7.02802 -5.121276 1.8647711 9.961092
000330 fd 56 bf 40 0f 89 02 41 76 c1 9e 40 20 27 6e 40
       5.9793687 8.158462 4.961116 3.721138
000340 17 8f e0 bb a8 c8 ed 3a cb 4c 9a 40 9a 67 4f bf
       -0.006852995 0.0018141465 4.821874 -0.8101746
000350 4f 43 bb 40 02 d6 47 40 73 c8 c0 40 c3 70 f3 40
       5.8519664 3.122437 6.024469 7.607515
000360 3f 58 2a 40 f5 ed 99 40 a0 2b 79 40 ed 24 f6 40
       2.661636 4.8102975 3.8932877 7.6920075
000370 cb fb 3e 40 5a 03 0e 41 15 d1 13 bd 8c 19 c5 3c
       2.9841182 8.875818 -0.036088068 0.024060033
000380 1b 7e 9c 3f 6a f6 9b 40 e2 19 8a 40 1d d8 82 40
       1.2225984 4.87383 4.3156595 4.088881
000390 0a 55 e6 be 76 7d 45 bc a8 b9 cd 3f 9a a1 65 40
       -0.44986755 -0.012053838 1.6072283 3.5879884
0003a0 a8 1f 04 40 ca 2d 17 3d c3 12 96 40 23 d5 15 40
       2.0644321 0.036908902 4.6897902 2.3411338
0003b0 e4 23 05 3b d7 f3 c9 3c 2f d7 9b bf f4 c5 0d 41
       0.0020315582 0.024652405 -1.2175044 8.860828
0003c0 17 48 9b 40 04 d6 c3 bc 5d 84 83 3f c8 0d 1a bf
       4.85255 -0.023905762 1.0274769 -0.6017728
0003d0 7d 05 69 40 ee 05 d5 3b b9 c9 74 3d eb cf 8d 3c
       3.64096 0.006500951 0.05976269 0.017311057
0003e0 63 a8 2e bc e9 bf 98 40 8c 38 8b 40 36 ef 82 3d
       -0.010660264 4.7734265 4.3506527 0.06393282
0003f0 fb 6e d5 3c 05 71 60 bc 1b 06 d9 40 e5 20 7e 40
       0.026053896 -0.013698821 6.7819953 3.9707577

net.4.bias f4 [6]
000000 f2 03 81 40 0b 7d ca 40 e1 b7 10 40 02 98 27 40
       4.0317316 6.327764 2.261223 2.6186528
000010 7f 5c 81 40 79 ee 6c 40
       4.042541 3.7020552
