rl/models/final_model_run8.pth (torch, 79489 bytes, 6 tensors)

net.0.weight f4 [128, 13]
-0.24513578 -0.048774775 0.030920982 0.124796525 -0.13063474 -0.10391907 0.05721501 0.13497937
-0.25728896 -0.02560559 0.20822176 0.13611458 -0.226415 -0.82215756 0.21337351 -2.3374658
1.2859387 0.68270814 -0.33991787 0.004732703 1.3700166 -0.90462106 0.09163347 0.47399402
-1.7641021 -0.54470146 0.54709417 0.3746814 1.078359 -1.7546148 -0.9524448 -0.44566005
0.03047007 0.9528474 0.4762213 0.09712406 0.3803013 -1.3578371 0.06398558 0.04862476
-0.17291357 -0.02881554 0.011587884 0.02832102 -0.2562203 0.018479178 -0.18262528 -0.023082234
-0.1686575 -0.09343713 0.17861086 0.027122762 2.0356188 0.0877449 0.709065 -0.4572681
-2.6029115 -0.4586342 0.3446657 0.121199 0.2525984 -0.031602755 0.18112807 0.15306917
-0.03258234 0.56314486 -1.7915384 1.7097622 0.039471216 -0.24549694 0.09783964 0.37262267
0.5040001 0.18688641 0.4142788 -0.2203072 0.4045326 -0.32583287 -0.25942853 -0.08794939
-0.05481511 -0.22963864 -0.1162203 -0.24281134 0.040876754 -0.070117615 0.03850224 -0.12665507
0.13018018 -0.15949044 0.16156587 0.89457065 1.1238863 1.3925235 0.72266084 0.67375576
-1.3905016 -0.21673465 0.13779199 0.85902536 -0.2679308 0.32449907 -0.9033692 -0.37926647
0.11474203 -0.8328738 -3.4927418 2.2386138 -0.18838331 -0.014753716 0.3696363 -0.63209516
-0.8835971 -1.3405781 0.017352602 0.6698788 0.32299033 -0.0030617586 -1.264465 1.0043966
-2.172324 -0.40521088 -0.44673783 0.45574543 -0.6469413 -0.042876143 0.4507346 -0.11782895
-0.024214333 0.5673288 -0.15105148 -0.056374796 -0.13529105 -0.07413593 -0.2182608 -0.020942468
-0.14430676 -0.20330189 -0.3133946 -0.1096788 -0.0073481984 0.14140126 -0.25326163 -0.1754399
0.057929832 -0.101209015 0.041434053 0.16599129 -0.23975033 -0.1654319 -0.08356385 0.12786308
-0.24430938 -0.25453317 -0.045959644 -0.11646663 0.8950092 -0.6386284 -0.08320318 0.7955837
1.7795428 -0.67427933 -0.51141524 -0.88514876 0.65510696 -0.27660143 -0.4270029 0.20238276
0.27707216 1.2057524 -1.0267719 3.1803496 -0.65744793 0.97653794 0.04344507 0.03058047
-0.47830552 -0.1142381 0.45133838 -0.34296846 0.019344622 0.09500554 -0.48168752 -0.46357906
-1.9097594 1.3695668 0.08499686 0.32723552 0.019509848 -0.040933724 -0.04569342 0.15561724
-0.29902947 0.37943384 -0.04137274 -0.59593654 0.20990138 0.90926164 1.0101556 0.14332695
-0.03608715 0.15278982 -0.3194291 -0.0590192 0.28128108 -1.1238062 -3.3896554 1.0254061
0.018429153 -0.0949148 0.10628487 -0.025099456 -0.031093031 -0.06828967 -0.16303293 -0.25011754
-0.05602995 -0.18562382 -0.27424335 0.16556191 -0.11532157 0.22431418 -0.21438013 0.21810879
0.23374355 -0.18344952 -0.2782639 0.051984444 -0.09896886 -0.23628546 0.014858119 -0.13782625
-0.19219507 0.21680403 1.1652051 0.3438488 0.12147561 0.44483784 -0.6156906 0.31226727
-0.5568675 -1.2146552 0.8695747 0.049820766 0.15416032 0.021019986 -0.38358006 -0.0435948
-0.10413874 -0.18742946 -0.01105531 0.00048473236 -0.18745382 -0.1726583 0.18547921 0.008271496
00000000: e004 7bbe 0fc8 47bd 004e fd3c 5295 ff3d
00000010: 1dc5 05be 85d3 d4bd 495a 6a3d 0838 0a3e
00000020: 61bb 83be d0c2 d1bc 1638 553e 9f61 0b3e
00000030: 55d9 67be eb78 52bf 967e 5a3e 0a99 15c0
00000040: a499 a43f f6c5 2e3f b709 aebe ca14 9b3b
00000050: b45c af3f 3f95 67bf 54aa bb3d 58af f23e
00000060: 19ce e1bf 8e71 0bbf 5d0e 0c3f 3ed6 bf3e
00000070: ab07 8a3f 3897 e0bf 6cd3 73bf 8e2d e4be
00000080: 5e9c f93c cfed 733f 47d3 f33e fbe8 c63d
00000090: dab6 c23e 9bcd adbf df0a 833d c22a 473d
000000a0: 4110 31be 910e ecbc 1cdb 3d3c 7c01 e83c
000000b0: 4f2f 83be a561 973c 1f02 3bbe f416 bdbc
000000c0: 8db4 2cbe f75b bfbd c4e5 363e 8e30 de3c
000000d0: 9447 0240 99b3 b33d 4985 353f 0b1f eabe
000000e0: 1a96 26c0 1ad2 eabe 0678 b03e 2e37 f83d
000000f0: 9454 813e e471 01bd a379 393e 2abe 1c3e
00000100: 0f75 05bd 432a 103f 2151 e5bf 7dd9 da3f
00000110: 92ac 213d 8d63 7bbe 2660 c83d 66c8 be3e
00000120: 2706 013f 275f 3f3e 5a1c d43e 3698 61be
00000130: e61e cf3e 91d3 a6be d1d3 84be cf1e b4bd
00000140: cf85 60bd 6426 6bbe e904 eebd 89a3 78be
00000150: 626e 273d d399 8fbd 86b4 1d3d deb1 01be
00000160: f44d 053e 7651 23be 8671 253e 9502 653f
00000170: 82db 8f3f 363e b23f 4d00 393f 427b 2c3f
00000180: f5fb b1bf b0ef 5dbe 5819 0d3e 16e9 5b3f
00000190: 3a2e 89be be24 a63e 3443 67bf 372f c2be
000001a0: dffd ea3d 3837 55bf 1589 5fc0 7345 0f40
000001b0: 8ee7 40be 92b9 71bc f840 bd3e fdd0 21bf
000001c0: 6b33 62bf 1098 abbf 0b27 8e3c 2d7d 2b3f
000001d0: fd5e a53e c9a7 48bb fdd9 a1bf 1190 803f
000001e0: 5b07 0bc0 cd77 cfbe d2ba e4be 7757 e93e
000001f0: f29d 25bf e59e 2fbd afc6 e63e 4e50 f1bd
00000200: 235d c6bc 763c 113f 3dad 1abe 42e9 66bd
00000210: bd89 0abe 94d4 97bd c27f 5fbe 8a8f abbc
00000220: 27c5 13be 5f2e 50be 4275 a0be 479f e0bd
00000230: 28c9 f0bb 7ecb 103e 82ab 81be 84a6 33be
00000240: d547 6d3d ac46 cfbd c1b6 293d 9ff9 293e
00000250: 1c81 75be fb66 29be 8623 abbd 8aee 023e
00000260: 3d2c 7abe 2c52 82be 2e40 3cbd 0e86 eebd
00000270: 531f 653f 277d 23bf 6e66 aabd 60ab 4b3f
00000280: 0fc8 e33f 929d 2cbf 1cec 02bf 1c99 62bf
00000290: 17b5 273f b49e 8dbe 20a0 dabe 6d3d 4f3e
000002a0: 67dc 8d3e 1856 9a3f 436d 83bf d98a 4b40
000002b0: 824e 28bf 64fe 793f 75f3 313d e583 fa3c
000002c0: 76e4 f4be aaf5 e9bd d315 e73e 9099 afbe
000002d0: 9d78 9e3c 4492 c23d bf9f f6be 3c5a edbe
000002e0: ff72 f4bf f74d af3f d512 ae3d 6a8b a73e
000002f0: 1ed3 9f3c 1faa 27bd 0629 3bbd 205a 1f3e
00000300: 641a 99be 2745 c23e 7676 29bd 4c8f 18bf
00000310: 63f0 563e 5fc5 683f c74c 813f 4dc4 123e
00000320: 1fd0 13bd ef74 1c3e 368c a3be 1ebe 71bd
00000330: 1304 903e e2d8 8fbf 1df0 58c0 8240 833f
00000340: bcf8 963c b162 c2bd e2ab d93d 609d cdbc
00000350: d0b6 febc 74db 8bbd 1bf2 26be 680f 80be
00000360: a97f 65bd 2c14 3ebe a069 8cbe 1089 293e
00000370: b72d ecbd 9eb2 653e 7786 5bbe e957 5f3e
00000380: 785a 6f3e 31da 3bbe 9b78 8ebe a4ed 543d
00000390: 30b0 cabd d1f4 71be 786f 733c 5322 0dbe
000003a0: c9ce 44be e001 5e3e 7125 953f f30c b03e
000003b0: 34c8 f83d c9c1 e33e e69d 1dbf 7fe1 9f3e
000003c0: de8e 0ebf d279 9bbf 739c 5e3f dc10 4c3d
000003d0: 34dc 1d3e 1b32 ac3c 9b64 c4be 7690 32bd
000003e0: b146 d5bd 82ed 3fbe 5521 35bc ad23 fe39
000003f0: e5f3 3fbe 56cd 30be 43ee 3d3e 2b85 073c

net.0.bias f4 [128]
-0.27371722 -0.38304067 0.34035197 -0.19158734 0.09526742 -0.44654262 -0.15546116 -0.95261633
0.95233315 0.62308806 0.10208939 0.054260764 -0.3636287 -0.8692145 0.6696478 0.42043957
-0.0143726235 -0.20730604 0.29608926 0.05531097 0.47434974 -0.822897 0.12528427 -0.13029492
0.59914863 0.8572544 -0.24002679 0.3579596 0.5878285 0.12158635 -0.26024523 0.5169112
0.10766306 0.42254415 0.30523565 0.16268489 0.56103045 0.009561325 0.168794 0.46419644
0.64197654 -0.7571238 -0.33353138 -0.655622 -0.065320924 -0.18544212 0.33556592 0.009864806
-0.26279753 0.2554413 0.38879314 -0.14112057 0.09241678 -0.6227355 0.47044596 -0.07615886
0.8580002 -0.06966802 0.8803634 -0.27317274 -0.50372773 0.102221765 -0.07671983 -0.14557095
0.20770003 -0.026044426 0.025216915 0.2684963 -0.2456594 0.06030104 -0.12831256 0.0515239
0.63713974 0.0026113484 0.43716413 -0.57005596 -0.13718489 0.5994305 -0.09194352 -0.058971684
-0.12991285 0.052513007 0.35135743 0.25777805 0.3420316 -0.76788384 0.99603736 -0.22706777
-0.15709223 0.2569322 0.01115149 0.402561 -0.07281089 0.46371835 -0.4473706 0.1549169
0.24684124 0.926334 -0.05372673 0.06319782 -0.105945475 0.015782138 0.75491524 -0.46922237
0.15624702 0.42477235 0.029374005 0.075245775 0.49739552 0.2909301 0.5245687 -0.46006253
0.4882405 -0.15908934 -0.09708007 0.9500093 -0.28093934 0.74330604 -0.8104994 -0.12458474
0.16448662 0.6863 -0.15780774 -0.08301888 0.5517911 -0.13776736 0.10833021 0.7654654
00000000: aa24 8cbe e81d c4be 9d42 ae3e 792f 44be
00000010: 911b c33d 3ca1 e4be 3631 1fbe aade 73bf
00000020: 1bcc 733f b382 1f3f 3e14 d13d 8940 5e3d
00000030: 8a2d babe d784 5ebf 0a6e 2b3f db43 d73e
00000040: 277b 6bbc 0948 54be 0399 973e c18d 623d
00000050: f8dd f23e 61a9 52bf 854a 003e 086c 05be
00000060: ce61 193f 0675 5b3f 95c9 75be 7b46 b73e
00000070: ee7b 163f 4402 f93d dd3e 85be 4b54 043f
00000080: 737e dc3d b557 d83e d947 9c3e de96 263e
00000090: b19f 0f3f 1ba7 1c3c 56d8 2c3e 28ab ed3e
000000a0: 9358 243f ded2 41bf a0c4 aabe d8d6 27bf
000000b0: fac6 85bd 8ae4 3dbe 4ccf ab3e ff9f 213c
000000c0: 668d 86be 34c9 823e e50f c73e e981 10be
000000d0: 0245 bd3d 986b 1fbf 4bde f03e 2df9 9bbd
000000e0: e7a5 5b3f 1bae 8ebd 7f5f 613f 4cdd 8bbe
000000f0: 4df4 00bf a559 d13d 491f 9dbd 8d10 15be
00000100: 51af 543e 1f5b d5bc b493 ce3c 5978 893e
00000110: 238e 7bbe 39fe 763d 5e64 03be ba0a 533d
00000120: 971b 233f 2823 2b3b fad3 df3e 30ef 11bf
00000130: 327a 0cbe 4774 193f e24c bcbd 4b8c 71bd
00000140: e007 05be e117 573d 1fe5 b33e 7cfb 833e
00000150: c41e af3e 0994 44bf 4efc 7e3f 7484 68be
00000160: c9dc 20be 9e8c 833e bdb4 363c 7a1c ce3e
00000170: e01d 95bd 7e6c ed3e c20d e5be 89a2 1e3e
00000180: f3c3 7c3e 3a24 6d3f 8f10 5cbd dc6d 813d
00000190: f1f9 d8bd 8b49 813c 2042 413f ea3d f0be
000001a0: 38ff 1f3e c37b d93e c1a1 f03c 751a 9a3d
000001b0: a0aa fe3e caf4 943e 224a 063f 518d ebbe
000001c0: a9fa f93e 51e8 22be ead1 c6bd cf33 733f
000001d0: 48d7 8fbe 4e49 3e3f e47c 4fbf 4926 ffbd
000001e0: 2e6f 283e 5bb1 2f3f 5a98 21be cd05 aabd
000001f0: 2e42 0d3f e312 0dbe 3bdc dd3d 8af5 433f

net.2.weight f4 [128, 128]
0.008744774 1.4699544 -0.17674884 0.011740742 0.107605286 -0.59154123 0.05410303 -0.5968688
0.7717573 -0.543226 0.025241245 0.0030776577 0.32193992 -1.2755271 0.26534447 2.2684827
-0.041552555 -0.054606613 1.0499698 0.04861797 0.015741143 -0.2143725 0.4091322 0.09870649
0.23810223 0.007709926 -0.053533655 0.1341129 -0.0894219 -0.7160004 -0.038144827 0.30097452
0.33083603 0.7338494 0.50393623 0.85913163 0.6770536 0.76003575 -0.0507005 -0.15747172
-0.47512493 0.18390465 -0.56028336 0.124469906 0.08659311 -0.0690574 0.1422983 -0.01734295
-0.026222747 0.7474929 0.42291456 0.9834414 0.21944122 -0.33987725 0.055146653 0.3800471
0.330271 -0.79493666 0.24215393 -0.0190925 -0.41844532 -1.4708356 0.034279715 1.1159574
0.28224254 0.09229674 1.4801928 -1.3562348 -2.4476051 1.3406829 0.10903003 0.15527664
-0.22947076 0.36676902 1.1761429 -1.0143591 -0.037755415 0.54462254 0.425323 -0.541275
-0.271738 0.9705851 -0.23300946 1.0109602 0.05429213 -0.6277638 0.416178 -0.0066533964
0.018393023 1.0465274 -0.009161376 0.6202683 -0.7553615 -1.4581447 0.6950078 1.6415954
-0.4032034 0.39689225 0.53106636 -0.027470008 -2.8971703 0.39440024 0.1919357 -0.27624726
-0.31791517 0.41001946 0.025764676 0.31826052 -2.9626136 -0.62606126 0.08309674 0.15166347
0.70186347 -0.6355299 0.96395844 -0.08648903 -0.007996058 -0.23887289 -0.80040616 -0.2915835
-0.49990332 0.19650346 0.0006467327 0.0193265 0.5372256 1.4550784 -0.8175721 0.1307168
0.046358224 0.0037256707 0.05842217 -0.07218926 -0.059791386 -0.090306126 0.057180196 -0.08768228
0.060274985 0.025690226 -0.038717832 -0.06353175 -0.008862262 0.025027491 -0.08889592 -0.014252839
-0.08676928 -0.04954994 0.03243493 -0.06287922 0.036862098 -0.060596276 0.0067519313 -0.0059125493
0.037666567 -0.012373834 -0.01541482 -0.092756845 -0.048500005 -0.018965725 -0.025784304 -0.024044871
-0.021397853 0.0010439402 0.008702087 -0.0041995924 -0.014268535 -0.09338928 -0.0726527 -0.049135704
-0.008049339 -0.086767875 -0.074829735 -0.091988504 0.08046819 -0.013702562 -0.041935965 -0.04716539
-0.06305505 0.0377916 0.0029111356 0.059285425 0.013057357 -0.038466275 -0.010340604 0.0019117334
-0.062359855 0.015768021 -0.048760045 -0.08405185 -0.037093475 -0.067444496 -0.10773101 -0.06520457
0.041236278 0.06382696 -0.019129185 -0.058617227 -0.11630813 0.05959363 -0.030091228 0.011175343
-0.0056088734 -0.06406155 -0.051122062 0.059509825 0.008330735 -0.051715404 0.015758133 -0.042368297
-0.048351686 -0.051487125 -0.062278617 -0.10867576 -0.023941 -0.058204956 -0.022269016 0.004909391
0.043048065 -0.023067743 0.0045504896 0.008683588 0.054370437 -0.103829384 0.067648225 -0.016873663
-0.08979575 0.00679568 0.016559275 -0.05547204 -0.0752534 -0.05129899 0.027632494 0.076988645
0.035178617 -0.052341785 0.042760264 0.03183906 -0.05853145 0.013073286 0.025800224 -0.013156206
0.03201866 -0.0407952 -0.030543925 -0.043101832 -0.06329504 -0.0025428503 -0.06719978 -0.032442898
0.06932927 -0.1065558 -0.051428076 -0.07254713 -0.04829942 -0.07147821 0.058359087 -0.066012934
00000000: 3e46 0f3c 7727 bc3f a6fd 34be 3e5c 403c
00000010: 2960 dc3d 3f6f 17bf 249b 5d3d 65cc 18bf
00000020: e391 453f dc10 0bbf bac6 ce3c 87b2 493b
00000030: 4fd5 a43e 7944 a3bf 3bdb 873e d22e 1140
00000040: 0333 2abd 2fab 5fbd 6965 863f a323 473d
00000050: 92f3 803c 7784 5bbe c779 d13e a126 ca3d
00000060: 12d1 733e 8ca3 fc3b 1b46 5bbd e454 093e
00000070: d422 b7bd cd4b 37bf c03d 1cbd 5519 9a3e
00000080: 5763 a93e 8edd 3b3f f701 013f 0df0 5b3f
00000090: 6253 2d3f b491 423f 54ab 4fbd 4440 21be
000000a0: 9343 f3be 8051 3c3e bb6e 0fbf 14ea fe3d
000000b0: ba57 b13d f76d 8dbd a5b6 113e cd12 8ebc
000000c0: 16d1 d6bc b25b 3f3f 4288 d83e d1c2 7b3f
000000d0: 33b5 603e 6404 aebe 75e1 613d 8995 c23e
000000e0: 4819 a93e f880 4bbf 33f7 773e e067 9cbc
000000f0: 773e d6be 5744 bcbf e368 0c3d b1d7 8e3f
00000100: 1882 903e 1306 bd3d f576 bd3f 1a99 adbf
00000110: 90a5 1cc0 7f9b ab3f 234b df3d d700 1f3e
00000120: 62fa 6abe 26c9 bb3e da8b 963f 85d6 81bf
00000130: 6ca5 1abd 626c 0b3f f0c3 d93e 0091 0abf
00000140: 3e21 8bbe 4478 783f 089a 6ebe 2567 813f
00000150: 6d61 5e3d 21b5 20bf 4815 d53e bc04 dabb
00000160: f7ac 963c 9cf4 853f 9919 16bc e7c9 1e3f
00000170: 5f5f 41bf 7ca4 babf 08ec 313f cc1f d23f
00000180: ad70 cebe 7635 cb3e f7f3 073f c808 e1bc
00000190: 3d6b 39c0 d4ee c93e cb8a 443e 4870 8dbe
000001a0: c7c5 a2be 12ee d13e 7110 d33c 0bf3 a23e
000001b0: 769b 3dc0 8d45 20bf a02e aa3d ab4d 1b3e
000001c0: 53ad 333f 16b2 22bf fbc5 763f 2921 b1bd
000001d0: e601 03bc 189b 74be 6be7 4cbf 6f4a 95be
000001e0: 54f3 ffbe 3438 493e 7f89 293a 9c52 9e3c
000001f0: 9e87 093f 0240 ba3f 684c 51bf a0da 053e
00000200: 1fe2 3d3d 622a 743b 164c 6f3d f6d7 93bd
00000210: d0e7 74bd 6bf2 b8bd c835 6a3d c492 b3bd
00000220: e7e2 763d 4f74 d23c 9796 1ebd ef1c 82bd
00000230: 0533 11bc 7406 cd3c 100f b6bd bd84 69bc
00000240: 18b4 b1bd e1f4 4abd 7dda 043d d2c6 80bd
00000250: b6fc 163d cd33 78bd 4e3f dd3b 0fbe c1bb
00000260: 4248 1a3d 9fbb 4abc 718e 7cbc 4df7 bdbd
00000270: f1a7 46bd 025e 9bbc 9b39 d3bc c0f9 c4bc
00000280: 8d4a afbc d2d4 883a 3393 0e3c bc9c 89bb
00000290: 93c6 69bc e142 bfbd f0ca 94bd 8542 49bd
000002a0: 60e1 03bc 5bb3 b1bd 5540 99bd 7864 bcbd
000002b0: 82cc a43d b680 60bc 0cc5 2bbd 7f30 41bd
000002c0: 0223 81bd 5dcb 1a3d c0c8 3e3b 46d5 723d
000002d0: 86ee 553c d08e 1dbd a36b 29bc 2193 fa3a
000002e0: 0c6d 7fbd f02b 813c 9db8 47bd 6023 acbd
000002f0: 54ef 17bd 5720 8abd 13a2 dcbd f989 85bd
00000300: 5fe7 283d b6b7 823d cfb4 9cbc 9e18 70bd
00000310: f532 eebd 7318 743d e181 f6bc c918 373c
00000320: a4ca b7bb b432 83bd 5e65 51bd 93c0 733d
00000330: a37d 083c 88d3 53bd 3317 813c 618a 2dbd
00000340: 6b0c 46bd 2ae4 52bd dd17 7fbd 6691 debd
00000350: eb1f c4bc 5268 6ebd 836d b6bc f5de a03b
00000360: 2b53 303d 90f8 bcbc 461c 953b 9c45 0e3c
00000370: 89b3 5e3d 80a4 d4bd 278b 8a3d a33a 8abc
00000380: d6e6 b7bd 4cae de3b 51a7 873c a636 63bd
00000390: 741e 9abd e41e 52bd 8a5d e23c 39ac 9d3d
000003a0: 7417 103d 5764 56bd 6325 2f3d ad69 023d
000003b0: acbe 6fbd 5631 563c fe5a d33c 218d 57bc
000003c0: 0026 033d de18 27bd 4137 fabc 8c8b 30bd
000003d0: d4a0 81bd f3a5 26bb 0aa0 89bd d8e2 04bd
000003e0: 81fc 8d3d ed39 dabd 3fa6 52bd 9793 94bd
000003f0: 9dd5 45bd 2b63 92bd f009 6f3d ca31 87bd

net.2.bias f4 [128]
1.0822427 0.040811915 -0.08021408 -0.1042183 -0.06047342 -0.0781642 0.5041546 -0.096959874
-0.08549596 0.80201006 -0.087242305 0.8686532 -0.0072421553 1.230752 -0.00051422295 -0.057503127
-0.012342613 0.6964804 0.5406952 0.6539588 -0.062119693 0.6692824 0.19012797 0.38654703
0.42225507 0.32026625 -0.083743535 -0.099298 0.62206763 -0.07641235 -0.08869094 -0.023153799
-0.035298306 -0.027431285 -0.03412917 0.578083 0.74642545 -0.004764721 0.001008252 1.1968758
1.1241349 0.6998015 -0.022344701 0.0010052315 1.1880691 1.0144898 0.6523513 0.60174286
-0.10463279 0.8856078 1.0231605 -0.08886997 0.7206486 -0.04199444 0.6477596 -0.06415807
-0.049244635 -0.18149592 -0.1706505 0.00024010273 -0.22190732 -0.0943411 0.30972394 0.88474584
-0.08483877 0.9879215 -0.016022498 -0.019362073 0.8141832 1.0120801 0.7876845 -0.08114727
0.23973332 0.42840683 0.26906216 -1.0137159 1.1473526 0.48391128 -0.031587422 -0.104104355
-0.066445306 -0.020805923 -0.08508511 -0.066933215 -0.60273284 0.591536 0.3489793 0.27687743
1.1990021 -0.052907076 1.4013078 0.733978 0.00366206 -0.08147924 -0.12993753 0.02119588
0.71791023 0.70651346 1.2031566 0.30765525 -0.031276736 0.92522544 -0.09776068 0.9157806
0.00736807 0.91819596 0.6603151 -0.08850228 -0.0074394415 0.017902583 0.044997204 0.9664768
0.33770368 0.9889904 -0.04630297 -0.013590942 0.6625985 -0.025137335 0.7371876 1.1474762
0.61122346 -0.0785787 0.46009442 0.73013633 0.8450727 0.720603 -0.002045215 -0.06741751
00000000: ee86 8a3f 652a 273d 4847 a4bd 6770 d5bd
00000010: fab2 77bd 8d14 a0bd 4710 013f e692 c6bd
00000020: 8218 afbd 8850 4d3f 18ac b2bd 0e60 5e3f
00000030: 9a4f edbb 4889 9d3f ebcc 06ba 6688 6bbd
00000040: ac38 4abc 8a4c 323f 006b 0a3f d869 273f
00000050: 3871 7ebd 1756 2b3f e8b0 423e 7ee9 c53e
00000060: d131 d83e f0f9 a33e bb81 abbd c05c cbbd
00000070: d33f 1f3f 147e 9cbd 98a3 b5bd 09ad bdbc
00000080: f594 10bd 93b7 e0bc 07cb 0bbd 3ffd 133f
00000090: bd15 3f3f 6021 9cbb 5327 843a 3a33 993f
000000a0: a7e3 8f3f 3126 333f 3c0c b7bc f9c1 833a
000000b0: a612 983f cdda 813f 7f00 273f d20b 1a3f
000000c0: b749 d6bd 31b7 623f ecf6 823f 7501 b6bd
000000d0: 6d7c 383f 5d02 2cbd 93d3 253f 4e65 83bd
000000e0: beb4 49bd 11da 39be 01bf 2ebe 16c4 7b39
000000f0: ac3b 63be e835 c1bd 2394 9e3e b47e 623f
00000100: f3bf adbd 6ce8 7c3f 9d41 83bc 369d 9ebc
00000110: 4f6e 503f d78b 813f b1a5 493f 8a30 a6bd
00000120: a77c 753e 2458 db3e 84c2 893e 71c1 81bf
00000130: 73dc 923f 38c3 f73e d061 01bd aa34 d5bd
00000140: 7a14 88bd 2f71 aabc 1a41 aebd 4814 89bd
00000150: b34c 1abf e76e 173f 6aad b23e e1c2 8d3e
00000160: e778 993f 17b5 58bd 0e5e b33f fbe5 3b3f
00000170: 2cff 6f3b 96de a6bd 580e 05be fba2 ad3c
00000180: f7c8 373f 11de 343f 0901 9a3f fd84 9d3e
00000190: 091c 00bd 93db 6c3f c036 c8bd 9970 6a3f
000001a0: da6f f13b e40e 6b3f 690a 293f af40 b5bd
000001b0: 8fc6 f3bb 70a8 923c fd4e 383d 066b 773f
000001c0: 7fe7 ac3e 7a2e 7d3f 2fa8 3dbd 8bac 5ebc
000001d0: 0ea0 293f d0ec cdbc 54b8 3c3f 80e0 923f
000001e0: 2479 1c3f dfed a0bd 7f91 eb3e 37ea 3a3f
000001f0: af56 583f 7079 383f 0409 06bb 3112 8abd

net.4.weight f4 [6, 128]
0.24558434 0.020894932 0.016999127 -0.046017002 0.04788239 -0.060852554 3.8806858 -0.049661893
0.054487817 1.1145669 -0.026466344 0.54798406 -0.07493646 0.16592163 -0.046224207 0.06610637
-0.060567286 1.7410982 -3.345219 0.10917839 0.06365771 4.079277 0.15990338 2.1988397
0.37618127 -1.7713044 -0.10280795 0.050456364 2.5882323 0.08299572 -0.010721235 -0.0723798
-0.029258281 -0.04684449 0.02397996 0.37139204 -3.3261998 -0.011814499 0.082887985 0.22670189
2.663489 2.145628 -0.020166699 0.053407393 3.0486374 2.8374572 3.936 2.4722116
-0.0025170483 1.7866491 0.18880756 -0.0062677264 3.395865 0.0160136 1.5547208 0.025932742
-0.08476373 -1.7100108 3.2285376 0.49777022 -1.1691948 -0.020669203 -2.252006 4.2828093
-0.025004366 0.46588135 -0.005555484 -0.014335931 1.0029486 2.1474354 0.59240276 0.029394763
0.37095085 1.6115296 5.806994 -1.7862191 2.5783796 -1.404322 -0.04418211 0.17841043
-0.015105985 -1.7135607 0.034496434 -0.03264339 -2.4769602 3.9660356 2.6454732 0.21529418
0.41048503 -0.032284647 2.9605012 3.1413703 -0.027694812 -0.06837497 0.07900609 0.048231963
0.9678378 4.053322 0.32635182 -2.3344433 0.004188344 2.7160988 0.007362309 0.42393324
1.1118878 0.27312058 2.0542727 -0.054984197 -0.045861397 0.057292093 -0.023365095 -0.16610193
3.9234405 0.13849416 0.054642502 -0.008966624 4.455814 -0.011217658 0.4431035 2.0820096
2.4892178 0.027414352 2.6779635 3.4768827 0.09122858 1.8662089 -0.011206518 0.015760636
0.34503046 0.024905253 -0.050142255 -0.00949186 -0.064948425 0.076843895 3.480208 0.067802265
-0.07141935 0.554675 -0.062328935 -0.13994344 -0.037438583 0.27823085 -0.013143705 -0.038656384
0.04748875 1.6776363 -3.2031925 0.12028105 -0.022240274 4.613054 1.2159939 2.2968864
-0.17707038 -2.2268577 -0.06358505 0.011007993 2.4689424 0.07472256 0.058679905 0.03893657
0.045883935 -0.047945492 -0.013230106 -0.72053105 -3.414199 0.04032937 0.00034620473 0.42392227
2.7064836 2.342911 0.026276352 0.0054642227 3.195554 2.9179506 3.895593 2.4159815
-0.0015916057 1.5622162 0.19561231 -0.051345207 3.052653 -0.034497447 2.1928315 -0.069634676
0.02651338 -1.9147885 4.153399 -0.06853371 -1.1843572 -0.025992643 -2.6270907 4.6997204
0.0024951654 0.17721184 0.01851451 -0.058835957 0.6281624 2.2358744 0.7310006 0.021085776
1.1625862 1.3509036 4.8142567 -2.079638 2.3846269 -1.1573527 -0.010811425 0.05684852
-0.012968948 -2.0830505 -0.06433778 -0.042550884 -2.0628514 4.716006 2.7847297 1.3332795
0.42976096 0.035411928 3.0898242 3.7118459 -0.015215822 -0.005100299 -0.9305124 -0.0748965
1.3313401 3.3057475 0.46119782 -2.402319 -0.0034850491 2.7761173 0.030887622 0.5680856
2.137127 0.0077269594 1.812616 -0.076437734 -0.01936044 -0.085310325 -0.05144774 0.803808
2.833242 0.57002014 -0.0047480217 0.022566158 4.8515515 -0.04805041 1.3964254 1.9602634
2.7809827 -0.020192279 2.8137898 2.4812868 0.24071124 1.3655 -0.11490488 -0.021374274
00000000: 767a 7b3e d92b ab3c c141 8b3c 537c 3cbd
00000010: 5320 443d 8740 79bd 285d 7840 456a 4bbd
00000020: 9e2e 5f3d 21aa 8e3f f2cf d8bc af48 0c3f
00000030: 4978 99bd 5ce7 293e 9855 3dbd c762 873d
00000040: 6715 78bd 4edc de3f 1118 56c0 eb98 df3d
00000050: f95e 823d 7089 8240 b6bd 233e cab9 0c40
00000060: d59a c03e 1aba e2bf f98c d2bd 55ab 4e3d
00000070: 99a5 2540 a9f9 a93d 1ea8 2fbc dc3b 94bd
00000080: 10af efbc 02e0 3fbd 9f71 c43c 1927 be3e
00000090: 75e0 54c0 9a91 41bc 2dc1 a93d 8a24 683e
000000a0: 9b76 2a40 f851 0940 a234 a5bc b6c1 5a3d
000000b0: e01c 4340 e698 3540 6de7 7b40 b738 1e40
000000c0: 10f5 24bb ebb0 e43f c556 413e 8061 cdbb
000000d0: da55 5940 f42e 833c 1701 c73f e770 d43c
000000e0: 9b98 adbd a2e1 dabf 5ca0 4e40 bddb fe3e
000000f0: 2da8 95bf 7652 a9bc de20 10c0 c60c 8940
00000100: f5d5 ccbc 0088 ee3e c70a b6bb 41e1 6abc
00000110: 9f60 803f 956f 0940 b5a7 173f 49cd f03c
00000120: 45ed bd3e 9a46 ce3f e5d2 b940 d4a2 e4bf
00000130: 2c04 2540 d3c0 b3bf 4df8 34bd 39b1 363e
00000140: 187f 77bc f555 dbbf 224c 0d3d 13b5 05bd
00000150: 8486 1ec0 87d3 7d40 6f4f 2940 1476 5c3e
00000160: 182b d23e e83c 04bd da78 3d40 360c 4940
00000170: 3be0 e2bc 2d08 8cbd f2cd a13d e18e 453d
00000180: 38c4 773f d0b4 8140 9617 a73e 8567 15c0
00000190: 603e 893b 90d4 2d40 863f f13b c70d d93e
000001a0: 5752 8e3f 76d6 8b3e 3479 0340 1c37 61bd
000001b0: 29d9 3bbd 1dab 6a3d 2868 bfbc a016 2abe
000001c0: a619 7b40 6ad1 0d3e d1d0 5f3d bfe8 12bc
000001d0: 0796 8e40 45ca 37bc 76de e23e a53f 0540
000001e0: 584f 1f40 1094 e03c c163 2b40 3f85 5e40
000001f0: 0dd6 ba3d efdf ee3f 8b9b 37bc 731c 813c
00000200: d5a7 b03e 1a06 cc3c f761 4dbd bf83 1bbc
00000210: ae03 85bd 5560 9d3d babb 5e40 eadb 8a3d
00000220: 4f44 92bd 2eff 0d3f a04c 7fbd 554d 0fbe
00000230: 3359 19bd 4674 8e3e b258 57bc 2856 1ebd
00000240: 9083 423d c9bc d63f 1b01 4dc0 e955 f63d
00000250: 3c31 b6bc 239e 9340 b0a5 9b3f 3000 1340
00000260: f051 35be d684 0ec0 e138 82bd de5a 343c
00000270: 2703 1e40 2408 993d 575a 703d f47b 1f3d
00000280: cbf0 3b3d 7e62 44bd 16c3 58bc b974 38bf
00000290: 3d82 5ac0 6930 253d d082 b539 570c d93e
000002a0: 0737 2d40 41f2 1540 8141 d73c 390d b33b
000002b0: f583 4c40 b4bf 3a40 6551 7940 719f 1a40
000002c0: 6d9d d0ba b3f6 c73f 984e 483e 5a4f 52bd
000002d0: ab5e 4340 324d 0dbd 5a57 0c40 a09c 8ebd
000002e0: 9732 d93c ca17 f5bf a5e8 8440 675b 8cbd
000002f0: 0499 97bf 86ee d4bc 4122 28c0 1c64 9640
00000300: ee85 233b 0577 353e beab 973c f9fd 70bd
00000310: 40cf 203f 9118 0f40 db22 3b3f 14bc ac3c
00000320: a0cf 943f 69ea ac3f 640e 9a40 ca18 05c0
00000330: ba9d 1840 2224 94bf 6722 31bc fed9 683d
00000340: b67b 54bc b350 05c0 87c3 83bd d649 2ebd
00000350: c205 04c0 85e9 9640 0339 3240 e7a8 aa3f
00000360: a109 dc3e 190c 113d aebf 4540 e28e 6d40
00000370: c84b 79bc 6920 a7bb 1036 6ebf 5663 99bd
00000380: 5a69 aa3f 5e91 5340 1f22 ec3e 98bf 19c0
00000390: 6c65 64bb e8ab 3140 0a08 fd3c 0f6e 113f
000003a0: b0c6 0840 6f32 fd3b cd03 e83f 638b 9cbd
000003b0: c999 9ebc 2eb7 aebd deba 52bd 5cc6 4d3f
000003c0: d653 3540 d7ec 113f 4b95 9bbb aadc b83c
000003d0: e93f 9b40 82d0 44bd 11be b23f e9e9 fa3f
000003e0: 9ffb 3140 476a a5bc 2215 3440 67cd 1e40
000003f0: 027d 763e b4c8 ae3f 4053 ebbd 1a19 afbc

net.4.bias f4 [6]
1.3258233 1.2471694 0.92470086 1.1305226 1.4451367 1.1109207
00000000: 94b4 a93f 3fa3 9f3f 32b9 6c3f f7b4 903f
00000010: 3dfa b83f a632 8e3f
