rl/models/final_model_run1.pth (torch, 79489 bytes, 6 tensors)

net.0.weight f4 [128, 13]
000000 a8 3b 13 bd 8e 90 b9 3e 55 b8 11 40 fd 65 a7 bb
       -0.035945565 0.362431 2.2768757 -0.0051085935
000010 63 55 49 be 64 ba d2 3d 69 12 4b bf ef 3c 48 3f
       -0.19661479 0.102894574 -0.79324967 0.7821798
000020 03 27 eb bd b1 b8 ad 3d 4e e8 97 bf b6 2d 1f 3f
       -0.1148205 0.08482493 -1.1867769 0.62179124
000030 3e 66 5e bf 27 31 11 bf 25 ea 29 bf 1e e1 0d c0
       -0.8687476 -0.56715626 -0.663729 -2.216865
000040 4c 98 ce be 54 c3 c7 3e ae 48 f4 3e 53 b8 29 bf
       -0.40350568 0.3901621 0.477117 -0.6629688
000050 67 ff f9 3e 59 19 15 3e 71 50 87 be e6 23 8b 3e
       0.4882767 0.1456045 -0.2642856 0.27175826
000060 59 2b 52 3f 4e 88 b7 3e 95 21 c8 bc 10 8c 7d be
       0.82097393 0.3584618 -0.024430076 -0.24760461
000070 85 c0 26 3e 3d 23 29 be 0f 5b e4 be c0 89 24 bf
       0.16284378 -0.16517349 -0.44600722 -0.6427269
000080 d8 6a 23 bf ff 0e c0 3e a7 0d 4c bf 72 54 90 3f
       -0.63834906 0.3751144 -0.7970833 1.1275771
000090 55 39 c4 bd 39 14 bc be 1e a5 2a 3f b1 a0 5e 3e
       -0.09581248 -0.3673418 0.666582 0.21740986
0000a0 a5 92 08 be 44 fd be 3e d5 06 f0 3e 64 d6 01 bf
       -0.1333719 0.373026 0.46880212 -0.5071776
0000b0 6e 33 c1 be 19 ab 22 bf 8f 18 05 3f 03 d8 a2 3f
       -0.3773455 -0.63542324 0.519906 1.2722172
0000c0 83 a1 6a be 7a ea 21 be 9d e5 f2 be 10 1e 88 be
       -0.22913174 -0.15812102 -0.47440806 -0.26585436
0000d0 08 9e 16 3f 60 af 82 3e af 37 21 3f 2d e3 03 40
       0.58834887 0.25524426 0.6297559 2.0607407
0000e0 aa 9d 03 bf 3b 89 7a 3e e9 d6 35 3e ad 85 fe be
       -0.5141245 0.24466412 0.17757763 -0.49711362
0000f0 73 0d a4 bf da bf 94 3e e8 f3 aa 3e e2 29 99 3e
       -1.2816604 0.2905262 0.3338921 0.29914767
000100 45 19 99 be ca 7a 15 3d 69 30 3b be 84 18 cb 3d
       -0.29902092 0.036494054 -0.18280186 0.09916785
000110 8b 72 57 3e 71 9e 48 bd ee 57 ee bd 28 1f 90 bd
       0.21039788 -0.048979226 -0.11637865 -0.070371926
000120 20 b7 8a be a4 9a d2 3c 87 f9 91 3d 7c 60 34 be
       -0.27092838 0.025708504 0.07127672 -0.17614931
000130 0f fb 8b be fd f6 0a be 9d fa 53 be 27 e0 62 bf
       -0.2733998 -0.13570781 -0.2070107 -0.8862328
000140 b2 df 15 3f 5c d8 5a bf fb 28 8f 3d 68 51 e7 bf
       0.58544457 -0.8548639 0.06990238 -1.8071718
000150 fe 1f 57 3e e1 f6 a8 3e dd f9 38 3d e0 91 ed 3e
       0.21008298 0.33000854 0.045160163 0.46400356
000160 27 66 fb be f2 3f 8d be 64 36 9b 3e 40 56 6c 3e
       -0.49101374 -0.2758785 0.30314934 0.23079777
000170 dc 7e b7 3e 0a ec ab bf 46 95 e3 be f5 ac 26 3e
       0.35838974 -1.3431408 -0.44449824 0.16276915
000180 5a 41 17 3f dc ef 4d bf ef d5 d8 bd 3e ad 38 3f
       0.59084094 -0.8044412 -0.105876796 0.72139347
000190 c2 fd 6c bf b9 8a 2e 3f 5e 05 7c be 58 fb e0 be
       -0.92574704 0.68180424 -0.24611422 -0.4394176
0001a0 ca 93 ad 3d 97 1c 0f bf 66 ac b3 3e 33 72 50 c0
       0.08475454 -0.55903 0.35092467 -3.2569702
0001b0 dd dc 3d 3f 23 18 99 3e 7e 00 32 bf 58 07 18 3e
       0.74165136 0.29901227 -0.69532 0.14846551
0001c0 68 e6 dd bd e2 16 cd be 8f a0 97 3d 55 1f 93 3d
       -0.10834962 -0.4005652 0.07403671 0.071837105
0001d0 28 fe b1 be ff f3 76 be 67 6e 40 3d 16 52 50 be
       -0.34764218 -0.24116515 0.046980288 -0.20343813
0001e0 12 56 74 3d f8 24 52 3e a0 b6 1e 3e 11 27 21 be
       0.059652396 0.20521915 0.15499353 -0.15737559
0001f0 bc e3 f3 bd 02 c0 5c 3d 04 1b 67 be d5 59 d0 bd
       -0.11908671 0.05389405 -0.225689 -0.10173384
000200 1a 0b 2a be 9a 04 0a be 0d de 68 3c 79 78 07 bf
       -0.16605797 -0.13478318 0.014213097 -0.529182
000210 6e 64 8c bf bc 36 3e 40 01 02 86 3e de 32 a3 3d
       -1.0968149 2.9720907 0.26173404 0.079686865
000220 e8 ed 0e 3f b6 36 0d 3f f3 ed c7 bf 75 de 9a 3e
       0.55831766 0.5516161 -1.5619491 0.30247846
000230 a4 ab 0a be a2 51 a2 3e 20 36 44 bf ba 8a 41 3e
       -0.13542038 0.31702906 -0.7664509 0.18900576
000240 b2 d9 2f 3d cf 29 21 40 79 36 a7 3f e0 42 3c 3d
       0.04293222 2.5181768 1.3063499 0.045962214
000250 a0 ad 1d 3f 89 98 d1 be 70 44 52 bf c0 cd 03 3f
       0.61593056 -0.40936688 -0.8213568 0.51485825
000260 08 15 92 be c9 a8 7c bf 62 ee 03 be b3 16 18 3f
       -0.2853167 -0.98695046 -0.12883905 0.59409636
000270 89 3d 78 bd 65 ad 10 be dc d0 54 be 4f 1f 0e 3e
       -0.06060556 -0.14128645 -0.20782799 0.13879131
000280 1d c5 2b 3e 36 44 00 be 28 60 c5 3d 81 89 5a be
       0.16774411 -0.1252602 0.09637481 -0.21341516
000290 2c a5 43 3e 5e 5e 6d be 80 a9 0d 3e d6 84 18 be
       0.19105977 -0.2318053 0.1383419 -0.14894423
0002a0 cf f0 8c be 9a ca 06 3f 2f b8 31 bf 9f 55 90 3e
       -0.27527472 0.52652895 -0.69421667 0.28190324
0002b0 92 33 bb bf 39 00 2b 3e 5b 3c ea be 55 8e 16 bf
       -1.4625113 0.16699304 -0.45749173 -0.5881093
0002c0 e8 41 d1 be f5 ff 76 bf a6 fb 0c 3f 91 da 8e 3e
       -0.40870595 -0.9648431 0.55071485 0.27901128
0002d0 2a cc 00 3f 69 4b b0 be 01 95 0a 3f fc d0 76 3f
       0.5031153 -0.34432533 0.5413361 0.96412635
0002e0 fc 6b f3 3f 87 08 1c 3f 73 d3 15 bd e6 23 83 3e
       1.9017329 0.6095051 -0.036578607 0.25613326
0002f0 53 e6 61 be 62 f4 9f be d7 89 37 bf 89 09 6e be
       -0.22060518 -0.31241137 -0.716947 -0.23245825
000300 eb a4 0b 3f d7 86 3b bf 43 bb a5 be 4c b8 6c bb
       0.5454852 -0.73252624 -0.32369432 -0.0036120592
000310 6f 93 d3 3d aa db 18 40 53 41 f9 3f aa 69 17 bd
       0.10330855 2.3884072 1.947306 -0.036966003
000320 fd b7 8f bd 57 d9 88 3e 88 c6 2f be c4 a3 08 3e
       -0.07017515 0.26728317 -0.17165577 0.13343722
000330 9c a4 e3 3e 5c 02 a6 bf d2 5c 8a be fb ec 8f 3c
       0.44461524 -1.296947 -0.2702394 0.017569056
000340 da df d6 be 98 a6 af bf 7b 2f e3 3d df 4c 1d 3f
       -0.4196766 -1.3722715 0.110930406 0.6144542
000350 59 bf 17 bf 2c 60 0c 3f 02 10 25 3f fe 3e eb 3e
       -0.5927635 0.54834247 0.6447755 0.45946497
000360 7b 8c e8 3e 7a b0 3d 3e 81 28 a1 3e d5 e4 84 bc
       0.45419678 0.18524352 0.31476215 -0.016222397
000370 f1 fa c9 3e f5 2c 24 be 16 d4 50 3c ec f1 73 be
       0.39449266 -0.16032775 0.012745878 -0.23822755
000380 c7 e1 91 3d f0 f7 ef 3d 0a 73 03 3c 59 27 34 be
       0.07123142 0.11717212 0.008023033 -0.17593135
000390 26 81 4e be 35 04 37 3d f0 78 93 be 72 86 65 3b
       -0.20166454 0.044681747 -0.28803205 0.0035022763
0003a0 b2 4e db 3d 67 60 f8 3b 8a 73 f9 3c ba 33 9a 3a
       0.10708369 0.0075798514 0.030450601 0.0011764683
0003b0 cf ff 10 be f5 c2 56 be 7f d7 3e 3d 85 68 86 bc
       -0.14160083 -0.20972808 0.04659223 -0.01640726
0003c0 a1 af d7 bc 7e ea 1c be 95 44 5f 3e 04 10 0f be
       -0.026328864 -0.15323827 0.21803506 -0.13970953
0003d0 ed 5f 78 3c d7 13 05 3d 3a d7 cb bd 8f ed 45 be
       0.015159589 0.032489624 -0.099531606 -0.19328903
0003e0 20 50 ef bd 8f 64 f8 bd a0 9b 0d 3e 99 a9 3f 3e
       -0.116852045 -0.12128555 0.13828897 0.1871704
0003f0 c6 ed 97 3d 48 1d 2b be 9b 81 88 be 6d 1d 6b be
       0.074183986 -0.16710389 -0.2666138 -0.22960444

net.0.bias f4 [128]
000000 e2 8f 9e 3d 7d e3 e1 be d8 6f cf 3d a1 c8 b4 3e
       0.07742287 -0.44118872 0.101287544 0.35309318
000010 f2 ff 21 3e d0 e7 0b be 2a a6 27 3d 61 67 87 3e
       0.15820292 -0.13662648 0.04092995 0.2644606
000020 5b da 4d 3e d7 16 e1 bd 50 a0 4d 3e 83 66 05 3f
       0.20102827 -0.109906845 0.20080686 0.52109545
000030 63 ef 2b be 5b 57 9e 3e 9b 94 27 3f 09 82 dd 3e
       -0.16790538 0.30926022 0.6546113 0.4326327
000040 81 52 7b be 15 4f 11 be c9 76 99 be 8d 71 8c be
       -0.24543191 -0.14190324 -0.29973438 -0.27430382
000050 ce 0a f3 3d 75 15 7c 3e 0d 6f 27 be f0 8a 8f 3d
       0.11867295 0.2461756 -0.16350956 0.07008922
000060 08 9a 48 be dc bd 64 3e 67 cf 75 be d0 f4 05 bf
       -0.19590008 0.2233805 -0.24004899 -0.5232668
000070 18 6a 69 bd f2 07 d4 3e e1 7e 4f be 96 ee 57 bc
       -0.056985945 0.41412312 -0.20263244 -0.013179442
000080 ca e7 8a bd 80 63 f1 bd 47 42 d5 3d eb 0a 15 3e
       -0.067824915 -0.11786556 0.10413032 0.14554946
000090 40 6d 17 3e 46 ee ef 3e f0 c2 53 3f 37 d8 ab 3e
       0.1478777 0.46861476 0.82719326 0.33563396
0000a0 fd b5 c7 3d 45 66 51 be e4 d1 43 bd 76 16 38 3e
       0.097515084 -0.20449169 -0.04780759 0.17977318
0000b0 1a e9 20 be 3d 9c 83 3e 40 02 1d bd c9 b0 c8 3e
       -0.15713921 0.25705138 -0.038332224 0.39197376
0000c0 5d 9d 5b be 77 e0 b1 3e 96 16 93 3d dc b2 80 be
       -0.21446748 0.34741566 0.07182042 -0.2513646
0000d0 dd fb 06 3e 20 73 69 be 63 a7 93 3e ef 2c 6e 3e
       0.13182016 -0.22797823 0.28838643 0.23259328
0000e0 82 3a 9c be 4d 29 34 3e b0 39 a6 bc 13 b9 1b 3e
       -0.30513388 0.1759388 -0.02029118 0.15207319
0000f0 f5 e3 11 bf 90 66 b6 be 1a 41 1e be 56 a6 9a be
       -0.5698846 -0.35625124 -0.15454522 -0.3020503
000100 34 6d 93 3d 6e ac de bd b2 89 cd be 22 6f 66 bd
       0.07198563 -0.10872732 -0.40144116 -0.05625833
000110 5d ee 80 3e f6 7d 08 bf 45 2b 98 be 3c 63 96 3d
       0.25181857 -0.533172 -0.29720512 0.07343146
000120 56 57 8e 3e 5c 02 2d be ea d6 02 3f bd bf d1 3d
       0.27801007 -0.16895431 0.5110918 0.10241649
000130 29 a9 01 3e 14 d3 21 be 80 b6 49 be 02 a9 12 bd
       0.12662186 -0.15803176 -0.19698524 -0.03580571
000140 64 91 29 be 2b b2 86 be 9e 00 92 3e 5b 93 62 bd
       -0.16559368 -0.26307806 0.28516096 -0.05531631
000150 e3 75 ae be 38 a2 e1 be 75 0c 98 3e fc 73 28 be
       -0.34074315 -0.44069076 0.29697004 -0.16450495
000160 cb 09 b6 bc 87 72 bc be 1b f6 25 3d 19 8b a4 be
       -0.022221467 -0.36806127 0.040517908 -0.32137373
000170 32 e3 d0 3d 90 07 ae bd 41 d6 2e be 7e 9d 2a be
       0.10199584 -0.08497536 -0.17073919 -0.16661641
000180 3a 67 f2 be b0 ee 91 bd fe d7 19 bd f1 34 95 be
       -0.4734438 -0.07125604 -0.0375595 -0.29141954
000190 9e 08 15 be ce 69 ff bd 90 aa 07 3d e7 78 3a 3e
       -0.14554068 -0.124713525 0.033121645 0.18210183
0001a0 0d 75 1e be d3 a0 97 3e 8f 60 c7 be a3 48 5c 3e
       -0.15474339 0.29614887 -0.38940856 0.21512084
0001b0 77 48 b3 3e f4 26 54 3e 12 af 11 3f 62 bb 99 3e
       0.35016224 0.20717984 0.5690776 0.30025774
0001c0 be 56 02 be 66 65 44 bd 08 a0 5c 3e fc df 29 3e
       -0.12728402 -0.047948264 0.21545422 0.1658935
0001d0 cc d6 2c be 5c 8e 01 be f1 d0 4d bd 27 1f 85 be
       -0.16878814 -0.12651962 -0.05024809 -0.2600033
0001e0 d5 5b 0a 3e cb 0f a0 be c0 c7 97 be cc 17 08 be
       0.13511594 -0.3126205 -0.29644585 -0.13290328
0001f0 f0 68 8b be 4d da 9c bc 0b b1 7e 3e 4c 9e bf bd
       -0.27228498 -0.019147063 0.24872224 -0.093563646

net.2.weight f4 [128, 128]
000000 70 fc 0f bd 79 e6 3c 3c b8 88 0c bd c2 da 04 bc
       -0.035152853 0.011529558 -0.034310073 -0.008108797
000010 f7 29 5e 38 b7 aa f1 3c 89 b7 2b 3d c7 7a da 3c
       5.2968007e-05 0.029500348 0.04192308 0.026669873
000020 0a e1 09 be 2a 2d f9 ba 24 18 45 be 9c e3 81 bd
       -0.13464752 -0.0019010652 -0.1924749 -0.06342241
000030 f2 cd 5f bc a8 3a b1 bc f0 ee 5a 3d 29 0c 60 bc
       -0.013659941 -0.021634415 0.053450525 -0.013674774
000040 3f c2 c2 bd 95 8f 98 3d 54 3f 2b 3d bb 89 37 3d
       -0.09509706 0.07449261 0.04180844 0.044809084
000050 49 fa 97 3c 75 4b a4 bc 11 14 7c bc 05 5e b7 bc
       0.018551962 -0.020055512 -0.015385644 -0.0223837
000060 16 48 3f 3c 9b db 9d bd c2 a5 ad 3d 29 28 b2 bd
       0.0116749015 -0.07707902 0.084788814 -0.08699066
000070 75 ec 18 bd aa f6 b2 3c b1 3f 72 bd 49 06 7f bd
       -0.037334878 0.021846134 -0.059142772 -0.062261853
000080 01 e2 b4 bd 02 49 7f bd 3b 30 82 bd 94 fa 5b bd
       -0.08832169 -0.062325485 -0.063568555 -0.053705767
000090 76 9d 5c bc 9e 7f 92 bd 7a 6c b1 bc 02 b9 e3 3c
       -0.013465276 -0.07153247 -0.021658171 0.02779818
0000a0 c8 fd 44 3d 61 e8 51 3d 6e cf 8d 3d 05 ed 82 bd
       0.048093587 0.051247004 0.0692433 -0.06392864
0000b0 51 6d 3f 3d 7f 97 06 be f0 58 8e bd 66 83 a2 bd
       0.04673511 -0.13143729 -0.06950557 -0.079352185
0000c0 59 a5 6a bd 93 04 90 bd 30 0c 27 bd 0e d4 9e 39
       -0.057286594 -0.070321225 -0.040783107 0.000302941
0000d0 08 37 9e bd 67 b3 32 be de a5 82 bc b1 3b 71 bd
       -0.0772534 -0.17451249 -0.015948232 -0.058894817
0000e0 43 2c 27 3d 2c 18 44 bc e2 28 a0 bd 3b fe 51 bd
       0.040813696 -0.011968654 -0.07820298 -0.051267844
0000f0 fc 3f b4 3d 94 6e 87 bc 9c 0d 4b bc c1 b7 0c 3d
       0.088012666 -0.01653222 -0.012393381 0.03435493
000100 f6 42 e1 3c 79 c5 88 bd 3c c9 85 3b 14 32 f2 bc
       0.02749775 -0.0667829 0.004082827 -0.029564895
000110 14 a6 ba bb 78 68 25 bd 0f 17 72 3d 43 28 62 bd
       -0.0056960676 -0.040382832 0.05910402 -0.055214178
000120 bb f7 9b bd 50 1d ca bb 4c b4 04 bd c6 7e 8e bb
       -0.0761561 -0.006168045 -0.032398507 -0.0043486087
000130 01 15 31 be 01 b0 02 bc 65 90 7d bd 02 42 43 bd
       -0.17293169 -0.007976533 -0.061905283 -0.04767037
000140 d2 12 03 be 76 1c a9 3d 47 80 aa bc 94 fc 50 bc
       -0.12800148 0.082573816 -0.02081312 -0.012755532
000150 07 14 f6 bd 68 f6 81 3d 56 bc 1d be 16 e0 81 bd
       -0.12015539 0.063458264 -0.15403876 -0.06341569
000160 31 62 d2 bd e6 5b b4 bd f7 a2 be 3c 45 24 02 be
       -0.10272635 -0.08806591 0.023271067 -0.12709148
000170 3f 02 ff bb c8 ea 30 bc 4e c7 cf bd 83 6b 8c bd
       -0.00778225 -0.010798164 -0.10145436 -0.06856444
000180 1a f0 86 bd 43 0c d6 bb ec 1e 30 be f0 8d 96 bc
       -0.065887645 -0.0065322234 -0.17199296 -0.018378228
000190 6f 2f 6d bb 91 14 37 be fb 1d c0 bd 1b 9d c4 bd
       -0.0036191603 -0.17878939 -0.09380718 -0.09600278
0001a0 aa a3 91 3d a4 74 96 3d 7b e1 19 3d 53 c2 26 bd
       0.071112946 0.07346466 0.03756855 -0.040712666
0001b0 7f 4f 27 3d 90 e6 de bd ff 27 b4 bd c9 fa c1 3c
       0.040847298 -0.1088382 -0.08796691 0.023679154
0001c0 92 36 54 3d f4 53 5e bd 5e e4 97 3c 1e 73 c3 3c
       0.051809855 -0.054279283 0.018541511 0.023858603
0001d0 1e b1 b1 bd e8 f7 6e bd aa b3 c3 3d fa f4 16 bb
       -0.086763605 -0.05834189 0.095557526 -0.00230342
0001e0 9b cc 85 3d 2f a2 91 bc 22 7c 37 bc 58 3d 00 bd
       0.06533166 -0.01777753 -0.011199029 -0.031308502
0001f0 49 22 15 3c a3 c5 be bd 73 61 ad bd d2 f8 77 bd
       0.0091024125 -0.0931504 -0.084658526 -0.060540028
000200 8a 10 a7 bf a5 e8 42 3e 79 57 69 3f be a0 5f bf
       -1.3051922 0.1903406 0.911491 -0.8735465
000210 20 3e ba 3e c3 af 61 3d 21 99 d1 bf 89 dd 6e 3f
       0.36375523 0.05509926 -1.6374856 0.93306786
000220 e7 94 1d 3e 25 3f d0 bd 2f 55 1d 3f 8a 5b 44 bf
       0.15388833 -0.10168294 0.61458105 -0.7670218
000230 1d 2e b6 3d 2e cc 24 3f 46 4b 36 be 35 4b 48 bf
       0.08895514 0.64374053 -0.17802152 -0.78239757
000240 62 ae 0a 3e ab d2 38 3d e5 21 25 3d 12 64 08 bd
       0.13543084 0.045122784 0.040315527 -0.03329856
000250 72 b6 01 bf 65 76 81 bd 3f ee 50 bc f6 0b 99 bf
       -0.50669014 -0.0632141 -0.012752115 -1.1956775
000260 36 90 ee 3d 57 4d 0d 3f 33 0a 94 be 0d 58 17 3f
       0.116486 0.55196136 -0.2891403 0.5911873
000270 db 96 1c be ea 2e 8b be dd af 50 3e 13 dc 78 bd
       -0.15291922 -0.2718423 0.20379587 -0.060756754
000280 b8 ad c8 3c e8 68 cd bd ad db 0d be bc d8 1a be
       0.024496898 -0.10029775 -0.13853331 -0.1512174
000290 45 da 49 3f 09 13 35 3f 35 68 2e 3f 07 31 85 bf
       0.7884868 0.7073217 0.6812776 -1.0405587
0002a0 c4 79 9f bd 95 e0 a2 bd 75 fb 31 be 5a 9d 24 3f
       -0.07786897 -0.07952992 -0.1738108 0.643026
0002b0 52 fe c9 be e3 7b 11 bf bb cb 6b bf 5f 1c a0 3e
       -0.39451844 -0.5682966 -0.92107743 0.31271645
0002c0 9e 0e 4c be 83 05 07 c0 e6 6b 9a 3d 31 d3 9a bd
       -0.19927451 -2.1097114 0.07540111 -0.07559813
0002d0 bc c7 5e 3e 8a a9 11 bf 5c 0a 37 3e d2 14 cb 3e
       0.2175588 -0.5689932 0.17875046 0.39664322
0002e0 8e 38 9d 3c 69 02 5a be 24 73 7f 3d 79 07 b0 be
       0.019192006 -0.21289982 0.062365666 -0.343807
0002f0 28 f6 b1 bf 19 01 1e bf 93 16 93 3f 4b 44 41 3d
       -1.3903246 -0.61720425 1.1491264 0.04718427
000300 3e b0 e6 be c0 3b 42 3d 19 c6 4c bf e2 8e 0a 3f
       -0.45056337 0.047420263 -0.79989773 0.5412427
000310 55 e2 2c be 0c 97 c2 bf 62 c7 1a bf fa 57 9e be
       -0.16883214 -1.5202346 -0.60460484 -0.30926496
000320 24 4f 41 bd bf be c5 3e ad c2 e6 3e 9c f8 fb bf
       -0.047194615 0.3862209 0.450704 -1.9685245
000330 b3 b5 17 3f 94 41 a5 bc c0 04 01 bf 30 3a af 3e
       0.59261626 -0.020172872 -0.5039787 0.3422408
000340 7a b7 41 3e 1f 20 9c bd e5 50 e5 bf c2 91 9c 3e
       0.18917647 -0.07623314 -1.7915312 0.30579954
000350 7e 75 ba 3e 4c 01 d8 3e 98 3f 04 3f c4 74 01 3f
       0.36417764 0.4218849 0.51659536 0.50568795
000360 bf 02 20 3e 0c 90 e8 be 77 b5 b6 be 25 32 c5 3d
       0.15626048 -0.454224 -0.35685322 0.09628705
000370 41 fa 82 3e ea c6 84 3f 91 99 e4 be bd 93 76 bf
       0.25581554 1.0373204 -0.44648412 -0.9631918
000380 3a 5d 06 bf 53 4e 89 be 86 e5 af bc b5 a5 4b bc
       -0.52486 -0.2681757 -0.02147175 -0.012429644
000390 40 d7 b1 3d 34 69 70 3f 64 74 65 bd b2 f1 2a 3e
       0.08683634 0.9391053 -0.056019202 0.16693762
0003a0 ca 1e a7 38 a0 fc 9e 3e 74 33 5c bf 30 45 29 3f
       7.9689155e-05 0.31052113 -0.8601601 0.66121197
0003b0 27 de 59 be 43 4f 55 be f0 c4 23 3e 73 40 5f 3f
       -0.2127615 -0.20831017 0.15993094 0.87207717
0003c0 33 78 88 3d 0f 09 95 3d 6f 17 55 bc 26 e1 5f bd
       0.06663551 0.072771184 -0.013006075 -0.054658078
0003d0 6a 11 16 bf 6e 43 03 be 01 ab 02 be d2 fa 2f 3d
       -0.5862032 -0.12818691 -0.12760545 0.04296381
0003e0 e9 c7 14 c0 7f f9 84 3e a4 05 a9 bd c2 b3 6e 3f
       -2.3247015 0.259716 -0.08253029 0.9324304
0003f0 e7 49 72 bd a8 d3 62 bf 09 f9 12 3f e0 8f 58 bc
       -0.05915251 -0.8860421 0.5741125 -0.013217896

net.2.bias f4 [128]
000000 07 9d 3e bc db cc b8 be 62 ff 0a bf 98 3f e0 bd
       -0.011634118 -0.36093792 -0.54295933 -0.109496295
000010 80 9e 94 ba 7c ea 41 3f df 4c 56 3e 4f c0 04 3e
       -0.0011338741 0.7574842 0.20927761 0.12963985
000020 1c 76 27 3f 60 fb c4 3d 59 71 7a 3e 8d 4a 0b bd
       0.65414596 0.096182585 0.24457301 -0.034006644
000030 8a 38 3a be 05 13 a1 3c 72 72 e8 3e a9 67 f0 3c
       -0.1818563 0.01966239 0.45399815 0.029346304
000040 8c cd 90 bd c1 85 0e 3f 4a 74 68 be d5 fa 86 be
       -0.07070455 0.5567284 -0.22700611 -0.26363245
000050 24 1c 6f be ff 71 88 3e 1b 42 3d bc 22 be cf bd
       -0.23350579 0.26649472 -0.011551405 -0.10143687
000060 3a 7d 1c be bf 4e 6b bd 2f b8 b4 bd 12 6f af bb
       -0.15282145 -0.057448145 -0.08824193 -0.005353817
000070 51 5a 01 3f 21 a5 7d be 8a f8 83 bd 35 b0 ee be
       0.50528437 -0.24770023 -0.064438894 -0.4661881
000080 ad fd ae bd 05 b1 08 3e f3 bf 86 3e d3 7c 26 3f
       -0.085444786 0.13348778 0.2631832 0.65034217
000090 c8 ab 53 be af 61 d1 bd 14 fe 38 bd 9c ea ec be
       -0.20670998 -0.1022371 -0.045164183 -0.46272743
0000a0 9c 3a d0 3e 30 7f 51 be 1d d8 86 3d d5 d6 d1 bd
       0.40669715 -0.20458674 0.06584189 -0.10246054
0000b0 2d 45 b5 be 1c 52 80 be 52 b3 f0 bd 4e df 79 bd
       -0.3540434 -0.25062644 -0.11752953 -0.061003976
0000c0 98 a4 d5 3d 07 59 e5 bc ab 86 8b bc ac 30 23 3f
       0.104317844 -0.027996553 -0.017031988 0.6374614
0000d0 fa b7 b8 bc fb 03 56 3f 14 13 86 bd 2e e4 8c 3e
       -0.022548664 0.83599824 -0.065466076 0.27517837
0000e0 da 37 f9 bd 11 ee 13 3e b6 1c c2 be ad 61 f4 3e
       -0.12168856 0.14446284 -0.3791253 0.4773077
0000f0 25 92 0d 3f bb 45 10 3c d0 e6 bd bd f0 bd b9 bc
       0.55301124 0.008805688 -0.092725396 -0.022673577
000100 e4 49 78 3f fd dd 27 3f e2 37 49 bc 56 b1 e1 bd
       0.9698775 0.655731 -0.01228139 -0.11020152
000110 d3 0e 86 3d 5e 87 db 3e b0 69 08 3f 93 ea 91 3e
       0.06545796 0.42876714 0.53286266 0.28499278
000120 34 ca 5b 3e aa 78 65 3e f1 58 05 be 94 e8 a9 3e
       0.21463853 0.22409311 -0.1302221 0.33185256
000130 83 02 1e 3e 0b b3 4a 3c cc 6c e6 bd 60 f2 e7 3c
       0.15430646 0.012371789 -0.1125122 0.028313816
000140 d9 c7 61 3f e8 6a da 3d 42 79 ce bd b2 e2 da bd
       0.8819557 0.10664922 -0.10081722 -0.1068777
000150 7a f3 91 bc 52 6a 23 be b9 01 47 3e 7f 7f 96 3e
       -0.017816294 -0.15958527 0.19434251 0.29394147
000160 09 9f 5d 3f 49 6e 68 3b 64 8f 79 3e 14 b5 78 3e
       0.86570793 0.0035466126 0.24371105 0.24287826
000170 6b 1d ea bc 6c b8 80 bd 4f fd ab 3d ae ea 51 3e
       -0.02857848 -0.06285176 0.08397924 0.2049968
000180 1c 5b 16 3f 47 e4 5e 3e c2 9d 08 3f 5a 76 65 3d
       0.5873277 0.21766768 0.5336572 0.056021072
000190 08 27 6f 3e 26 cf 73 3e 2b f8 10 3f a2 4e 7c bd
       0.23354733 0.2380949 0.56628674 -0.061598428
0001a0 31 80 92 bb b9 87 af 3e 1b c3 60 be e8 d2 0a 3f
       -0.004470848 0.34283236 -0.21949427 0.5422807
0001b0 14 46 bf bd 91 8f 6a bd 03 ba f7 be 34 10 28 bd
       -0.09339538 -0.05726582 -0.48384103 -0.041031078
0001c0 df 4f db 3e b5 4f 78 3c 4a 59 f3 3e 22 05 75 3f
       0.42834374 0.015155722 0.4752906 0.9571096
0001d0 7e ad 03 3f a5 e4 e9 bd 17 f4 3c ba a6 88 5e 3e
       0.51436603 -0.114205636 -0.0007208003 0.21731815
0001e0 31 d6 1d 3e b0 3d f1 3d 02 00 cb 3e d4 82 b4 3e
       0.15413739 0.11779344 0.39648443 0.35256064
0001f0 4e 66 f7 3e 43 10 44 3f bf 4b cb 3e 09 b5 74 3f
       0.4832024 0.76587313 0.39706227 0.9558874

net.4.weight f4 [6, 128]
000000 39 a1 13 bc 9b 32 08 bf 26 da 7b bf 4d 61 31 bd
       -0.009010606 -0.5320222 -0.98379743 -0.043305684
000010 c1 f8 3d 3c 01 d5 9c 3f ae e7 9a 3f fc d6 9f 3e
       0.011594952 1.2252504 1.2101953 0.31218708
000020 24 a9 be 3e 83 03 24 3f a2 aa 9f 3f 98 a5 64 bb
       0.3723842 0.6406786 1.2473948 -0.003488874
000030 cc c3 71 bf 7a 75 1a 3c 54 d1 9e 3f b5 ff 50 bf
       -0.9443939 0.009427423 1.2407632 -0.8164018
000040 15 28 5e ba 04 11 88 3f d4 36 80 bf c5 cd 72 bf
       -0.00084746006 1.0630193 -1.0016732 -0.9484523
000050 5b 34 e7 be d9 bb 51 3f a6 5c 37 3d fa a4 70 bc
       -0.45157132 0.8192726 0.04476609 -0.014687771
000060 7a 85 8c bf 63 98 91 bd dc ed 65 3e 07 64 f5 bc
       -1.0978234 -0.071091436 0.22454017 -0.029954923
000070 68 e2 a9 3f dd 08 8a bf 77 f1 dc 3f 98 32 83 bf
       1.3272219 -1.0783955 1.7261189 -1.0249815
000080 c8 9b ce 3c aa 2a 69 3f 17 4a ea 3e 72 d1 e8 3e
       0.025220767 0.91080725 0.4575965 0.45472294
000090 19 69 8b bf 49 92 83 3c 65 90 b0 3f c4 b2 c7 be
       -1.0891448 0.016060965 1.3794066 -0.39003575
0000a0 38 fa cc 3e 56 1a 0e be 73 90 9a 3f c7 15 8e bf
       0.40034652 -0.13877234 1.2075332 -1.1100396
0000b0 4a 2a 52 bf a1 45 b1 3f b4 e6 96 bd a8 4e 7f bc
       -0.8209578 1.3849374 -0.07368222 -0.015582718
0000c0 2b 18 79 3f 29 17 0a 3e 94 ba 52 3d 10 34 98 3f
       0.973025 0.13485397 0.051447466 1.1890888
0000d0 49 a2 d1 3b fa e7 91 3e ea c0 29 3d 9f f7 8e 3f
       0.0063975197 0.28497297 0.041443743 1.1169318
0000e0 aa 3e 1c bd 65 ea 14 3f 7b 46 df 3e 84 43 ab 3f
       -0.0381457 0.5817016 0.4360846 1.3379979
0000f0 c2 c9 a9 3f 69 79 59 bf ae 26 7d bd 46 2d bb 3c
       1.3264697 -0.8495088 -0.061804466 0.022848736
000100 b1 6a e3 3e 24 10 91 3f e7 7d 86 bd 7c 56 38 3d
       0.44417337 1.1333051 -0.06566983 0.045004353
000110 25 5b a6 3f f5 95 7b 3f c6 d2 81 3f 56 99 09 3f
       1.2996565 0.9827569 1.0142448 0.537496
000120 a7 a6 58 3f d2 38 9e 3e 63 a2 23 bc 86 79 e7 3f
       0.8462929 0.30902725 -0.0099874465 1.8083961
000130 09 84 24 3f c4 12 46 bd 2a f7 92 3c 18 23 3f bf
       0.6426397 -0.04835774 0.017940123 -0.74662924
000140 a9 00 c3 3e 64 cf 6e 3f 10 51 c4 bc f6 71 8a bb
       0.3808644 0.932852 -0.023964435 -0.004225011
000150 69 e7 49 bc c6 87 21 3f 72 e8 18 3f 18 8c 64 3f
       -0.012323239 0.630978 0.59729683 0.89276266
000160 f0 0d a3 3e eb 9b 5c bd 4f 19 0b 3f 4a a1 71 3f
       0.3184657 -0.053859632 0.5433549 0.9438673
000170 63 f5 f7 ba 76 e8 8e bc 63 d3 c9 3e 23 4f 51 3f
       -0.0018917735 -0.01744483 0.39419088 0.8176138
000180 5d ca 8c 3f 76 c9 0d 3f ea 60 af 3f c7 21 a7 be
       1.0999256 0.5538553 1.3701451 -0.32642958
000190 33 dc a3 3f e1 e3 22 3f 6d 35 a2 3f 82 3d 33 3d
       1.2801574 0.63628966 1.2672554 0.04375983
0001a0 50 6e 8e bd 69 c7 8a 3f c5 05 c5 be bc b8 6c 3f
       -0.06954634 1.0842105 -0.38480964 0.9246938
0001b0 ca f8 d4 3c 5d f5 54 bd 9c 8a 3b bc 2e 6e 65 bd
       0.025997538 -0.05199181 -0.011446621 -0.05601328
0001c0 1a 6b 27 3f 42 56 11 bd ae c4 32 3f 33 14 a7 3e
       0.653978 -0.035482652 0.6983136 0.32632598
0001d0 84 d5 95 3f 5c 83 86 3d e0 cf 25 3d 78 53 81 3f
       1.1705785 0.065680236 0.04048145 1.0103598
0001e0 5b 29 17 3f b4 da 68 bf 6d b1 0f 3f 16 fe 9e 3f
       0.5904748 -0.90958714 0.56130105 1.2421291
0001f0 b4 3a 66 3f 3a f9 84 3f e1 d9 a4 3f 05 a5 e2 3e
       0.89933324 1.0388558 1.2878991 0.44266525
000200 8a 87 83 bd 35 4d 37 bf 56 e2 40 bf 15 d8 b0 3b
       -0.064223364 -0.71602184 -0.7534536 0.0053968527
000210 18 dd 80 bd 71 56 77 3f fb e0 95 3f d3 93 42 3f
       -0.0629217 0.96616274 1.1709284 0.7600681
000220 3a d0 11 3d a5 62 51 be 4b a7 8d 3f 94 64 1a bd
       0.03559897 -0.20447786 1.1066679 -0.037693575
000230 cf 0d eb be fa 38 ad bc 55 a5 bd 3f ad d4 94 bf
       -0.45908973 -0.021145333 1.481608 -1.1627403
000240 d0 cd 04 bd c6 a6 8b 3f 31 de 82 bf 9f f0 44 bf
       -0.03242284 1.091027 -1.0224057 -0.7692966
000250 d3 ad 02 bf 77 d3 34 3f 9e 0a f4 bc 98 72 db bc
       -0.51046485 0.7063517 -0.029790219 -0.026788041
000260 fc 04 8f bf 8a 44 25 3c 75 3a fe 3e 09 52 4a 3d
       -1.1173396 0.010087142 0.49653974 0.04939464
000270 cc 72 a9 3f d6 e5 63 bf 58 85 61 be 7e 72 90 bf
       1.3238158 -0.89022577 -0.22023523 -1.128494
000280 ce 0f 49 bc f1 ad 55 3f d0 e4 13 3f 06 25 03 3f
       -0.012271835 0.8346854 0.57771015 0.5122837
000290 42 b9 96 bf ee d8 22 3d 75 98 9a 3f 14 d6 7e be
       -1.1775286 0.03975766 1.2077776 -0.24886352
0002a0 be 40 ba 3e d8 13 c3 3e 09 78 a4 3f 5f e6 77 bf
       0.3637752 0.38101077 1.2849132 -0.96835893
0002b0 8a f9 71 bf 30 c3 d2 be 70 fe a6 3c a4 f6 44 3d
       -0.9452139 -0.4116454 0.020384997 0.048086777
0002c0 b3 26 ca 3e 39 e1 13 bd 0b 1a 24 3d cd ec 95 3f
       0.3948265 -0.03610346 0.0400639 1.1712891
0002d0 cb ea 90 bb 53 e7 b6 3e 06 21 37 3c 88 d8 74 3f
       -0.0044225208 0.3572336 0.011177307 0.956429
0002e0 fc e2 8c 3d da 51 ad 3e 2b 3e 89 3f e6 c2 16 3f
       0.06879231 0.3385151 1.0722097 0.5889114
0002f0 34 d7 c0 3f 40 4a 4b bf f5 20 5d bd c0 fc 0b 3c
       1.5065675 -0.7941017 -0.05398651 0.008544147
000300 1f 5a db 3e e3 f9 6e 3f 19 9b 8a bd b7 0c 42 3d
       0.42842194 0.93350047 -0.06767864 0.047375407
000310 a9 27 96 3f 29 fa 4f 3f 3a 2d 3f 3f c0 c5 0d 3f
       1.1730853 0.8124109 0.74678385 0.5537987
000320 95 15 87 3f cb ba 9a 3d 2b 62 8e 3d 5b ab 8d 3f
       1.0553461 0.07555159 0.06952318 1.1067919
000330 5c b5 e4 3e 54 59 52 bd ad 5f 1f 3d 11 80 57 bf
       0.44669616 -0.05135472 0.038909603 -0.8417979
000340 66 85 e0 3e 29 4e 4e 3f 50 a2 1d 3d c4 8f 41 bd
       0.43851775 0.8058801 0.03848487 -0.047256246
000350 d9 13 7e 3d 20 4b 83 3f d7 44 a8 3f b5 40 85 3f
       0.062030647 1.0257301 1.3146008 1.0410372
000360 9c 5f a0 3e 66 3a 6b bd 9e 37 47 3f 72 0d 42 3f
       0.31322944 -0.05742874 0.7781924 0.75801766
000370 7f a3 cf bc f4 e4 4d 3d 31 f5 94 3f c3 92 20 3f
       -0.025346516 0.050267175 1.1637326 0.6272394
000380 4d 59 7f 3f 57 d3 b7 3f a5 09 ae 3f 1e c5 f9 be
       0.9974564 1.4361371 1.3596693 -0.487832
000390 f0 1a a3 3f 27 c2 0d 3f 79 fd 84 3f 44 7c b0 bd
       1.2742596 0.5537438 1.0389854 -0.08617452
0003a0 ac 7f 92 bb f4 19 89 3f e7 5c 7e bf a7 4c 36 3f
       -0.004470786 1.0711045 -0.9936051 0.7121071
0003b0 22 05 ef bc 37 fa 3e 3c 5f d9 81 bf af 69 8f bd
       -0.029177252 0.011656336 -1.0144461 -0.070025794
0003c0 bf d3 a4 3f 62 20 b7 3c 13 91 30 3f 98 1b d8 3e
       1.287712 0.022354309 0.68971366 0.42208552
0003d0 ec c6 92 3f cb 72 f1 3d b7 4e 5e bd a8 c2 b2 3f
       1.1466956 0.11789473 -0.054274287 1.3965654
0003e0 44 a0 33 3c 90 47 ae 3f 07 c6 1f 3f 43 02 43 3f
       0.010963503 1.3615589 0.6241154 0.76175326
0003f0 95 f5 6b 3f ea 35 99 3f 7b 9f 93 3f 92 c2 d8 3e
       0.92171603 1.1969578 1.1533045 0.42335945

net.4.bias f4 [6]
000000 3a e5 18 3f ef 88 8b 3f cd 86 27 3f 44 63 2d 3f
       0.5972477 1.0901164 0.65440065 0.6772959
000010 11 b8 2a 3f 48 48 26 3f
       0.66687113 0.6495404
