rl/models/final_model_run9.pth (torch, 79489 bytes, 6 tensors)

net.0.weight f4 [128, 13]
0.8710946 -1.6602029 0.6337026 -1.3191459 0.8898573 -1.5705652 -0.12288962 -0.28054821
-0.06062877 -0.3102287 -0.059257794 0.15390232 -0.3614707 -0.019918784 -0.028233714 -0.34198844
-0.05943966 0.07605921 -0.33529815 -0.22147073 -0.16603926 0.04891196 -0.0687686 -0.26040286
-0.30575588 0.2002679 0.16068359 0.67264444 -0.5176355 -0.9753725 0.35319698 -0.7866657
0.003793333 -0.07974023 -0.38632977 -1.3153975 -1.7401887 0.9837669 0.8143402 0.49698803
0.7596977 2.0521417 0.18741244 -1.1453179 0.060237393 0.76109785 1.5209631 -1.2234236
-0.31729442 -1.264928 0.6385695 -0.06448148 -0.06973793 0.35909435 3.943622 2.2583392
-0.7916081 -0.15517698 0.5601856 0.08686797 1.1316969 -1.3532883 -0.9690168 0.08479002
0.26557842 -0.17023863 -0.3299085 1.5543996 -2.3667247 -0.16661863 -1.1671572 -0.18698941
1.60719 -1.287735 1.3416138 -0.0125611955 0.3010177 -0.5467682 -0.25548065 -0.1348412
-0.21570718 0.14010364 0.17756408 -0.16913582 0.10705884 -0.06704934 -0.09924495 -0.12417128
0.03655154 0.10848408 -0.15800436 0.81181604 -1.8048079 -0.027634595 -0.50626016 -0.5964602
2.0987804 0.14324215 -0.06405495 0.055797376 0.13430567 -0.0775158 -0.0008605877 -0.05338237
1.3142796 -1.5623457 -2.6653547 -1.8202488 -0.87738645 0.98061925 -0.13209425 0.0984924
0.21760724 0.058540363 -0.21333563 0.4568458 0.063163646 -0.14263593 0.89541036 -0.02650929
-0.2651195 0.021933792 -1.2656068 1.1423802 -0.857368 -1.7172874 0.22363569 -0.75545967
-0.8547141 0.4248315 2.1067863 -0.27325684 -0.48623276 0.98540574 -1.6575049 -0.8383003
-0.03469985 -0.08302585 0.1584086 -0.10166204 0.0782399 -0.16127491 0.1118848 0.1933493
0.09390662 0.12607762 0.07809663 0.0542927 -0.17634392 -0.08278542 -0.025575096 0.018504173
-0.19497089 -0.1638487 -0.13279858 -0.06435167 -0.69410264 -0.37334627 -2.3618388 -4.501555
-0.5792003 0.8047911 0.31589776 -0.2743588 0.8846534 0.02044203 -0.0930125 -0.45190108
-0.27105188 -0.054760598 0.9966061 -1.4098933 -1.3407109 0.8322165 -1.241856 -0.54089403
-0.24982205 -0.3969531 -0.46526697 -0.10689942 1.5208286 -0.9213992 -0.20882902 -0.011698947
-0.11048426 -0.11153888 -0.13295928 -0.31299898 0.037676983 0.011490782 -0.13332926 -0.068805784
0.13812505 -0.37478825 -0.07795183 0.8910802 -1.6373153 -1.9089966 -1.6474111 -0.35192615
-0.89400166 -0.63534147 0.6673893 -1.6143609 0.8866377 0.15877543 -0.23391528 0.2242167
-0.10591027 -0.065677516 0.1183103 0.015171287 -0.04914626 -0.078847684 -0.031577896 -0.16419335
0.029355718 -0.13486226 0.008500323 0.08239948 0.039620135 -0.010318426 -0.33060998 0.019300908
0.30164355 -0.3566843 -0.22198774 0.0068409736 -0.018070158 -0.22086577 -0.32939664 0.05871581
-0.12477312 -0.008812309 0.12717082 -0.718852 -2.2392805 0.6071736 1.1510211 -0.10496796
0.7797802 -0.5405709 -0.75951886 0.024287425 -0.5898363 -0.14946021 1.0797737 -1.2286862
0.7474827 -0.07610571 2.9911027 -1.3497417 0.042097688 -0.41985655 0.66297394 -0.4108464
00000000: 0e00 5f3f 8781 d4bf 553a 223f c6d9 a8bf
00000010: b0cd 633f 4808 c9bf 8ead fbbd 04a4 8fbe
00000020: e055 78bd 4cd6 9ebe 4db8 72bd 9298 1d3e
00000030: b012 b9be b82c a3bc 644a e7bc 1c19 afbe
00000040: 0077 73bd eec4 9b3d 33ac abbe 39c9 62be
00000050: 3206 2abe e857 483d 8dd6 8cbd 8653 85be
00000060: 098c 9cbe 0713 4d3e 3d8a 243e 6d32 2c3f
00000070: c383 04bf 03b2 79bf 3cd6 b43e ec62 49bf
00000080: 9199 783b d94e a3bd 04cd c5be f25e a8bf
00000090: 81be debf 26d8 7b3f 9978 503f 3775 fe3e
000000a0: 8c7b 423f 4a56 0340 0ce9 3f3e c799 92bf
000000b0: 7cbb 763d 4fd7 423f ebae c23f 2599 9cbf
000000c0: 6a74 a2be 29e9 a1bf 4a79 233f de0e 84bd
000000d0: c3d2 8ebd 37db b73e 4e64 7c40 a188 1040
000000e0: d4a6 4abf b7e6 1ebe 5368 0f3f d6e7 b13d
000000f0: 72db 903f 8d38 adbf 7c11 78bf 64a6 ad3d
00000100: e5f9 873e 0953 2ebe c4e9 a8be 91f6 c63f
00000110: 6b78 17c0 139e 2abe 6865 95bf 277a 3fbe
00000120: 67b8 cd3f 80d4 a4bf 00ba ab3f 79cd 4dbc
00000130: fe1e 9a3e 00f9 0bbf 5cce 82be d013 0abe
00000140: 58e2 5cbe 5477 0f3e 5cd3 353e f131 2dbe
00000150: aa41 db3d 2a51 89bd f040 cbbd 834d febd
00000160: 11b7 153d e72c de3d e5cb 21be 2dd3 4f3f
00000170: f203 e7bf f261 e2bc 449a 01bf 9eb1 18bf
00000180: 6b52 0640 12ae 123e 3e2f 83bd ca8b 643d
00000190: 6d87 093e 9bc0 9ebd 1099 61ba 79a7 5abd
000001a0: 503a a83f f2fa c7bf 2c95 2ac0 eafd e8bf
000001b0: 669c 60bf dd09 7b3f b743 07be 62b6 c93d
000001c0: 6fd4 5e3e 05c8 6f3d a874 5abe b1e7 e93e
000001d0: f15b 813d 270f 12be 9d39 653f 032a d9bc
000001e0: bebd 87be 7fae b33c 67ff a1bf 8439 923f
000001f0: 787c 5bbf 13d0 dbbf c100 653e ce65 41bf
00000200: 8bce 5abf 8483 d93e 96d5 0640 52e8 8bbe
00000210: 80f3 f8be 8d43 7c3f 1f29 d4bf d99a 56bf
00000220: 6e21 0ebd 7509 aabd dd35 223e 3034 d0bd
00000230: 3e3c a03d 4025 25be dc23 e53d 5cfd 453e
00000240: 1d52 c03d 7e1a 013e 20f1 9f3d 0662 5e3d
00000250: 8093 34be 678b a9bd dd82 d1bc 1096 973c
00000260: 73a6 47be f4c7 27be 5afc 07be cfca 83bd
00000270: b6b0 31bf 3e27 bfbe 5e28 17c0 bd0c 90c0
00000280: 7946 14bf ca06 4e3f 5abd a13e c278 8cbe
00000290: a578 623f 0b76 a73c 567d bebd 945f e7be
000002a0: 50c7 8abe a64c 60bd 9421 7f3f 6277 b4bf
000002b0: 6a9c abbf 240c 553f 23f5 9ebf 0878 0abf
000002c0: 5ad1 7fbe 703d cbbe 7937 eebe 15ee dabd
000002d0: 83aa c23f d1e0 6bbf 46d7 55be f1ac 3fbc
000002e0: 9245 e2bd 7f6e e4bd 7a26 08be 6741 a0be
000002f0: 2e53 1a3d d543 3c3c 7787 08be 0cea 8cbd
00000300: a770 0d3e 3fe4 bfbe 36a5 9fbd d51d 643f
00000310: 8c93 d1bf 005a f4bf 5ede d2bf aa2f b4be
00000320: 4bdd 64bf bda5 22bf 06da 2a3f 61a3 cebf
00000330: b0fa 623f 0796 223e 7d87 6fbe 1099 653e
00000340: 7ce7 d8bd ef81 86bd ac4c f23d fd90 783c
00000350: 974d 49bd e57a a1bd d357 01bd 4d22 28be
00000360: 677b f03c 5519 0abe f044 0b3c 0fc1 a83d
00000370: b948 223d 9e0e 29bc b645 a9be f01c 9e3c
00000380: 0671 9a3e 539f b6be c150 63be 3f2a e03b
00000390: de07 94bc a32a 62be ada6 a8be fd7f 703d
000003a0: 0d89 ffbd 8161 10bc 1139 023e af06 38bf
000003b0: 5f50 0fc0 bb6f 1b3f a954 933f 71f9 d6bd
000003c0: ad9f 473f db62 0abf d46f 42bf 6cf6 c63c
000003d0: 83ff 16bf 190c 19be 0636 8a3f 9745 9dbf
000003e0: 075b 3f3f 4fdd 9bbd 3a6e 3f40 56c4 acbf
000003f0: a06e 2c3d 70f7 d6be a9b8 293f 765a d2be

net.0.bias f4 [128]
0.8805646 -0.07623116 0.20048508 -0.1894197 -0.058477554 -0.4505585 -0.16818869 0.0029464134
0.019450312 0.5180544 0.5539913 -0.2578776 0.38358966 0.27578253 -0.020102864 0.39656568
-0.12340398 0.16283065 -0.68198717 0.121675454 0.20154096 -0.76068586 -0.124868095 0.005145553
0.101671614 0.37419865 -0.44029394 -0.02575479 -0.14513195 -0.49699146 -0.35394073 0.32207152
0.032031454 -0.24056348 0.63414204 -0.20024076 0.03560582 0.30449802 -0.003035589 0.47316515
-0.21872635 -0.25930172 0.38157785 -0.66021115 -0.2602086 -0.013018252 -0.044631667 -0.4755301
-0.28329808 -0.035959996 0.4364109 -0.5360282 -0.21645278 0.40265498 0.13326159 -0.17658646
-0.14560734 -0.12069935 -0.5629029 -0.15766482 -0.6306444 0.49263325 -0.061475307 -0.23724554
-0.18486425 -0.17985548 0.21987225 -0.21694168 -0.1996333 0.12889746 -0.090073295 -0.02921642
-0.26429754 -0.05147914 -0.27280805 0.1257999 -0.2825222 -0.16119993 -0.09226599 0.14586869
-0.39629984 -0.48775145 -0.15468308 0.40027532 -0.054351617 -0.4880693 0.13005255 -0.12198502
0.10422021 -0.47673193 -0.08076839 -0.06453158 0.34328488 -0.08711603 0.19390966 -0.08078194
0.49866942 0.29014194 0.15440755 0.03549081 0.8334381 -0.41041383 -0.25762483 -0.25395975
-0.03896255 -0.20996366 -0.44025904 -0.04908799 0.13140614 -0.68545777 -0.1088099 -1.0334839
-0.36505407 -0.170156 0.45945522 -0.05370693 -0.029794497 -0.48058015 -0.021593753 -0.26628536
-0.1312469 -0.0654324 -0.28079015 -0.5167668 -0.23102148 0.2617195 0.65102726 0.39412132
00000000: ae6c 613f 151f 9cbd f64b 4d3e 3df7 41be
00000010: 2986 6fbd 9baf e6be a839 2cbe 9d18 413b
00000020: 4356 9f3c 379f 043f 60d2 0d3f 8808 84be
00000030: dd65 c43e 5e33 8d3e c3ae a4bc a80a cb3e
00000040: 3abb fcbd 14bd 263e b696 2ebf fb30 f93d
00000050: c160 4e3e 4fbc 42bf d8ba ffbd 079c a83b
00000060: 3539 d03d f796 bf3e 356e e1be b6fb d2bc
00000070: 789d 14be aa75 febe b837 b5be 8fe6 a43e
00000080: 6a33 033d 4656 76be 2257 223f ea0b 4dbe
00000090: 69d7 113d 2ae7 9b3e bbf0 46bb b442 f23e
000000a0: cdf9 5fbe 32c3 84be 2c5e c33e 9903 29bf
000000b0: 103a 85be 824a 55bc b2cf 36bd ae78 f3be
000000c0: 720c 91be ca4a 13bd 4071 df3e 2539 09bf
000000d0: cca5 5dbe cb28 ce3e ba75 083e 15d3 34be
000000e0: 171a 15be 3931 f7bd 681a 10bf e372 21be
000000f0: e971 21bf 6d3a fc3e 88cd 7bbd 7ff0 72be
00000100: 0e4d 3dbe 092c 38be 3126 613e f625 5ebe
00000110: ac6c 4cbe b2fd 033e 5978 b8bd 4657 efbc
00000120: 0252 87be cadb 52bd 7fad 8bbe b0d1 003e
00000130: c0a6 90be 9811 25be f4f5 bcbd 9a5e 153e
00000140: d0e7 cabe 8fba f9be 3e65 1ebe e3f0 cc3e
00000150: cd9f 5ebd 38e4 f9be 7f2c 053e 48d3 f9bd
00000160: 6871 d53d 3516 f4be e669 a5bd 2229 84bd
00000170: 09c3 af3e e469 b2bd 4190 463e 0071 a5bd
00000180: 9951 ff3e 7c8d 943e 031d 1e3e d05e 113d
00000190: 335c 553f c321 d2be 67e7 83be 0307 82be
000001a0: 3297 1fbd b700 57be a269 e1be 7d10 49bd
000001b0: 558f 063e 297a 2fbf bad7 debd 3349 84bf
000001c0: 5ee8 babe 603d 2ebe b73d eb3e ccfb 5bbd
000001d0: 9713 f4bc 9a0e f6be 62e5 b0bc 8e56 88be
000001e0: 9665 06be 6c01 86bd bac3 8fbe d44a 04bf
000001f0: e590 6cbe 1900 863e b9a9 263f 45ca c93e

net.2.weight f4 [128, 128]
-0.117639385 0.07303671 -3.1889367 0.6461716 0.28246585 -1.9535923 -0.010449932 1.0083421
0.69398063 -2.8338993 -1.4462347 -0.009058685 -3.6011407 0.19034868 -0.040331043 0.6699124
-0.040189378 -0.0074927923 0.810802 -0.025822569 -1.0047975 -0.55092776 0.07414555 1.1389312
-0.47851864 -0.59871364 0.3864829 -0.04930277 0.045823738 -1.6026777 0.37571427 1.2202065
0.09023389 0.37581095 0.10306031 0.06007753 -0.9372925 -3.5930264 -0.3548806 -1.7202711
0.0131012425 -0.29711154 -0.3313753 -0.6796441 0.036059704 -0.0648856 -2.3965156 -0.6647227
-1.5263209 0.0039899684 0.38589022 -2.4533865 1.2843965 0.8122177 0.032552686 -0.0744461
-1.2165443 -0.079355516 -1.8579537 -0.09788888 -1.637031 -0.7306883 -0.8919508 -1.5144784
-0.021304104 -0.40865114 -1.6360177 0.047627054 0.028572781 -0.7965316 0.008881058 -1.2088147
0.37642026 -0.022137443 -0.075505175 -0.06406287 0.07951709 -0.074592106 -0.07705829 0.8171493
0.6356704 -3.006841 0.5456429 -0.5619967 1.7426685 0.16882844 -0.30395126 -0.06479673
-1.5272326 -0.9156115 -0.060913015 1.1275284 1.5443614 -0.033209737 -2.9637504 -1.4860743
0.57321835 1.5636483 -0.83860844 0.50448734 -3.27298 0.79525125 -0.019677274 -0.08631688
0.07223147 -0.02838999 -3.2676518 -0.06851524 -3.4948623 0.27260157 -2.9883292 -2.0924459
-1.3064586 0.023049606 -2.8647196 -0.040774092 -3.7429614 1.2299615 -1.3550432 0.06004189
-2.7704904 -3.993299 -5.1209297 0.2837065 -0.009899894 -0.14819768 -1.4949828 -1.3535079
-2.8169367 -0.026278911 0.21686044 -1.5975829 -0.95833814 -3.0702403 0.05111856 1.1273445
0.7807806 1.618516 0.12147162 0.0134618925 0.65343165 0.095712855 0.07750889 -3.9788735
-0.0046071247 -0.051517565 -1.4595627 0.0034480712 -1.2041105 -0.7359877 0.016621158 0.41504133
0.08960516 -1.4389569 -0.6441706 0.004334677 -0.02637023 -0.056220632 0.46292612 -0.14969948
-0.8448236 -0.19059634 -1.5118843 -0.0014443514 -1.6591002 2.453481 0.7140961 0.12506093
0.064197764 -1.8375881 -1.481686 -1.5819207 0.08484405 -1.5613953 -0.5289272 -1.8102604
-1.6385547 0.048877757 0.13401468 0.24258225 -0.25643766 1.6257675 0.0072790664 -0.04024029
-2.4747186 -0.060373925 -1.8586972 -0.06497647 0.45047668 -3.7969077 -0.33739832 0.8875639
0.0495864 -2.7289891 -2.344539 0.0135295065 -0.069623366 0.08084393 -0.07410547 0.78779006
0.95557225 0.063014224 0.0657762 -0.03016657 0.0010148645 -0.032267664 -0.042399406 0.121732384
-1.052723 -1.0003898 0.16478218 -0.6217989 -0.2412308 -1.5573356 -0.9018891 0.0881491
-1.9151913 -0.7999353 0.041318934 0.57321954 0.034916673 -0.075518414 -0.0856723 0.421101
1.0385416 -2.6709511 1.1025207 0.6661025 -4.752546 -0.51055235 0.03789674 0.05619299
-0.06176924 -0.008815435 -2.6467972 0.05225073 -1.4754976 -0.19464132 -1.831562 1.8597721
-0.02031279 -0.07743737 1.2933748 0.043248136 0.44560403 -0.60358745 0.9015544 0.042208165
0.70597845 0.9928102 0.32024118 -2.9860113 0.040125106 0.37264463 -2.1250403 0.57256025
00000000: ebec f0bd 4594 953d 8a17 4cc0 816b 253f
00000010: 5d9f 903e 500f fabf 3136 2bbc 5b11 813f
00000020: b7a8 313f 9b5e 35c0 381e b9bf e16a 14bc
00000030: 1779 66c0 c4ea 423e 2a32 25bd 617f 2b3f
00000040: 9e9d 24bd 1986 f5bb b890 4f3f da89 d3bc
00000050: 349d 80bf 9a09 0dbf 9fd9 973d 7fc8 913f
00000060: 6500 f5be 4c45 19bf 16e1 c53e b4f1 49bd
00000070: acb1 3b3d 8b24 cdbf 9f5d c03e ba2f 9c3f
00000080: 8ccc b83d 4b6a c03e 4911 d33d db13 763d
00000090: 67f2 6fbf 25f4 65c0 e9b2 b5be d831 dcbf
000000a0: 98a6 563c 011f 98be 06aa a9be 28fd 2dbf
000000b0: 57b3 133d bee2 84bd 8360 19c0 442b 2abf
000000c0: 7c5e c3bf 48be 823b 6793 c53e 4904 1dc0
000000d0: 1b67 a43f 80ed 4f3f f755 053d 3277 98bd
000000e0: b9b7 9bbf 2585 a2bd 6dd1 edbf f779 c8bd
000000f0: 3b8a d1bf 630e 3bbf e356 64bf 6eda c1bf
00000100: f285 aebc b93a d1be 0769 d1bf 9614 433d
00000110: 7711 ea3c 7fe9 4bbf db81 113c 71ba 9abf
00000120: 28ba c03e 9559 b5bc 75a2 9abd 6533 83bd
00000130: dbd9 a23d bfc3 98bd bdd0 9dbd b230 513f
00000140: 4cbb 223f 1570 40c0 41af 0b3f 04df 0fbf
00000150: c30f df3f 5de1 2c3e 809f 9bbe 26b4 84bd
00000160: 5c7c c3bf 8465 6abf ed7f 79bd da52 903f
00000170: a2ad c53f ef06 08bd 16ae 3dc0 af37 bebf
00000180: 70be 123f a125 c83f 0baf 56bf 1526 013f
00000190: 8178 51c0 9695 4b3f 3c32 a1bc e8c6 b0bd
000001a0: 18ee 933d 2092 e8bc 3521 51c0 b851 8cbd
000001b0: d3ab 5fc0 6f92 8b3e c940 3fc0 a2ea 05c0
000001c0: 093a a7bf 87d2 bc3c 9157 37c0 bc02 27bd
000001d0: ae8c 6fc0 616f 9d3f 0e72 adbf 7cee 753d
000001e0: b74f 31c0 3692 7fc0 a8de a3c0 fa41 913e
000001f0: 2a33 22bc 22c1 17be 995b bfbf bf3f adbf
00000200: b148 34c0 df46 d7bc aa10 5e3e 997d ccbf
00000210: a655 75bf d17e 44c0 b261 513d d34c 903f
00000220: 3de1 473f 882b cf3f 1dc6 f83d 458f 5c3c
00000230: 4c47 273f 1a05 c43d fbbc 9e3d dda5 7ec0
00000240: 5df7 96bb 1504 53bd f3d2 babf 09f9 613b
00000250: 4b20 9abf b169 3cbf 1829 883c 4c80 d43e
00000260: e982 b73d bd2f b8bf 5de8 24bf e809 8e3b
00000270: 6106 d8bc 9b47 66bd a704 ed3e d24a 19be
00000280: 5c46 58bf b02b 43be 6d85 c1bf 6450 bdba
00000290: 655d d4bf d505 1d40 01cf 363f f90f 003e
000002a0: 1e7a 833d 1636 ebbf e3a7 bdbf 617c cabf
000002b0: b8c2 ad3d cddb c7bf c667 07bf 9db6 e7bf
000002c0: 29bc d1bf 0b34 483d 253b 093e 7b67 783e
000002d0: cc4b 83be 2619 d03f 3c85 ee3b 01d3 24bd
000002e0: ca61 1ec0 a64a 77bd cae9 edbf 6212 85bd
000002f0: e1a4 e63e 8900 73c0 79bf acbe 6337 633f
00000300: 1c1b 4b3d c2a7 2ec0 ed0c 16c0 ddaa 5d3c
00000310: b296 8ebd 8191 a53d 9cc4 97bd 9cac 493f
00000320: 62a0 743f 9a0d 813d acb5 863d e21f f7bc
00000330: 3405 853a 192b 04bd 00ab 2dbd d44e f93d
00000340: a1bf 86bf c60c 80bf a9bc 283e 362e 1fbf
00000350: 3505 77be c656 c7bf 34e2 66bf 8487 b43d
00000360: fd24 f5bf 8fc8 4cbf 0b3e 293d 84be 123f
00000370: c904 0f3d 66a9 9abd f574 afbd 8d9a d73e
00000380: eeee 843f ddf0 2ac0 661f 8d3f b285 2a3f
00000390: db14 98c0 8fb3 02bf 9d39 1b3d 9f2a 663d
000003a0: be01 7dbd 9d6e 10bc 2065 29c0 dd04 563d
000003b0: 1bdd bcbf 0e50 47be a070 eabf 030d ee3f
000003c0: 0267 a6bc 7c97 9ebd 4e8d a53f f524 313d
000003d0: 3626 e43e b584 1abf 45cc 663f 78e2 2c3d
000003e0: 01bb 343f cf28 7e3f a7f6 a33e cf1a 3fc0
000003f0: 395a 243d 47cb be3e a900 08c0 4f93 123f

net.2.bias f4 [128]
0.622706 0.47439408 -0.092526525 -0.33707583 0.14509775 -0.27701548 0.21100678 -0.7366651
0.7210107 1.203754 0.40297735 0.8128881 0.3806095 0.16246732 -0.09457446 0.32351983
-0.044714373 0.434884 -0.17034656 -0.12895383 0.7074335 0.5523306 -0.30992725 -0.08202662
0.2658408 -0.11897804 -0.013623034 -0.088372536 -0.22389841 -0.08736912 -0.07136863 -0.08620168
-0.6079824 -0.38792714 -0.12146597 0.5161024 0.10193108 0.33263898 1.1572832 0.8196698
0.24034038 1.1363561 -0.37922 0.840079 -0.11194574 1.1713666 0.25280598 0.025362272
-0.112381876 0.6715061 0.0016455088 -0.1162013 1.0739598 0.9151907 0.7702667 0.44071108
0.46799693 1.0902486 1.4556705 0.864455 0.57541883 -0.6868886 0.12090675 -0.062410958
0.29119268 0.3108994 0.98719484 -0.13103552 0.7988704 0.98971474 0.06533592 0.8675294
0.5161352 -0.11272274 0.5243341 1.6110972 0.4155245 0.5060485 0.6821498 0.5599759
0.506513 -0.044844646 0.514591 0.6758465 0.37742132 0.42421195 1.0232604 -0.12329886
-0.045864176 0.0063644 -0.057510708 0.73994666 -0.0743647 1.0756346 0.857265 0.30861178
0.5172052 0.81577283 -0.112289004 -0.105212376 -0.037716445 0.68701303 -0.12841417 -0.0515533
0.6521541 0.82038075 0.3301154 0.0010256307 -0.05867889 1.459986 -0.9496512 0.76032466
0.73414576 -0.13954519 -0.09734531 0.97358805 1.0044528 -0.06710853 1.1879157 -0.14983086
-0.0041339193 0.23119757 -0.11934588 0.67990434 0.33665603 -0.68669695 0.22686593 -0.10802561
00000000: a969 1f3f c8e3 f23e 8c7e bdbd 3495 acbe
00000010: 8194 143e f9d4 8dbe 2912 583e 1696 3cbf
00000020: 2894 383f 9c14 9a3f 0c53 ce3e 6f19 503f
00000030: 40df c23e d55d 263e 41b0 c1bd 64a4 a53e
00000040: 6b26 37bd 1ea9 de3e 546f 2ebe 790c 04be
00000050: 5d1a 353f 8a65 0d3f c9ae 9ebe 93fd a7bd
00000060: 491c 883e c2aa f3bd 2533 5fbc a9fc b4bd
00000070: a045 65be 95ee b2bd b729 92bd 828a b0bd
00000080: bca4 1bbf 639e c6be 27c3 f8bd 491f 043f
00000090: 3ec1 d03d a84f aa3e db21 943f e1d5 513f
000000a0: ca1b 763e 1e74 913f 2029 c2be 6b0f 573f
000000b0: cf43 e5bd 57ef 953f c96f 813e 8ac4 cf3c
000000c0: 7828 e6bd d3e7 2b3f 1dae d73a f2fa edbd
000000d0: 8477 893f f049 6a3f 3330 453f e2a4 e13e
000000e0: 4b9d ef3e 448d 8b3f 6953 ba3f ec4c 5d3f
000000f0: a64e 133f eed7 2fbf f59d f73d a2a2 7fbd
00000100: 3517 953e 352e 9f3e cdb8 7c3f 2d2e 06be
00000110: c582 4c3f f25d 7d3f d7ce 853d 6816 5e3f
00000120: 7021 043f 2edb e6bd c23a 063f 6f38 ce3f
00000130: a1bf d43e 658c 013f 5fa1 2e3f 955a 0f3f
00000140: d6aa 013f 05af 37bd 3cbc 033f 4704 2d3f
00000150: 5e3d c13e 4f32 d93e 32fa 823f 1d84 fcbd
00000160: 13dc 3bbd 758c d03b 5990 6bbd 256d 3d3f
00000170: 854c 98bd 65ae 893f b875 5b3f 5d02 9e3e
00000180: 8f67 043f 7dd6 503f c7f7 e5bd 9679 d7bd
00000190: 8f7c 1abd 16e0 2f3f 017f 03be 8e29 53bd
000001a0: 92f3 263f 7904 523f e304 a93e 756e 863a
000001b0: 4759 70bd d2e0 ba3f 571c 73bf a3a4 423f
000001c0: faf0 3b3f efe4 0ebe fa5c c7bd 113d 793f
000001d0: e991 803f 3270 89bd 9f0d 983f 436d 19be
000001e0: d475 87bb 0ebf 6c3e 9d6b f4bd 360e 2e3f
000001f0: 2e5e ac3e 5fcb 2fbf 8b4f 683e 883c ddbd

net.4.weight f4 [6, 128]
2.3086965 2.221877 -0.011626812 -1.1273533 -0.8540795 -1.2808139 1.492123 -1.1646973
-1.2931068 2.5027351 -1.4072112 1.1111476 1.2312278 3.1941347 -0.026105635 -1.614882
1.3843602 1.9318566 -1.2256315 -0.09242676 2.666822 1.6091543 -1.1716362 0.007498357
0.92285705 0.03567149 -0.01805582 -0.0008730189 1.0547637 -0.0008295812 -0.0043832217 -0.049175967
0.5102196 1.8400153 0.017744219 2.4095907 -1.4773602 1.6828125 1.9504328 2.3896494
-1.8898771 2.3275695 2.6596959 1.5609143 0.0057103396 2.2242227 0.86014855 0.001466835
1.4001026 0.24767208 0.04298857 -0.039357327 2.0831754 1.4880491 1.0388498 3.1717525
0.77243805 2.4517686 2.1035354 -1.5690742 0.7025949 -1.532182 -1.3242038 -0.01047127
-1.4421076 2.6656713 1.5059222 0.079006895 0.6084257 1.4663266 1.2900075 1.029017
-1.3835983 -0.018510515 1.7071853 -1.3371853 2.1155183 1.1829721 -1.3022361 -1.4486513
-1.346243 -0.0048493263 0.83884746 0.38851354 1.9201883 -0.13238348 1.3317703 0.01439306
-0.009615227 0.023444705 -0.013760787 1.6519539 -0.055201653 1.5032592 2.0348592 -0.8832304
2.3989139 1.4340407 -0.010666438 -0.0618329 0.07413081 2.2326097 -0.013239178 0.5988742
0.13587555 1.4113116 0.3257975 0.017616728 0.06358115 -1.5430967 -1.8027297 1.1683145
0.14660566 -0.0800809 -0.039540496 0.9937219 1.9799365 -0.02983693 1.4321946 0.03233516
-0.040036812 1.4354068 0.07464373 1.8421873 1.2581905 -1.3150862 2.2087603 -0.057407442
2.3897953 2.4457536 -0.037211936 -0.97214663 -0.11983418 -1.4155174 1.27793 -1.6084605
-1.1291975 2.5981119 -1.470483 1.0541453 1.2245089 3.507774 0.04684851 -1.5546782
1.1384637 1.8867551 -1.2847794 0.11929789 2.3841512 1.4782723 -1.0701475 0.015596533
1.398874 -0.06768802 0.02769433 -0.056043997 1.037357 -0.0026849122 0.015840387 0.11867984
-0.52574426 2.1570146 0.014634637 2.3793871 -1.2945322 1.8958848 1.9887441 2.315278
-1.7184451 2.0783787 1.7606542 1.6596048 -0.03046565 3.5413134 0.8693888 0.06822901
1.3179549 0.51462364 0.07685865 -0.038383298 2.3881795 1.538982 1.1676205 3.1789858
0.82686204 2.34411 2.07599 -1.7877359 -0.06531535 -1.5666074 -1.3322903 -0.04059528
-0.99739933 2.9273436 1.3519073 0.031014431 0.6547429 1.3165702 0.95310086 1.1418728
-1.6957873 0.03471408 1.5943626 -1.5585108 2.0409687 1.392264 -1.1304573 -1.5863476
-1.4377621 -0.10535996 1.5362082 0.3342195 2.0279124 0.04740015 1.4534127 0.0802554
0.02081232 0.034302503 -0.01031613 1.64302 -0.05483858 1.5251105 2.2504375 -1.1956292
1.525265 1.2701652 -0.098314896 0.0785185 -0.006984632 2.1110942 -0.010166025 0.90940315
-0.74618894 1.3893493 -0.11257702 -0.0023662082 0.008297724 -2.5074198 -1.3641245 1.3198047
0.8953315 0.01655836 -0.01776733 0.94260687 1.7233833 0.023328418 1.3953786 -0.10932772
0.08896665 1.4137719 -0.02848022 1.6183747 -0.34413245 -1.3485843 2.25827 0.046431705
00000000: afc1 1340 3c33 0e40 627e 3ebc 1d4d 90bf
00000010: f4a4 5abf b6f1 a3bf e3fd be3f cd14 95bf
00000020: 8684 a5bf d02c 2040 7f1f b4bf 163a 8e3f
00000030: df98 9d3f b46c 4c40 7cdb d5bc 74b4 cebf
00000040: b732 b13f 1447 f73f 7ee1 9cbf 3e4a bdbd
00000050: 36ad 2a40 c5f8 cd3f 2df8 95bf c7b4 f53b
00000060: 5c40 6c3f 451c 123d cde9 93bc 4edb 64ba
00000070: 7f02 873f 4078 59ba 21a1 8fbb bd6c 49bd
00000080: c09d 023f 9f85 eb3f 535c 913c bc36 1a40
00000090: 241a bdbf 6666 d73f c8a7 f93f 04f0 1840
000000a0: 7ee7 f1bf e6f6 1440 7538 2a40 0acc c73f
000000b0: cd1d bb3b aa59 0e40 b232 5c3f d142 c03a
000000c0: 9036 b33f c09d 7d3e c814 303d 2635 21bd
000000d0: bf52 0540 6578 be3f 08f9 843f fefd 4a40
000000e0: 80be 453f c7e9 1c40 53a0 0640 6cd7 c8bf
000000f0: 42dd 333f 8a1e c4bf 837f a9bf b18f 2bbc
00000100: fb96 b8bf 5c9a 2a40 0fc2 c03f 5ece a13d
00000110: c9c1 1b3f 97b0 bb3f f71e a53f d4b6 833f
00000120: c019 b1bf 5da3 97bc 0c85 da3f e328 abbf
00000130: a764 0740 a16b 973f acaf a6bf 686d b9bf
00000140: b151 acbf 19e7 9ebb b5be 563f 3feb c63e
00000150: bbc8 f53f 898f 07be 7377 aa3f ded0 6b3c
00000160: 2f89 1dbc 1c0f c03c ed74 61bc 3a73 d33f
00000170: 211b 62bd cc6a c03f 223b 0240 631b 62bf
00000180: ce87 1940 a58e b73f 49c2 2ebc 7f44 7dbd
00000190: e5d1 973d 14e3 0e40 23e9 58bc d24f 193f
000001a0: f622 0b3e dca5 b43f eece a63e f550 903c
000001b0: d536 823d 3184 c5bf d9bf e6bf 548b 953f
000001c0: cb1f 163e 7401 a4bd 37f5 21bd 8f64 7e3f
000001d0: 8f6e fd3f 946c f4bc 2752 b73f df71 043d
000001e0: a4fd 23bd 69bb b73f d0de 983d cbcc eb3f
000001f0: 630c a13f bf54 a8bf 545c 0d40 1124 6bbd
00000200: 68f2 1840 3a87 1c40 8b6b 18bd 9ade 78bf
00000210: 9f6b f5bd ad2f b5bf 3693 a33f 09e2 cdbf
00000220: 8b89 90bf 7747 2640 c938 bcbf 3cee 863f
00000230: b5bc 9c3f 5f7f 6040 39e4 3f3d b2ff c6bf
00000240: 2eb9 913f 3181 f13f a773 a4bf 7452 f43d
00000250: ef95 1840 0738 bd3f 98fa 88bf 9a88 7f3c
00000260: 4e0e b33f 04a0 8abd 38df e23c 648e 65bd
00000270: 1dc8 843f 5af5 2fbb b3c3 813c 6a0e f33d
00000280: 2d97 06bf 870c 0a40 1ec6 6f3c e147 1840
00000290: 3bb3 a5bf 5aac f23f 2b8f fe3f 842d 1440
000002a0: 02f6 dbbf 2804 0540 1e5d e13f ee6d d43f
000002b0: 1993 f9bc e1a4 6240 4490 5e3f a7bb 8b3d
000002c0: bfb2 a83f 60be 033f 1168 9d3d ce37 1dbd
000002d0: efd7 1840 5dfd c43f 9774 953f 8174 4b40
000002e0: 3bad 533f e605 1640 05dd 0440 88d4 e4bf
000002f0: 0ec4 85bd 9786 c8bf 7d88 aabf 3c47 26bd
00000300: 9055 7fbf 9959 3b40 4c0b ad3f fa11 fe3c
00000310: 3b9d 273f 5f85 a83f 6bfe 733f e328 923f
00000320: 8f0f d9bf 5a30 0e3d 1314 cc3f 487d c7bf
00000330: 3b9f 0240 b535 b23f d3b2 90bf 700d cbbf
00000340: 9708 b8bf f6c6 d7bd 78a2 c43f d11e ab3e
00000350: 51c9 0140 a926 423d 6d09 ba3f f15c a43d
00000360: 997e aa3c c880 0c3d fc04 29bc 7b4e d23f
00000370: 6b9e 60bd d236 c33f 2b07 1040 610a 99bf
00000380: e23b c33f c694 a23f 5259 c9bd 4fce a03d
00000390: 57df e4bb 2b1c 0740 668f 26bc a5ce 683f
000003a0: 3d06 3fbf 33d6 b13f c88e e6bd 6312 1bbb
000003b0: 2df3 073c 9179 20c0 a29b aebf 5cef a83f
000003c0: 7234 653f 66a5 873c cb8c 91bc af4e 713f
000003d0: d397 dc3f 3d1b bf3c c49b b23f 36e7 dfbd
000003e0: 2634 b63d 7af6 b43f 5a4f e9bc e726 cf3f
000003f0: 2132 b0be 699e acbf 7f87 1040 2c2f 3e3d

net.4.bias f4 [6]
0.4748591 0.6266552 0.96574247 0.8553403 0.7983019 0.79652345
00000000: bb20 f33e 7a6c 203f e63a 773f 95f7 5a3f
00000010: 835d 4c3f f6e8 4b3f
