rl/models/final_model_run5.pth (torch, 79489 bytes, 6 tensors)

net.0.weight f4 [128, 13]
0	0xbe755a3e	-0.23960206
1	0xbf3c97cd	-0.7366913
2	0x3fa76ecb	1.3080686
3	0x3f4d5ff7	0.80224556
4	0xbe0ac860	-0.13553
5	0xbf37aed4	-0.7175114
6	0x3effeea4	0.49986756
7	0xbe2010f0	-0.15631461
8	0x3f193b65	0.59856254
9	0xbeef70e6	-0.46765822
10	0x3e3cf6a9	0.18453468
11	0xc03b04df	-2.9221723
12	0x3e7f0a3c	0.24906248
13	0xbf8c8944	-1.097939
14	0x3e0620a4	0.13098389
15	0xbe8bf753	-0.2733713
16	0xbec589f7	-0.3858182
17	0x40123b54	2.284871
18	0xbe33f16f	-0.17572568
19	0xbe25f653	-0.16207246
20	0xbde4278b	-0.11140355
21	0xbe06b8d6	-0.13156447
22	0x3e88124e	0.26576465
23	0x3e55a59f	0.2086396
24	0x3d868ae9	0.06569464
25	0x3c0f54e8	0.008748271
26	0xbd1dcd61	-0.038525943
27	0xbfaa7098	-1.3315611
28	0x3f75834c	0.9590347
29	0xc0338376	-2.8048987
30	0xbeb73b8a	-0.35787612
31	0xbf0cdcbf	-0.5502433
32	0xbf8ec67d	-1.1154324
33	0x3e4d7e85	0.20067795
34	0x3edea2ab	0.4348348
35	0x3eb75bfb	0.35812363
36	0x3f01b3fd	0.50665265
37	0xbf18ab52	-0.59636414
38	0x3f184f23	0.59495753
39	0x3f05bc11	0.5224009
40	0xbf0722cb	-0.52787465
41	0xc03cba29	-2.9488623
42	0xc0398b10	-2.8991127
43	0xbe48879d	-0.19582982
44	0xbec39ab7	-0.38203976
45	0xbe2690f7	-0.16266237
46	0x3dd9d3c5	0.10636095
47	0x3ea97bb5	0.33102193
48	0x3ebbb71e	0.36663145
49	0x3d8ed673	0.06974497
50	0x3f322dc8	0.69601107
51	0xbf615855	-0.8802541
52	0xbf26f0d9	-0.65211254
53	0x3e7644d6	0.24049696
54	0x3fa50ee5	1.289517
55	0x401a132c	2.4074202
56	0xbea6a634	-0.32548678
57	0xbf44f9da	-0.76943743
58	0x3f4f6f47	0.8102917
59	0xbe8e9450	-0.27847528
60	0x3db04acd	0.08608017
61	0x3f214e5b	0.63010186
62	0xbe8ffc12	-0.28122002
63	0x3f1de3ad	0.6167553
64	0x3ebcdb1a	0.3688591
65	0xbeaa38f5	-0.3324658
66	0x3e51c397	0.20484768
67	0xbe4a6e79	-0.19768704
68	0x3e1d5d4f	0.15367626
69	0xbe1662a6	-0.14686069
70	0xbe8ab20f	-0.27088973
71	0xbd881bc0	-0.06645918
72	0x3dd94b89	0.1061011
73	0xbe9127b9	-0.28350618
74	0xbe69ca4f	-0.22831081
75	0x3e5dff1d	0.21679349
76	0x3e46d102	0.19415668
77	0xbea493db	-0.32144055
78	0x3ed182b1	0.40920022
79	0xbee27e38	-0.44236922
80	0xbedb9535	-0.42887273
81	0xbfd1c067	-1.6386842
82	0xbf27ebca	-0.6559416
83	0x3f05e300	0.522995
84	0x3e67307b	0.22577088
85	0xbdf6530b	-0.12027558
86	0xbe03416f	-0.1281793
87	0x3d9d91cc	0.07693824
88	0xbe968092	-0.29394966
89	0xbe5e4592	-0.21706226
90	0x3e846065	0.25854793
91	0xbda1b0be	-0.07895039
92	0x3c42ee23	0.0118975965
93	0xbdf4042a	-0.11914857
94	0x402ccc3c	2.6999655
95	0xbc3db54b	-0.011578868
96	0x3ed87686	0.42277926
97	0xbf0f42e1	-0.55961424
98	0xbf0e3586	-0.5555042
99	0xbca6369d	-0.020289714
100	0x3ea2a0f1	0.31763414
101	0x3e64ad09	0.22331633
102	0xbe09afc6	-0.13445958
103	0xbd1dbad4	-0.03850825
104	0xbc98f26a	-0.01867028
105	0xbd9b60d7	-0.0758683
106	0xbe08f7b5	-0.13375743
107	0xbc5450b7	-0.012958697
108	0xbe3219c2	-0.17392638
109	0x3dbbc461	0.09168316
110	0xbe2789bb	-0.16361134
111	0xbe7cbbd3	-0.24681024
112	0xbe0b6e29	-0.13616242
113	0x3d80377c	0.06260583
114	0xbe7b1d6b	-0.24522941
115	0xbd2ed825	-0.0426866
116	0xbe463333	-0.19355468
117	0x3e0badf8	0.13640583
118	0xbf068dac	-0.52559924
119	0x3e18a224	0.14905602
120	0x3e0809a8	0.13284934
121	0x3ecc6f23	0.3992854
122	0x3f20c4ac	0.628001
123	0xbe0a6faf	-0.13519166
124	0x3e1e35ab	0.1545016
125	0xbe7ba2a4	-0.24573761
126	0x3ca43c20	0.020048201
127	0x3dfc1287	0.12308221
128	0xbee2564b	-0.4420646
129	0x3d99c1c9	0.07507665
130	0x3f10dfc4	0.5659144
131	0x3cc03d00	0.023466587
132	0x3e75b0b9	0.23993196
133	0x3e81d688	0.25358987
134	0xbfe8f065	-1.8198363
135	0x3c25b0b2	0.010112928
136	0x3e884b6b	0.2662004
137	0xbf5d928c	-0.8655174
138	0x3d38f21c	0.04515277
139	0xbe3fbd48	-0.18724549
140	0xbe7af796	-0.24508509
141	0xbeba1dcb	-0.36350855
142	0xbf15d22e	-0.58523834
143	0xbd2881b8	-0.041139334
144	0xbf716245	-0.9429057
145	0xbeda589a	-0.42645723
146	0xbf22f755	-0.6365865
147	0x3db36b4e	0.08760701
148	0x3fabc14c	1.3418365
149	0xbf1ee742	-0.6207162
150	0xbdb2e500	-0.087350845
151	0x3f779b95	0.96721774
152	0x3ef0795c	0.4696759
153	0xbe40f823	-0.18844657
154	0xbfc6a121	-1.5517923
155	0xbc3d862c	-0.011567634
156	0xc006be33	-2.1053588
157	0xbe3bbb9d	-0.18333288
158	0x3dd07b86	0.1017981
159	0x3d67996f	0.05654281
160	0xbf4e6bf4	-0.80633473
161	0xbeb2b03d	-0.34900084
162	0x3e08eaa8	0.13370764
163	0xbfc3c038	-1.5293036
164	0xbf5262c3	-0.8218195
165	0xbdf0d937	-0.117601804
166	0x3eab7e44	0.3349477
167	0xbbd30b0e	-0.006440527
168	0x3f5d5988	0.8646474
169	0x3ec3852d	0.38187543
170	0xbf11b734	-0.5692017
171	0xbfc550af	-1.5415248
172	0x3fa8bf85	1.3183447
173	0xbf1adaa1	-0.6048985
174	0x3e1e611a	0.15466729
175	0xbf9249cc	-1.1428771
176	0xbe617e29	-0.22020783
177	0xbe525571	-0.20540406
178	0xbf30a8df	-0.69007677
179	0x3f393f98	0.7236266
180	0xbf14f92c	-0.58192706
181	0xbd5c6fb0	-0.05381745
182	0x3de9c0af	0.114137046
183	0x3e188dff	0.14897917
184	0x3fcf8a3a	1.6214058
185	0x3d24f27c	0.040270314
186	0xbe446906	-0.19180688
187	0x3fc14cdc	1.5101581
188	0xbdafe8fd	-0.08589361
189	0xbece60a7	-0.40308115
190	0x3f17e38b	0.5933158
191	0xbf322533	-0.6958801
192	0xbe904e45	-0.28184715
193	0x3ed1e0dc	0.40991867
194	0xbf3d56d9	-0.73960644
195	0xbf1125ea	-0.5669848
196	0x3f88d9bb	1.0691446
197	0xbf3c76e3	-0.73618907
198	0xbfecb078	-1.8491354
199	0x3efe8efa	0.49718457
200	0x3f4e3e50	0.8056383
201	0xbe3a03dd	-0.18165536
202	0xbebf99e5	-0.374221
203	0xbdc80420	-0.09766412
204	0xbe4954e5	-0.19661291
205	0x3ed5b0fa	0.41736585
206	0xbdf27e21	-0.118404634
207	0xbe54c5db	-0.20778601
208	0xbf53344b	-0.8250167
209	0xbf189416	-0.5960096
210	0xbfe607ea	-1.7971165
211	0x3f32757d	0.6971052
212	0x3f9c922c	1.2232108
213	0x400902ec	2.1408033
214	0xbdcf322f	-0.10116994
215	0x3e104999	0.14090575
216	0x3d551ccf	0.052029427
217	0x3dce5b10	0.100759625
218	0xbeac96ed	-0.33708897
219	0x3eec0e13	0.46104488
220	0x3d8ec774	0.069716364
221	0xbef5a461	-0.47976974
222	0x3e4e660d	0.20156117
223	0x3d923d61	0.07140613
224	0xbe7fddd6	-0.24986967
225	0xbf11b000	-0.5690918
226	0x3eb0031c	0.34377372
227	0xbf2a3227	-0.66482776
228	0x3d9e07b1	0.07716311
229	0x3e0725fa	0.1319808
230	0xbee0955a	-0.43863946
231	0xbf9b9ada	-1.2156632
232	0x3ef854f4	0.48502314
233	0x3ef24f84	0.4732629
234	0xbfc3b619	-1.5289947
235	0xbe9da072	-0.30786473
236	0xbfd2b43f	-1.6461257
237	0xbeb3fd93	-0.351544
238	0xbfc06ed3	-1.5033821
239	0xbe8c6e85	-0.2742807
240	0xbd1a797d	-0.037713517
241	0xbf202a7a	-0.62564814
242	0x3ed95ad8	0.4245212
243	0x3dff993f	0.12480401
244	0xbe05dc90	-0.13072419
245	0xbf60f4e1	-0.87873656
246	0x3eacc1f6	0.3374173
247	0xbf04d835	-0.51892406
248	0xbe5d9f4d	-0.216428
249	0xbf64e3f6	-0.8941034
250	0x3f098deb	0.53732175
251	0xbf4800b8	-0.78126097
252	0x3f75546a	0.9583193
253	0xbdc8dd1c	-0.09807798
254	0xbe777da1	-0.24169017
255	0x3ef4dc0f	0.4782414

net.0.bias f4 [128]
0	0xbed0a208	-0.4074862
1	0xbf1e9eae	-0.61960876
2	0xbe17f0fc	-0.14838022
3	0xbe94c566	-0.29056853
4	0xbe279bf1	-0.1636808
5	0xbe0a6079	-0.13513364
6	0x3f8ae741	1.0851823
7	0x3f11a3ab	0.5689036
8	0x3d748a0b	0.05970196
9	0x3f611e12	0.8793651
10	0xbd5d830d	-0.054080058
11	0x3ea07d78	0.31345725
12	0xbc4478dc	-0.011991706
13	0x3d43344a	0.04765729
14	0xbd2dcec5	-0.04243352
15	0xbf02b7c1	-0.51061636
16	0xbf945a04	-1.158997
17	0x3f565d1a	0.8373581
18	0xbe9ab378	-0.3021505
19	0x3f76f3df	0.9646587
20	0x3e987315	0.297753
21	0x3ebe36be	0.3715114
22	0xbdb29c04	-0.08721164
23	0xbe82cdc3	-0.2554761
24	0x3dc719e3	0.097217344
25	0xbe0d9844	-0.13827616
26	0xbf14b647	-0.58090633
27	0xbf18dc15	-0.5971082
28	0x3dafb10f	0.08578693
29	0xbd9db948	-0.07701355
30	0xbf6a483a	-0.9151646
31	0xbd0a6a68	-0.033792883
32	0xbddc5b2e	-0.10759579
33	0x3dbe70e2	0.092988744
34	0x3f2313d3	0.63702124
35	0x3cb03516	0.021509688
36	0xbeb5dd1c	-0.35520256
37	0xbe820f38	-0.25402236
38	0x3dc1b88c	0.09459028
39	0x3f0dcf8a	0.55394804
40	0x3e98e69d	0.29863444
41	0x3c955e76	0.018233519
42	0xbe8feb4f	-0.28109214
43	0x3eed4077	0.46338245
44	0x3f3792a1	0.7170811
45	0xbf04346f	-0.5164251
46	0x3f03ff70	0.5156164
47	0xbe355849	-0.1770946
48	0x3d0cd5d8	0.034383625
49	0xbe8d7966	-0.27631682
50	0x3e0fa68e	0.1402838
51	0xbe209f51	-0.15685774
52	0xbc38bc95	-0.01127543
53	0xbe61215f	-0.21985386
54	0x3e6123b7	0.2198628
55	0x3eadf93d	0.33979216
56	0xbd3a6569	-0.04550687
57	0xbdebddfd	-0.1151695
58	0xbe8ff8a1	-0.28119376
59	0xbe3eb817	-0.18624912
60	0x3e69db28	0.22837508
61	0x3f1c3bca	0.6102873
62	0x3f384cc2	0.71992123
63	0xbcfa652c	-0.03056582
64	0xbdf807a1	-0.1211083
65	0x3f303be7	0.68841404
66	0x3ed5a5bb	0.41728005
67	0xbb718cec	-0.0036857678
68	0x3c19888f	0.009370937
69	0x3f26d998	0.6517577
70	0xbdbb16d6	-0.09135215
71	0x3e2ca013	0.16857938
72	0xbe5393f8	-0.20661914
73	0xbdcebd73	-0.10094728
74	0xbe93b881	-0.28851703
75	0x3e58d807	0.21176158
76	0xbe1b0600	-0.15139008
77	0xbd841d3f	-0.06450891
78	0xbf7503d5	-0.9570897
79	0xbd371c33	-0.044704627
80	0xbe58178a	-0.2110273
81	0xbef1ed40	-0.4725132
82	0x3d95291a	0.0728323
83	0xbd9bae36	-0.076015875
84	0x3f24d4f1	0.6438742
85	0xbe4e6c74	-0.20158559
86	0xbf0cf4de	-0.5506114
87	0x3fa908eb	1.3205847
88	0x3dea81fe	0.11450575
89	0xbe927b5c	-0.2860974
90	0xbe10f0b2	-0.14154318
91	0x3cc7a639	0.024371253
92	0xbeb7cad9	-0.35896948
93	0x3e4addc2	0.19811156
94	0xbeb3f92f	-0.3515105
95	0xbea56a42	-0.3230763
96	0xbc191fd5	-0.009345968
97	0xbe0ead8b	-0.13933389
98	0x3e72f462	0.23726037
99	0xbd8104fc	-0.06299779
100	0xbcd97616	-0.026545566
101	0xbe9dd732	-0.30828243
102	0xbedc4581	-0.43021777
103	0xbe579c22	-0.21055654
104	0xbd8ea0f8	-0.06964296
105	0xbe16a3f2	-0.14710978
106	0xbe416bde	-0.18888804
107	0x3f443b3d	0.7665289
108	0x3d73091b	0.059334856
109	0x3d488ce0	0.048962474
110	0x3f29b92b	0.6629817
111	0xbcd19f33	-0.025588607
112	0xbdef7b63	-0.11693456
113	0xbead984c	-0.33905256
114	0x3c8677fa	0.016414631
115	0xbcface30	-0.030615896
116	0x3e41086d	0.1885087
117	0xbeacffcf	-0.33788916
118	0x3e700a5e	0.23441455
119	0xbec80ec1	-0.39073756
120	0xbf3d4eeb	-0.73948544
121	0xbe04c792	-0.12966755
122	0xbcf94c08	-0.030431762
123	0x3e5aab42	0.21354392
124	0xbe8bec9f	-0.27328965
125	0xbcb854df	-0.022501407
126	0xbe2d1657	-0.16903053
127	0xbdfb9f39	-0.12286229

net.2.weight f4 [128, 128]
0	0xc029573d	-2.6459496
1	0xbf55a124	-0.83449006
2	0xbd9b6713	-0.07588019
3	0x3cb0135c	0.021493606
4	0xbedf32bd	-0.43593398
5	0x3dad5858	0.08464116
6	0x3f00e01b	0.5034196
7	0xbd1adb36	-0.037806712
8	0xbce1de71	-0.027571889
9	0x3e5e721b	0.21723215
10	0x3f6dd959	0.9290977
11	0x3f32f239	0.6990085
12	0xbf6b2dc4	-0.9186671
13	0xc005a480	-2.0881653
14	0xbf001dc9	-0.5004545
15	0xbeb17862	-0.34662157
16	0xbed48391	-0.41506627
17	0x3b86448d	0.0040975274
18	0xbff49172	-1.9106886
19	0x3eae074c	0.33989942
20	0x3d6dc296	0.0580469
21	0x3f069a6e	0.5257939
22	0xbf02a1ff	-0.51028436
23	0x3cf83c82	0.03030229
24	0x40414f39	3.0204604
25	0xbd4a81eb	-0.049440306
26	0x3f3705f6	0.7149347
27	0xbfd2cd6a	-1.6468937
28	0x3f533570	0.82503414
29	0x3f506c5c	0.81415343
30	0xbf5ff215	-0.8747876
31	0x3d947726	0.07249288
32	0x3eb39534	0.3507477
33	0x3ff90c77	1.9456929
34	0x3f341681	0.7034684
35	0x3fb5862b	1.418157
36	0xbf0b0263	-0.54300517
37	0x3bbe21c1	0.0058023636
38	0x3f2a153d	0.6643866
39	0x3de244d5	0.11048285
40	0xbda61b8c	-0.08110723
41	0x3f2d3ad8	0.67667913
42	0x3e1a4ae5	0.15067632
43	0x3ec52839	0.3850725
44	0xbc50b011	-0.01273729
45	0xbf48edb0	-0.7848768
46	0x3ea53ccc	0.32272947
47	0x3f9d94fd	1.2311093
48	0x3e9f7cfa	0.31150037
49	0xbf8c70d4	-1.0971932
50	0x3f0b21eb	0.5434863
51	0x3d3d3164	0.04618968
52	0x402e18e1	2.7202685
53	0x3f79f0da	0.97633135
54	0x3f6b0553	0.91805
55	0xbe062cb7	-0.13102995
56	0x3d910553	0.07081094
57	0x3df1477c	0.11781213
58	0xbfd879f5	-1.6912218
59	0xbc29a0b6	-0.010353258
60	0xbd4d31e3	-0.050096404
61	0xbef24fd5	-0.47326532
62	0x3e98147e	0.29703134
63	0x3d20182c	0.039085552
64	0xbbdcf546	-0.006743106
65	0x3e8be534	0.27323306
66	0xbf7f97e0	-0.9984112
67	0x3f17d591	0.5931025
68	0x4004c66b	2.0746105
69	0xbf070f1a	-0.5275742
70	0x3f41a90c	0.7564857
71	0x3df11743	0.11772015
72	0xbf10733c	-0.56425834
73	0x3c1ec0f6	0.00968956
74	0x3e5f0911	0.21780802
75	0xbf82663c	-1.018745
76	0x3d7c1ed0	0.061552823
77	0xbe3bec7e	-0.18351933
78	0x3a8bd7fe	0.0010669229
79	0xbf804444	-1.0020833
80	0xbf93408b	-1.1504072
81	0xbfb24e80	-1.3930206
82	0xbf35b442	-0.70978177
83	0x3d9e5008	0.077301085
84	0xbeaa0742	-0.33208662
85	0x3f436ebf	0.7634086
86	0x3e8b7541	0.27237895
87	0x3eb97df4	0.36228907
88	0xbfa26d21	-1.2689553
89	0xbd132c69	-0.035931025
90	0x3f8af842	1.0857012
91	0x3f59ef52	0.851308
92	0x3f9b8f82	1.215317
93	0xbe25f25f	-0.16205738
94	0xbe55e6ea	-0.20888868
95	0xbfcd46e7	-1.6037263
96	0xbf3e983e	-0.74451053
97	0x3df45534	0.11930314
98	0xbf90aa1a	-1.1301911
99	0x3d523a8f	0.051325377
100	0x3f8024a3	1.0011181
101	0x3dc9e8fc	0.09858891
102	0xbf559244	-0.8342631
103	0x3f2c932f	0.67412084
104	0xbd1d803d	-0.038452376
105	0x3ee7df33	0.45287475
106	0x3d81bb87	0.06334596
107	0xbdef3c0e	-0.116813764
108	0x3e67337b	0.22578232
109	0x3df77d33	0.12084427
110	0xbdb3a16d	-0.08771024
111	0x3f92c958	1.1467695
112	0x3d3fa7a2	0.046790726
113	0xbf517472	-0.81818306
114	0xbf4abe69	-0.7919679
115	0x3e661010	0.22467065
116	0xbe5d18a8	-0.21591437
117	0xbe361608	-0.17781842
118	0x3f4a57fe	0.79040515
119	0x3d0dbc26	0.03460326
120	0x3e97f20c	0.29676855
121	0xbe2eed6f	-0.17082761
122	0x3d3a9d2a	0.04556004
123	0xbf6c5a55	-0.92325336
124	0x3d9c937f	0.0764532
125	0xbe639fe2	-0.22228959
126	0x3ec2760f	0.37980697
127	0x3c93aad3	0.018025791
128	0xbf8764ec	-1.0577674
129	0xbdee5556	-0.1163737
130	0xbf7c5b7c	-0.98577094
131	0xbe7168bd	-0.2357511
132	0xbf0b342c	-0.5437648
133	0x3d767abb	0.06017564
134	0x3d9bc8f0	0.07606685
135	0xbe8f5832	-0.27996975
136	0xbd51f5f0	-0.051259935
137	0xbe0f9d40	-0.1402483
138	0xc0317dc1	-2.7733004
139	0x3de35281	0.11099721
140	0xbfea4550	-1.8302402
141	0xbf611b0b	-0.8793189
142	0xbf861e9d	-1.0478092
143	0xbeab50ed	-0.3346018
144	0xbee053b8	-0.43813872
145	0x3e474e08	0.1946336
146	0xbf35cf0d	-0.7101906
147	0xbe16fd6c	-0.1474511
148	0x3e02b3a6	0.12763843
149	0xbf6a9693	-0.9163601
150	0x3f8d0165	1.101605
151	0xbf93bce7	-1.1542023
152	0xc09e9981	-4.9562383
153	0xbc4aecf3	-0.012385595
154	0xbf1c5bbd	-0.6107748
155	0x3f1303d5	0.5742772
156	0xbf9ef6bb	-1.2419046
157	0xbea4b51e	-0.3216943
158	0x3fbab675	1.4586931
159	0xbce87670	-0.028376788
160	0xbfe5f28b	-1.7964643
161	0x3eaeea46	0.3416311
162	0xbe09f073	-0.1347063
163	0x3ef6e31a	0.4822014
164	0x3d976d52	0.07393898
165	0x3eb38920	0.35065556
166	0xc0098200	-2.1485596
167	0xbf94e2e9	-1.1631747
168	0xbfa75264	-1.3072019
169	0xbf828af8	-1.019866
170	0xc0255da4	-2.5838404
171	0xbdd90a0b	-0.10597619
172	0x3ed04498	0.40677333
173	0xbe62fd41	-0.22166921
174	0xbf86d4b9	-1.0533668
175	0xbce3672e	-0.02775916
176	0xbf9c30cf	-1.2202395
177	0xbf2702a6	-0.65238416
178	0xbe8f6147	-0.28003904
179	0xc02b6e78	-2.6786175
180	0xbfee2694	-1.8605523
181	0xbe945e49	-0.28978184
182	0xbf7b5a13	-0.9818432
183	0xbf4d1eb8	-0.80125
184	0x3d1a45c6	0.037664197
185	0x3fded7c3	1.7409595
186	0x3fe9b1de	1.8257406
187	0x3d3bd62d	0.04585855
188	0xbf8ff3b3	-1.1246246
189	0x3f0ac604	0.542084
190	0xbda574a3	-0.08078887
191	0xbd972bb0	-0.073813796
192	0xbbc00051	-0.0058594127
193	0xbd04bfc0	-0.03240943
194	0xc02e41f7	-2.7227762
195	0x3e098753	0.13430528
196	0xbf831a4d	-1.0242401
197	0xbea745de	-0.32670492
198	0xbc4b792b	-0.012419025
199	0xbf8843b1	-1.0645658
200	0x3e94ed49	0.29087284
201	0xbcec47a9	-0.028842764
202	0xbf912c48	-1.1341639
203	0x3d9fe2f4	0.0780696
204	0xbff05355	-1.8775431
205	0xbf30f530	-0.69124126
206	0x3f459d2c	0.7719295
207	0xbf7e8b7d	-0.9943159
208	0xbeaab272	-0.33339268
209	0xbeb8d30b	-0.36098513
210	0xbf2c1e3e	-0.67233646
211	0xbdb9d8ca	-0.09074552
212	0x3cc0c1b6	0.023529869
213	0x3f1d0628	0.6133752
214	0x3ed78c5d	0.42099276
215	0x3e56f65f	0.2099242
216	0x3ee33bac	0.44381464
217	0x3d2a2772	0.041541524
218	0xbeb224ce	-0.34793705
219	0x3f22fd95	0.63668185
220	0xc02535eb	-2.581416
221	0x3f543b54	0.8290303
222	0xbed1858a	-0.40922195
223	0xbd8fe102	-0.07025339
224	0xbfa5a393	-1.2940544
225	0x3f8831d6	1.0640209
226	0x3e2186e4	0.15774113
227	0xbf51c567	-0.8194184
228	0x3e82d9fe	0.2555694
229	0x3f734f21	0.95042616
230	0xbeac4f16	-0.33654088
231	0x3ef757dc	0.4830922
232	0x3e8fd222	0.28090006
233	0xbe83f8e3	-0.25775823
234	0x3cda92a5	0.026681254
235	0x3e7fc5ca	0.24977794
236	0x402c7b00	2.6950073
237	0x3e46cebc	0.194148
238	0x3de252df	0.11050963
239	0xbf39e9f2	-0.726226
240	0x3f804156	1.0019939
241	0xbee281e4	-0.44239724
242	0x3dacaac3	0.08431008
243	0xbcbfd3f0	-0.02341649
244	0x3e933706	0.28752917
245	0x3a8586f7	0.0010187317
246	0x3d9e4fa3	0.07730033
247	0xc020f089	-2.514681
248	0xbf121e47	-0.5707745
249	0xbfdff22a	-1.7495778
250	0xbd40eea5	-0.04710259
251	0xbecaf23d	-0.39637938
252	0xbd91ff21	-0.0712874
253	0x3ecaa791	0.39580968
254	0xbf096d00	-0.53681946
255	0xbdae1966	-0.08500938

net.2.bias f4 [128]
0	0x3f5ba3c4	0.8579676
1	0xbd805f8b	-0.062682234
2	0xbdbebb48	-0.09313065
3	0x3f149ea8	0.5805459
4	0x3edfc5c6	0.43705577
5	0x3c7304ea	0.014832715
6	0x3c8bd531	0.017069431
7	0x3ef3fff2	0.47656208
8	0x3f2447b0	0.64171886
9	0x3cba1962	0.022717182
10	0x3f257334	0.6462891
11	0xbecc38db	-0.39887127
12	0x3f124e56	0.5715078
13	0x3f758eaf	0.9592084
14	0xbda6054c	-0.08106479
15	0x3ec7f8db	0.3905705
16	0x3d9d461c	0.07679388
17	0x3e821ee3	0.2541419
18	0x3f434bb5	0.76287395
19	0x3dbee655	0.09321276
20	0x3e0e102c	0.13873357
21	0x3f54be5b	0.8310296
22	0xbe1bde50	-0.15221524
23	0xba246dd3	-0.00062724686
24	0xbdea2e9e	-0.11434673
25	0x3f4c65fd	0.7984312
26	0x3f605f01	0.87644964
27	0x3f6e7e1d	0.93161184
28	0xbd763191	-0.060105864
29	0x3f4c6dcf	0.79855055
30	0x3e89ca78	0.26912284
31	0xbdac77d9	-0.084212966
32	0x3f3fa6c0	0.74863815
33	0xbe462b90	-0.19352555
34	0x3e7b431a	0.24537316
35	0xbdb6b824	-0.08921841
36	0x3de62c23	0.11238887
37	0x3f307514	0.6892865
38	0x3f47a0f7	0.7797999
39	0xbddb2f38	-0.10702366
40	0x3bcc29f3	0.0062305867
41	0x3f3c3949	0.7352491
42	0xbe642036	-0.22277912
43	0x3f2a55d5	0.6653722
44	0x3ac72dcd	0.0015196145
45	0x3f0444dd	0.5166758
46	0x3f122dd3	0.5710117
47	0x3f31e7e0	0.6949444
48	0x3eae9ac3	0.3410245
49	0x3f87461d	1.0568272
50	0xbd77f2ee	-0.06053441
51	0x3ca5052b	0.020144066
52	0x3dbb276e	0.0913838
53	0x3f3c7471	0.73615175
54	0x3df103fe	0.117683396
55	0x3f448fc9	0.767819
56	0x3cf7156e	0.030161586
57	0x3f38e3b3	0.7222244
58	0xbd309078	-0.043106526
59	0xbd6b4c0f	-0.057445582
60	0x3f87abe1	1.0599328
61	0x3e165b0a	0.14683166
62	0x3e405443	0.18782143
63	0x3f5e4a7f	0.8683242
64	0xbd453c3f	-0.04815316
65	0x3f49bd79	0.7880474
66	0xbdc61514	-0.09671989
67	0x3efa4591	0.488812
68	0x3d30db55	0.04317792
69	0x3f4dabc4	0.8034022
70	0xbd45d9d6	-0.048303448
71	0x3cb90cae	0.022589054
72	0x3f7844ec	0.96980166
73	0xbcd86719	-0.026416348
74	0x3efd64e2	0.4949103
75	0x3c45e390	0.012078181
76	0x3f838586	1.0275123
77	0xbd9b4ecb	-0.07583388
78	0x3f2e9a0f	0.68203825
79	0x3f4104c6	0.7539791
80	0x3f90004a	1.1250088
81	0x3fb38ed1	1.4027959
82	0xbdcd0c15	-0.1001207
83	0x3f413ff5	0.75488216
84	0x3c3c6396	0.0114983525
85	0xbd9728b8	-0.07380813
86	0x3f3e2bfb	0.7428586
87	0xbe2f5e85	-0.171259
88	0x3d28750b	0.041127246
89	0x3e2c070a	0.1679956
90	0x3ebbe211	0.36695912
91	0xbd65e916	-0.05613049
92	0xbd3a83e9	-0.045535956
93	0x3cffe97e	0.031239267
94	0x3f71df46	0.94481313
95	0x3e89e85a	0.26935083
96	0x3f884c8c	1.064836
97	0xbc3a557b	-0.011372919
98	0xbde6a1cd	-0.1126133
99	0x3ec9b473	0.39395484
100	0x3f89494e	1.0725496
101	0x3f5c11c0	0.85964584
102	0x3d197084	0.03746082
103	0x3cebf585	0.028803596
104	0x3dfe2917	0.12410181
105	0x3f4a065b	0.7891595
106	0x3d06a823	0.03287519
107	0x3f3012ca	0.6877867
108	0x3f0cffd6	0.55077875
109	0x3f2ecf72	0.68285286
110	0xbd8d206a	-0.06890948
111	0x3e1e03f4	0.15431195
112	0x3f206d0f	0.6266641
113	0x3f644173	0.8916237
114	0x3f310749	0.6915174
115	0x3f306996	0.6891111
116	0x3f00ee95	0.5036405
117	0x3f21d8c9	0.6322141
118	0x3f00dcd6	0.5033697
119	0x3ed9fd7a	0.425762
120	0xbcf4b7db	-0.029872825
121	0xbd8295c8	-0.06376225
122	0xbb69465f	-0.0035594923
123	0x3f51d92a	0.8197199
124	0x3f873807	1.0563973
125	0x3ef4b2a4	0.47792542
126	0x3f3cec6f	0.7379827
127	0x3df4cc78	0.11953062

net.4.weight f4 [6, 128]
0	0x3ead1db9	0.3381174
1	0xbf9c1ee7	-1.2196931
2	0xbdad052b	-0.08448251
3	0x407d5c45	3.9587567
4	0x402d20d6	2.7051291
5	0x3d4ec346	0.050479196
6	0x3d2c58e3	0.042076956
7	0x3d3c638b	0.04599337
8	0x409c3074	4.8809147
9	0x3cea421a	0.028595973
10	0x40289139	2.6338637
11	0x3ff70855	1.9299418
12	0x3e3238b4	0.17404443
13	0x3e703274	0.23456746
14	0x3d09bcfa	0.033627488
15	0x405adf07	3.4198625
16	0xc0002e78	-2.0028362
17	0x40599e24	3.4002771
18	0x3f39782d	0.72449
19	0x3ed1e983	0.40998468
20	0x4095a07a	4.6758394
21	0x3e8798e8	0.26483846
22	0x3ee6fbd2	0.45114
23	0x3da63c15	0.081169285
24	0xbc868ace	-0.01642361
25	0x3e24df6b	0.16100852
26	0x3e7d8a2a	0.24759737
27	0x3ea3dfe9	0.32006767
28	0xbd2aee9b	-0.04173146
29	0x3eb02b30	0.3440795
30	0x40557e23	3.3358238
31	0xbcd4b63c	-0.025965802
32	0x3e6a62d5	0.22889264
33	0xbf076e47	-0.52902645
34	0x3faf780b	1.3708509
35	0x3d6cdd8e	0.05782848
36	0xbedc9a7c	-0.43086612
37	0x3e8e1504	0.2775041
38	0x3eac73a1	0.33681968
39	0xbcdbfd2a	-0.026854116
40	0x3ce1073a	0.027469266
41	0x3f44e59e	0.7691287
42	0x3e165727	0.14681683
43	0x3f92fef1	1.1484052
44	0xbd77bb3b	-0.06048129
45	0x405ba1a7	3.4317415
46	0x3fe1ef34	1.7651124
47	0x4018fc4f	2.3903997
48	0x3f53fc57	0.82806915
49	0x3ec91bfb	0.3927916
50	0x3c86ea92	0.016469274
51	0xbd9f610f	-0.07782184
52	0x3ec94228	0.39308286
53	0x40821b32	4.0658197
54	0x408169f9	4.044186
55	0x40401af9	3.0016463
56	0x3d3a10a1	0.045426015
57	0x3fedced8	1.8578749
58	0x3d8ac014	0.06774917
59	0xbdbc4eba	-0.091947034
60	0x3ec76938	0.38947463
61	0x3f19646c	0.59918857
62	0x40464436	3.0979133
63	0xbd7ace85	-0.06123211
64	0xbd5a21b4	-0.053254798
65	0xbe47462d	-0.19460364
66	0xbd109370	-0.035296857
67	0x3f1b282c	0.6060817
68	0x3daa8557	0.08326214
69	0x3e90d654	0.2828852
70	0xbd43f056	-0.047836624
71	0xbd3afaf8	-0.0456495
72	0x3e717ec7	0.23583518
73	0x3eaf17fc	0.34197986
74	0x40867b5e	4.2025595
75	0x3d31fddc	0.04345499
76	0x3eee27da	0.4651478
77	0xbd8926b1	-0.06696833
78	0x3f211a31	0.6293059
79	0x3e9d9f8a	0.3078578
80	0xc0140da0	-2.3133316
81	0xc0296f27	-2.6474092
82	0xbc9713ef	-0.018442122
83	0x402b7e5e	2.6795878
84	0xbd9ef6bd	-0.07761905
85	0xbc988985	-0.018620262
86	0x3fdd4908	1.7287912
87	0x40052772	2.0805326
88	0xbd27a942	-0.0409329
89	0x40a39f27	5.113178
90	0x3f587c9a	0.84565127
91	0x3cf635bc	0.03005492
92	0xbcf97c6d	-0.030454839
93	0x3be61c8a	0.007022445
94	0x3fa2c9f2	1.2717879
95	0x402e01b4	2.718854
96	0x3fc7860e	1.5587785
97	0x3d2c0f37	0.042006698
98	0xbdeb271e	-0.114820704
99	0xbfe4744e	-1.7847993
100	0x402e5543	2.723954
101	0x3eae4990	0.340405
102	0xbda83dc0	-0.08214903
103	0xbd0e702d	-0.034774948
104	0x3f173211	0.5906077
105	0x3ff41558	1.9069014
106	0x3d49ff5b	0.04931579
107	0x40005ede	2.0057902
108	0x3dfae5be	0.12250851
109	0x402a41bd	2.6602623
110	0x3cdfb70b	0.027308961
111	0xc0773deb	-3.8631542
112	0x3ef737f3	0.48284873
113	0x3e93f3b2	0.28896862
114	0xbfce9445	-1.6138998
115	0x400391c1	2.055771
116	0xc07ea17e	-3.9786067
117	0xc0849db5	-4.1442513
118	0x3ff054b0	1.8775845
119	0x4002b6ad	2.0423996
120	0xbbe152f1	-0.0068763425
121	0x3cc5221a	0.024064112
122	0x3bd6c532	0.006554269
123	0x3ee1e1aa	0.4411748
124	0xc0973ba6	-4.7260313
125	0xc0678cd4	-3.6179705
126	0x3e529070	0.20562911
127	0x3fac8ad9	1.3479873
128	0x3e28bfc0	0.16479397
129	0x3edd9348	0.4327643
130	0xbd56afc3	-0.052413713
131	0x404ae640	3.1703033
132	0x401aef30	2.4208488
133	0x3d8e52cb	0.06949385
134	0x3d30203f	0.042999502
135	0xbed9b6ac	-0.4252218
136	0x40a71807	5.221683
137	0x3da878d8	0.08226174
138	0x40269d42	2.6033483
139	0x4021d706	2.528749
140	0xbf6f222c	-0.9341152
141	0x3efd286e	0.49444908
142	0xbe604249	-0.21900286
143	0x405b5f76	3.4277015
144	0xbfefc0ee	-1.8730752
145	0x40369f9b	2.8534915
146	0x3f682e9b	0.90696114
147	0x4082b72f	4.0848613
148	0x409f50d7	4.978618
149	0x3e2a7e9d	0.16649862
150	0x3f24c892	0.64368546
151	0xbd854e4c	-0.065090746
152	0x3c15a9b6	0.0091347005
153	0x3de4ed40	0.11178064
154	0x3e8e5795	0.27801195
155	0x3dd8335a	0.105566695
156	0x3d9d216d	0.07672391
157	0x3e10df9e	0.14147803
158	0x405af111	3.4209635
159	0x3cbc7cbd	0.023008699
160	0x3da3549a	0.07975121
161	0x3e2e4dc2	0.1702185
162	0x3fa5200a	1.2900403
163	0xbd52a99d	-0.051431287
164	0x3f3f8bea	0.74822867
165	0x3eba6567	0.3640549
166	0x3eb5342b	0.35391364
167	0xbc8136dc	-0.01577323
168	0xbd2c8428	-0.04211822
169	0x3e016928	0.1263777
170	0x3d8a9d50	0.06768286
171	0x3f2dfa48	0.67960024
172	0xbd485c58	-0.04891619
173	0x4037ce8f	2.8719823
174	0x3fede3d4	1.8585153
175	0x400366b0	2.0531425
176	0x3fd048e7	1.6272248
177	0x3f0e47e4	0.55578446
178	0xbd867d6c	-0.06566891
179	0x3cb80c50	0.022466809
180	0x3fae779c	1.3630252
181	0x408b6d0b	4.357061
182	0x4013c3f3	2.3088348
183	0x404ed559	3.2317717
184	0xbd13b8f8	-0.03606507
185	0x3fde237e	1.7354581
186	0x3cb7aca8	0.022421196
187	0xbcedeb99	-0.029043006
188	0x3f361cb2	0.71137536
189	0xc056d067	-3.3564699
190	0x403ac006	2.9179702
191	0x3ee7307b	0.45154175
192	0x3cc03c5a	0.023466278
193	0x3e9a954b	0.30192026
194	0xbd4b9cf6	-0.049710236
195	0x3faa8ee9	1.3324863
196	0x3c6dcc56	0.0145140495
197	0x3ea30afc	0.31844318
198	0xbdab049c	-0.083504885
199	0xbc9d787f	-0.019222496
200	0x3efcf7ce	0.4940781
201	0x3dbf752d	0.093485214
202	0x40a2eca1	5.0913854
203	0xbd9509dd	-0.07277272
204	0x3f662062	0.8989316
205	0xbd87eca4	-0.066369325
206	0x3e28c30e	0.16480657
207	0x3e27fa14	0.16403991
208	0xc038b867	-2.886255
209	0xc0102551	-2.2522776
210	0x3c2b3617	0.010449908
211	0x40438877	3.0552042
212	0x3ca172e5	0.019708106
213	0x3b9dca6a	0.0048153894
214	0x3fd74e29	1.6820728
215	0x40096f8f	2.147434
216	0xbd9a0447	-0.07520347
217	0x4084df3f	4.1522517
218	0x3f60eaec	0.8785846
219	0xbdabdfae	-0.08392273
220	0xbc01e357	-0.007927737
221	0x3dad2530	0.084543586
222	0x3f9ce163	1.2256283
223	0x3fc87854	1.5661721
224	0x3fb37824	1.4021039
225	0x3a0a7ea3	0.00052831526
226	0xbd3c1f79	-0.045928452
227	0xc0138827	-2.305185
228	0x40350e0f	2.828983
229	0x3ed31df2	0.41233784
230	0xbc9f5660	-0.019450366
231	0x3b7d3a7d	0.0038639598
232	0x3f77e85d	0.96838933
233	0x3fe55718	1.7917204
234	0xbd814ac4	-0.063130885
235	0x3ff9ccf2	1.9515669
236	0xbf876628	-1.0578051
237	0x402c8131	2.6953852
238	0xbb24ba83	-0.0025135584
239	0xc0223915	-2.534734
240	0x3e207639	0.15670098
241	0x3eb9bfea	0.3627923
242	0xbf961442	-1.1724932
243	0x4006fd69	2.109217
244	0xc091d58a	-4.557317
245	0xc07388d3	-3.805226
246	0x3ff9b5bc	1.9508586
247	0x3ff8daa3	1.9441723
248	0xbd705357	-0.05867323
249	0xbca12f8c	-0.019675992
250	0x3cd4cada	0.025975633
251	0x3f0aeb88	0.5426564
252	0xc088ab1e	-4.2708883
253	0xc0915a69	-4.5422864
254	0x3f01e364	0.50737596
255	0x3f8623f0	1.0479717

net.4.bias f4 [6]
0	0x3f4b7006	0.7946781
1	0x3fb6ea3a	1.429023
2	0x3e94ec20	0.290864
3	0x3f1d1f37	0.61375755
4	0x3f957e71	1.1679212
5	0x3faec73c	1.3654552
