rl/models/final_model_run7.pth (torch, 79489 bytes, 6 tensors)

net.0.weight f4 [128, 13]
000000 59 3f 63 be a3 57 8a be 40 e5 cf bc 4f 79 60 bd
       -0.22192134 -0.27019987 -0.02537787 -0.05480319
000010 11 9f 8b bd 7e d0 37 bd c8 06 b5 3d d0 c0 72 be
       -0.06817449 -0.044876568 0.08839184 -0.23706365
000020 c4 92 6c be 9a 45 0f be 96 23 f1 3d 6f fe 6c be
       -0.23102862 -0.13991395 0.117743656 -0.23143934
000030 f6 87 86 bd 30 d7 e8 bf ab 7c 5e 3f 66 e4 32 c0
       -0.06568901 -1.819067 0.8690898 -2.7951903
000040 00 3e 77 40 4b 08 ce c0 f5 bb 34 3e c4 2b 60 c0
       3.8631592 -6.4385123 0.17649825 -3.5026712
000050 a8 5e 10 40 fa 77 d5 be d4 4d 1c 3f 7c 1b 97 3f
       2.2557774 -0.41693097 0.61056256 1.1805263
000060 68 f4 e6 be 07 13 16 bd 20 38 21 bd ca 47 ae be
       -0.45108342 -0.03663924 -0.039360166 -0.34039146
000070 c6 71 c8 bf aa c8 d5 3f d6 1b 92 be 51 e1 03 bf
       -1.5659721 1.6701863 -0.28536862 -0.5151568
000080 0e af 34 3f 50 47 1f be 12 b1 7a be e0 c2 e4 3e
       0.7057961 -0.15554547 -0.2448161 0.44679928
000090 13 92 c3 bf f0 93 e3 be 4f 5c e5 bc c4 9b 25 3e
       -1.5278953 -0.44448805 -0.027998118 0.16172701
0000a0 89 e1 bc 3d fa 68 1f 3e d7 33 91 bd 26 cf 96 be
       0.09222705 0.15567389 -0.07089966 -0.29454917
0000b0 77 83 5f 3c fc 96 90 be d9 da 06 be b9 ea 5c bd
       0.0136421835 -0.28240192 -0.13169421 -0.053934786
0000c0 f6 48 bf 3c 33 18 43 be 8c 6a f6 3d 75 68 a4 bd
       0.02335022 -0.190522 0.12032041 -0.08027736
0000d0 0e 04 4a be 72 d0 1d 3f f9 f3 13 c0 c1 12 24 bf
       -0.19728109 0.6164619 -2.311766 -0.64091116
0000e0 5b 35 1a c0 0d 34 80 40 ed 8e bb bf 74 f6 0e c0
       -2.4095066 4.006354 -1.4652992 -2.2337923
0000f0 b4 80 93 3f 89 8e fe 3d 7e 11 1b 3f ed 14 98 bf
       1.1523652 0.1242953 0.60573566 -1.1881386
000100 76 9b a2 3d 82 d5 fa 3e 9a dc 2d 3f 23 77 49 40
       0.07939808 0.4899102 0.67914736 3.1478965
000110 68 0c 0f 40 f3 a5 8d bf f5 c0 57 40 cb 42 a8 3e
       2.2351322 -1.1066269 3.3711522 0.3286346
000120 e3 21 00 bf 51 0b a3 3e 9e 0d a1 bf b4 9f 44 3e
       -0.5005171 0.3184457 -1.2582281 0.19201547
000130 f0 97 21 bf 50 0d 0a bf ce 21 52 c0 f5 c0 ae 3f
       -0.63122463 -0.53926563 -3.2833133 1.3652636
000140 d5 32 8b bf 74 83 8d be 1a 3a 12 bf ac 5c 1e 40
       -1.0874888 -0.27639353 -0.57119906 2.4744062
000150 ab 6b 8d bf 41 87 21 c0 da 40 6b 3f a5 bb a1 3f
       -1.1048483 -2.5238802 0.9189583 1.263539
000160 2e e5 b6 bf 0c 9f a3 3e df ae a5 3e ef 08 68 be
       -1.428869 0.3195728 0.3235998 -0.22659658
000170 10 0c b4 3f 8d 94 f7 bf 07 17 9b 40 6f 34 3d bf
       1.4066181 -1.9342209 4.846561 -0.7390813
000180 31 46 d8 bf 88 b3 0d c0 66 ca eb be b6 a0 72 3d
       -1.6896421 -2.2140827 -0.46052855 0.059235297
000190 0a 8e 7a 3f 95 26 c6 bf 80 22 17 3f 41 3d a4 3d
       0.97872984 -1.5480524 0.5903702 0.08019496
0001a0 5b 29 38 bc d3 e2 99 bd 2b 91 b6 3d 6b 95 89 bd
       -0.011240329 -0.075139664 0.08914407 -0.06717952
0001b0 fe 47 18 be 31 dd 2f 3e dd 33 67 bd bc 9e 31 be
       -0.14871213 0.17174222 -0.056445945 -0.17345709
0001c0 60 c2 41 be b3 d1 8b be 9d 5d 8a bd db 48 29 3d
       -0.18921804 -0.27308425 -0.067561366 0.041329246
0001d0 1e 01 42 be 2f a0 d3 3f c3 fa 9d 3e 5d 54 9c c0
       -0.18945739 1.6533259 0.30855379 -4.8852983
0001e0 e2 23 71 3f 2f 23 30 3f 2c 9b b3 3f b7 22 3e 3f
       0.9419538 0.68803686 1.403173 0.7427172
0001f0 f3 e5 90 c0 87 84 8a bf c2 e5 07 bf d0 82 12 c0
       -4.52807 -1.0821694 -0.5308496 -2.2892342
000200 dc d6 40 c0 e8 8b df 3f cc 81 90 3f ed 86 0d c0
       -3.013114 1.7464571 1.1289611 -2.2113602
000210 ce 01 4f c0 8a cc 4c c0 01 ab 74 3f b6 5e cc bf
       -3.2344851 -3.199984 0.9557343 -1.5966403
000220 01 a8 a1 bf 2a af a6 bf be 35 0e c0 04 ef 33 3e
       -1.2629396 -1.3022206 -2.2220302 0.17571646
000230 21 61 2f c0 f8 ca b8 3d a4 e0 bf 3d 5e 2c e3 bf
       -2.7403033 0.09023088 0.09369019 -1.7747915
000240 e1 dc 9f 40 24 12 e1 3f d9 9b cb 3f 61 ea d6 3f
       4.9957128 1.7583661 1.5906936 1.6790277
000250 4e 1f 86 c0 32 50 22 bf 9b 46 51 bf fb 56 fe bc
       -4.1913214 -0.6340362 -0.8174836 -0.031047335
000260 3c 97 16 be 4e 0b 2a bd 43 70 91 3e 00 b4 00 be
       -0.14706129 -0.041514687 0.2840596 -0.12568665
000270 0a d8 b0 c0 a0 d3 20 40 80 32 74 40 f1 b9 06 3f
       -5.526372 2.5129166 3.8155823 0.52627474
000280 5c 48 86 3f 47 08 4a 3f 53 6b b9 bf 3d d3 14 c0
       1.0490832 0.7891888 -1.4485878 -2.325393
000290 b2 bd 81 3e 80 5c d9 bf 43 d5 03 c0 e9 52 38 bf
       0.2534004 -1.6981354 -2.0598915 -0.7200151
0002a0 91 8c 0a be d5 e1 c9 bf d5 34 9b c0 c0 53 3a be
       -0.13530184 -1.5772043 -4.850199 -0.1819601
0002b0 b8 78 74 c0 95 13 3a 3f b0 72 a3 40 c3 8a aa be
       -3.819868 0.7268613 5.10775 -0.33308992
0002c0 e3 a9 e4 3a 00 31 f4 bd 73 db 8c bc 8a f3 2c bd
       0.001744565 -0.119234085 -0.017194485 -0.042224444
0002d0 d8 28 01 3d c0 2a d2 bd de f5 16 be d2 fa 43 bf
       0.031533092 -0.1026206 -0.14742228 -0.76554596
0002e0 f6 f4 9b 3f 82 b8 48 c0 a5 69 38 be 6c 72 92 bc
       1.2184131 -3.1362615 -0.1800905 -0.017876826
0002f0 04 90 65 c0 39 00 7a 3f 45 10 f8 bf 26 8e 2d c0
       -3.586915 0.9765659 -1.9379965 -2.711801
000300 bc 12 ed bf e7 cf ff 3f bd d8 61 3f 8b 53 ca bf
       -1.8521342 1.9985322 0.8822134 -1.5806745
000310 7c e1 0a c0 95 7e 02 bd 24 18 a9 3f 9f d7 a3 40
       -2.1700125 -0.031859 1.3210492 5.120071
000320 ea 06 0a 40 5d 9b 03 3f 4f a5 1e bf 79 8d 24 be
       2.156672 0.5140894 -0.6197099 -0.16069593
000330 8e 23 e0 3d 0b 90 ab be 42 81 6c be ae ee 40 be
       0.109442815 -0.33508334 -0.23096183 -0.18841049
000340 59 89 ad c0 d9 1e d3 3e ee ed c6 bf f3 19 91 3f
       -5.423016 0.41234472 -1.554136 1.1336044
000350 4b 7e a4 40 2e 6e be be b3 fd 35 3d 9b 3d e5 3d
       5.1404166 -0.37193435 0.0444314 0.11193391
000360 e0 e7 97 be 08 67 fb 3d 3f e7 1b 3e 2b 6b f0 bc
       -0.29669094 0.12275511 0.15224932 -0.029347977
000370 ff 24 5c 3d 39 19 a9 c0 05 5a 16 40 74 eb 1c c0
       0.05374622 -5.284329 2.3492444 -2.451871
000380 db 59 8c 3f 6c e8 69 40 db f6 81 bf c7 e1 86 3c
       1.0964922 3.654811 -1.0153459 0.01646508
000390 d9 b8 24 3f 95 37 17 bf 02 16 df bd a7 6b ff 3b
       0.64344555 -0.59069186 -0.108928695 0.0077948156
0003a0 4d 53 69 be dc 2e 2d be 3d 5b 33 3d 75 a3 43 be
       -0.22785683 -0.16912407 0.043788183 -0.19105323
0003b0 73 87 2c ba 9e 19 0d be 7d 96 11 be 9b b0 6b 3e
       -0.0006581463 -0.13779303 -0.14217563 0.23016588
0003c0 25 b5 14 be 12 8c 36 bd ee 6b 93 bd a3 2a 83 3c
       -0.14522226 -0.044567175 -0.0719832 0.016011542
0003d0 2d 77 4c 3d 30 6d 9a bd 34 58 01 3e a6 49 14 c0
       0.049918342 -0.07540357 0.12631303 -2.3169951
0003e0 06 47 2f bf cb 93 85 bf 44 f7 52 40 33 6f 88 bf
       -0.6846775 -1.0435728 3.296342 -1.0658935
0003f0 44 98 5b 3e e8 8d b6 3f 99 a6 bd be 2a bc 2d 3e
       0.21444803 1.4262056 -0.37041166 0.1696631

net.0.bias f4 [128]
000000 59 7f 36 3d 7f ca ac be b8 2e 26 40 fb 30 22 be
       0.044555042 -0.33748242 2.5966015 -0.15838997
000010 18 e0 0b bf 6b 94 1b 3f 86 25 67 3e 1b 2a 02 40
       -0.54638815 0.6077334 0.22572908 2.03382
000020 69 b5 60 be 6f d3 55 bf 24 c2 20 bf 42 08 c3 3e
       -0.21944202 -0.8352575 -0.62796235 0.38092238
000030 9c ad 22 bf 16 69 0e 3f f2 c9 bd be d3 13 52 bf
       -0.63546157 0.556291 -0.37068135 -0.820615
000040 8a 19 9f 3e 24 8b 63 3d 25 2c 8d be af ce 7e 3f
       0.31074172 0.055552617 -0.27572742 0.99534124
000050 ea 02 24 3f 00 07 a8 3f 73 b8 07 c0 62 e0 d3 3f
       0.64066947 1.3127136 -2.120633 1.6552851
000060 8b 8f 78 be e0 64 60 bc 42 a0 4d 40 e4 cd dd bc
       -0.24273507 -0.0136959255 3.2129064 -0.027075715
000070 19 5b b3 bc e9 bc 0d be 48 bc 23 bf ae df d5 bf
       -0.021894025 -0.13841595 -0.6395917 -1.6708887
000080 08 48 c5 be 2e 95 41 be f6 41 c2 bf 25 b9 22 c0
       -0.38531518 -0.18904564 -1.517638 -2.5425503
000090 bd 80 55 3d 37 a4 20 3e c8 f9 fc 3f 4f 3c 83 be
       0.052124728 0.15687643 1.9763727 -0.2563195
0000a0 44 95 82 3f 72 cb a7 be 9f 9b 49 be 42 dc 74 be
       1.0201802 -0.32772404 -0.19688271 -0.23912147
0000b0 93 76 c0 3c c7 34 4c 3e e5 87 40 bd 21 68 1c bf
       0.02349404 0.19942008 -0.0470046 -0.6109639
0000c0 68 39 bc bf 32 87 69 be fc 05 a3 3f 4c 14 22 40
       -1.4705019 -0.22805479 1.2736201 2.5324888
0000d0 73 54 3d be 81 76 4d bd b3 a7 d9 3e 56 e5 7a 3f
       -0.18489246 -0.050161842 0.42510757 0.9800619
0000e0 7e 75 41 bd 2a 66 a7 3e fa a1 99 3f 2b 2a 0a 3f
       -0.04723119 0.32695132 1.2002556 0.53970593
0000f0 ce 76 5d bf ac f8 59 3f 42 35 05 40 92 1f 12 be
       -0.86509407 0.8514507 2.0813756 -0.14269856
000100 ec ac 01 40 7a b0 79 be e0 cc 12 bf e9 3b ed 3f
       2.0261793 -0.24383727 -0.57343864 1.8533908
000110 c1 ac 6e 3f d7 af 8b bf ce 92 c1 3f 4c 0b 66 be
       0.9323235 -1.0913037 1.5122926 -0.22465247
000120 f6 4b 7b 3f 0e 8f 1d be e6 50 56 be ee 75 9e bf
       0.9816278 -0.15386602 -0.20929298 -1.2379739
000130 3f cd 20 be a4 dd 55 bf fe fd e3 3e 9a 0a 8f be
       -0.15703295 -0.8354132 0.44529718 -0.27937776
000140 d8 4d 4e 3f f1 a6 98 bc 46 dd b3 3e 5b ce bb 3e
       0.8058753 -0.018634291 0.35129756 0.36680874
000150 c0 e6 84 3d 7b 82 2e 3f 70 1f 0e c0 3d 80 70 bf
       0.064893246 0.6816785 -2.2206688 -0.93945676
000160 3c 08 0e be aa e4 19 be ea 68 59 bc 37 65 2b 40
       -0.13870329 -0.15028635 -0.013269642 2.6780527
000170 f8 6c a7 3f 97 e8 d6 bd 62 2a 14 be 0f 6b ad be
       1.308013 -0.10493582 -0.14469293 -0.33870742
000180 81 3e 0f 40 fc 89 44 bf 03 6f c8 bc 1b eb 6c bf
       2.23819 -0.7677305 -0.024466997 -0.9254624
000190 4b 2e 25 3f 82 0d 80 3f c3 86 7f be 9e 99 38 bf
       0.6452376 1.0004122 -0.24953751 -0.721094
0001a0 a0 96 ca be 5e 56 38 bf 1a 00 c9 be 7a 61 08 3f
       -0.39568043 -0.72006786 -0.3925789 0.5327374
0001b0 b1 4d aa 3f 16 5e 93 3e 75 ab 4b be 44 9f 82 bf
       1.330496 0.2878272 -0.19889624 -1.0204854
0001c0 d2 c7 8f bf 80 03 2c bf ed 23 da bd 34 c2 34 bf
       -1.1232855 -0.6719284 -0.106513835 -0.7060883
0001d0 3e e6 d4 bf 60 1a ac be 79 82 b1 3f 9b 7e 08 c0
       -1.6632764 -0.33613873 1.3867942 -2.1327274
0001e0 39 5b e0 bd 53 5d 72 3d fa f7 45 be 37 e1 45 be
       -0.10954899 0.059171032 -0.19332877 -0.19324194
0001f0 92 25 ee 3d f3 1d 08 3f 40 be a4 3f 22 47 eb bd
       0.1162826 0.531707 1.287056 -0.11488177

net.2.weight f4 [128, 128]
000000 33 17 70 bd f2 59 28 40 72 b9 1a be ac 40 e0 bb
       -0.058615874 2.6304898 -0.15109804 -0.006843647
000010 4d 51 d3 bf 7a 16 02 c0 ea 23 66 40 c0 46 f9 bf
       -1.6509186 -2.0326219 3.595942 -1.9474716
000020 1d fa 86 bd 0c c6 58 c0 df be 19 bf 21 db 60 c0
       -0.06590674 -3.3870878 -0.6005687 -3.5133746
000030 1d 89 32 3f d7 4e 0f c1 f0 a5 14 c0 9d b2 d8 bf
       0.6974047 -8.956748 -2.322628 -1.6929508
000040 51 d2 fe bf 37 cc e1 bf 28 4d 9a bd e8 50 0a bf
       -1.9907933 -1.7640446 -0.07534248 -0.54029703
000050 ab df 68 be 16 4b 01 c0 df 02 88 3e 72 38 b9 bf
       -0.22741573 -2.020208 0.2656469 -1.4470351
000060 3e bb bf 3c 83 fb 54 3d c7 b5 8c 3b bf a3 ad 3d
       0.023404714 0.051997673 0.0042941305 0.08478498
000070 02 e6 c5 bf f2 a6 f4 bf e9 14 74 3f 0d 1a 0b c1
       -1.5460818 -1.9113448 0.95344406 -8.69386
000080 e8 80 06 c0 9c e0 7e bd 72 f6 3f c0 04 d1 73 3f
       -2.1016178 -0.062225923 -2.9994168 0.9524081
000090 5e b6 a8 bf 93 bd dd bf ad 71 eb 3d c7 1d 12 40
       -1.3180654 -1.7323478 0.11496291 2.2830675
0000a0 22 fd 64 bf f4 33 56 bd bf 2a 20 bd ef 35 41 bf
       -0.8944875 -0.05229564 -0.039103266 -0.7547292
0000b0 91 36 5d 3d 4d 16 80 be db 9d 80 3d cd 63 9c 3c
       0.054007117 -0.25017014 0.062801085 0.019090557
0000c0 05 88 80 c0 b9 1e ae bd 55 31 9a c0 9c ea 6f bf
       -4.016604 -0.08501954 -4.818522 -0.9371736
0000d0 50 f2 77 c0 14 f9 dc c0 88 66 c1 3f 5a 77 3a 40
       -3.8741646 -6.905405 1.5109415 2.9135346
0000e0 26 09 57 be 98 06 12 c0 ca 50 4e 3f 1a f1 40 bf
       -0.20999584 -2.2816525 0.80592024 -0.7536789
0000f0 67 3b f5 bf f2 51 5f 3f 50 db 35 c0 ab 6e 79 3d
       -1.9158753 0.87234414 -2.8415108 0.060896557
000100 77 e8 69 bf 28 1f db bc d4 fd a0 be c5 33 46 bf
       -0.9137034 -0.026748255 -0.31443655 -0.77422744
000110 be 4a 2e c0 b4 14 b5 bf dc 2e fe be 61 00 b3 3d
       -2.723312 -1.4146943 -0.49645126 0.08740307
000120 b8 db 7f 3f 6c d5 44 3d 60 3e b6 bc c3 c8 8a c0
       0.9994464 0.048055097 -0.02224654 -4.337007
000130 2a 86 53 bf e8 ad 91 c0 3d 87 12 3d db 76 cf bc
       -0.82626593 -4.552479 0.035773505 -0.02532523
000140 69 71 3e bf 80 9e ad 3c c8 2f a9 3f 3c 77 62 bf
       -0.743918 0.021193743 1.3217707 -0.8846319
000150 bb 6d 98 bc c1 f4 dc c0 e7 9e f5 3e de 57 45 3f
       -0.018607011 -6.904877 0.47972795 0.770872
000160 2b 77 0b bf f3 93 9c 3f 23 b2 25 bf 0d 2a a2 c0
       -0.5447871 1.223265 -0.6472494 -5.067633
000170 b5 47 96 c0 25 ce ac bd 72 ad 23 c0 f1 11 44 c0
       -4.6962533 -0.084377564 -2.5574613 -3.063595
000180 71 e3 aa 3f 1b 1e e8 3d 50 aa 54 bf 94 3b 84 3f
       1.335066 0.11333867 -0.83072376 1.0330682
000190 8b 9e 16 c0 7f b5 d6 bf bc da 3c bd 22 89 4d 3f
       -2.3534267 -1.6774138 -0.04610704 0.80287373
0001a0 62 31 85 c0 5f c6 0f bf 8e c4 5c bf 1f 87 38 c0
       -4.162278 -0.56162065 -0.8623742 -2.8832471
0001b0 dc 7f 5f c0 fe f8 43 c0 7b a0 39 3d de 59 e4 3f
       -3.492179 -3.0620723 0.04531906 1.7839925
0001c0 98 7a c5 c0 70 a0 75 3f ed 66 0b 40 7a 31 20 c0
       -6.171215 0.95947933 2.178157 -2.5030198
0001d0 a8 a2 8f c0 e7 0f 8c bf 54 b2 64 bf f7 a3 09 3e
       -4.4886055 -1.0942353 -0.8933461 0.13441454
0001e0 7d 9a 80 3d 5b bb f2 bf 3d 21 8f bd 2a 9b a3 bd
       0.06279466 -1.8963426 -0.069887616 -0.079885796
0001f0 6e 28 b5 bf 7c 4c 08 c0 db da cc bf eb 22 9b bc
       -1.4152963 -2.1296682 -1.6004289 -0.018937549
000200 03 cf 64 3d 08 83 2d bb 2f fe a0 bd cb 5b 17 3d
       0.055861484 -0.0026475806 -0.07860982 0.036952775
000210 34 01 1d 3d a0 8d 00 3c cd 88 df bb dc a8 35 bd
       0.038331226 0.007846266 -0.006821728 -0.04435049
000220 3d c5 78 3d 84 74 d8 bd 7e f3 08 be 59 9b 69 bc
       0.060734976 -0.105690986 -0.13374135 -0.014258229
000230 05 cd 25 3c 33 00 a8 bd 68 75 8a bd e0 2f 9b bc
       0.010119681 -0.08203163 -0.06760675 -0.018943727
000240 92 99 9a bd 56 1c 23 bd 6c a6 44 3d a4 6b d1 bd
       -0.075488225 -0.039821945 0.048010275 -0.10225609
000250 47 86 04 3c a3 ee 65 bd e6 4c 93 bb 44 78 38 bb
       0.008088655 -0.056135785 -0.004495251 -0.0028147856
000260 ee f2 10 3c 5c e0 aa 3d 00 04 a4 bc 30 39 74 3c
       0.008846981 0.083435744 -0.020021439 0.014906213
000270 8a b3 4a bd 7a c8 91 bc 03 7b 44 bd c3 04 76 3b
       -0.049487628 -0.01779579 -0.047968876 0.003753946
000280 36 0b 5b 3d 71 8e 6d bd 47 1d c8 bc 57 94 33 bc
       0.05347749 -0.05799717 -0.024428023 -0.01096066
000290 82 b0 ab 3c 84 48 41 bd 98 a2 e3 bd 80 87 e7 bd
       0.020958189 -0.047188297 -0.11114997 -0.113051414
0002a0 2f 5f 99 bc 48 77 c1 bc bc 69 a6 3d df 19 e0 bd
       -0.018722145 -0.023616448 0.08125636 -0.109424345
0002b0 06 46 94 3b 94 ed b1 bb 09 66 6a bd 9a 14 8c bb
       0.004524949 -0.005429933 -0.057226215 -0.004274917
0002c0 b5 56 29 bd 97 ba 78 bd 9b 97 79 bd 04 8d 92 bd
       -0.041342456 -0.06072482 -0.060935598 -0.07155803
0002d0 44 a0 f6 3c a8 7e aa bd 9f 8a 16 3a 2c c7 9f bd
       0.030105717 -0.08324939 0.0005742702 -0.07801661
0002e0 83 fb 86 bd 71 a1 87 bc 02 bd 02 3c 8b 73 f1 bd
       -0.06590941 -0.016556473 0.007979633 -0.11789616
0002f0 c8 99 39 bd 78 b0 50 3c bc 48 9d 3c 2e 52 97 bc
       -0.045312673 0.012737386 0.019199722 -0.018471804
000300 0b 7b ab bb ed c5 78 bd fc eb 2f 3d de ac 88 bd
       -0.0052331737 -0.06073563 0.04294966 -0.06673597
000310 2a e4 03 3d 05 ef a1 bd 6e c5 16 bc 03 fe a9 bd
       0.032200016 -0.079069175 -0.009202344 -0.08300402
000320 d2 1e 77 bd 28 77 af bc 38 c0 4f 3d b6 41 a5 bc
       -0.060332127 -0.021419123 0.050720423 -0.020172935
000330 c2 93 e9 bc 72 63 5e bd c3 43 9b 3c 14 fb 1c 3d
       -0.02851284 -0.054294057 0.01895321 0.038325384
000340 b5 d4 bd 3c fa c2 b0 3d f9 8d fd bc 07 11 d8 bd
       0.023172716 0.08630939 -0.030951487 -0.10550123
000350 b7 7a ab 3c 22 7e ce bd 29 03 28 bd 6a c2 8c bd
       0.020932538 -0.10082652 -0.04101864 -0.06873019
000360 1b 52 e5 3c 56 e3 85 bd 01 1a cc bd ff 97 85 bc
       0.027993253 -0.065375015 -0.09965897 -0.016307829
000370 7d 76 0a bd b4 0e 9a 3c 17 06 a8 bd 3a 23 c5 3c
       -0.033804405 0.01880584 -0.082042865 0.024064649
000380 ec 5a f0 3b 94 50 04 be 03 df 66 bd 42 e9 01 bd
       0.0073350575 -0.12921363 -0.056365024 -0.031716593
000390 d3 bb 27 3c a2 64 ff bc 1d e9 f2 3c 64 40 d0 bd
       0.010237652 -0.031175915 0.029652173 -0.101685315
0003a0 55 1b 38 bd 5c 0f d6 39 e0 95 bf bc a0 96 99 bb
       -0.04494794 0.00040828704 -0.023386896 -0.0046871454
0003b0 24 19 07 bd 04 4d 57 bd 7d 07 5d bd 88 39 f6 3c
       -0.03298296 -0.052563682 -0.05396222 0.03005673
0003c0 d9 09 51 bd 3c 7c 43 3d a8 d1 b0 bd dc d6 84 bd
       -0.051034782 0.0477259 -0.08633739 -0.06486294
0003d0 06 19 9b 3c 62 21 2e bd 0a b2 8e 3a c0 7c bf bd
       0.01893283 -0.042512305 0.00108868 -0.09349966
0003e0 ef ff 5c bd f9 b4 f3 bd d5 b3 92 3d 3c 64 26 bd
       -0.053955015 -0.11899752 0.071632065 -0.040622935
0003f0 5a 85 c1 bd 69 d2 de bd 09 33 3f bd c5 8e 33 3d
       -0.09449263 -0.10879976 -0.04667953 0.043837328

net.2.bias f4 [128]
000000 47 a7 9a be 73 f9 c9 bd 13 b3 b8 bd c5 60 d6 3e
       -0.30205747 -0.09862032 -0.09018531 0.41870704
000010 41 dd f6 3f ce 05 22 be 6f 19 95 bf e7 e7 1f be
       1.9286271 -0.15822527 -1.1648387 -0.15615807
000020 9b b9 f1 bd 95 19 ca 3e b1 af 20 be 12 b3 be 3e
       -0.118029796 0.39472643 -0.15692021 0.37245995
000030 54 50 3b bf d0 4d 2d 40 5e 23 1c 3f c6 83 01 be
       -0.73169446 2.7078743 0.60991466 -0.12647924
000040 15 bf 02 3f 87 c4 12 3a 5b fd 0e be 8a d8 3c bd
       0.5107282 0.0005598743 -0.13963835 -0.046104945
000050 d9 1d 42 bd 06 ae 93 bd e7 37 88 bd 4e a8 07 3e
       -0.047391746 -0.07210927 -0.066512875 0.13247797
000060 51 92 1e bc 85 2a 26 40 aa 41 24 3f 5d bf 29 bf
       -0.009678439 2.5963452 0.64162695 -0.6630762
000070 28 aa d7 bd a9 6b 51 bd 95 db c2 bd 74 4e a3 bd
       -0.105305016 -0.051128063 -0.09514538 -0.07973948
000080 a4 c1 2d 40 1e 61 09 be 23 15 ab 3c 4a fa 90 bd
       2.714944 -0.13415954 0.020884102 -0.07078989
000090 ca 8b 39 40 eb 28 49 40 5e 83 40 40 d5 a9 80 bd
       2.899157 3.1431224 3.008018 -0.06282393
0000a0 9e 67 d8 bd db 58 04 3c f9 67 5e 3f 1d f1 3c 40
       -0.105666384 0.008077825 0.868774 2.9522164
0000b0 2f 8c e2 3f be 35 53 be 69 6f 30 40 6d 9f 0c bd
       1.7699031 -0.2062597 2.7568 -0.034331728
0000c0 6c 39 92 3f 1d b7 f7 bd ad 7b d7 bc 79 eb cc bd
       1.1423774 -0.12095473 -0.02630409 -0.1000585
0000d0 e9 11 3f 40 bc 9b 3a be 91 a1 4c 3b 62 31 d5 bd
       2.9854681 -0.1822347 0.003122423 -0.1040981
0000e0 ef ba 9b 3d ab fc 03 be 84 bf 5a 40 e8 b1 81 3b
       0.07604014 -0.12889354 3.4179392 0.0039579757
0000f0 07 f1 e8 bd 5e 0c 9b be 10 52 e9 bd bd 84 07 be
       -0.11374097 -0.30282873 -0.11392605 -0.1323423
000100 69 0e cb 3b 97 8e 60 bf 26 08 c6 3f 90 ee c0 3c
       0.006196786 -0.87717575 1.5471237 0.023551255
000110 e3 e7 ae 40 f4 0d 4e 40 f1 d4 29 3b 01 f0 3b 3f
       5.4658065 3.2196016 0.0025914276 0.7341309
000120 9b a9 fb bd a2 03 fe bf 8c c7 30 3c 48 e5 75 40
       -0.12288209 -1.9844859 0.010789763 3.8421192
000130 c5 2c e5 3f 9d 22 83 ba ee 12 0b 3f bb 3b b9 40
       1.7904288 -0.0010004822 0.5432576 5.7885413
000140 7d cf f5 bd 27 4f 88 3e 48 62 5f 40 c9 57 7e 3f
       -0.12002466 0.26622888 3.4903736 0.993527
000150 75 6c 09 be 79 0b 75 bc fd 3f 62 bc 41 41 ae 3f
       -0.1342028 -0.014956349 -0.013809201 1.3613664
000160 da 65 e3 3f 11 6f 37 40 74 66 db bc 63 8a 1e be
       1.7765458 2.866154 -0.026782252 -0.15482478
000170 ad 8c 9d bd f8 db d6 3e e1 12 92 3f 80 59 09 be
       -0.076928474 0.41964698 1.1412011 -0.13413048
000180 5d 3f 05 be aa 6a a1 be 23 82 bc 3e c2 2e ec bc
       -0.13012452 -0.3152669 0.36818036 -0.02883089
000190 2f 03 51 40 f9 1a c8 bd 98 88 d9 3f 48 5d 3a 40
       3.2658193 -0.097707696 1.699481 2.9119434
0001a0 9a 8a dd bc 96 c8 61 3f d9 94 60 3f 7c b3 2c 40
       -0.02704363 0.88196695 0.87727123 2.6984549
0001b0 aa 9f 01 3f 04 d8 8f 3f fb af 0e c0 a5 07 1f bf
       0.50634253 1.1237798 -2.229491 -0.6212104
0001c0 15 7d 5e bd 57 ab fb bc 2a d6 b1 3e 2a ad 16 40
       -0.054318506 -0.03072135 0.34733707 2.354319
0001d0 7c af 88 3f 96 6b cf 3f e5 b6 a0 bd 05 77 b5 bb
       1.0678554 1.6204708 -0.07847384 -0.00553787
0001e0 b9 96 41 40 66 9f 6c bd 55 7d 07 40 53 33 32 40
       3.0248244 -0.0577692 2.1170247 2.7843826
0001f0 6c f6 b1 3c 8a 3f d7 be 66 09 c7 3e c2 0b bd 3e
       0.021723948 -0.42040664 0.38874358 0.36923033

net.4.weight f4 [6, 128]
000000 9b f6 9a 40 e4 31 2c 3d ef d2 5a bd 70 2f da 40
       4.842603 0.042039767 -0.05342382 6.8182907
000010 eb ef 4b 40 ad 67 a4 40 56 4d d6 bf c6 93 a2 bc
       3.1865184 5.1376557 -1.6742351 -0.019845854
000020 55 5a 93 3d 2d f5 e1 40 bf a7 8b 3c e5 82 e5 40
       0.07194964 7.0611787 0.017047761 7.1722283
000030 1d d9 aa 40 c1 71 8c 40 33 0f 7d 40 01 ef 97 bd
       5.339003 4.388886 3.9540527 -0.07418633
000040 b4 ec ee 40 cb cb a8 3b c0 84 cc 3b ef 50 9a 40
       7.4663944 0.005151247 0.006241411 4.8223796
000050 2c 7a db 40 ad df 19 bc 8a 09 fd bc 83 df f4 40
       6.8586636 -0.009391707 -0.030888338 7.652284
000060 ed 3c 1d ba c8 15 6e 40 a6 db ba 40 65 28 86 40
       -0.00059981534 3.7200794 5.8393126 4.192431
000070 c1 0b a2 bc a6 19 f2 bc d7 66 c6 3c 53 c2 13 bd
       -0.019780995 -0.029553246 0.02421896 -0.036073994
000080 d8 3a 95 40 1c 56 1e 3d 37 75 f3 40 e6 96 74 3c
       4.663433 0.03865634 7.6080585 0.014928555
000090 0b df d7 40 6a 33 cc 40 7e f6 0a 40 85 ae d7 bc
       6.745977 6.381276 2.1712947 -0.026328335
0000a0 2b b5 62 bc 48 12 6b bd 67 c8 7f 40 cb 66 e5 3f
       -0.013837139 -0.05739048 3.9966066 1.7921995
0000b0 e7 d4 97 40 aa 31 ac 40 fa 26 67 40 4e 8f 92 3d
       4.744739 5.3810625 3.611754 0.071562394
0000c0 66 c3 e0 bf e9 79 bb bc 96 ae 53 bd 67 c0 7b 3c
       -1.7559631 -0.02288528 -0.05168017 0.0153656965
0000d0 86 47 4d 40 03 32 2d 3d ee fb 18 41 19 3e 9b 3c
       3.2074904 0.042284023 9.561506 0.018950509
0000e0 02 ba 06 41 6c a4 07 3d ef f4 b5 3f 1f 18 df bb
       8.420412 0.03311579 1.4215373 -0.0068082954
0000f0 14 ed 0b 3d d5 cb ba 40 50 6e 6c 3c 52 8a 5f 40
       0.034161642 5.837382 0.014430597 3.4928174
000100 74 50 a1 3d b6 18 47 40 cb 6f f9 40 ef 10 08 3d
       0.07876673 3.1108832 7.7948966 0.033219274
000110 36 73 53 c0 a9 18 28 40 9a f1 ac bc fe c6 c5 40
       -3.303907 2.6265051 -0.021111298 6.180541
000120 da 87 e3 bc 04 f7 70 bf dc 1d 5d bb 1c 0f af bf
       -0.02777474 -0.94126916 -0.0033739721 -1.3676486
000130 92 0b df bf 70 6b 7d bd 97 9a e1 40 f8 57 1e bf
       -1.7425406 -0.06187004 7.050121 -0.6185298
000140 ae e0 8d bc 2b b8 b8 40 3d bb e2 3f 3f fe 9f 40
       -0.01731905 5.7724814 1.771339 4.999786
000150 9f b7 89 3d 6b 96 a7 3b 6f 1b d3 40 ad 0d c3 40
       0.06724476 0.0051143668 6.597099 6.0954194
000160 ef 1c 04 41 a5 b6 b6 40 82 98 5c 3d 92 80 13 bd
       8.257064 5.7097955 0.05385638 -0.036011286
000170 a7 c2 3d 3d 55 b4 cb 40 30 ca 6c 40 0f 62 a8 3c
       0.046328213 6.365763 3.6998405 0.02055457
000180 a9 2b d4 bd 0b c5 c1 40 3b 18 ee 40 f5 79 b1 3c
       -0.1035989 6.055303 7.440458 0.021664599
000190 3d 3e 23 40 14 e4 35 3e 9f 03 75 40 a9 f8 62 40
       2.5506737 0.17762786 3.828346 3.546427
0001a0 ea bd 8c bd 61 83 5b 40 e0 18 b7 40 63 10 7d bf
       -0.06872161 3.4298937 5.7217865 -0.9885313
0001b0 30 6f 9f 40 6b 29 c5 40 9a ca e3 be 45 b3 a4 40
       4.9823227 6.161306 -0.4449051 5.1468835
0001c0 a6 7c 42 bd 7b 3b d9 3d 67 01 e9 40 9b 27 6c 40
       -0.047482155 0.10607048 7.281421 3.6899173
0001d0 c6 b1 e1 bf 8d fd cc 40 4b c2 14 bd c4 48 87 3d
       -1.7632377 6.405951 -0.036318105 0.06605676
0001e0 bf 64 5b 40 0c a6 a5 3d 2d bf 0c c0 c4 c2 5b 40
       3.428024 0.080883116 -2.1991684 3.4337626
0001f0 09 d7 70 3d 37 68 dd bf ab b0 ab 3f 87 24 10 41
       0.058798824 -1.7297429 1.341329 9.008918
000200 51 f9 83 40 c9 a4 7b bd 46 48 00 3d 1d 4b c7 40
       4.124184 -0.06143645 0.031318925 6.227919
000210 2b a9 54 40 e7 bf c8 40 3d 10 cf bf 64 79 90 3d
       3.3228252 6.2734256 -1.617683 0.070544034
000220 d9 5e 77 3d 2e 0a db 40 86 37 11 bd cf 5a ec 40
       0.06039319 6.8449926 -0.035453342 7.386085
000230 77 a1 c5 40 1f f4 8c 40 30 4a 4a 40 8a da ae bc
       6.17596 4.4048 3.160778 -0.021344442
000240 50 95 1c 41 9e 44 39 3c 80 38 68 bd e2 80 bc 40
       9.786453 0.0113078635 -0.056694508 5.890733
000250 be a7 99 40 25 34 66 bc b2 0f 9c 3d a5 46 18 41
       4.8017263 -0.014050518 0.07620181 9.517247
000260 85 c8 3b bd 50 ac 65 40 d4 68 8b 40 85 af 9a 40
       -0.045845527 3.5886421 4.3565464 4.8339257
000270 44 e1 55 bd 63 a6 77 bd 69 44 b4 bd 66 12 80 3c
       -0.052216783 -0.060461413 -0.08802111 0.015633773
000280 bc 5f bb 40 0f 9f 92 3d 88 c5 f0 40 ce 14 2a bd
       5.8554363 0.07159244 7.5241127 -0.041523747
000290 70 be eb 40 75 5b a4 40 56 fb fe 3f f4 98 b1 bd
       7.366997 5.136164 1.9920452 -0.086717516
0002a0 1b 1c 5c bd 05 dd d2 3a 9c 54 fc 40 f8 f6 ed 3f
       -0.05373774 0.0016087597 7.8853283 1.8590994
0002b0 53 fb b3 40 fc ff 5c 40 06 23 67 40 9c 40 89 bc
       5.624429 3.453124 3.6115127 -0.016754441
0002c0 f5 9b e8 bf f5 8e 78 3d 5a cf 89 3c 1d c6 97 bb
       -1.8172594 0.06068321 0.016822506 -0.0046317712
0002d0 1d d9 45 40 96 c4 ad 3d a8 e2 28 41 60 39 df 3c
       3.0913765 0.084847614 10.555336 0.027249038
0002e0 17 10 01 41 8b 55 09 3c 00 1e a4 3f 57 e8 50 3c
       8.066428 0.008382211 1.2821655 0.012750707
0002f0 39 68 0a bd b8 0a a1 40 13 ed e0 bc 50 80 bd 40
       -0.0337908 5.0325584 -0.027456796 5.921913
000300 da fc 91 bc 7e 51 a1 3f 47 d8 16 41 b8 48 81 bd
       -0.017820764 1.2602994 9.427802 -0.06312698
000310 2e f1 47 c0 39 e5 21 40 6f 37 d8 3c fb 13 94 40
       -3.1240954 2.5296156 0.02639362 4.627439
000320 aa 7d 9e bc eb 35 86 bf 3a 30 45 3d 96 23 0c c0
       -0.01934703 -1.0485204 0.048141696 -2.189672
000330 74 3a 9c bf 9a f1 9d bd 02 bc 08 41 3b e6 77 be
       -1.2205338 -0.077120975 8.5459 -0.2420892
000340 d9 56 b1 3c 8a bc d3 40 22 7c f3 3f 18 69 c9 40
       0.021647858 6.616765 1.9022257 6.294079
000350 70 f8 13 3d ea 0e 9e bd 72 66 e2 40 6f 5e c0 40
       0.0361256 -0.077176884 7.0750055 6.0115275
000360 81 61 d6 40 88 b5 6e 40 86 4b 75 bb 8c 55 57 bc
       6.6994023 3.7298298 -0.0037429049 -0.013142955
000370 3b f1 4e 3d 3f d5 c6 40 3d 54 8a 40 ae dd a5 bd
       0.050523024 6.213531 4.322783 -0.08098923
000380 09 4b 3c bd d4 8a 81 40 9e 73 d8 40 41 08 63 3b
       -0.045969997 4.048197 6.7641134 0.003464237
000390 d7 54 1d 40 6a 6b 0c 3c 9c bf 44 40 7b fe 72 40
       2.4583032 0.008570531 3.074195 3.7967823
0003a0 e6 97 bc bc 5f 37 62 40 61 02 9c 40 45 02 76 bf
       -0.02302165 3.5346296 4.8752904 -0.96097213
0003b0 2c 23 e5 3f 38 a0 f4 40 f6 ce ec be 2b 85 50 40
       1.7901359 7.644558 -0.4625165 3.258128
0003c0 ed 3c 7f 3c e1 b8 c4 3d 5f 5a 13 41 4e 0a 9f 40
       0.015578491 0.09605575 9.209563 4.970008
0003d0 99 19 b9 bf 6c 37 e5 40 2f 3f ba 3d 33 13 87 3d
       -1.4460937 7.1630154 0.090940826 0.06595459
0003e0 73 35 65 40 d0 2a 0f bc a4 93 1b c0 ab 69 7b 40
       3.5813873 -0.008738235 -2.4308863 3.9283245
0003f0 a7 97 33 bd d3 a0 e0 bf 77 86 e3 be 77 89 f1 40
       -0.0438458 -1.754908 -0.44438526 7.5480304

net.4.bias f4 [6]
000000 3e 47 4d 40 b7 b3 b3 40 b3 b4 10 40 aa 84 a1 40
       3.2074733 5.615688 2.261029 5.0474443
000010 66 2e b2 3f 2d 03 4e 40
       1.392041 3.2189438
