rl/models/final_model_run2.pth (torch, 79489 bytes, 6 tensors)

net.0.weight f4 [128, 13]
0	0x3dd8eb7d	0.10591791
1	0xbdca22cd	-0.09869919
2	0xbd8fe65e	-0.07026361
3	0xbe5c48b6	-0.21512112
4	0xbdef3dd6	-0.11681716
5	0x3c1d0e56	0.0095859375
6	0xbc8e7b6c	-0.017392837
7	0x3ca9fd10	0.020750552
8	0xbdd3bc81	-0.10338689
9	0xbe58d178	-0.21173656
10	0x3af4d15b	0.0018678115
11	0x3d43ee1b	0.047834497
12	0xbe343010	-0.1759646
13	0xbe8d0b66	-0.2754776
14	0xbdd50c0c	-0.104026884
15	0xbe875d6f	-0.26438472
16	0xbd7d760e	-0.061880164
17	0xbe452d66	-0.192556
18	0xbe236b57	-0.15958916
19	0xbddfed63	-0.1093395
20	0xbd800d3d	-0.06252525
21	0xbd52cbc4	-0.051463857
22	0xbdc4b2b2	-0.09604396
23	0xbda3465c	-0.07972404
24	0x3e6488a1	0.22317745
25	0x3e260afd	0.16215129
26	0xbf85890b	-1.0432447
27	0x3f3c858d	0.7364128
28	0xc0447bf4	-3.0700655
29	0x40127798	2.2885494
30	0xbfb940d3	-1.4472908
31	0x3e67b468	0.22627413
32	0x3f808373	1.0040115
33	0xbeb54a78	-0.35408378
34	0xbf910af0	-1.1331463
35	0x3e068e6c	0.13140267
36	0xbdce4413	-0.10071578
37	0xbeca9112	-0.39563805
38	0x3e70f099	0.2352928
39	0xbdb37f51	-0.08764518
40	0x3b5b442b	0.003345738
41	0xbc74db28	-0.014944829
42	0xbca90d2b	-0.020636162
43	0xbe63f4da	-0.22261372
44	0xbe86100c	-0.26184118
45	0x3dbcfd81	0.092280395
46	0xbe98f436	-0.29873818
47	0xbb2dedaa	-0.0026539364
48	0x3db9b3f4	0.090675265
49	0xbdcd6b8d	-0.10030279
50	0xbe9e068a	-0.30864364
51	0xbb5a82eb	-0.0033342193
52	0x3f99c58a	1.2013409
53	0xbead7f20	-0.3388605
54	0xbfdc92a3	-1.723225
55	0x3e201d10	0.15636086
56	0x3f86283a	1.0481026
57	0xbec86b1a	-0.39144212
58	0xbd886ce3	-0.066613935
59	0x3d20dace	0.03927117
60	0xbe538a91	-0.20658328
61	0xbf404d57	-0.7511801
62	0x3f6963ef	0.9116811
63	0xbf9bd7d4	-1.217524
64	0xbe9ee730	-0.31035757
65	0xbe692692	-0.2276862
66	0xbf0c3f45	-0.5478404
67	0xc0a186b0	-5.0476913
68	0xbfa25a58	-1.2683821
69	0xbeee1afa	-0.46504956
70	0x3f3c3764	0.7352202
71	0xbf510fa8	-0.81664515
72	0xba927882	-0.001117483
73	0xbf0bcec6	-0.54612386
74	0x3daaf9ba	0.08348413
75	0x3f94ca28	1.1624193
76	0x3dc518b8	0.09623855
77	0x3f21f023	0.63257045
78	0x3c3a88ca	0.011385152
79	0x3f0c3ded	0.5478199
80	0xc0a3e333	-5.1214843
81	0x3f64c426	0.893618
82	0xbf0a844f	-0.54108137
83	0x3d966cc5	0.07344965
84	0xbe526782	-0.20547298
85	0xbf8579e7	-1.0427827
86	0xbf18b715	-0.5965436
87	0x3f2f1fe8	0.6840806
88	0x3ee32972	0.44367558
89	0xbf9b18d8	-1.2116957
90	0x3f94bb9b	1.1619753
91	0xbe23ed91	-0.16008593
92	0x3f9c6b5c	1.2220263
93	0xbf8229af	-1.0168971
94	0xc021a7fb	-2.5258777
95	0xbf379681	-0.71714026
96	0x3fc5522d	1.5415703
97	0xbf7cd59a	-0.9876343
98	0x3f1a3771	0.60240847
99	0xbf877bba	-1.0584633
100	0x3e0b3fff	0.13598631
101	0x3eacc482	0.33743674
102	0xbe67cfdd	-0.22637887
103	0xbea31653	-0.3185297
104	0xbf89c14f	-1.0762118
105	0x3f2b094f	0.6681108
106	0x4014daed	2.3258622
107	0xbfda60f3	-1.7060837
108	0x3c569520	0.013097078
109	0xbf86d24f	-1.0532931
110	0xbee7b8aa	-0.45258075
111	0x3f4dad03	0.8034212
112	0x3f9961aa	1.198293
113	0xbd8bc005	-0.06823734
114	0x3dc3ce00	0.09560776
115	0xbdce329c	-0.10068247
116	0xbe18eb8a	-0.14933601
117	0x3f3740db	0.71583337
118	0xbd21d258	-0.03950724
119	0xc0329db7	-2.7908762
120	0xc0571687	-3.36075
121	0x3f4f7d3e	0.8105048
122	0x3a7b0b8c	0.0009576611
123	0xbe50f3e0	-0.20405531
124	0x3f2fd68d	0.68686754
125	0x3f8b8851	1.0900975
126	0xbf7e3b28	-0.99309015
127	0xbf4af4b7	-0.79279655
128	0x3e57bba1	0.21067668
129	0xbeda6c06	-0.4266054
130	0x3e319b6d	0.17344446
131	0xbf34ae03	-0.7057802
132	0x3f9dee7f	1.2338408
133	0x40152473	2.3303497
134	0x3f2015f5	0.62533504
135	0x3d2ac31d	0.04168998
136	0xbfcc8628	-1.5978441
137	0x3e07ae84	0.13250166
138	0x3b396657	0.002828976
139	0xbf67386a	-0.90320456
140	0xbf752490	-0.95758915
141	0x3f717aeb	0.9432818
142	0x3f448dec	0.76779056
143	0xbf3e12ab	-0.74247235
144	0x3fb2304d	1.392099
145	0x3d948bde	0.0725324
146	0xbfc89c3d	-1.567268
147	0x3f239553	0.63899726
148	0xbf8e7153	-1.1128334
149	0xbf499405	-0.78741485
150	0xbea8ecc1	-0.3299313
151	0x3eaf6a10	0.34260607
152	0x3e5e1a5c	0.21689743
153	0x3eb0ece6	0.3455574
154	0xbf82fedd	-1.0234028
155	0xbe65a554	-0.22426349
156	0x3f0d4efd	0.5519865
157	0x3e010a65	0.12601621
158	0xbf4fe94f	-0.81215376
159	0x3f903464	1.1265988
160	0xbf80bfae	-1.0058496
161	0x3c804956	0.01565997
162	0xbee0c0dd	-0.43897143
163	0x3fcbbe5c	1.5917468
164	0xbf620518	-0.8828902
165	0xbf482e20	-0.7819538
166	0xbf5a4eb8	-0.85276365
167	0xbf908dc3	-1.1293262
168	0x3e8522fd	0.26003256
169	0x3f6a5df3	0.91549605
170	0xbf11910b	-0.56861943
171	0x3fe56c6a	1.792371
172	0x3fdd5d0f	1.7294024
173	0xbe96abe9	-0.29428032
174	0xbe2c076c	-0.16799706
175	0x3f7a079e	0.9766787
176	0x3f016bbd	0.5055502
177	0xbd391a87	-0.045191314
178	0x3de80621	0.11329294
179	0xbf6d0f30	-0.926013
180	0xbfbb2f5e	-1.462383
181	0xbf2ab406	-0.66680944
182	0xbe1dcbfa	-0.15409842
183	0xbe783d29	-0.24242081
184	0xbe54bad3	-0.20774393
185	0xbdcaa3ca	-0.098945215
186	0x3e2ff37e	0.17182729
187	0xbdc5c2c2	-0.09656288
188	0xbd9ffa12	-0.07811369
189	0x3e649226	0.22321376
190	0x3e84309f	0.25818345
191	0xbdf9db81	-0.1220007
192	0xbd49041d	-0.04907619
193	0xbddca112	-0.10772909
194	0xbe6ce89d	-0.2313561
195	0x3f061c29	0.5238672
196	0xbddcdde9	-0.107845135
197	0xbf28bc6a	-0.659125
198	0xbde39751	-0.11112846
199	0x3d926ba4	0.07149437
200	0xbfb68c51	-1.4261571
201	0x3ec09826	0.3761608
202	0x3f0ce239	0.5503269
203	0x3f36e071	0.7143622
204	0x3e7ba484	0.24574476
205	0xbfa27540	-1.2692032
206	0x3f428fbc	0.7600057
207	0xbe5abfca	-0.21362224
208	0xbcc72940	-0.024311662
209	0x3f0dbb20	0.55363655
210	0xc0a90222	-5.2815104
211	0xc061add7	-3.5262353
212	0x3fc2a5bd	1.5206829
213	0xbf7f7f7a	-0.9980389
214	0xbd5a3385	-0.05327179
215	0xbf7e1de2	-0.9926435
216	0x3c2bbd0d	0.010482085
217	0x3c071e1f	0.0082469275
218	0x3d9d30f6	0.07675354
219	0xbcc08f2e	-0.023505773
220	0x3df90db9	0.121608205
221	0xbeb5fcf2	-0.35544544
222	0x3d4bfa53	0.049799275
223	0x4061faa7	3.5309236
224	0x4062a853	3.5415237
225	0x3f25681b	0.6461198
226	0xbf333f81	-0.70018774
227	0xbe8a5548	-0.2701819
228	0x3ef54af5	0.4790875
229	0x3e914992	0.28376442
230	0xbf3169c3	-0.69302005
231	0x3e0e88c2	0.13919356
232	0x3f8d6e59	1.10493
233	0xbfa32ae7	-1.2747468
234	0xbe6c99a9	-0.23105492
235	0x3fac464a	1.345895
236	0x4085bbe3	4.1791854
237	0xbf79223f	-0.9731788
238	0xbf85fb89	-1.0467387
239	0xbfe60b88	-1.7972269
240	0x3d4f5eec	0.050627634
241	0x3f270d81	0.6525498
242	0x3f37ed69	0.71846634
243	0xbf0db06b	-0.5534732
244	0x3ebb98b4	0.3663994
245	0x3e09f880	0.13473701
246	0xbee39b32	-0.44454342
247	0x3f1b612a	0.60695136
248	0xbf5a4176	-0.85256135
249	0xbf3872e0	-0.72050285
250	0x400771ed	2.1163285
251	0xbe07a492	-0.13246372
252	0xc06127d2	-3.5180554
253	0xbe2a0332	-0.16602781
254	0xbf6e6569	-0.9312349
255	0x3f63ebd4	0.8903172

net.0.bias f4 [128]
0	0xbe47013a	-0.19434062
1	0xbe2bd72f	-0.16781305
2	0x3ed5e1eb	0.41773924
3	0xbd9f3506	-0.07773785
4	0xbbc30b6d	-0.00595229
5	0xbd20786c	-0.039177343
6	0xbe8a456a	-0.27006084
7	0xbea4f68c	-0.3221935
8	0x3e868e48	0.26280427
9	0xbef4e86a	-0.47833568
10	0x3e585b4d	0.21128578
11	0x3f7c3740	0.98521805
12	0x3ecb79af	0.39741275
13	0x3daceadb	0.084432326
14	0xbe691698	-0.22762525
15	0x3ed00969	0.4063218
16	0xbea2e9c3	-0.3181897
17	0xbeb2de5d	-0.34935275
18	0x3ec9e48c	0.3943218
19	0x3e3a06a8	0.18166602
20	0x3f64fe27	0.89450306
21	0xbe000a33	-0.1250389
22	0xbe161f6b	-0.14660423
23	0x3a76ab72	0.00094097026
24	0x3efd1efd	0.49437705
25	0xbe4c08f8	-0.19925296
26	0x39907021	0.00027549363
27	0xbcdf1123	-0.027229851
28	0x3e416997	0.18887936
29	0xbe9e6196	-0.30933827
30	0xbeaa5de2	-0.33274752
31	0x3e9709c6	0.29499644
32	0x3f600e59	0.8752189
33	0x3ed4a614	0.41532958
34	0xbee94c64	-0.45566094
35	0xbb2be6d3	-0.0026230111
36	0x3dd1672e	0.10224758
37	0xbe36bd56	-0.17845663
38	0x3f4e19e2	0.80508244
39	0x3ebe865a	0.37211877
40	0x3ded53ba	0.11588235
41	0xbec38c3d	-0.3819293
42	0xbf049d94	-0.51802945
43	0xbe6eee85	-0.23333175
44	0xbe78313f	-0.24237536
45	0xbf02bea9	-0.51072174
46	0xbe8c0fcf	-0.2735581
47	0xbe1cf439	-0.15327539
48	0x3d08864d	0.033331204
49	0xbf7f7d60	-0.9980068
50	0xbd60404e	-0.054748826
51	0xbe26b62c	-0.1628043
52	0x3f1efee1	0.62107664
53	0xbc41ff6f	-0.011840685
54	0xbdab36e7	-0.08360081
55	0xbe9288f7	-0.2862012
56	0x3e949daa	0.29026538
57	0xbf2e79df	-0.6815471
58	0x3f0ab247	0.5417828
59	0xbe287b3f	-0.16453265
60	0xbe83363c	-0.25627315
61	0xbe75890f	-0.23978065
62	0xbf1388b8	-0.5763049
63	0x3f09fe76	0.539039
64	0x3ed0359a	0.40665895
65	0xbe973b0f	-0.29537246
66	0x3d5bdc87	0.05367711
67	0xbdd75761	-0.10514713
68	0xbef674ce	-0.4813599
69	0xbe8ece55	-0.27891794
70	0xbe9ea846	-0.30987757
71	0xbedd5089	-0.43225506
72	0xbe15442e	-0.1457679
73	0xbe1aa553	-0.15102129
74	0x3f1aac86	0.604195
75	0xbefced5d	-0.49399844
76	0x3f04c925	0.5186942
77	0x3ea3760c	0.31926
78	0x3e985ce0	0.29758358
79	0x3f1e3111	0.6179362
80	0xbdc2a632	-0.095043555
81	0x3dfcd2ad	0.12344871
82	0xbecdd845	-0.40204063
83	0xbf1cd6f8	-0.61265516
84	0x3bcc737f	0.006239354
85	0x3dd2efb8	0.10299629
86	0xbe4ed88e	-0.20199797
87	0x3e74dd1e	0.23912475
88	0x3f6dde04	0.92916894
89	0x3e516964	0.2045036
90	0x3f3704b7	0.7149157
91	0x3aaabe60	0.0013026707
92	0xbdb1faf0	-0.08690441
93	0x3f1ff5ad	0.62484246
94	0xbf3e3558	-0.74300146
95	0x3ea94d70	0.33066893
96	0x3e1f9794	0.15585166
97	0x3d768d76	0.0601935
98	0xbf3da7c2	-0.74084103
99	0x3e8c6a0b	0.27424654
100	0xbe397c1b	-0.18113749
101	0xbe654940	-0.22391224
102	0xbe2bbf19	-0.16772117
103	0xbef7f2da	-0.4842747
104	0xbdcfb99b	-0.10142823
105	0xbf4d396d	-0.8016575
106	0xbc55da66	-0.0130525585
107	0x3e513d45	0.20433529
108	0x3eb9c008	0.3627932
109	0x3e5d3242	0.21601203
110	0x3ef93777	0.4867513
111	0xbe0fb84d	-0.14035149
112	0x3d0d26dc	0.034460887
113	0x3eac07a9	0.33599594
114	0xbdb41a53	-0.087940834
115	0x3d285ccd	0.041104127
116	0x3ec788b5	0.38971487
117	0xbe85ee80	-0.26158524
118	0xbedfa6cb	-0.4368194
119	0x3f93c9b5	1.1545931
120	0x3f1b555e	0.60677135
121	0x3d77fd52	0.06054432
122	0x3ed0cece	0.4078278
123	0x3e91c8ba	0.28473455
124	0xbeabc1b4	-0.3354622
125	0x3ed53a48	0.41646028
126	0x3f0a4861	0.5401669
127	0x3e30c17e	0.17261311

net.2.weight f4 [128, 128]
0	0x3c47db05	0.012198214
1	0x3cb981f4	0.022644974
2	0xbcb2a2b3	-0.021806097
3	0x3dadaf4e	0.08480702
4	0xbd881685	-0.0664492
5	0xbc62de4c	-0.013846945
6	0xbd66b5bd	-0.056325663
7	0x3d2df651	0.042471234
8	0x3c94bd7c	0.01815676
9	0x3d8e6c63	0.06954267
10	0xbd8f69cb	-0.070026
11	0xbd72c069	-0.059265528
12	0xbda4f420	-0.08054376
13	0xbdc4d987	-0.096118025
14	0x3d9496e3	0.07255342
15	0xbdd7f08f	-0.1054393
16	0x3c9fdd10	0.01951459
17	0xbdb237cc	-0.08702049
18	0x3d10ea93	0.035379957
19	0xbd6ee602	-0.05832482
20	0xbc87fcae	-0.01659998
21	0xbd56f8c8	-0.05248335
22	0xbb33abb4	-0.0027415575
23	0x3d28b490	0.041187823
24	0xbd0cf377	-0.034411874
25	0x3d03d101	0.032181744
26	0x3d7f9291	0.062395636
27	0xbd4280fd	-0.047486294
28	0xbc813385	-0.015771637
29	0x3d144ba0	0.036204934
30	0xbddf1e69	-0.10894472
31	0x3d4ef817	0.050529566
32	0x3d995d7d	0.074885346
33	0xbc441512	-0.011967914
34	0x3d10b48d	0.035328437
35	0xbd857cfd	-0.0651798
36	0xbda4df83	-0.08050444
37	0xbda14bbc	-0.07875773
38	0xbd010cb1	-0.031506244
39	0xbdbcf124	-0.092256814
40	0xbd1a9d3d	-0.03774761
41	0xbe0ca498	-0.13734663
42	0x3db2b92e	0.087267265
43	0xbdaff65c	-0.08591911
44	0xbd920567	-0.07129937
45	0xbd4cff6e	-0.050048284
46	0xbd0aa8f3	-0.03385253
47	0xbdcb1ae7	-0.099172406
48	0xbd48a6f2	-0.048987336
49	0xbdb90e69	-0.09035952
50	0x3d584609	0.052801166
51	0x3cd3c4e2	0.025850717
52	0x3d105853	0.035240483
53	0x3ba3ad34	0.0049950127
54	0x3cb3786b	0.021908006
55	0xbd4f3587	-0.050588157
56	0x3cc23fb4	0.023712017
57	0x3bb4ed4b	0.0055214516
58	0xbda772b7	-0.08176177
59	0xbd6ca1a3	-0.057771336
60	0x3cdae9bf	0.026722787
61	0x3d570bb6	0.052501403
62	0xbdc5d659	-0.09660024
63	0x3cb46c5e	0.02202433
64	0xb9be9a9c	-0.00036354817
65	0xbbf879ca	-0.0075828778
66	0x3be575d6	0.0070025725
67	0xbda61607	-0.0810967
68	0x3d5d40d0	0.05401689
69	0xbdb4678f	-0.08808815
70	0xbcec4699	-0.028842257
71	0xbdb1ee4f	-0.08688032
72	0xbd225f6d	-0.039641786
73	0xbdb114fa	-0.08646579
74	0xbdd32b80	-0.10311031
75	0x3c167612	0.009183424
76	0xbd72925c	-0.05922161
77	0xbdbdf3bd	-0.09275005
78	0xbd5dbdb1	-0.054135982
79	0xbdfefe58	-0.12450856
80	0xbd2e7d1b	-0.04259978
81	0x3ce00e4b	0.027350565
82	0xba638243	-0.00086787733
83	0xbd73f250	-0.05955726
84	0x3d99978d	0.07499609
85	0xbcf098c2	-0.029369716
86	0x3d5c68c7	0.05381086
87	0x3cfa55cb	0.030558487
88	0xbd97e174	-0.07416049
89	0xbca7953b	-0.0204569
90	0xbd1974d7	-0.037464943
91	0xbd278ec7	-0.040907647
92	0x3cafd06d	0.02146169
93	0x3d66f209	0.056383166
94	0xbd271c90	-0.040798724
95	0xbd50b6af	-0.05095547
96	0x3c9c5f5d	0.019088442
97	0xbd59a8b8	-0.05313942
98	0xbd36d5cb	-0.044637483
99	0xbda9e9a7	-0.08296519
100	0xbd6bc6d8	-0.05756268
101	0x3d7f7ca6	0.062374733
102	0xbd18632e	-0.03720396
103	0xbd3a814c	-0.045533463
104	0xbdf4b940	-0.11949396
105	0xbdae5a3d	-0.08513305
106	0xbc9f6ae6	-0.019460153
107	0xbc9e920d	-0.019356752
108	0x3d07c65a	0.033148147
109	0xbc79c312	-0.015244262
110	0xbab914d5	-0.0014120588
111	0xbe17b434	-0.14814836
112	0xbd841310	-0.064489484
113	0xbda3ec56	-0.08004062
114	0xbd17990f	-0.037011202
115	0xbd6cc633	-0.057806205
116	0x3d18e6ff	0.03732967
117	0x3d8c95b6	0.068644926
118	0xbdb32df2	-0.08748998
119	0xbcf79807	-0.03022386
120	0xbd03982e	-0.03212755
121	0xbd0461a3	-0.032319676
122	0x3d5fa06d	0.054596353
123	0xbdeeab63	-0.11653783
124	0xbd92d566	-0.07169609
125	0x3d674678	0.05646369
126	0xbd3498a1	-0.04409087
127	0xbde64dc8	-0.11245304
128	0x3c48e342	0.012261214
129	0xbc7ec354	-0.0155495
130	0xbfa88e4c	-1.3168426
131	0x3d85f535	0.0654091
132	0xbed3564e	-0.41276783
133	0x3f70c8be	0.9405631
134	0x3ff6c459	1.927867
135	0x3de182c1	0.110112675
136	0xbf958a78	-1.1682882
137	0xbed87605	-0.42277542
138	0x3e3d9dab	0.18517177
139	0x3e575330	0.21027827
140	0xbf69a1a3	-0.91262263
141	0x3f5e3295	0.8679593
142	0xbca191d2	-0.019722853
143	0x3ed8e1fd	0.42359915
144	0xbe44dfca	-0.19225994
145	0xc0375864	-2.86477
146	0xbf3a4d55	-0.7277425
147	0x3d13388a	0.03594259
148	0x3f328f2d	0.6974972
149	0x3d9fd468	0.07804185
150	0xbb9e8ba3	-0.0048384233
151	0x3f50ace0	0.81513786
152	0x3f990d3d	1.1957165
153	0xbd88d0b6	-0.066804335
154	0xbc8eeb24	-0.017446108
155	0x3db166a2	0.08662154
156	0xbf8caa7d	-1.0989529
157	0xbc9da745	-0.0192448
158	0xc0044add	-2.0670693
159	0xbfa24abc	-1.2679057
160	0x3fdeef85	1.7416846
161	0xc07e93ac	-3.9777632
162	0xc01d7de0	-2.4608078
163	0x3b28a47b	0.0025732804
164	0xbf457c88	-0.77143145
165	0xc0203280	-2.5030823
166	0xbe407e93	-0.18798284
167	0x3e807d2e	0.25095505
168	0x3f3a295d	0.72719365
169	0xbf8531e2	-1.0405848
170	0xbf12564e	-0.5716294
171	0x3dc6550a	0.09684189
172	0x3d899d0c	0.067194074
173	0xbfa0f989	-1.2576152
174	0xc088bd7a	-4.2731295
175	0x3f1c70f8	0.61109877
176	0xbf438c8b	-0.76386327
177	0xc004ec68	-2.076929
178	0xbff04229	-1.877019
179	0xba4fe738	-0.00079308776
180	0x3d27ead3	0.04099543
181	0xbad9e076	-0.0016622681
182	0xbb180783	-0.0023197837
183	0x3d18cbef	0.03730386
184	0x3ddde40e	0.108345136
185	0xc005e92a	-2.0923562
186	0xbd65299a	-0.055947877
187	0xbea8e7a6	-0.32989234
188	0xbd9d9860	-0.07695079
189	0xbd5b61b3	-0.05355997
190	0x3f19a21b	0.6001298
191	0x3fcdc8bf	1.6076888
192	0x3f30206b	0.68799466
193	0xbf1bc584	-0.6084826
194	0xbf732569	-0.9497896
195	0x3f2d560f	0.6770944
196	0xbf9d928b	-1.2310346
197	0xbe356a3a	-0.17716303
198	0xbf8b8952	-1.0901282
199	0x3ebf88b7	0.37408993
200	0xbf4ff39c	-0.81231093
201	0xbf02db67	-0.5111603
202	0x3eeb123b	0.45912346
203	0xbfd569d5	-1.6672922
204	0x3e168e29	0.14702667
205	0x3f677e3a	0.9042698
206	0xbea1e8cd	-0.31622925
207	0xbed84624	-0.42241013
208	0xbc9decaf	-0.019277899
209	0x3c521258	0.012821756
210	0x3e5b1b50	0.21397138
211	0xbed01606	-0.40641803
212	0xbd71d54f	-0.059041318
213	0xbd084e0a	-0.03327755
214	0x3d443c7d	0.04790925
215	0x3fac94d0	1.3482914
216	0x3ed1e6a5	0.4099628
217	0x3fa9ca7e	1.3264921
218	0xbe8cc766	-0.2749588
219	0x3c2861d9	0.010277235
220	0x3f16a8c1	0.5885125
221	0x3ceb2d56	0.028708141
222	0x3d8546b8	0.06507629
223	0x3f7adef8	0.97996473
224	0xbf8f97b5	-1.1218172
225	0x3e755eb3	0.23961906
226	0x3fc5eec2	1.5463488
227	0xbe876125	-0.26441303
228	0x3cfbf407	0.03075601
229	0xbd9e58f0	-0.07731807
230	0x3d9e0d40	0.07717371
231	0x3f145e7b	0.57956666
232	0xbe168968	-0.14700854
233	0x3f28f897	0.6600432
234	0x3f612e13	0.8796093
235	0xbe7e1925	-0.2481428
236	0xbf7a4aa2	-0.9777013
237	0xbdde1e05	-0.108455695
238	0xbe8c914f	-0.27454612
239	0xbf958c42	-1.1683428
240	0x3de47728	0.1115554
241	0x3e8e247a	0.27762204
242	0xbd289d17	-0.041165438
243	0x3e90932f	0.28237292
244	0x3f80d451	1.0064794
245	0x3ec42117	0.38306496
246	0xbdbf901e	-0.0935366
247	0x3fa1d1b4	1.2642121
248	0xbf8125cc	-1.008966
249	0x3fa405ae	1.2814233
250	0xbfda650d	-1.7062088
251	0x3fdbfc2f	1.7186335
252	0xbcc834c5	-0.024439225
253	0x3f5ef18d	0.8708733
254	0xbf88fe93	-1.070269
255	0x3eeac27a	0.458515

net.2.bias f4 [128]
0	0xbdebd557	-0.11515301
1	0xbbea721e	-0.007154717
2	0x3ec9e82a	0.3943494
3	0x3f843595	1.0328852
4	0x3f5f2f9c	0.8718202
5	0x3cf87ad5	0.030332008
6	0x3f94de5c	1.1630359
7	0x3ef9f6a2	0.48820978
8	0x3cb1309c	0.021629624
9	0xbdc62021	-0.09674097
10	0xbd8b7cb9	-0.06810898
11	0x3f449b62	0.76799595
12	0x3e660ace	0.22465059
13	0x3ec539a3	0.38520536
14	0xbd6f4164	-0.05841197
15	0xbdd5fa9b	-0.1044819
16	0x3f660e68	0.8986573
17	0x3f951f45	1.1650168
18	0x3f50a121	0.81495863
19	0x3f713105	0.9421542
20	0xbd209be4	-0.03921117
21	0x3f931f3f	1.149391
22	0x3dfa3be0	0.122184515
23	0x3c9d72f4	0.019219853
24	0xbdaa517b	-0.083163224
25	0x3fce8d19	1.613681
26	0xbde08a40	-0.10963869
27	0xbdfab372	-0.12241258
28	0x3e9b9880	0.30389786
29	0x3eeae9de	0.45881552
30	0x3f2924f3	0.66072005
31	0x3e936b82	0.2879296
32	0xbdea84db	-0.114511214
33	0x3f93c1bc	1.1543498
34	0x3ec306c7	0.38091108
35	0x3ecdd490	0.40201235
36	0x3f58e901	0.84730536
37	0x3f544eb8	0.82932615
38	0x3e51c08a	0.20483604
39	0x3f23f86b	0.6405093
40	0xbd8accb8	-0.06777328
41	0x3f579bf9	0.8422237
42	0xbdc13be3	-0.094352506
43	0x3cc135d5	0.02358524
44	0xbdf0f550	-0.1176554
45	0x3f74e814	0.95666623
46	0xbea87b92	-0.32906777
47	0x3f739245	0.95145065
48	0x3f1a917f	0.6037826
49	0x3f16e3ff	0.58941644
50	0xbd964ab8	-0.0733847
51	0x3e7ca956	0.24673972
52	0xbdd03a53	-0.101673745
53	0x3f21bda2	0.6317998
54	0xbd1fee6b	-0.039045732
55	0xbe16938b	-0.1470472
56	0x3ad0d14c	0.0015931516
57	0x3f1e58e8	0.6185441
58	0x3dff5b93	0.12468638
59	0x3f4a85c0	0.79110336
60	0xbe012599	-0.12611999
61	0xbcf04e3b	-0.029334178
62	0xbd5ec92a	-0.054391064
63	0x3f6a40b3	0.91504973
64	0xbcc7a16c	-0.024368964
65	0x3f4db0ce	0.8034791
66	0xbd4b34b3	-0.049610805
67	0x3f3ea6e2	0.7447339
68	0x3f5aeae9	0.85514694
69	0x3e3e4997	0.1858276
70	0xbd3d24c1	-0.04617763
71	0x3f99481c	1.1975131
72	0x3f21e4d6	0.632398
73	0x3dc1d42b	0.09464296
74	0x3f3e63cb	0.7437102
75	0x3ef9adac	0.48765314
76	0xbd046a92	-0.032328196
77	0xbe1cdeb8	-0.15319335
78	0xbdbf3815	-0.09336869
79	0xbe31c271	-0.1735933
80	0x3f85816d	1.0430123
81	0x3e965b97	0.29366753
82	0x3fd21d04	1.6415105
83	0x3d7d86bb	0.061896067
84	0xbdd61828	-0.10453826
85	0xbda1cf90	-0.079009175
86	0x3e912491	0.2834821
87	0xbca2f6a0	-0.01989299
88	0xbd3e9993	-0.04653318
89	0x3fa3258f	1.2745837
90	0x3f844437	1.0333318
91	0x3eabda1b	0.3356484
92	0xbde2c3b3	-0.11072483
93	0x3e1c9008	0.15289319
94	0x3d027373	0.031848382
95	0xbd62bdef	-0.055356916
96	0x3b710e8f	0.003678236
97	0x3eb281a5	0.34864536
98	0x3f872052	1.0556738
99	0x3d194de6	0.037427805
100	0x3f7662a4	0.96244264
101	0x3f871fd8	1.0556593
102	0xbcf9a765	-0.030475328
103	0xbde78ccf	-0.11306154
104	0x3f1504e8	0.5821061
105	0x3fa07ea9	1.2538654
106	0x3f9cc6b3	1.2248138
107	0x3ea54acb	0.32283625
108	0x3f169a98	0.5882964
109	0x3f20b49a	0.62775576
110	0xbd1820c2	-0.037140615
111	0x3f4f4eba	0.809795
112	0x3f848ef5	1.0356127
113	0xbd81890c	-0.06324968
114	0x3f91260e	1.1339738
115	0xbe038937	-0.12845312
116	0x3f8b8c9f	1.0902289
117	0x3f6a26c3	0.91465396
118	0xbe16f954	-0.14743549
119	0x3fa42b78	1.2825766
120	0x3f18568f	0.5950708
121	0x3f0f269e	0.559183
122	0x3f138bc2	0.5763513
123	0x3f90084b	1.1252531
124	0xbe0ceff4	-0.1376341
125	0x3b8392c1	0.004015297
126	0xbd19d386	-0.03755524
127	0xbdc9743f	-0.09836625

net.4.weight f4 [6, 128]
0	0x3d24e09c	0.040253267
1	0xbfd40327	-1.6563462
2	0x3fbd336e	1.478132
3	0x3fbf10bd	1.4926983
4	0x3f599a63	0.850012
5	0x3ba59aad	0.005053839
6	0x3ec6c6f7	0.38823673
7	0xbfb55e84	-1.4169469
8	0x3fbdb948	1.4822168
9	0x3dac4bf3	0.08412924
10	0xbcaa06bd	-0.020755166
11	0x40115e6e	2.2713885
12	0x40348cef	2.821102
13	0x4003af97	2.0575922
14	0xbdb891c0	-0.090121746
15	0xbc5bf7cb	-0.013425778
16	0x3ffc0020	1.9687538
17	0xc000765f	-2.0072248
18	0x4007af9d	2.1200936
19	0x3f428561	0.7598477
20	0x3ca1d2d5	0.019753853
21	0x3fe24d69	1.7679874
22	0xbfb3cca8	-1.4046831
23	0xbe85d2f5	-0.2613751
24	0x3f65d9a0	0.89785194
25	0xc00efa30	-2.2340202
26	0x3dae933a	0.08524175
27	0x3da9c6eb	0.08289894
28	0x3fd9d97d	1.7019497
29	0x3fcb2eef	1.5873698
30	0x40144284	2.3165598
31	0xbeb18b51	-0.34676602
32	0x3d1db91a	0.038506605
33	0xbd3a5f84	-0.045501247
34	0x402ee7ee	2.7329059
35	0x4052caa3	3.293618
36	0xbffb65fc	-1.9640498
37	0x4068a081	3.6347964
38	0x3f84379a	1.0329468
39	0x3fe27109	1.7690746
40	0xbcbb5746	-0.022868764
41	0x3fe9adce	1.8256166
42	0x3f83980a	1.0280774
43	0x3fb83aa6	1.4392898
44	0xbccc311a	-0.024925757
45	0x4058505f	3.3799055
46	0xbf992b4b	-1.1966337
47	0x3f0efcaa	0.55854285
48	0x40694a51	3.645161
49	0x4047675f	3.1156843
50	0xbcad3541	-0.021143558
51	0xbf8977d2	-1.0739691
52	0x3d5ef795	0.05443533
53	0x3fc667f6	1.5500476
54	0x39d6cf8d	0.00040971898
55	0x3d4c8bac	0.04993789
56	0x3d21f822	0.03954328
57	0x402b1402	2.6730962
58	0x3ffce85a	1.9758408
59	0x400c022c	2.1876326
60	0xbd7e8a0a	-0.062143363
61	0xbd98b8ad	-0.07457099
62	0xbd57c41b	-0.052677255
63	0x3f307d96	0.6894163
64	0x3d1094e5	0.035298247
65	0x3fb43b6a	1.4080632
66	0xbce7cf6b	-0.028297147
67	0x400ed52e	2.2317615
68	0x3ffb27da	1.9621537
69	0x40445625	3.0677578
70	0x3d9dd9d9	0.07707567
71	0x400fa1c6	2.2442489
72	0xbfa197b9	-1.2624427
73	0x40247ff8	2.5703106
74	0x3fbcd314	1.4751916
75	0x3fd86561	1.6905938
76	0x3b44f192	0.0030051214
77	0x3d6e1276	0.058123074
78	0xbd8a3b0f	-0.06749546
79	0xbfb269e8	-1.393857
80	0x402c2ea2	2.6903462
81	0xbf007b1f	-0.5018787
82	0xbfaebf0d	-1.3652054
83	0xbf8609c0	-1.0471725
84	0x3d6fbd22	0.05852998
85	0xbcba3e4f	-0.02273479
86	0x4042bb97	3.0426996
87	0x3d84db3f	0.064871304
88	0xbdd3b3c4	-0.10337022
89	0xbda6ac11	-0.08138288
90	0x3f321070	0.6955633
91	0x4034990d	2.8218415
92	0x3d3b89c7	0.04578569
93	0x3ffc9140	1.9731827
94	0xbb678c7a	-0.0035331533
95	0x3d011df9	0.031522725
96	0xbd96c981	-0.073626526
97	0x4010ea0e	2.2642856
98	0x3ff0bb86	1.8807228
99	0xba13fd95	-0.00056453916
100	0x3fbe2572	1.4855177
101	0x3fb39966	1.4031188
102	0xbfab7852	-1.3396094
103	0x3d83faa6	0.06444292
104	0x40286d6e	2.631679
105	0x400337ed	2.0502884
106	0xbf9a6872	-1.2063124
107	0x40001477	2.001249
108	0x4001edf9	2.0301497
109	0x4032f9ea	2.7965035
110	0x3d962a78	0.07332319
111	0x3fe384d3	1.777491
112	0x3fedbfbc	1.8574138
113	0x3d74ac04	0.05973436
114	0x3edf3f5a	0.4360302
115	0xbc1cf00c	-0.009578716
116	0x3ed225b7	0.410444
117	0x3f812594	1.0089593
118	0xbc13e1b5	-0.009025981
119	0x3f4406bf	0.76572794
120	0x403ba65a	2.9320283
121	0xbf70c126	-0.9404472
122	0x402535a7	2.5813997
123	0xbfd9648d	-1.6983811
124	0x3d02f13a	0.031968333
125	0xbd95faff	-0.07323264
126	0xbc4606a8	-0.012086548
127	0xbd558848	-0.05213192
128	0xbd481619	-0.0488492
129	0xbfdc1ce3	-1.7196316
130	0x3fae32a7	1.3609208
131	0x3fc84562	1.5646174
132	0x3f70e74d	0.94102937
133	0x3dbf4bab	0.093406044
134	0x3f51d594	0.8196652
135	0xbf9ed1b6	-1.2407749
136	0x3fce6c6b	1.6126837
137	0x3ce94c3f	0.02847874
138	0x3d75d83b	0.060020667
139	0x4015b701	2.3392947
140	0x40165a0f	2.3492467
141	0x4016987c	2.353057
142	0xbc231450	-0.009953573
143	0x3ceedeaf	0.029158918
144	0x3ff564ed	1.9171425
145	0xbfc274a4	-1.5191846
146	0x4001d531	2.0286372
147	0x3f31c8b6	0.69446886
148	0x3cacfee4	0.021117635
149	0x3fe6961f	1.8014563
150	0xbf870bca	-1.0550473
151	0xbf0499a8	-0.5179696
152	0x3d584949	0.052804265
153	0xc030f107	-2.7647111
154	0x3a45822b	0.000753435
155	0x3bb4d9ba	0.005519119
156	0x3fcf91ce	1.6216371
157	0x3fc1df46	1.5146263
158	0x401e44ec	2.4729567
159	0xbe0c9c0e	-0.13731405
160	0xbcd1c91d	-0.025608594
161	0x3e9a69ae	0.30158752
162	0x403ad59a	2.9192872
163	0x40358af6	2.8366065
164	0xc004ef1e	-2.0770946
165	0x40237ae5	2.554376
166	0x3f8dd79b	1.1081423
167	0x3fdeb005	1.7397467
168	0x3b725fbc	0.0036983332
169	0x3fc2d5f3	1.5221542
170	0x3fde092a	1.7346547
171	0x3fc7c20f	1.5606097
172	0x3bd9e841	0.0066500013
173	0x40608b82	3.508515
174	0xbfa817e4	-1.3132291
175	0xbce34b08	-0.027745739
176	0x40126297	2.2872674
177	0x4051e78b	3.2797573
178	0x3d09c662	0.03363646
179	0xbf97096c	-1.179975
180	0xbd51f3e0	-0.051257968
181	0x3fce3299	1.6109191
182	0xbd99a36b	-0.07501873
183	0xbd55ae0f	-0.05216795
184	0xbd45e025	-0.048309464
185	0x402766a5	2.61564
186	0x400a7829	2.163584
187	0x400a201e	2.1582103
188	0xbb99e84e	-0.0046968823
189	0x3d427774	0.0474772
190	0xbd1e9df9	-0.038724873
191	0x3f5a2d94	0.85225797
192	0xbd1bc249	-0.03802708
193	0x3fc4cc26	1.5374801
194	0xbcbd4291	-0.02310303
195	0x40022692	2.0336041
196	0x3ff6558b	1.9244856
197	0x403dba4c	2.9644957
198	0xbd44452e	-0.047917537
199	0x4001eb61	2.0299914
200	0xbfa33aad	-1.2752281
201	0x4032b543	2.7923133
202	0x3fad7738	1.3552008
203	0x3fe1909f	1.762226
204	0xbcda5ce2	-0.026655618
205	0xbb5279ba	-0.0032116012
206	0x3c8ce094	0.017196931
207	0xbfa28ea4	-1.269978
208	0x402dfcd1	2.7185557
209	0x3f692a67	0.91080326
210	0xbfc976ea	-1.5739415
211	0xbf8b09f6	-1.0862415
212	0xbd92d7dd	-0.07170079
213	0xbe12e0a9	-0.14343514
214	0x402dc7c5	2.715318
215	0xbc7b8b9b	-0.015353109
216	0xbce37ecf	-0.027770428
217	0x3ef0f4b0	0.47061682
218	0x3ef790c3	0.48352632
219	0x40362030	2.8457146
220	0x3cbe8bd3	0.023260033
221	0x3ffdaa53	1.9817604
222	0x3d21768d	0.0394197
223	0xbd28792f	-0.041131195
224	0xbc80557c	-0.015665762
225	0x405362bf	3.302902
226	0x3ff26397	1.8936642
227	0x3d276dac	0.040876076
228	0x3fc969b5	1.5735384
229	0x3fb9b850	1.4509373
230	0xbfc6ab23	-1.5520977
231	0x3daedd56	0.0853831
232	0x402b6e04	2.6785898
233	0x3ffea632	1.9894469
234	0xbfc1f806	-1.5153816
235	0x3ff5ccd5	1.9203135
236	0x4002b9bf	2.042587
237	0x402838fe	2.6284785
238	0xbd503c18	-0.05083856
239	0x3fd4d8b5	1.6628634
240	0x3feaa52f	1.833166
241	0x3daddb2c	0.08489069
242	0x3e39004a	0.18066517
243	0x3a7ccd33	0.0009643614
244	0x3ee69688	0.4503672
245	0x3f841b89	1.0320903
246	0x3c4f04a2	0.012635382
247	0x3f3120b0	0.691905
248	0x401f7389	2.4914267
249	0xbf7f01ff	-0.9961242
250	0x4006e645	2.1078045
251	0xbfc67412	-1.5504172
252	0xbc33fbe7	-0.010985351
253	0xbdafe170	-0.08587921
254	0xbd998998	-0.07496947
255	0x3c693476	0.014233699

net.4.bias f4 [6]
0	0x3f206161	0.6264859
1	0x3f64fba2	0.8944646
2	0x3f35413c	0.70802665
3	0x3e95c4c8	0.29251695
4	0x3fac64c3	1.346825
5	0x3f800640	1.0001907
