rl/models/final_model_run2.pth (torch, 79489 bytes, 6 tensors)

net.0.weight f4 [128, 13]
-0.17597444 0.056610268 0.25152084 0.10333297 0.1377282 -0.22255848 -0.27400333 -0.18006325
0.14505053 -0.066189654 -0.018856488 -0.2383118 -0.16046222 -0.32665637 -1.3772143 0.8451464
-0.9878617 -0.30533674 0.36853632 -0.23425898 1.0923244 -0.23602815 0.2957416 0.9328707
-0.065523915 0.30140612 -0.93322396 0.10490219 -0.5340881 0.37898892 -0.9520082 -1.5089101
0.6673973 0.5909407 0.18425773 -0.18704863 0.36986145 0.35073072 -0.3301221 0.121597596
-0.17784275 -0.10929784 -0.08979147 -0.13485727 0.11322172 0.03802866 0.18682143 -0.11425718
-0.22943728 0.11935102 0.024354586 -0.26305646 0.3768284 -0.4832474 1.2646146 -0.2679006
0.10158686 -1.2594252 0.01907636 0.11627662 0.15417537 -0.48066443 -0.03909198 0.53433955
-1.1860034 -0.14288348 1.380516 0.8097263 1.6788514 -0.6527298 -0.4976588 0.48042002
0.40069187 0.10107217 -0.50671697 0.52878606 -0.023819208 -0.18375604 -0.14312628 0.06653859
0.055199333 -0.1174416 0.27070042 -0.4386089 -0.32329434 -0.14650746 -0.19503312 0.15599903
0.33449116 -0.49321753 -0.22255176 -0.11980633 0.025079744 0.27744463 0.2452599 0.12820253
-0.20594458 -0.005741942 -0.26128852 0.25071624 -0.16041656 0.019569581 -0.29161662 -0.21421146
-1.1732422 1.0503799 -1.9314013 0.6748701 -0.52420133 -0.62077963 0.6045136 0.5506453
0.21567973 -1.5722522 0.4832558 -0.50357133 0.6010467 -1.548867 0.1481976 0.79945886
0.39047006 -0.5230467 0.30601537 -0.066061474 -0.7209306 0.31532365 -0.67410403 0.23016182
-0.13469766 -0.6375604 -1.049587 -1.0363609 -0.62121785 -0.28327826 -0.3335598 -0.68141544
-0.41911286 0.97209114 0.9839461 0.73550856 0.44506234 0.20240147 0.45397648 2.3577056
0.16801518 0.34358647 -0.26264206 -2.2589152 -0.28803185 -0.101859264 0.0061638085 -0.046007585
-0.035181593 0.10432567 0.0004687369 -0.02760718 0.023793202 0.4042819 -0.06678696 0.22152708
1.1907963 -0.4726768 0.52946854 0.3094283 -0.01214716 0.013185288 -0.9051005 -0.10862945
-0.728376 0.6251322 -0.21962282 -0.5655785 0.9170529 -1.1698414 -0.42022765 -1.0172414
-0.5769098 0.46560198 0.37689555 0.5239461 -0.58082426 0.030694654 -1.5496362 -0.9994257
-1.4153849 -0.62916493 -1.2407544 -0.6081595 0.85210097 0.22425182 -0.6727866 0.17589836
-0.36393702 -0.41372886 0.21574387 0.86697674 0.5336929 2.6302104 -0.07091113 0.061380662
-0.7743004 0.34975672 -0.20716393 0.14812301 -0.11212026 -0.69148594 0.7851404 -0.22602202
-0.14229487 -0.2578922 0.75210625 1.9346966 0.5439913 -0.86220765 -0.13636915 -0.8504924
0.44866955 -0.9831293 0.10439606 0.18253754 0.07402319 -0.22494571 0.23404045 -1.8332784
-0.25416437 0.6948671 0.07976124 -0.6824023 1.0330119 -0.8492884 -0.4193042 -0.5978555
0.07103891 0.74145156 -1.0144087 0.9348377 -2.269706 -0.7778471 0.47255164 -0.73221934
0.10773827 -0.093072936 0.2787906 0.1631553 -0.71514714 -0.034073677 -0.46398917 0.0338273
0.30787134 0.60620797 -0.20122615 -0.083091095 -0.15674649 0.2417095 0.5659771 0.39225745
00000000: a532 34be 2be0 673d 57c7 803e 3ca0 d33d
00000010: 9f08 0d3e 5fe6 63be 2a4a 8cbe 8062 38be
00000020: 2088 143e 718e 87bd ec78 9abc 0208 74be
00000030: 3550 24be 813f a7be 8f48 b0bf 845b 583f
00000040: 81e4 7cbf 1955 9cbe cbb0 bc3e 96e1 6fbe
00000050: 49d1 8b3f 5db1 71be 716b 973e 9dd0 6e3f
00000060: 6731 86bd e751 9a3e c4e7 6ebf f6d6 d63d
00000070: ffb9 08bf d60a c23e cfb6 73bf f723 c1bf
00000080: 8dda 2a3f e447 173f 0fae 3c3e ad89 3fbe
00000090: 7b5e bd3e fa92 b33e c405 a9be 2908 f93d
000000a0: 691c 36be 8cd7 dfbd 97e4 b7bd 0618 0abe
000000b0: cae0 e73d f1c3 1b3d 1e4e 3f3e abff e9bd
000000c0: 9bf1 6abe 4f6e f43d 4583 c73c 56af 86be
000000d0: a7ef c03e 346c f7be e4de a13f 442a 89be
000000e0: c60c d03d d834 a1bf 0746 9c3c 7022 ee3d
000000f0: 26e0 1d3e a619 f6be e91e 20bd 7aca 083f
00000100: f6ce 97bf 0c50 12be c0b4 b03f 394a 4f3f
00000110: 9ae4 d63f 4d19 27bf 22cd febe 9df9 f53e
00000120: 7c27 cd3e edfe ce3d 34b8 01bf 865e 073f
00000130: 8020 c3bc 8b2a 3cbe b28f 12be 6245 883d
00000140: b218 623d 3985 f0bd 3f99 8a3e 5991 e0be
00000150: d686 a5be 0d06 16be c3b6 47be 36be 1f3e
00000160: 6d42 ab3e 0287 fcbe 9ce4 63be 055d f5bd
00000170: 0974 cd3c 390d 8e3e 6925 7b3e 8647 033e
00000180: 23e3 52be e726 bcbb 9cc7 85be e15d 803e
00000190: 3d44 24be 6350 a03c c64e 95be 405a 5bbe
000001a0: cd2c 96bf d972 863f 2838 f7bf 49c4 2c3f
000001b0: 0f32 06bf 6aeb 1ebf 67c1 1a3f 17f7 0c3f
000001c0: 26db 5c3e 8f3f c9bf 4e6d f73e 0dea 00bf
000001d0: 32de 193f 4641 c6bf 1dc1 173e 56a9 4c3f
000001e0: b1eb c73e 63e6 05bf 0cae 9c3e 3d4b 87bd
000001f0: e88e 38bf 1a72 a13e 1592 2cbf 8aaf 6b3e
00000200: 2fee 09be 2937 23bf de58 86bf 79a7 84bf
00000210: 2208 1fbf d909 91be 5ac8 aabe 3e71 2ebf
00000220: f695 d6be f7da 783f e4e3 7b3f 4a4a 3c3f
00000230: 36df e33e 5542 4f3e 9b6f e83e a6e4 1640
00000240: 2c0c 2c3e 91ea af3e 0579 86be 1192 10c0
00000250: e978 93be 979b d0bd c6f9 c93b 7372 3cbd
00000260: 931a 10bd b2a8 d53d cdc0 f539 7428 e2bc
00000270: f6e9 c23c 0afe ce3e 9ac7 88bd ffd7 623e
00000280: 036c 983f b202 f2be 408b 073f 636d 9e3e
00000290: e204 47bc 1b07 583c abb4 67bf 1e79 debd
000002a0: d976 3abf aa08 203f cee4 60be c1c9 10bf
000002b0: fbc3 6a3f 5dbd 95bf 1428 d7be f734 82bf
000002c0: 5cb0 13bf 6263 ee3e 74f8 c03e 5521 063f
000002d0: e6b0 14bf 5b73 fb3c 7b5a c6bf 5dda 7fbf
000002e0: 552b b5bf f410 21bf 0ad1 9ebf 57b0 1bbf
000002f0: 4a23 5a3f 45a2 653e be3b 2cbf b31e 343e
00000300: f455 babe 45d4 d3be f6eb 5c3e 30f2 5d3f
00000310: 19a0 083f 5e55 2840 db39 91bd 4a6a 7b3d
00000320: 8d38 46bf 5013 b33e c822 54be 8fad 173e
00000330: 4f9f e5bd 3905 31bf f6fe 483f 5172 67be
00000340: bfb5 11be 720a 84be 098a 403f 23a4 f73f
00000350: 0443 0b3f a4b9 5cbf 5ba4 0bbe dfb9 59bf
00000360: 04b8 e53e 5dae 7bbf 9acd d53d 1feb 3a3e
00000370: 7899 973d 2b58 66be 4da8 6f3e dea8 eabf
00000380: d521 82be cfe2 313f dc59 a33d ebb1 2ebf
00000390: bc39 843f f76a 59bf 0aaf d6be 0f0d 19bf
000003a0: d97c 913d c5cf 3d3f 25d8 81bf 8651 6f3f
000003b0: dd42 11c0 fd20 47bf 4af2 f13e ba72 3bbf
000003c0: e2a5 dc3d 069d bebd a4bd 8e3e 2f12 273e
000003d0: e213 37bf d790 0bbd fd8f edbe 7f8e 0a3d
000003e0: 50a1 9d3e 7230 1b3f 3a0e 4ebe aa2b aabd
000003f0: 2782 20be b282 773e e0e3 103f f8d5 c83e

net.0.bias f4 [128]
-0.085223 -0.7257231 0.58820975 -0.24426663 -0.3609093 -0.35502684 -0.25550607 -0.07907054
-0.16833884 0.13172202 -0.21507949 0.07814697 -0.5434696 0.14151606 -0.3409297 -0.24362119
-0.35561612 0.07086645 0.73917174 1.0159048 0.26860067 -0.15087163 1.3185145 0.21127793
0.9501901 0.15613656 0.39509356 -0.24923201 1.0389191 0.0031979298 0.29636365 -0.65882915
-0.012822463 -0.37370306 -0.44682065 0.3941665 0.057368845 -0.071445465 0.73588175 0.023000252
0.6175645 -0.22656235 0.74563926 1.1057192 0.46742842 -0.3313785 -0.14742866 -0.885847
0.053240027 0.3891733 0.44709808 -0.53422785 0.09272172 0.084773436 0.49511865 -0.08471923
-0.2951161 0.45655167 -0.38070312 -0.0613522 0.09307221 0.4568682 0.16779286 -0.22589836
-0.3506925 0.1258751 0.49274623 -0.113365635 0.058621306 -0.20448221 -0.14700437 0.69684446
-0.16816534 -0.13147019 -0.36704704 0.32020357 -0.0071188007 0.87825894 0.06762639 -0.15477057
-0.021397293 0.8086226 -0.28145328 -0.031130496 0.019564118 0.44655806 0.0008745856 0.03414067
-0.053147484 0.9258608 -0.49996918 -0.07796457 -0.16989037 0.15959185 -0.31366113 -0.06131734
-0.1292918 -0.06345943 -0.018223604 0.30087045 -0.4100879 1.1209611 -0.1734425 -0.22969511
-0.14389254 -0.5108101 0.2707371 0.6119543 0.0818124 0.14629716 -0.34130436 0.036588516
1.0238727 -0.21822955 0.020746399 -0.08336217 -0.22066523 -0.35186678 -0.08940523 -0.1355364
-0.110829666 0.03416703 -0.081832096 0.11741993 -0.3306529 0.92019004 -0.04424847 -0.008473995
00000000: 6589 aebd fdc8 39bf ea94 163f 0821 7abe
00000010: 1bc9 b8be 14c6 b5be b1d1 82be bcef a1bd
00000020: 0461 2cbe 23e2 063e cc3d 5cbe 850b a03d
00000030: d320 0bbf 96e9 103e 568e aebe d577 79be
00000040: 5113 b6be 6e22 913d 5c3a 3d3f 2b09 823f
00000050: 0786 893e 187e 1abe 15c5 a83f 3e59 583e
00000060: a93f 733f 43e2 1f3e b449 ca3e ad36 7fbe
00000070: 4dfb 843f 5c94 513b fabc 973e 07a9 28bf
00000080: 4f15 52bc 0256 bfbe adc5 e4be 31d0 c93e
00000090: 98fb 6a3d 0052 92bd bf62 3c3f 066b bc3c
000000a0: b518 1e3f f6ff 67be 37e2 3e3f 3588 8d3f
000000b0: c752 ef3e 71aa a9be 8af7 16be dec6 62bf
000000c0: 3712 5a3d b941 c73e 0aea e43e 28c3 08bf
000000d0: e3e4 bd3d b29d ad3d 3180 fd3e 4781 adbd
000000e0: 7519 97be 24c1 e93e 85eb c2be 724c 7bbd
000000f0: a59c be3d a1ea e93e e4d1 2b3e e651 67be
00000100: f88d b3be 67e5 003e 3c49 fc3e 3e2c e8bd
00000110: e51c 703d c963 51be 5088 16be 6664 323f
00000120: 8933 2cbe 1fa0 06be 97ed bbbe b9f1 a33e
00000130: d444 e9bb 94d5 603f b47f 8a3d 2d7c 1ebe
00000140: 6049 afbc e401 4f3f a51a 90be 6205 ffbc
00000150: ee44 a03c 42a3 e43e 7244 653a 16d7 0b3d
00000160: 2db1 59bd 3705 6d3f f6fb ffbe e3ab 9fbd
00000170: bef7 2dbe 0c6c 233e 3198 a0be e427 7bbd
00000180: 1265 04be 05f7 81bd ab49 95bc b10b 9a3e
00000190: 0bf7 d1be a77b 8f3f e99a 31be 3235 6bbe
000001a0: 9158 13be 73c4 02bf 0e9e 8a3e 09a9 1c3f
000001b0: 428d a73d ecce 153e 72bf aebe d7dd 153d
000001c0: 430e 833f 9177 5fbe 5af4 a93c c9b9 aabd
000001d0: 11f6 61be e227 b4be 171a b7bd 0eca 0abe
000001e0: aafa e2bd baf2 0b3d 9697 a7bd dc79 f03d
000001f0: 564b a9be 9391 6b3f e23d 35bd 83d6 0abc

net.2.weight f4 [128, 128]
-0.022207016 -0.6523838 0.87499404 -0.026554685 0.08201522 0.77484626 0.17439662 0.09221247
1.9934496 -0.37127963 0.5639158 -0.1943966 -0.2157466 0.67593455 0.2374215 0.11926356
0.20071596 -3.456345 0.25825414 0.069874264 -0.8340849 -1.8901455 -0.056931775 -0.39392403
-0.07865517 -0.9304168 -0.18457875 1.3621461 1.3606309 0.08322337 0.29595408 -3.0815828
-2.7991982 -0.77181613 0.033214953 -2.5790725 -0.44874984 -0.8900189 0.3196422 0.011244912
-0.90374213 1.5046858 -0.89626884 0.11924841 -2.387341 -0.40717 -1.8746165 1.6211189
-0.1420612 -3.8263686 -0.69911677 -1.6083596 -2.778619 -2.2906146 -1.6893164 -0.30450684
0.00933068 -0.26742315 3.523772 -0.8129948 0.015511059 -3.7320404 -2.9805107 0.04469737
-0.2743417 -0.7631084 0.73694175 -0.109713495 0.12563883 0.010576742 0.5347171 -1.5775985
-1.8218325 -1.2813087 1.6669734 0.6835439 -0.7478001 -0.4898095 -2.3028214 0.21044457
0.04668972 -0.11887234 -0.5867353 -2.5287209 -0.90795976 2.153747 -1.4137036 0.70673007
-0.017950617 -2.4826581 0.095697045 -1.1405541 0.086256854 -2.5515325 1.2455897 0.009130883
-0.2336067 0.16404866 -4.4292235 0.10887018 -0.7922293 -1.7108754 -0.0619115 1.1580286
0.07215013 -1.9619075 -0.16604476 -0.8097093 -3.014117 -2.3515484 0.13368799 0.07172507
-0.92467606 -0.51194304 0.40186247 0.3223809 -2.9291072 -1.2792394 -1.079182 -0.10080142
0.082233824 0.16664198 -0.45310384 -2.9504151 0.5056947 0.042449422 -0.056162506 -1.5581392
-0.058024786 -1.1283252 -0.6266322 -0.04749386 -1.4465995 -0.029615767 -0.6553888 0.07951052
-0.26541868 -1.2126815 -0.052746523 -0.56675524 0.16028748 1.3793331 -1.8284577 -0.6620759
0.21021232 0.24264959 -0.10504663 0.28797373 -1.0506445 -0.573273 0.2877839 0.6738525
0.36469683 0.37959957 -0.31585872 -1.9502618 -0.56957626 -0.8652425 0.05818357 0.49575087
0.755436 0.09480496 0.47820175 -0.19730009 -0.40650445 -0.19445139 0.2822041 0.02913622
0.96863014 -0.4763464 -0.06963438 0.35042095 0.5121174 -0.63486755 -0.85255045 -0.35112137
-0.6274801 0.24968751 -0.14970428 -0.04829918 1.0805386 -0.45657566 0.95578456 0.7499545
0.047641035 -0.14020832 -0.49808255 -0.06574096 -0.06859209 0.086325094 0.25715354 1.7175121
0.6212074 1.1382124 -0.2315301 0.42163256 -0.60432965 -0.06132853 -0.9772968 0.056809966
-0.6085298 -0.06335121 -0.9608052 -0.56106156 -0.47284383 0.06437024 -0.6089168 0.12742738
0.46891397 0.23258394 0.57494724 0.92943364 -0.37690938 -1.5165135 -0.35862905 -0.31720403
0.003312298 -0.1970779 -0.021017741 -0.30094573 0.0014805661 0.044060983 0.7337767 4.183647e-05
0.05101124 0.37667435 -0.8902295 0.68055433 0.21211231 0.39539135 -0.024904171 -0.19813082
-0.0063218586 -0.9084141 -1.1728945 -0.1308393 0.01186849 0.052291013 -0.75834554 -0.07453518
0.65886146 0.55600417 -0.3305547 -0.43422267 0.90798455 -0.66277134 0.039229177 -0.032823484
-0.08543026 -0.07428877 0.40686414 1.3279837 -1.0269604 0.088125564 0.20837034 -0.3038489
00000000: 7deb b5bc a002 27bf 9cff 5f3f 3689 d9bc
00000010: 98f7 a73d 535c 463f 0795 323e e4d9 bc3d
00000020: 5b29 ff3f 5d18 bebe c95c 103f e70f 47be
00000030: adec 5cbe 0c0a 2d3f 9f1e 733e 7440 f43d
00000040: 7c88 4d3e c234 5dc0 e339 843e 3d1a 8f3d
00000050: 9786 55bf 4af0 f1bf 4b31 69bd 69b0 c9be
00000060: f615 a1bd cc2f 6ebf 3602 3dbe ce5a ae3f
00000070: 2729 ae3f 0471 aa3d 4b87 973e a738 45c0
00000080: 1026 33c0 be95 45bf 670c 083d 860f 25c0
00000090: 8ac2 e5be 47d8 63bf 24a8 a33e 943c 383c
000000a0: a55b 67bf 8b99 c03f e071 65bf 8338 f43d
000000b0: 32ca 18c0 9678 d0be 6ff3 efbf d380 cf3f
000000c0: 7e78 11be 39e3 74c0 51f9 32bf bade cdbf
000000d0: e5d4 31c0 6e99 12c0 853b d8bf 52e8 9bbe
000000e0: b5df 183c b0eb 88be 7b85 6140 6d20 50bf
000000f0: 1922 7e3c c0d9 6ec0 b0c0 3ec0 9714 373d
00000100: 8476 8cbe 125b 43bf 37a8 3c3f 78b1 e0bd
00000110: 77a7 003e 124a 2d3c 38e3 083f bfee c9bf
00000120: cf31 e9bf ec01 a4bf 625f d53f bcfc 2e3f
00000130: d46f 3fbf 50c8 fabe 6d61 13c0 c87e 573e
00000140: b83d 3f3d 5773 f3bd 4934 16bf 90d6 21c0
00000150: 0d70 68bf fed6 0940 3df4 b4bf 43ec 343f
00000160: 2c0d 93bc dfe3 1ec0 d0fc c33d adfd 91bf
00000170: 6fa7 b03d 4f4c 23c0 7c6f 9f3f b399 153c
00000180: 9836 6fbe 5ffc 273e 33bc 8dc0 54f7 de3d
00000190: 8acf 4abf f7fd dabf ea96 7dbd 483a 943f
000001a0: 73c3 933d c91f fbbf a307 2abe 1c49 4fbf
000001b0: 4be7 40c0 c57f 16c0 81e5 083e 98e4 923d
000001c0: 92b7 6cbf b30e 03bf ebc0 cd3e 1c0f a53e
000001d0: 7e76 3bc0 1ebe a3bf a322 8abf fa70 cebd
000001e0: 356a a83d 32a4 2a3e 3afd e7be 9ad3 3cc0
000001f0: 3575 013f 72df 2d3d a80a 66bd 1b71 c7bf
00000200: 66ab 6dbd f66c 90bf f86a 20bf ec88 42bd
00000210: 2c2a b9bf c49c f2bc 8fc7 27bf 69d6 a23d
00000220: f5e4 87be 2639 9bbf bd0c 58bd df16 11bf
00000230: 6722 243e fd8d b03f e70a eabf ce7d 29bf
00000240: e641 573e 2279 783e b022 d7bd 4b71 933e
00000250: 857b 86bf 05c2 12bf 6958 933e 9981 2c3f
00000260: 8bb9 ba3e e05a c23e 3cb8 a1be 2ea2 f9bf
00000270: c0cf 11bf 8880 5dbf e551 6e3d 0fd3 fd3e
00000280: 4164 413f 1a29 c23d dcd6 f43e 0909 4abe
00000290: 5a21 d0be 441e 47be 0e7d 903e 15af ee3c
000002a0: 25f8 773f ade3 f3be 789c 8ebd 606a b33e
000002b0: 201a 033f ae86 22bf bf40 5abf 2ec6 b3be
000002c0: 89a2 20bf 15ae 7f3e 144c 19be 5cd5 45bd
000002d0: 174f 8a3f 49c4 e9be 4cae 743f 05fd 3f3f
000002e0: 3f23 433d c592 0fbe ad04 ffbe 32a3 86bd
000002f0: 027a 8cbd 36cb b03d a1a9 833e 70d7 db3f
00000300: 7307 1f3f f2b0 913f 3a16 6dbe 39e0 d73e
00000310: 59b5 1abf a033 7bbd 2030 7abf 91b1 683d
00000320: 9cc8 1bbf 47be 81bd 54f7 75bf bba1 0fbf
00000330: 9618 f2be 8bd4 833d f9e1 1bbf 537c 023e
00000340: 7e15 f03e 7c2a 6e3e be2f 133f 5def 6d3f
00000350: 44fa c0be 1d1d c2bf 3a9e b7be 9168 a2be
00000360: 2413 593b cace 49be 662d acbc 8f15 9abe
00000370: 8e0f c23a 4a79 343d cad8 3b3f 9179 2f38
00000380: 29f1 503d 76db c03e 15e6 63bf cf38 2e3f
00000390: f833 593e bc70 ca3e d503 ccbc cee2 4abe
000003a0: 9827 cfbb d48d 68bf 6821 96bf bdfa 05be
000003b0: 0e74 423c 1a2f 563d ef22 42bf e7a5 98bd
000003c0: 25ab 283f 4a56 0e3f 773e a9be 6f52 debe
000003d0: ad71 683f 62ab 29bf c6ae 203d eb71 06bd
000003e0: 0ff6 aebd b624 98bd 7f50 d03e 5ffb a93f
000003f0: 7073 83bf 2d7b b43d 095f 553e 1592 9bbe

net.2.bias f4 [128]
0.009738104 1.1809705 1.0749135 0.08306265 0.9710998 -0.045148686 0.6206171 0.60702384
0.6540533 6.0065373e-05 -0.053280797 -0.0022554302 0.77440697 1.5474155 0.044614 0.81910855
0.028554695 -0.07708946 -0.047528878 0.23386155 0.633077 0.8987858 0.43449405 1.0963007
1.1556319 -0.033820845 0.9092857 0.6858687 0.7396387 0.28453588 -0.08452928 -0.05709869
0.29126373 -0.35141954 -0.103202246 0.60143363 1.1688156 1.1259174 1.0246164 0.16119279
-0.07438319 1.1894243 1.2274097 -0.09523147 0.6860837 0.69896233 0.12679549 0.96757776
0.49488235 0.03847898 -0.058400325 0.50493544 -0.07661565 0.030331794 0.9682239 0.01263403
0.018737735 -0.22284396 0.83852845 0.25656784 1.1680905 -0.41442186 1.0859872 1.0712199
0.01044352 0.5112931 0.33023265 1.0595704 1.1864249 -0.087886825 -0.023657396 -0.05991175
0.65127206 1.0116215 0.5485775 0.7526739 0.5251511 -0.027264707 1.2236197 0.34166127
-0.074489295 -0.047760252 -0.08498216 0.16417466 -0.09743351 -0.049191423 1.0500219 0.5586453
-0.15033102 0.009005993 0.7434084 0.74369675 -0.108057156 0.46671626 -0.10438429 1.222051
0.6963824 1.0702344 0.8154438 1.0113411 0.58840436 1.0495054 1.0894696 0.79853797
1.0844462 0.5471206 0.14521329 0.6550262 -0.09834134 0.8849355 0.77693397 1.0686898
-0.09002337 0.79234445 -0.12781498 -0.020470792 1.1518701 -0.016203461 -0.08211767 0.8278441
0.84655815 -0.06963426 0.3891276 0.548188 1.3098162 0.010540981 -0.06073561 0.9265102
00000000: 928c 1f3c 0b2a 973f c496 893f c01c aa3d
00000010: ff99 783f d4ed 38bd c3e0 1e3f ea65 1b3f
00000020: 0970 273f b4ee 7b38 f73c 5abd d7cf 13bb
00000030: 893f 463f b611 c63f 2bbd 363d 19b1 513f
00000040: 89eb e93c 14e1 9dbd a4ad 42bd 6779 6f3e
00000050: 5611 223f d416 663f 0176 de3e 9553 8c3f
00000060: bfeb 933f ba87 0abd f3c6 683f 1795 2f3f
00000070: f658 3d3f b0ae 913e b01d adbd 51e0 69bd
00000080: 8520 953e 43ed b3be b35b d3bd 8ef7 193f
00000090: c09b 953f 101e 903f a126 833f b90f 253e
000000a0: 3756 98bd 0e3f 983f c31b 9d3f b808 c3bd
000000b0: 2ea3 2f3f 32ef 323f add6 013e 2db3 773f
000000c0: 3861 fd3e 239c 1d3d 2e35 6fbd 7343 013f
000000d0: aae8 9cbd 627a f83c 86dd 773f f6fe 4e3c
000000e0: e17f 993c 3531 64be cda9 563f dc5c 833e
000000f0: fd83 953f 1a2f d4be a101 8b3f bc1d 893f
00000100: 4c1b 2b3c 1be4 023f 4114 a93e 01a0 873f
00000110: c5dc 973f 02fe b3bd 28cd c1bc 0666 75bd
00000120: c4b9 263f d07c 813f 936f 0c3f 3daf 403f
00000130: 4d70 063f 3c5a dfbc 929f 9c3f 3aee ae3e
00000140: d88d 98bd 41a0 43bd 200b aebd 671d 283e
00000150: 388b c7bd f27c 49bd 1e67 863f 6103 0f3f
00000160: 60f0 19be df8d 133c 0350 3e3f e962 3e3f
00000170: 124d ddbd 6ff5 ee3e 6ec7 d5bd 2b6c 9c3f
00000180: 1e46 323f 71fd 883f edc0 503f a073 813f
00000190: aba1 163f 3156 863f bd73 8b3f fc6c 4c3f
000001a0: 22cf 8a3f 1810 0c3f cbb2 143e ccaf 273f
000001b0: 2f67 c9bd 228b 623f 25e5 463f d4ca 883f
000001c0: 2c5e b8bd 16d7 4a3f eee1 02be 5db2 a7bc
000001d0: 7b70 933f 1fbd 84bc 4f2d a8bd 97ed 533f
000001e0: 09b8 583f 689c 8ebd bc3b c73e 0c56 0c3f
000001f0: 0fa8 a73f 14b4 2c3c e7c5 78bd c62f 6d3f

net.4.weight f4 [6, 128]
2.9260516 0.28632435 0.27979612 3.8120408 0.30142635 0.028567303 -1.4523474 4.0976458
1.4316592 -0.011649403 0.05194459 -0.009071144 -2.5490787 1.1084868 0.05317277 0.42187864
0.042382143 -0.07025866 -0.010686674 2.0835502 -2.3768194 0.16527829 3.3902402 0.930208
0.48114845 -0.026078746 1.9934219 -3.6990535 0.39270094 1.9028168 0.085134596 -0.08068523
2.054194 1.5158948 0.079778254 -3.1181915 -2.102253 0.42813998 0.13999438 4.4033227
0.03125478 0.5101477 0.83126587 -0.039586682 2.7781727 2.9851415 1.0385869 0.7111027
-3.6468904 0.06165499 -0.038104724 -2.1215172 0.015416998 -0.074144475 0.54748917 0.00958786
-0.022680951 1.2342165 0.46801004 4.3715353 0.40027505 -1.5033433 0.48828527 0.35316607
-0.021748079 3.443506 2.0872543 0.09063104 0.5149946 -0.032388218 -0.019336795 -0.035014037
2.4719408 0.34784606 -2.2836397 3.755914 0.31235543 0.033283226 1.5059862 4.2316785
-0.0809532 -0.034446545 0.018163795 3.0236428 0.042239938 0.03865688 0.1172006 2.9677806
3.0621006 -0.01675862 -0.3803292 2.0233474 0.014329833 -4.0713263 0.026380334 0.41514146
3.3621213 2.1928654 1.0893636 2.1392865 3.053108 0.32344532 0.34451523 -1.7685504
0.44184208 -2.4800365 -1.7229785 2.2603295 0.06331434 1.7234161 4.5498085 0.39395174
0.012429244 0.37027985 -1.3906837 0.05639617 0.5180856 0.4423986 0.06915073 0.4863289
2.934028 0.040466905 -2.2664056 1.8801502 -0.5630209 -0.032239404 -0.06292598 0.46336514
2.384167 0.5097364 0.62618786 3.3942769 0.3495365 -0.09411657 -1.5242299 3.8898966
1.0623714 -0.11214046 0.013094826 0.013555956 -2.5326757 1.0498393 0.06109971 0.4456931
-0.07241702 -0.05167632 -0.033232115 2.2476099 -2.093363 -0.030946488 3.111953 0.43252224
0.37481517 0.056794032 1.9661664 -3.82923 0.2752822 2.1519792 -0.017973565 0.046074197
-0.19760911 1.1996263 0.056560054 -3.180576 -2.4735494 0.52850443 0.29110524 5.1934237
-0.067139454 0.45753333 0.75718653 0.056198493 2.2626214 2.4489734 2.6201212 0.3030979
-3.4299185 -0.01931406 -0.07714837 -2.9248507 0.01149812 0.025294334 0.4689869 -0.02644228
-0.015224697 0.2917292 -0.09130732 3.9647865 0.38717082 -1.5698884 0.25938803 0.13955031
0.046005085 4.0961432 1.9361145 0.18280499 0.47014484 -0.10093309 0.009372961 0.14436857
2.435241 0.5690783 -2.3737125 3.8772883 -0.64175826 0.058355823 1.4190675 3.6558762
-0.035522334 0.06935663 -0.0418151 2.5739975 0.025056353 -0.00042065786 0.60239625 2.24967
2.911911 0.03489485 0.6498565 2.0860415 -0.0307883 -4.1182694 -0.0004749466 0.34286624
2.4753044 2.1759853 -0.105923645 2.269917 2.630443 0.63059026 0.22779189 -1.0920436
0.45828715 -2.5110946 -1.4254438 2.383408 -0.07526058 1.7153198 4.7052226 0.14323163
-0.011601704 2.2282975 -1.373717 -0.15624449 0.37114725 -0.48404783 0.04452456 0.4886669
3.1608024 0.08820207 -1.3734819 1.6774254 -0.77892625 -0.1341284 0.005951879 0.24812594
00000000: 6e44 3b40 1b99 923e 7041 8f3e 7af8 7340
00000010: 8e54 9a3e fa05 ea3c 85e6 b9bf ea1f 8340
00000020: 9c40 b73f 23dd 3ebc dac3 543d 239f 14bc
00000030: 1b24 23c0 e5e2 8d3f b1cb 593d 7a00 d83e
00000040: e698 2d3d c6e3 8fbd 2917 2fbc e358 0540
00000050: cf1d 18c0 b63e 293e b2f9 5840 1d22 6e3f
00000060: 1759 f63e 18a3 d5bc 7328 ff3f 4bbd 6cc0
00000070: 1910 c93e 808f f33f 0c5b ae3d 4c3e a5bd
00000080: ea77 0340 d708 c23f c862 a33d 7390 47c0
00000090: 508b 06c0 2a35 db3e b05a 0f3e 05e8 8c40
000000a0: 0305 003d 0a99 023f d7cd 543f a525 22bd
000000b0: 95cd 3140 8f0c 3f40 6af0 843f d40a 363f
000000c0: a766 69c0 f189 7c3d b313 1cbd f0c6 07c0
000000d0: 9497 7c3c 0fd9 97bd 4028 0c3f 6616 1d3c
000000e0: 67cd b9bc cefa 9d3f 039f ef3e 9ee3 8b40
000000f0: daf0 cc3e 8e6d c0bf 8700 fa3e 2fd2 b43e
00000100: 0729 b2bc 6762 5c40 9395 0540 c49c b93d
00000110: b0d6 033f 82a9 04bd 3368 9ebc e16a 0fbd
00000120: 4734 1e40 e118 b23e 2727 12c0 e560 7040
00000130: 0ded 9f3e fe53 083d 28c4 c03f e969 8740
00000140: cbca a5bd d217 0dbd 3dcc 943c 5d83 4140
00000150: c903 2d3d ad56 1e3d de06 f03d 1ef0 3d40
00000160: 75f9 4340 6049 89bc 82ba c2be 867e 0140
00000170: adc7 6a3c 4e48 82c0 921b d83c 6c8d d43e
00000180: ff2c 5740 e857 0c40 4470 8b3f 12ea 0840
00000190: 1f66 4340 a09a a53e 4d64 b03e dc5f e2bf
000001a0: 2039 e23e ebb8 1ec0 8f8a dcbf 3da9 1040
000001b0: f3aa 813d e698 dc3f 0898 9140 0bb4 c93e
000001c0: 07a4 4b3c 5295 bd3e ec01 b2bf acff 663d
000001d0: 42a1 043f 1282 e23e e69e 8d3d 1a00 f93e
000001e0: 1dc7 3b40 a0c0 253d ca0c 11c0 c3a8 f03f
000001f0: 2322 10bf 770d 04bd 56df 80bd 323e ed3e
00000200: 3196 1840 167e 023f d94d 203f d53b 5940
00000210: 73f6 b23e 30c0 c0bd f719 c3bf 11f4 7840
00000220: c9fb 873f e6a9 e5bd ae8b 563c cd19 5e3c
00000230: 5c17 22c0 2261 863f b143 7a3d e331 e43e
00000240: 604f 94bd 8daa 53bd 661e 08bd d7d8 0f40
00000250: a9f9 05c0 7d83 fdbc 3d2a 4740 8e73 dd3e
00000260: c6e7 bf3e dca0 683d 57ab fb3f 1b12 75c0
00000270: caf1 8c3e 07ba 0940 4c3d 93bc 4cb8 3c3d
00000280: 0b5a 4abe 5b8d 993f 84ab 673d 8f8e 4bc0
00000290: a24e 1ec0 114c 073f bf0b 953e 8730 a640
000002a0: 6980 89bd cf41 ea3e fad6 413f 6430 663d
000002b0: cace 1040 fbbb 1c40 11b0 2740 a62f 9b3e
000002c0: c983 5bc0 8538 9ebc f7ff 9dbd c130 3bc0
000002d0: 9c62 3c3c 1036 cf3c 0d1f f03e 7b9d d8bc
000002e0: 0271 79bc 885d 953e 55ff babd 10bf 7d40
000002f0: 413b c63e 1af2 c8bf 82ce 843e 47e6 0e3e
00000300: d46f 3c3d 9b13 8340 9ad2 f73f 3b31 3b3e
00000310: d3b6 f03e 02b6 cebd 0c91 193c 5bd5 133e
00000320: fdda 1b40 1eaf 113f e8ea 17c0 7e25 7840
00000330: 454a 24bf 8406 6f3d 01a4 b53f e0f9 6940
00000340: de7f 11bd d90a 8e3d 4f46 2bbd 60bc 2440
00000350: fb42 cd3c be8b dcb9 a436 1a3f 98fa 0f40
00000360: c05c 3a40 e7ed 0e3d ff5c 263f b481 0540
00000370: bf37 fcbc ddc8 83c0 4102 f9b9 2a8c af3e
00000380: 636b 1e40 5843 0b40 7fee d8bd 5246 1140
00000390: 2e59 2840 5d6e 213f 4742 693e 16c8 8bbf
000003a0: 9da4 ea3e c6b5 20c0 f174 b6bf c289 1840
000003b0: 3822 9abd 998f db3f 2f91 9640 50ab 123e
000003c0: 1315 3ebc 6d9c 0e40 f5d5 afbf 8efe 1fbe
000003d0: 0307 be3e 1ed5 f7be 635f 363d 8c32 fa3e
000003e0: 964a 4a40 49a3 b43d 41ce afbf e0b5 d63f
000003f0: b667 47bf f558 09be fb07 c33b ba14 7e3e

net.4.bias f4 [6]
0.632755 1.2480098 1.1020578 1.077002 1.0056336 1.1821092
00000000: 3bfc 213f c9be 9f3f 3b10 8d3f 34db 893f
00000010: 9ab8 803f 5b4f 973f
