rl/best_model.pth (torch, 79417 bytes, 6 tensors)

net.0.weight f4 [128, 13]
-1.10734 -1.1759335 -0.9264686 -0.47509837 0.11984863 0.4198682 0.08921318 0.20208614
-0.09857782 -0.46171108 -0.26405966 -0.16074859 -0.6379973 0.19803618 1.1167727 2.3769472
-1.1024799 0.32712558 -0.021796698 -2.095801 0.8570776 -4.497585 -1.5890069 -2.1079786
0.26908985 -1.1783266 -0.047474004 0.52801347 -3.1042273 -0.033669766 0.29062933 -0.30628812
-0.85117114 0.7712442 1.3759866 -0.9906299 -0.12071878 1.0513487 -1.5584408 0.49106082
0.703508 0.09435829 -1.5503911 0.0834112 -0.5613436 0.54866064 -3.9189305 1.0530645
-0.08007087 0.46897605 -0.77017653 0.27411553 0.25555372 0.16729675 0.13945779 0.21325737
0.007958005 0.23382549 -0.18097024 -0.23385318 -0.20229152 -0.3275136 -0.17688738 0.0905573
-0.31749976 -0.984737 0.43570685 -1.6428552 1.7123741 -2.44968 2.3225586 0.6009716
-0.87923235 -0.5098436 0.23015207 -0.77236396 -0.11794102 0.2725573 -2.3274436 0.029765211
-2.4550602 0.5318635 -4.1221905 -1.375944 -2.4728656 -0.08179517 1.5917928 1.5149798
-0.46146545 -0.5757807 1.1224849 -0.084164366 0.18078752 0.14734656 0.08526644 -0.31080368
-0.071447 -0.03926921 -0.13412447 -0.1568148 0.20172499 -0.17564657 -0.089110844 -0.32909086
-0.37027252 -0.57442987 1.8274703 -0.76289743 -0.44176623 -0.24867576 -0.05023995 -0.11888601
-0.07823906 0.12324163 0.042350434 -0.39485893 -0.26261178 -2.0904765 0.64612 1.6376584
-1.6010752 1.8131431 0.92777234 -0.18810295 -1.7532537 -0.84998643 2.3921435 -1.6675799
-1.9144332 -2.6117218 -0.59093845 0.67100704 -0.7184496 1.9219975 0.57645035 1.1170826
0.42566654 -3.6082017 1.999891 -0.64136475 -0.330833 -0.04217776 -1.7912501 -0.01563342
-0.14370266 -0.10672003 -0.15386254 -0.26122817 -0.1561993 0.00960391 0.05698394 0.076082565
-0.018041564 -0.009324224 0.09491545 -0.31951907 -0.99530095 0.80024725 -1.6784403 1.0222254
-0.2691984 -1.6079212 1.0652553 -1.608911 -1.9248408 1.243702 -0.3508565 1.813606
-0.42901286 -0.4809321 0.17759581 -2.174891 0.9345484 -0.9196395 -0.30218965 -0.47071233
-0.40552092 -0.86445004 -0.46294498 -0.1259068 -0.38055915 -0.59460336 -0.058006115 -0.390964
1.1415436 -1.3618553 -0.9679906 0.22027427 -0.84432936 -0.6295713 0.18697436 -0.1486588
-2.2937305 -0.36933962 0.004376789 3.7948656 -0.21970107 3.88561 1.4017329 -1.4442374
0.70541865 -1.008006 -0.69396377 -0.35525313 0.54259115 -0.48085406 -0.21362281 -0.3767426
-2.888592 0.75054526 -3.9608815 -1.0521454 -3.1735392 -0.979411 0.07123152 -2.0469732
0.350648 0.6173993 -1.5546532 1.4543748 -0.13867773 -1.3184466 2.4664822 -2.5504751
1.5103644 -0.09407082 -2.5330787 0.20225148 2.342316 -0.34517178 -2.085709 -0.21820882
-3.270447 -0.9099103 -1.450743 2.8050356 -2.3501139 -1.0661058 -2.4376106 1.0675033
-0.67914444 -1.9563468 0.55524606 1.7993087 -1.1303335 1.1104496 0.37943223 1.2868946
-3.4691577 0.986838 0.5850321 1.1372417 -1.1697645 -0.72985965 -1.4890022 1.4648072
00000000: 51bd 8dbf fd84 96bf 0c2d 6dbf 1840 f3be
00000010: 3373 f53d f7f8 d63e 66b5 b63d abef 4e3e
00000020: 2be3 c9bd 6565 ecbe d432 87be 479b 24be
00000030: cb53 23bf ffc9 4a3e 68f2 8e3f e71f 1840
00000040: 101e 8dbf 017d a73e fd8e b2bc 9b21 06c0
00000050: 7069 5b3f 37ec 8fc0 9464 cbbf 1fe9 06c0
00000060: 25c6 893e 68d3 96bf 1a74 42bd e42b 073f
00000070: a9ab 46c0 4fe9 09bd 5ecd 943e ccd1 9cbe
00000080: 5ae6 59bf 4370 453f 5420 b03f ec99 7dbf
00000090: 683b f7bd 9892 863f fd7a c7bf 536c fb3e
000000a0: 1a19 343f eb3e c13d 3773 c6bf 7ed3 aa3d
000000b0: 37b4 0fbf 0675 0c3f c2cf 7ac0 d1ca 863f
000000c0: 32fc a3bd a11d f03e 4a2a 45bf df58 8c3e
000000d0: f0d7 823e d74f 2b3e 06ce 0e3e 2460 5a3e
000000e0: 4b62 023c f36f 6f3e 4350 39be 3577 6fbe
000000f0: 8225 4fbe ddaf a7be f721 35be 1b76 b93d
00000100: 548f a2be b917 7cbf f814 df3e 1449 d2bf
00000110: 132f db3f 8fc7 1cc0 cda4 1440 46d9 193f
00000120: 5f15 61bf 1c85 02bf fcac 6b3e a5b9 45bf
00000130: 108b f1bd a18c 8b3e d6f4 14c0 2cd6 f33c
00000140: b51f 1dc0 3528 083f fce8 83c0 ef1e b0bf
00000150: 6e43 1ec0 3a84 a7bd debf cb3f dcea c13f
00000160: 3345 ecbe 5d66 13bf 96ad 8f3f 5e5e acbd
00000170: 5d20 393e 04e2 163e 2ca0 ae3d a921 9fbe
00000180: ce52 92bd c0d8 20bd ed57 09be 0f94 20be
00000190: ff90 4e3e b2dc 33be bf7f b6bd 997e a8be
000001a0: 5c94 bdbe d60d 13bf 8cea e93f 3f4d 43bf
000001b0: 2f2f e2be dca4 7ebe 68c8 4dbd 827a f3bd
000001c0: cd3b a0bd 1c66 fc3d a677 2d3d f32a cabe
000001d0: 0d75 86be 5eca 05c0 1f68 253f ca9e d13f
000001e0: 08f0 ccbf 1315 e83f 7d82 6d3f 0f9e 40be
000001f0: 9e6a e0bf b698 59bf e118 1940 4273 d5bf
00000200: 260c f5bf 7326 27c0 be47 17bf 1ec7 2b3f
00000210: 50ec 37bf 0404 f63f 4092 133f 90fc 8e3f
00000220: f7f0 d93e c7ec 66c0 6efc ff3f 7b30 24bf
00000230: f162 a9be 96c2 2cbd af47 e5bf a811 80bc
00000240: ca26 13be 0890 dabd 248e 1dbe b3bf 85be
00000250: b6f2 1fbe b859 1d3c fe67 693d 2dd1 9b3d
00000260: e7cb 93bc a1c4 18bc 0863 c23d 0198 a3be
00000270: 0bcc 7ebf 01dd 4c3f 22d7 d6bf 48d8 823f
00000280: 5fd4 89be 5dd0 cdbf 495a 883f ccf0 cdbf
00000290: 2f61 f6bf a131 9f3f 77a3 b3be 3e24 e83f
000002a0: 93a7 dbbe bb3c f6be addb 353e 6a31 0bc0
000002b0: 903e 6f3f 7f6d 6bbf 9ab8 9abe 3501 f1be
000002c0: 70a0 cfbe 994c 5dbf 2007 edbe b6ed 00be
000002d0: a6d8 c2be ed37 18bf d297 6dbd 6f2c c8be
000002e0: 1a1e 923f 4651 aebf 3bce 77bf 948f 613e
000002f0: f825 58bf 962b 21bf 3576 3f3e 033a 18be
00000300: 7bcc 12c0 151a bdbe 2b6b 8f3b 14df 7240
00000310: 51f9 60be d6ad 7840 fc6b b33f c5dc b8bf
00000320: 5196 343f 5706 81bf 9ca7 31bf bde3 b5be
00000330: 41e7 0a3f 8132 f6be f0bf 5abe 68e4 c0be
00000340: b1de 38c0 bc23 403f 157f 7dc0 b3ac 86bf
00000350: 441b 4bc0 aeba 7abf d5e1 913d 9c01 03c0
00000360: 2288 b33e e10d 1e3f e0fe c6bf f428 ba3f
00000370: 8901 0ebe dcc2 a8bf d8da 1d40 fc3a 23c0
00000380: 9f53 c13f 34a8 c0bd f61d 22c0 031b 4f3e
00000390: 81e8 1540 5bba b0be 427c 05c0 2272 5fbe
000003a0: 014f 51c0 e2ef 68bf f2b1 b9bf b485 3340
000003b0: 4468 16c0 2876 88bf d001 1cc0 f3a3 883f
000003c0: 69dc 2dbf 9269 fabf 9b24 0e3f bf4f e63f
000003d0: c5ae 90bf 3623 8e3f f144 c23e f6b8 a43f
000003e0: ae06 5ec0 6aa1 7c3f aac4 153f 2391 913f
000003f0: d8ba 95bf 15d8 3abf a097 bebf cd7e bb3f

net.0.bias f4 [128]
-0.3889014 -0.42772108 0.30530062 0.554522 -0.2754038 0.050450645 -0.27546713 -0.20328215
-0.47287628 -0.5047161 -0.042159088 -0.26575947 0.56835 -0.4290488 0.015573985 0.36117914
0.2550458 0.81867653 0.23683996 0.66099083 -0.8640232 0.12625875 -0.1941118 0.34066147
-0.2975345 1.4245933 1.477106 -1.4704634 -0.16097301 -0.094067745 -0.30053598 -0.086592525
-0.46286377 -0.0143648805 0.76938605 -1.0446392 0.6798091 0.5109616 -0.5325288 -0.4686555
0.3106219 1.0364894 -0.45366925 -0.6771388 0.24893786 -0.14303422 -0.04268315 -0.1809774
-0.10723595 -0.048650596 -0.37851682 0.790277 0.10924942 1.1768866 0.051683005 -0.96739185
0.8679461 1.2009566 -0.3841014 0.22604197 -0.02929274 -0.52862746 -0.32992807 -0.28566918
0.08423184 -0.21053834 0.40895694 0.6906484 0.14904544 -0.14493756 0.43288687 0.2971002
-0.09618528 -0.17675903 -0.27076092 -0.25686476 0.46729103 0.027042987 -0.0899861 0.7830311
-0.19559266 -0.0057870336 0.32135537 -0.21020064 -0.17366481 -1.3490055 -0.81110865 -0.17825413
-1.2287014 1.1987454 0.66081655 -0.4890046 1.247901 -0.23138367 -0.26777047 0.07180076
0.15448716 -0.15473238 0.36917025 0.46607915 -0.015163188 -0.32874343 0.18258427 -0.3233728
-0.15820919 0.3475179 0.4809461 -0.19314602 0.052968204 -0.55056846 0.11885118 -0.3168563
-0.011872911 -0.485402 -1.0181442 -0.24113114 -0.27392286 0.024759268 -0.4412165 -0.09779578
-0.3734409 -0.031392146 -1.2489077 -0.8813432 -0.14549993 -0.14133601 0.50317556 -0.33258274
00000000: 161e c7be 42fe dabe 5d50 9c3e 27f5 0d3f
00000010: ba01 8dbe 56a5 4e3d 070a 8dbe 3229 50be
00000020: d71c f2be 1335 01bf 02af 2cbd a011 88be
00000030: 637f 113f 49ac dbbe 072a 7f3c 79ec b83e
00000040: 5d95 823e c994 513f 2d86 723e b236 293f
00000050: a030 5dbf f949 013e 3ec5 46be 2e6b ae3e
00000060: 7156 98be 1359 b63f cf11 bd3f 2538 bcbf
00000070: 1cd6 24be 97a6 c0bd dadf 99be 6c57 b1bd
00000080: 7bfc ecbe ad5a 6bbc 7cf6 443f bdb6 85bf
00000090: f807 2e3f 61ce 023f cf53 08bf 9df3 efbe
000000a0: d509 9f3e afab 843f 5647 e8be f858 2dbf
000000b0: 91e9 7e3e 9077 12be 87d4 2ebd 2452 39be
000000c0: 869e dbbd d945 47bd f5cc c1be 984f 4a3f
000000d0: 29be df3d 38a4 963f 8fb1 533d fea6 77bf
000000e0: b731 5e3f f2b8 993f f0a8 c4be 8c77 673e
000000f0: 54f7 efbc 2154 07bf 55ec a8be 3b43 92be
00000100: be81 ac3d 5d97 57be ce62 d13e 55ce 303f
00000110: 5e9f 183e 836a 14be 59a3 dd3e 841d 983e
00000120: cafc c4bd 5200 35be 2da1 8abe c783 83be
00000130: c540 ef3e 4189 dd3c a24a b8bd ba74 483f
00000140: 7149 48be 28a1 bdbb b188 a43e d63e 57be
00000150: 30d5 31be 36ac acbf d1a4 4fbf 4088 36be
00000160: 1646 9dbf 7d70 993f 462b 293f d05e fabe
00000170: 38bb 9f3f d7ef 6cbe 3619 89be 470c 933d
00000180: e231 1e3e 2a72 1ebe e203 bd3e eda1 ee3e
00000190: 056f 78bc 0f51 a8be 5ff7 3a3e 1f91 a5be
000001a0: 9701 22be deed b13e 913e f63e 12c8 45be
000001b0: 30f5 583d 0ef2 0cbf 3f68 f33d fd3a a2be
000001c0: 9986 42bc 9c86 f8be 8d52 82bf 15eb 76be
000001d0: 9e3f 8cbe f3d3 ca3c 21e7 e1be 2749 c8bd
000001e0: a533 bfbe 0d95 00bd 35dc 9fbf b59f 61bf
000001f0: effd 14be 63ba 10be 1dd0 003f 4948 aabe

net.2.weight f4 [128, 128]
-0.38423288 2.1512358 0.61691684 -0.3605154 -0.08029488 -0.56669897 1.5766953 0.03489761
-0.15786022 -1.6471345 -0.042492453 0.018399077 -0.073835574 -0.0056476165 -0.31820464 -1.1034985
-1.8142866 -2.3676112 -0.013840318 1.4834824 -0.31753656 0.08051416 -0.07578314 -0.8247293
0.019347014 -0.40717188 -0.98860025 0.28498974 -0.048257627 -3.4503255 0.031585976 -0.089146085
0.5097488 0.0031604122 0.5286039 -1.2539563 0.24466118 -0.10877264 -0.27561754 2.665089
-0.5890852 -2.495832 -0.84760314 -1.7669398 -0.6762148 0.43277383 -0.27281418 0.1791171
-2.6142514 0.0070768436 -0.69687814 -1.8104311 -0.5245956 -3.6678867 0.98365915 -0.8181194
1.3969759 -0.075499 -1.395586 0.24396604 -0.014253781 0.1478413 -1.2805136 -0.38340262
-0.00558881 -0.023842905 -1.5896512 -0.42201966 -3.5791976 -0.4890774 -0.7653044 -1.0145342
-0.044271328 -0.16218129 -0.023398412 -1.4138825 -0.8413953 0.061830383 -0.0029094145 -0.26298252
0.03932984 0.016023273 0.23138633 -0.21186653 -0.06415175 -2.3721068 -0.90687114 -0.4954981
-0.05223919 -0.25882447 -0.24419829 -0.26493034 -1.5822133 -0.0780357 0.027791787 0.08454868
-1.0323377 -0.59022343 -0.23953098 0.7559892 -0.027491007 -0.5065419 0.2164604 -1.6695542
0.737747 0.16661115 0.24549869 -0.067881115 -0.2157544 -0.65325123 0.25748023 0.07224941
0.063349254 -3.2527196 -0.26467013 -1.7240579 0.05356625 -0.013875738 0.9387714 0.19660768
-2.5738564 -0.08006504 0.9931906 -0.55005234 -0.10412079 -0.04540802 -0.34421432 0.42034227
-0.4175856 -2.155066 0.15254112 -0.70500004 -0.015959188 -0.84146845 1.6026702 -0.06260579
0.18184814 0.81965214 -2.7953472 0.021285992 0.48414972 0.16430157 -1.9387425 0.73676866
-1.1021515 -1.8421947 -1.4281094 -1.1525114 1.4369451 0.009338982 0.086936936 0.4625927
0.01843972 -1.1051334 -0.9355004 -1.9693704 0.035449173 -0.6311811 0.0105111925 -0.0614513
-0.28736967 0.07022451 -4.4891324 1.2557324 -1.036724 -0.108730555 0.01946909 -0.35106155
-0.33198246 -1.308076 -0.5116998 -2.5019972 -2.910173 -1.4771551 -0.49080196 -0.13586158
-0.41907156 -3.7134032 -0.67815936 -1.6889317 0.88589764 -2.738207 0.4151975 0.6927365
-0.37620395 0.26544714 -0.038512837 -0.20989133 -0.6499702 -0.02482163 -2.1512856 0.73517215
0.04827466 0.009739603 -0.35073182 -0.9455465 -0.19964965 -1.578244 -0.46594703 -2.5289588
0.018865382 -0.37231657 0.012027435 0.92150545 -5.444422 -0.010082813 0.060783118 -1.2788498
-0.06890359 0.05690601 -0.034772493 0.052822627 -0.06300456 -2.0179763 0.71092206 0.8406661
-2.5861514 -2.7885718 0.13143793 -1.6964836 -0.58218944 -0.017384773 -0.79582804 -0.43654883
-1.372127 0.7421605 -0.9015013 -2.6855495 -0.037047062 0.21846142 -0.7178821 -1.0566113
-0.30302617 -1.9055988 0.35553643 -0.059077416 0.07120395 0.3219479 -0.19441617 -0.054603674
0.007332594 -0.7614885 0.1936415 0.20656966 -0.04398402 0.15093678 -0.24393433 0.5498714
-4.2860303 -0.04000735 -0.041133605 0.57794905 0.16767967 0.05526083 -0.49246886 -1.8458748
00000000: 2cba c4be d9ad 0940 43ee 1d3f 7995 b8be
00000010: a471 a4bd 2f13 11bf 27d1 c93f ccf0 0e3d
00000020: 1ca6 21be 4ed5 d2bf 910c 2ebd a9b9 963c
00000030: 1b37 97bd a40f b9bb b8eb a2be 703f 8dbf
00000040: 8b3a e8bf f186 17c0 80c2 62bc c0e2 bd3f
00000050: 2794 a2be 9ce4 a43d 3134 9bbd 7621 53bf
00000060: a17d 9e3c d578 d0be e814 7dbf 2dea 913e
00000070: caa9 45bd 22d2 5cc0 4c60 013d 3992 b6bd
00000080: e67e 023f eb1e 4f3b 9652 073f a481 a0bf
00000090: 7688 7a3e 31c4 debd be1d 8dbe d190 2a40
000000a0: 4ace 16bf b6bb 1fc0 85fc 58bf 152b e2bf
000000b0: 6a1c 2dbf 8894 dd3e 4dae 8bbe 796a 373e
000000c0: e54f 27c0 dee4 e73b 9b66 32bf 35bc e7bf
000000d0: e64b 06bf a8be 6ac0 16d1 7b3f 4670 51bf
000000e0: 1bd0 b23f 389f 9abd 90a2 b2bf 3cd2 793e
000000f0: b188 69bc b663 173e dfe7 a3bf 594d c4be
00000100: 5622 b7bb 3252 c3bc b179 cbbf f612 d8be
00000110: 9311 65c0 5a68 fabe fdea 43bf 42dc 81bf
00000120: da55 35bd da12 26be 07ae bfbc 1afa b4bf
00000130: af65 57bf db41 7d3d e0ab 3ebb a5a5 86be
00000140: 5418 213d 3d43 833c 8af0 6c3e 8af3 58be
00000150: fe61 83bd 99d0 17c0 b528 68bf edb1 fdbe
00000160: c3f8 55bd a484 84be 1e0f 7abe f3a4 87be
00000170: f785 cabf 2ed1 9fbd 9aab e33c dc27 ad3d
00000180: a423 84bf e218 17bf 9c47 75be 8288 413f
00000190: d234 e1bc bbac 01bf cca7 5d3e f4b3 d5bf
000001a0: fddc 3c3f 1d9c 2a3e 0264 7b3e 4105 8bbd
000001b0: b9ee 5cbe 793b 27bf 73d4 833e 80f7 933d
000001c0: 41bd 813d 8f2c 50c0 d882 87be eead dcbf
000001d0: 4968 5b3d 1057 63bc 5353 703f 8653 493e
000001e0: 10ba 24c0 24f9 a3bd bd41 7e3f 3bd0 0cbf
000001f0: 483d d5bd c3fd 39bd dc3c b0be 1a37 d73e
00000200: c8cd d5be 9aec 09c0 bd33 1c3e e27a 34bf
00000210: d8bc 82bc 7a6a 57bf 4c24 cd3f 7737 80bd
00000220: 6636 3a3e b9d4 513f f8e6 32c0 f65f ae3c
00000230: 79e2 f73e ac3e 283e b728 f8bf df9c 3c3f
00000240: 4d13 8dbf 09cd ebbf 4acc b6bf 7e85 93bf
00000250: d1ed b73f 8802 193c fe0b b23d f3d8 ec3e
00000260: e50e 973c 0375 8dbf f47c 6fbf 5414 fcbf
00000270: 2733 113d 1695 21bf 2337 2c3c 5cb4 7bbd
00000280: 1e22 93be ded1 8f3d f9a6 8fc0 d7bb a03f
00000290: 5fb3 84bf 20ae debd a47d 9f3c 57be b3be
000002a0: 9bf9 a9be 096f a7bf c2fe 02bf b920 20c0
000002b0: 4640 3ac0 6b13 bdbf 654a fbbe 4c1f 0bbe
000002c0: 8c90 d6be 66a8 6dc0 da9b 2dbf ea2e d8bf
000002d0: 30ca 623f c93e 2fc0 c494 d43e 2e57 313f
000002e0: ce9d c0be b0e8 873e a3bf 1dbd c1ed 56be
000002f0: 7264 26bf bb56 cbbc aaae 09c0 3e34 3c3f
00000300: a6bb 453d db92 1f3c 1f93 b3be 560f 72bf
00000310: f570 4cbe e603 cabf 9c90 eebe 76da 21c0
00000320: 938b 9a3c 47a0 bebe b80e 453c c8e7 6b3f
00000330: b438 aec0 6232 25bc b8f7 783d 5ab1 a3bf
00000340: 531d 8dbd 4716 693d 9a6d 0ebd 8a5c 583d
00000350: 8908 81bd 8626 01c0 fdfe 353f e535 573f
00000360: 8183 25c0 f677 32c0 aa97 063e 6026 d9bf
00000370: 5e0a 15bf 836a 8ebc 63bb 4bbf 5483 dfbe
00000380: dca1 afbf 3bfe 3d3f cac8 66bf 0be0 2bc0
00000390: a9be 17bd 5ab4 5f3e 1fc7 37bf 0a3f 87bf
000003a0: 3f26 9bbe a9ea f3bf df08 b63e 29fb 71bd
000003b0: 60d3 913d 5bd6 a43e 0815 47be 1aa8 5fbd
000003c0: 4246 f03b e9f0 42bf f549 463e ff86 533e
000003d0: 9628 34bd 2c8f 1a3e ecc9 79be 5fc4 0c3f
000003e0: 2927 89c0 bfde 23bd b67b 28bd 78f4 133f
000003f0: 38b4 2b3e 2e59 623d e124 fcbe a045 ecbf

net.2.bias f4 [128]
-0.43452942 1.1810032 -0.3531916 2.7409704 -0.13159782 0.050177366 1.0852973 1.2591673
-0.097763464 -0.5427629 -0.14817353 -0.11321839 -0.06953972 0.62736255 0.006039815 0.8744751
0.93365735 -0.048642363 2.432506 -1.5867937 -0.46875298 -0.2611811 -0.124748945 -0.080146834
-0.24515465 -0.11023012 0.34836814 -0.11840111 -0.09127698 -1.9598991 -0.06312375 -0.16107
-0.12967627 -1.9080385 -1.0154501 -0.21935089 -0.07269495 0.80457366 -0.1415913 -0.08715189
-0.02590387 0.30440718 -0.38010782 -0.006551267 -0.06318272 -0.082871854 -0.1462254 -0.77212197
-0.9314879 -0.052345198 -0.016263733 -0.1298274 -0.13259816 -0.17263809 0.005262958 0.72280073
-0.06916175 0.06696477 -0.46432737 -0.22969441 -0.21270661 -0.17089869 0.11957625 -0.73416305
-0.021582583 -0.21674831 1.2011833 -0.9421681 0.3809089 0.37029195 0.6378866 0.48428553
0.7790636 -0.1203539 -0.0581336 -0.7440217 0.45977882 -0.072454385 -0.00403823 0.9600061
0.23957646 -0.33916724 -0.28901288 -0.845503 -0.019975752 0.38394818 0.28542018 1.7516272
-0.011614471 -0.069193006 0.5410093 -0.062150966 0.34279576 1.4938235 -0.28843924 2.244101
1.3715491 -0.29346266 -0.18022941 0.8912937 1.5726854 -0.07468694 0.59432274 -0.15127751
1.5881202 -0.081339814 0.12011178 0.7794022 0.88806814 0.42587754 -0.016073104 -0.016582485
-0.28438014 -0.10762041 0.1758527 -0.14874597 0.19107457 -0.07885887 -0.22716415 0.5973867
-0.3781385 -0.29898733 1.0112461 -0.7351562 -0.24912472 -0.13919988 -0.62744445 -0.07398564
00000000: a47a debe 1d2b 973f 88d5 b4be 0f6c 2f40
00000010: 94c1 06be c886 4d3d 06eb 8a3f 652c a13f
00000020: 3638 c8bd 82f2 0abf cdba 17be 0bdf e7bd
00000030: d76a 8ebd d59a 203f a4e9 c53b 9add 5f3f
00000040: 2b04 6f3f 373d 47bd 2eae 1b40 0e1c cbbf
00000050: 6400 f0be 87b9 85be 607c ffbd 0624 a4bd
00000060: d209 7bbe 54c0 e1bd 4f5d b23e 487c f2bd
00000070: 6def babd f9dd fabf 0647 81bd 89ef 24be
00000080: dbc9 04be 9b3a f4bf 45fa 81bf 859d 60be
00000090: 17e1 94bd 8af8 4d3f 4ffd 10be b17c b2bd
000000a0: 5a34 d4bc 42db 9b3e 7e9d c2be 03ac d6bb
000000b0: f165 81bd b8b8 a9bd 1cbc 15be c9a9 45bf
000000c0: fe75 6ebf eb67 56bd 853b 85bc 79f1 04be
000000d0: d0c7 07be 0ac8 30be e474 ac3b 7809 393f
000000e0: ada4 8dbd d324 893d 51bc edbe 0335 6bbe
000000f0: c3cf 59be 1100 2fbe 65e4 f43d 1cf2 3bbf
00000100: f5cd b0bc 45f3 5dbe 60c0 993f ee31 71bf
00000110: 7e06 c33e e896 bd3e 894c 233f 46f4 f73e
00000120: b670 473f 1b7c f6bd 7f1d 6ebd 3578 3ebf
00000130: 2168 eb3e f762 94bd 2153 84bb f6c2 753f
00000140: 8853 753e 54a7 adbe 7ff9 93be e272 58bf
00000150: 30a4 a3bc db94 c43e 9822 923e 5235 e03f
00000160: 9f4a 3ebc 10b5 8dbd 967f 0a3f 0392 7ebd
00000170: ed82 af3e 9c35 bf3f 4fae 93be 5a9f 0f40
00000180: ec8e af3f bd40 96be 0f8e 38be d32b 643f
00000190: c14d c93f 77f5 98bd 8925 183f 7ee8 1abe
000001a0: 8647 cb3f 7d95 a6bd 2afd f53d e786 473f
000001b0: 6f58 633f 9f0c da3e beab 83bc fed7 87bc
000001c0: 469a 91be 1768 dcbd bb12 343e dd50 18be
000001d0: 0da9 433e c280 a1bd b89d 68be 56ee 183f
000001e0: 5f9b c1be de14 99be 8370 813f 3233 3cbf
000001f0: 8d1a 7fbe 6a8a 0ebe 33a0 20bf c985 97bd

net.4.weight f4 [6, 128]
2.102311 3.1327605 2.2866058 -1.0367515 -0.0005217571 0.76930606 4.170944 3.0256984
0.03136724 0.6343286 0.033863842 -0.05440989 2.5388308 2.9201527 -0.08822022 3.186535
1.0581948 -0.01374871 1.4323751 -0.7594936 -0.7333337 3.745341 0.029307943 -0.048828695
3.17198 0.032742627 4.821571 0.021728402 0.05258838 -0.5708862 0.4331366 -0.037649374
-0.10047146 -0.79213667 4.052409 2.961539 -0.0046511525 3.095147 0.0073997583 -0.009430422
0.008396049 4.1969137 -0.35192275 3.178416 -0.06189151 -0.009290118 0.024201382 3.0255103
-1.0971346 3.8896058 0.012096941 -0.03359907 0.06989373 1.3324212 -0.025194207 -0.9784411
0.05766386 1.9602602 2.4836624 0.15645665 2.0345979 0.025050806 -0.083320774 4.486023
0.021940954 4.213836 4.716037 2.967659 3.486185 2.1236267 -0.97562945 2.0701528
-0.33703986 0.057644363 -0.036204606 1.3176509 3.611719 0.0536556 0.14207684 2.4798517
1.5945781 0.48015052 3.220907 3.6909678 3.3017662 2.309994 4.134626 -0.9782552
0.021303896 2.5963304 3.0789387 0.01905657 2.945351 3.6542425 -0.23805334 1.1818309
1.6194378 -0.11869665 0.06696286 3.7174964 2.02382 -0.03256059 -1.0260758 0.0036218236
2.0276582 0.010646789 0.4758388 3.2681565 4.7762074 2.1040077 0.0046157152 -0.0152306985
-0.6367337 0.059415177 3.3904843 -0.013190592 4.342773 3.5295928 2.6837656 2.6126616
3.0423758 2.5311515 3.6222832 1.9806412 4.368605 0.036185525 3.2376528 -0.07760954
2.2750077 2.4033344 2.384486 -1.2388613 0.39044097 0.9860374 4.104783 3.0850239
-0.058303125 0.67342997 0.009263763 0.04206549 2.2330954 3.4880362 -0.031320814 3.2950916
1.1179824 -0.01726424 1.4388843 -0.517793 -0.6294809 3.5128107 -0.023606667 0.017562622
3.7956822 0.00505826 4.64765 0.007965171 0.10524097 -0.7034537 -0.06575018 -0.02850576
-0.01684595 -0.77416384 4.069205 2.9660485 -0.041088328 2.8531404 0.070375934 -0.002144179
0.021418216 4.592382 -0.07388887 2.452738 0.00243266 -0.03404043 0.011414606 3.0741367
-1.0884272 3.6000295 -0.015818143 -0.01262685 0.04130447 1.461735 0.0391898 -1.7533067
-0.035491083 2.9509947 2.1281233 0.7587858 1.9714459 0.0074630794 -0.63272184 4.4763546
0.07811962 3.4001825 3.997258 3.3022993 3.2529714 2.3888245 -0.90500903 1.737584
-0.4119655 0.06066871 0.008691849 2.2561545 3.4798863 0.041349825 0.22801979 2.8751488
1.788561 0.7685754 3.5830476 3.8471246 3.469685 1.4520364 3.7983947 -0.9190836
-0.21912818 2.413022 3.6329005 0.02754528 3.8222578 3.0711777 0.024623912 1.0945586
1.662196 -0.08822524 0.05609079 3.378522 2.057432 0.052184824 -0.21654908 -0.04270541
1.9308851 0.027390635 -1.027312 2.951354 4.782214 2.9204762 -0.077716 -0.017576514
-0.4182477 0.0036453546 3.092141 -0.058011893 3.8101163 3.242586 2.0472264 2.6880674
2.945553 2.6321702 3.4927452 1.7033153 3.8127959 0.032209672 3.5547915 0.0093241995
00000000: 438c 0640 267f 4840 c057 1240 46b4 84bf
00000010: 87c6 08ba 3ef1 443f 6078 8540 0ba5 4140
00000020: ef7a 003d 5c63 223f d0b4 0a3d e8dc 5ebd
00000030: 347c 2240 c8e3 3a40 cdac b4bd 30f0 4b40
00000040: ed72 873f 4542 61bc 1158 b73f 2c6e 42bf
00000050: c2bb 3bbf abb3 6f40 3617 f03c 9900 48bd
00000060: b801 4b40 221d 063d 4f4a 9a40 c3ff b13c
00000070: ea66 573d 9925 12bf 15c4 dd3e 3b36 1abd
00000080: fbc3 cdbd 78c9 4abf 56ad 8140 db89 3d40
00000090: b268 98bb e316 4640 ac79 f23b 0f82 1abc
000000a0: 958f 093c 1e4d 8640 382f b4be 2b6b 4b40
000000b0: f481 7dbd 9435 18bc fa41 c63c f6a1 4140
000000c0: e86e 8cbf 4def 7840 3f32 463c 2e9f 09bd
000000d0: 7224 8f3d c78c aa3f 1564 cebc 1e7b 7abf
000000e0: f130 6c3d cee9 fa3f 53f4 1e40 2c36 203e
000000f0: da36 0240 5937 cd3c 15a4 aabd 808d 8f40
00000100: 84bd b33c bfd7 8640 c6e9 9640 20ee 3d40
00000110: a81d 5f40 80e9 0740 dac2 79bf 627d 0440
00000120: 7d90 acbe 7f1c 6c3d 484b 14bd c9a8 a83f
00000130: 6726 6740 f9c5 5b3d 977c 113e e4b5 1e40
00000140: 231b cc3f 4ad6 f53e 5723 4e40 d138 6c40
00000150: 2350 5340 f1d6 1340 db4e 8440 ef6e 7abf
00000160: 8285 ae3c 472a 2640 550d 4540 861c 9c3c
00000170: a180 3c40 1cdf 6940 41c4 73be 3c46 973f
00000180: bd49 cf3f 3b17 f3bd d323 893d 76eb 6d40
00000190: 4486 0140 415e 05bd 7456 83bf 1e5c 6d3b
000001a0: 27c5 0140 df6f 2e3c 25a1 f33e 7a29 5140
000001b0: b1d6 9840 10a8 0640 6d3f 973b 2e8a 79bc
000001c0: fb00 23bf 545d 733d b2fd 5840 5a1d 58bc
000001d0: fff7 8a40 d9e4 6140 d1c2 2b40 d935 2740
000001e0: 49b6 4240 63fe 2140 7dd3 6740 a785 fd3f
000001f0: 9dcb 8b40 4637 143d b435 4f40 c0f1 9ebd
00000200: ba99 1140 3bd0 1940 6b9b 1840 0293 9ebf
00000210: e1e7 c73e f26c 7c3f 625a 8340 0871 4540
00000220: 42cf 6ebd e865 2c3f 0ac7 173c dd4c 2c3d
00000230: 09eb 0e40 fc3b 5f40 414a 00bd c8e2 5240
00000240: 0c1a 8f3f bc6d 8dbc 5c2d b83f 158e 04bf
00000250: a925 21bf e4d1 6040 c562 c1bc 7ddf 8f3c
00000260: 75ec 7240 c3bf a53b 8cb9 9440 5980 023c
00000270: 9488 d73d 8b15 34bf 08a8 86bd e984 e9bc
00000280: 8500 8abc 9a2f 46bf ed36 8240 bdd3 3d40
00000290: 3c4c 28bd da99 3640 4221 903d 5b85 0cbb
000002a0: 4175 af3c cbf4 9240 0c53 97bd a9f9 1c40
000002b0: 436d 1f3b fa6d 0bbd 5404 3b3c a8be 4440
000002c0: 9551 8bbf e266 6640 0d95 81bc d9e0 4ebc
000002d0: e02e 293d 221a bb3f 7c85 203d 5b6c e0bf
000002e0: 195f 11bd 19dd 3c40 2c33 0840 c93f 423f
000002f0: 5758 fc3f d98c f43b 0ffa 21bf 4c3e 8f40
00000300: 2efd 9f3d 979c 5940 13d3 7f40 df58 5340
00000310: af30 5040 80e2 1840 acae 67bf 2769 de3f
00000320: 24ed d2be c17f 783d 4268 0e3c d664 1040
00000330: 75b6 5e40 6f5e 293d 057e 693e 7002 3840
00000340: 91ef e43f 5bc1 443f a750 6540 4a37 7640
00000350: 520f 5e40 54dc b93f e618 7340 1049 6bbf
00000360: 2363 60be f46e 1a40 7181 6840 a4a6 e13c
00000370: df9f 7440 2d8e 4440 16b8 c93c 7f1a 8c3f
00000380: d7c2 d43f 6faf b4bd 75bf 653d b439 5840
00000390: f7ac 0340 c1bf 553d 0bbf 5dbe deeb 2ebd
000003a0: 3e27 f73f 5362 e03c f67e 83bf fce2 3c40
000003b0: e607 9940 15e9 3a40 9129 9fbd 9ffc 8fbc
000003c0: 9024 d6be e7e6 6e3b a3e5 4540 e19d 6dbd
000003d0: f2d8 7340 8786 4f40 c205 0340 4c09 2c40
000003e0: f183 3c40 7a75 2840 2389 5f40 3c06 da3f
000003f0: d904 7440 4aee 033d b481 6340 87c4 183c

net.4.bias f4 [6]
2.5800686 2.5643904 2.2820687 2.3661375 3.0312076 2.6667137
00000000: d81f 2540 f91e 2440 6a0d 1240 cc6e 1740
00000010: 4eff 4140 70ab 2a40
