rl/dqn_asteroids.pth (torch, 79453 bytes, 6 tensors)

net.0.weight f4 [128, 13]
0	0xbf8dbd51	-1.10734
1	0xbf9684fd	-1.1759335
2	0xbf6d2d0c	-0.9264686
3	0xbef34018	-0.47509837
4	0x3df57333	0.11984863
5	0x3ed6f8f7	0.4198682
6	0x3db6b566	0.08921318
7	0x3e4eefab	0.20208614
8	0xbdc9e32b	-0.09857782
9	0xbeec6565	-0.46171108
10	0xbe8732d4	-0.26405966
11	0xbe249b47	-0.16074859
12	0xbf2353cb	-0.6379973
13	0x3e4ac9ff	0.19803618
14	0x3f8ef268	1.1167727
15	0x40181fe7	2.3769472
16	0xbf8d1e10	-1.1024799
17	0x3ea77d01	0.32712558
18	0xbcb28efd	-0.021796698
19	0xc006219b	-2.095801
20	0x3f5b6970	0.8570776
21	0xc08fec37	-4.497585
22	0xbfcb6494	-1.5890069
23	0xc006e91f	-2.1079786
24	0x3e89c625	0.26908985
25	0xbf96d368	-1.1783266
26	0xbe0e8cfa	-0.13920966
27	0x3f1010b2	0.56275475
28	0xc078ac06	-3.8854995
29	0x3edf5d08	0.43625665
30	0x3eb96615	0.36210695
31	0xbe8006e3	-0.25005254
32	0xbf3268d6	-0.69691217
33	0x3f83d539	1.0299445
34	0x3f84910b	1.0356764
35	0xbf83b9a9	-1.0291034
36	0xbe019ac4	-0.12656695
37	0x3f4f2546	0.8091625
38	0xbfc09798	-1.5046263
39	0x3f06c8be	0.5265006
40	0x3e9498fe	0.29022974
41	0x3e8131ad	0.25233212
42	0xbf2a36b9	-0.6648975
43	0x3d40452d	0.04694097
44	0xbf182dd7	-0.59444946
45	0x3f5d38cf	0.8641481
46	0xc070b14b	-3.760821
47	0x3f527a23	0.82217616
48	0xbe04f131	-0.12982632
49	0x3e1e0893	0.15432958
50	0xbf812c05	-1.0091559
51	0x3e7b3d38	0.24535072
52	0x3e82d7f0	0.25555372
53	0x3e2b4fd7	0.16729675
54	0x3e0ece06	0.13945779
55	0x3e5a6024	0.21325737
56	0x3c02624b	0.007958005
57	0x3e6f6ff3	0.23382549
58	0xbe395043	-0.18097024
59	0xbe6f7735	-0.23385318
60	0xbe4f2582	-0.20229152
61	0xbea7afdd	-0.3275136
62	0xbe3521f7	-0.17688738
63	0x3db9761b	0.0905573
64	0xbea28f54	-0.31749976
65	0xbf7bf42b	-0.98419446
66	0x3efc425b	0.49269375
67	0xbf1a6c9a	-0.6032196
68	0x400cd748	2.2006397
69	0xc0091057	-2.1416223
70	0x40113e7e	2.2694392
71	0x3f7996c9	0.97495705
72	0xbf745a77	-0.9545054
73	0xbe71b078	-0.23602474
74	0xbdb97108	-0.09054762
75	0xbed83a99	-0.42232206
76	0xbeafe84b	-0.34356913
77	0x3ea38ffa	0.31945783
78	0xc01fd3ae	-2.497295
79	0x3d573826	0.05254378
80	0xc01e5dfb	-2.474486
81	0x3f15710f	0.5837564
82	0xc059c91a	-3.4028993
83	0xbfa3f655	-1.280955
84	0xc015cd99	-2.3406737
85	0xbec52c41	-0.38510326
86	0x3fd2bb9d	1.6463505
87	0x3fbf97c6	1.4968193
88	0xbf178da7	-0.5920052
89	0xbf061934	-0.52382207
90	0x3f970550	1.1798496
91	0xbdac5e5e	-0.084164366
92	0x3e39205d	0.18078752
93	0x3e16e204	0.14734656
94	0x3daea02c	0.08526644
95	0xbe9f21a9	-0.31080368
96	0xbd9252ce	-0.071447
97	0xbd20d8c0	-0.03926921
98	0xbe0957ed	-0.13412447
99	0xbe20940f	-0.1568148
100	0x3e4e90ff	0.20172499
101	0xbe33dcb2	-0.17564657
102	0xbdb67fbf	-0.089110844
103	0xbea87e99	-0.32909086
104	0xbebd945c	-0.37027252
105	0xbf130dd6	-0.57442987
106	0x3fe9ea8c	1.8274703
107	0xbf434d3f	-0.76289743
108	0xbee22f2f	-0.44176623
109	0xbe7ea4dc	-0.24867576
110	0xbd4dc868	-0.05023995
111	0xbdf37a82	-0.11888601
112	0xbda03bcd	-0.07823906
113	0x3dfc661c	0.12324163
114	0x3d2d77a6	0.042350434
115	0xbeca2af3	-0.39485893
116	0xbe86750d	-0.26261178
117	0xbfde8f04	-1.7387395
118	0x3f110e36	0.5666231
119	0x3f955bcc	1.1668639
120	0xbeb70397	-0.35744926
121	0x4006c2ec	2.105647
122	0x3f6cc6ba	0.9249073
123	0xbe21176f	-0.15731595
124	0xc00a0b27	-2.1569307
125	0xbf5a77a9	-0.85338837
126	0x401511d3	2.329213
127	0xbf93558b	-1.1510481
128	0xc01553ba	-2.3332353
129	0xc02a53a6	-2.6613555
130	0xbee8d4cf	-0.4547486
131	0x3f2e6fb5	0.681392
132	0xbfafbbc5	-1.3729178
133	0x402db054	2.7138872
134	0x3f51de27	0.819796
135	0x3f7a7892	0.97840226
136	0x3f1b5c7d	0.60688
137	0xc070205a	-3.7519746
138	0x3fd90f09	1.6957713
139	0xbf0fb8d0	-0.56141376
140	0xbe908b29	-0.2823117
141	0xbf166e27	-0.5876183
142	0xbfce5cf2	-1.6122115
143	0xbc8011a8	-0.01563342
144	0xbe1326ca	-0.14370266
145	0xbdda9008	-0.10672003
146	0xbe1d8e24	-0.15386254
147	0xbe85bfb3	-0.26122817
148	0xbe1ff2b6	-0.1561993
149	0x3c1d59b8	0.00960391
150	0x3d6967fe	0.05698394
151	0x3d9bd12d	0.076082565
152	0xbc93cbe7	-0.018041564
153	0xbc18c4a1	-0.009324224
154	0x3dc26308	0.09491545
155	0xbea39801	-0.31951907
156	0xbfaf97e7	-1.3718232
157	0x3ee4474e	0.4458565
158	0xc01db330	-2.4640617
159	0x3e79623a	0.24353877
160	0xbf139c17	-0.5766005
161	0xbfc8a5e6	-1.5675628
162	0x3f09ef8a	0.5388113
163	0xbff5c643	-1.920113
164	0xc009bc4c	-2.1521177
165	0x3ef32053	0.474856
166	0x3e9992ed	0.29994908
167	0x3fed238e	1.8526475
168	0xbe3063eb	-0.17225616
169	0xbef63cbb	-0.4809321
170	0x3e35dbad	0.17759581
171	0xc00b316a	-2.174891
172	0x3f6f3e90	0.9345484
173	0xbf6b6d7f	-0.9196395
174	0xbe9ab89a	-0.30218965
175	0xbef10135	-0.47071233
176	0xbecfa070	-0.40552092
177	0xbf5d4c99	-0.86445004
178	0xbeed0720	-0.46294498
179	0xbe00edb6	-0.1259068
180	0xbec2d8a6	-0.38055915
181	0xbf1837ed	-0.59460336
182	0xbd6d97d2	-0.058006115
183	0xbec82c6f	-0.390964
184	0x3f921e1a	1.1415436
185	0xbfae5146	-1.3618553
186	0xbf77ce3b	-0.9679906
187	0x3e618f94	0.22027427
188	0xbf5825f8	-0.84432936
189	0xbf212b96	-0.6295713
190	0x3e3f7635	0.18697436
191	0xbe183a03	-0.1486588
192	0xc012cc7b	-2.2937305
193	0xbebd1a15	-0.36933962
194	0x3b8f6b2b	0.004376789
195	0x40797d3c	3.8982687
196	0xbe565d9a	-0.20934144
197	0x40257273	2.5851104
198	0x40114217	2.2696588
199	0xbf32f336	-0.6990236
200	0x3eb176b0	0.34660864
201	0xbf8eeb3c	-1.1165538
202	0xbf64ae86	-0.893288
203	0xbf36681d	-0.71252614
204	0x3e494086	0.1965352
205	0xbe978d10	-0.2959981
206	0xbd6c3f7c	-0.05767773
207	0xbf211bb8	-0.6293292
208	0xc04472a6	-3.0694976
209	0x3f5f9475	0.873359
210	0xc0716035	-3.771497
211	0xbfd4779e	-1.6599004
212	0xc04d2117	-3.2051446
213	0xbf23526a	-0.6379763
214	0x3e9aa4b4	0.30203784
215	0xbffd394f	-1.9783114
216	0x3f15f415	0.58575565
217	0x3eb2c0a9	0.34912613
218	0xbf16fc8e	-0.5897912
219	0x3fb6e41d	1.4288365
220	0xbe10493d	-0.14090438
221	0xbfbbc8fa	-1.4670708
222	0x40171efc	2.3612661
223	0xbfd49869	-1.6609012
224	0x3f9ded00	1.2337952
225	0xbeec9c18	-0.4621284
226	0xc0348e3f	-2.821182
227	0x3e91cfe6	0.28478926
228	0x4015835b	2.3361423
229	0x3eb5298c	0.3538326
230	0xc0027480	-2.0383606
231	0xbec8f543	-0.3924962
232	0xbfc6c753	-1.5529579
233	0xbf46fff7	-0.7773432
234	0xbfb95a05	-1.4480597
235	0x4017c225	2.3712246
236	0xbf9c2e18	-1.2201567
237	0xbf9962b6	-1.1983249
238	0xc02bcdec	-2.6844435
239	0x3f997cfe	1.199127
240	0xbf0ce508	-0.55036974
241	0xc022d154	-2.5440264
242	0xbd921ecf	-0.071347825
243	0x3ffc0aa4	1.9690747
244	0xbf733141	-0.9499703
245	0x3faed8b4	1.3659883
246	0xbd69b9e0	-0.05706203
247	0x3fa57958	1.2927656
248	0xc061f822	-3.5307698
249	0x3f9908a7	1.1955765
250	0xbebd644b	-0.3699058
251	0x3f94a51c	1.1612887
252	0xbfcf64a7	-1.6202592
253	0xbf650855	-0.8946584
254	0xbeb665d6	-0.3562457
255	0x3fcb1116	1.5864589

net.0.bias f4 [128]
0	0xbec71e16	-0.3889014
1	0xbedafe42	-0.42772108
2	0x3e8b247c	0.27176273
3	0x3ee05b8d	0.43819848
4	0xbe8d01ba	-0.2754038
5	0xbe738cdd	-0.23784204
6	0xbe5d8666	-0.216333
7	0xbe502932	-0.20328215
8	0xbef21cd7	-0.47287628
9	0xbf115077	-0.56763405
10	0xbdd984de	-0.106210455
11	0xbe8811a0	-0.26575947
12	0x3eede940	0.46467018
13	0xbedbac49	-0.4290488
14	0x3c7f2a07	0.015573985
15	0x3e8a2926	0.2698452
16	0x3e9659ee	0.29365486
17	0x3f1f659a	0.62264407
18	0x3dad0f57	0.084501915
19	0x3f120a60	0.5704708
20	0xbf5d30a0	-0.8640232
21	0x3e0149f9	0.12625875
22	0xbe46c53e	-0.1941118
23	0x3eae6b2e	0.34066147
24	0xbe985671	-0.2975345
25	0x3f944afc	1.1585383
26	0x3fc9e150	1.5771885
27	0xbfbc68f1	-1.4719526
28	0xbe24d61c	-0.16097301
29	0x3d6e5fe7	0.05819693
30	0xbe99dfda	-0.30053598
31	0xbdb1576c	-0.086592525
32	0xbeecfc7b	-0.46286377
33	0xbc6b5aad	-0.0143648805
34	0x3f04a506	0.51814306
35	0xbfa1b33b	-1.2632822
36	0x3f479939	0.77968174
37	0x3ecae4d5	0.3962771
38	0xbf0853cf	-0.5325288
39	0xbf195d20	-0.5990772
40	0x3e890ceb	0.26767668
41	0x3f89c3dc	1.0762897
42	0xbf139a0f	-0.5765695
43	0xbef46322	-0.47731882
44	0x3e5e2052	0.21692017
45	0xbe127790	-0.14303422
46	0xbd2ed487	-0.04268315
47	0xbe395224	-0.1809774
48	0x3e09c42b	0.13453738
49	0xbe905e03	-0.28196725
50	0xbe65c74d	-0.22439308
51	0x3f4bfd03	0.7968294
52	0x3dc81f24	0.097715646
53	0x3f9cb7c9	1.2243587
54	0xbd4acdb2	-0.049512573
55	0xbf77a6fe	-0.96739185
56	0x3f5691d7	0.83816284
57	0x3f9824be	1.1886213
58	0xbecbd4d2	-0.39810807
59	0x3eb3b69c	0.35100257
60	0xbceff754	-0.02929274
61	0xbf075421	-0.52862746
62	0xbe90f1ce	-0.28309482
63	0xbe92433b	-0.28566918
64	0x3dac81be	0.08423184
65	0xbe57975d	-0.21053834
66	0x3e829008	0.25500512
67	0x3eb33289	0.34999493
68	0x3e987d4e	0.297831
69	0xbe146a83	-0.14493756
70	0x3f272959	0.65297467
71	0x3e0c099f	0.13675545
72	0xbdc4fcca	-0.09618528
73	0xbe350052	-0.17675903
74	0xbe8aa12d	-0.27076092
75	0xbea91192	-0.33021218
76	0x3eb708b2	0.35748821
77	0x3cdd8941	0.027042987
78	0xbdb84aa2	-0.0899861
79	0x3f393302	0.72343457
80	0xbe484971	-0.19559266
81	0xbbbda128	-0.0057870336
82	0x3e1f1e52	0.1553891
83	0xbe573ed6	-0.21020064
84	0xbe31d530	-0.17366481
85	0xbfbbceed	-1.4672524
86	0xbf4fa4d1	-0.81110865
87	0xbea552e6	-0.3228981
88	0xbf9d4616	-1.2287014
89	0x3f93444d	1.1505219
90	0x3f4c194a	0.7972609
91	0xbf4cbaf9	-0.799728
92	0x3f95c3f7	1.1700429
93	0xbe6cefd7	-0.23138367
94	0xbe98798c	-0.29780233
95	0x3e581a29	0.2110373
96	0x3e1e31e2	0.15448716
97	0xbe1e722a	-0.15473238
98	0x3ed50e41	0.41612437
99	0x3ef94e06	0.4869234
100	0xbc786f05	-0.015163188
101	0xbea8510f	-0.32874343
102	0x3e316db9	0.17327012
103	0xbea5911f	-0.3233728
104	0xbe220197	-0.15820919
105	0x3e943b04	0.28951275
106	0x3ec448b5	0.3833672
107	0xbe45c812	-0.19314602
108	0x3d58f530	0.052968204
109	0xbeb2f53b	-0.3495272
110	0x3df3683f	0.11885118
111	0xbea23afd	-0.3168563
112	0x3da607e5	0.081069745
113	0xbef8869c	-0.485402
114	0xbf82528d	-1.0181442
115	0xbd7e6e59	-0.062116954
116	0xbe8c3f9e	-0.27392286
117	0x3ccad3f3	0.024759268
118	0xbee1e721	-0.4412165
119	0xbdc84927	-0.09779578
120	0xbebf33a5	-0.3734409
121	0xbd00950d	-0.031392146
122	0xbf9fdc35	-1.2489077
123	0xbf619fb5	-0.8813432
124	0xbe14fdef	-0.14549993
125	0xbe10ba63	-0.14133601
126	0x3f132788	0.57482195
127	0xbe99b929	-0.30024078

net.2.weight f4 [128, 128]
0	0xbec4ba2c	-0.38423288
1	0x4009add9	2.1512358
2	0x3f1dee43	0.61691684
3	0xbeb89579	-0.3605154
4	0xbda471a4	-0.08029488
5	0xbf11132f	-0.56669897
6	0x3fc9d127	1.5766953
7	0x3d0ef0cc	0.03489761
8	0xbe21a61c	-0.15786022
9	0xbfd2d54e	-1.6471345
10	0xbd2e0c91	-0.042492453
11	0x3c96b9a9	0.018399077
12	0xbd97371b	-0.073835574
13	0xbbb90fa4	-0.0056476165
14	0xbea2ebb8	-0.31820464
15	0xbf8d3f70	-1.1034985
16	0xbfe83a8b	-1.8142866
17	0xc01786f1	-2.3676112
18	0xbc62c280	-0.013840318
19	0x3fbde2c0	1.4834824
20	0xbea29427	-0.31753656
21	0x3da4e49c	0.08051416
22	0xbd9b3431	-0.07578314
23	0xbf532176	-0.8247293
24	0x3c9e7da1	0.019347014
25	0xbed078d5	-0.40717188
26	0xbf7d14e8	-0.98860025
27	0x3e91ea2d	0.28498974
28	0xbd45a9ca	-0.048257627
29	0xc05cd222	-3.4503255
30	0x3d01604c	0.031585976
31	0xbdb69239	-0.089146085
32	0x3f027ee6	0.5097488
33	0x3b4f1eeb	0.0031604122
34	0x3f075296	0.5286039
35	0xbfa081a4	-1.2539563
36	0x3e7a8876	0.24466118
37	0xbddec431	-0.10877264
38	0xbe8d1dbe	-0.27561754
39	0x402a90d1	2.665089
40	0xbf16ce4a	-0.5890852
41	0xc01fbbb6	-2.495832
42	0xbf58fc85	-0.84760314
43	0xbfe22b15	-1.7669398
44	0xbf2d1c6a	-0.6762148
45	0x3edd9488	0.43277383
46	0xbe8bae4d	-0.27281418
47	0x3e376a79	0.1791171
48	0xc0274fe5	-2.6142514
49	0x3be7e4de	0.0070768436
50	0xbf32669b	-0.69687814
51	0xbfe7bc35	-1.8104311
52	0xbf064be6	-0.5245956
53	0xc06abea8	-3.6678867
54	0x3f7bd116	0.98365915
55	0xbf517046	-0.8181194
56	0x3fb2d01b	1.3969759
57	0xbd9a9f38	-0.075499
58	0xbfb2a290	-1.395586
59	0x3e79d23c	0.24396604
60	0xbc6988b1	-0.014253781
61	0x3e1763b6	0.1478413
62	0xbfa3e7df	-1.2805136
63	0xbec44d59	-0.38340262
64	0xbbb72256	-0.00558881
65	0xbcc35232	-0.023842905
66	0xbfcb79b1	-1.5896512
67	0xbed812f6	-0.42201966
68	0xc0651193	-3.5791976
69	0xbefa685a	-0.4890774
70	0xbf43eafd	-0.7653044
71	0xbf81dc42	-1.0145342
72	0xbd3555da	-0.044271328
73	0xbe2612da	-0.16218129
74	0xbcbfae07	-0.023398412
75	0xbfb4fa1a	-1.4138825
76	0xbf5765af	-0.8413953
77	0x3d7d41db	0.061830383
78	0xbb3eabe0	-0.0029094145
79	0xbe86a5a5	-0.26298252
80	0x3d211854	0.03932984
81	0x3c83433d	0.016023273
82	0x3e6cf08a	0.23138633
83	0xbe58f38a	-0.21186653
84	0xbd8361fe	-0.06415175
85	0xc017d099	-2.3721068
86	0xbf6828b5	-0.90687114
87	0xbefdb1ed	-0.4954981
88	0xbd55f8c3	-0.05223919
89	0xbe8484a4	-0.25882447
90	0xbe7a0f1e	-0.24419829
91	0xbe87a4f3	-0.26493034
92	0xbfca85f7	-1.5822133
93	0xbd9fd12e	-0.0780357
94	0x3ce3ab9a	0.027791787
95	0x3dad27dc	0.08454868
96	0xbf8423a4	-1.0323377
97	0xbf1718e2	-0.59022343
98	0xbe75479c	-0.23953098
99	0x3f418882	0.7559892
100	0xbce134d2	-0.027491007
101	0xbf01acbb	-0.5065419
102	0x3e5da7cc	0.2164604
103	0xbfd5b3f4	-1.6695542
104	0x3f3cdcfd	0.737747
105	0x3e2a9c1d	0.16661115
106	0x3e7b6402	0.24549869
107	0xbd8b0541	-0.067881115
108	0xbe5ceeb9	-0.2157544
109	0xbf273b79	-0.65325123
110	0x3e83d473	0.25748023
111	0x3d93f780	0.07224941
112	0x3d81bd41	0.063349254
113	0xc0502c8f	-3.2527196
114	0xbe8782d8	-0.26467013
115	0xbfdcadee	-1.7240579
116	0x3d5b6849	0.05356625
117	0xbc635710	-0.013875738
118	0x3f705353	0.9387714
119	0x3e495386	0.19660768
120	0xc024ba10	-2.5738564
121	0xbda3f924	-0.08006504
122	0x3f7e41bd	0.9931906
123	0xbf0cd03b	-0.55005234
124	0xbdd53d48	-0.10412079
125	0xbd39fdc3	-0.04540802
126	0xbeb03cdc	-0.34421432
127	0x3ed7371a	0.42034227
128	0xbed5cdc8	-0.4175856
129	0xc009ec9a	-2.155066
130	0x3e1c33bd	0.15254112
131	0xbf347ae2	-0.70500004
132	0xbc82bcd8	-0.015959188
133	0xbf576a7a	-0.84146845
134	0x3fcd244c	1.6026702
135	0xbd803777	-0.06260579
136	0x3e3a3666	0.18184814
137	0x3f51d4b9	0.81965214
138	0xc032e6f8	-2.7953472
139	0x3cae5ff6	0.021285992
140	0x3ef7e279	0.48414972
141	0x3e283eac	0.16430157
142	0xbff828b7	-1.9387425
143	0x3f3c9cdf	0.73676866
144	0xbf8d134d	-1.1021515
145	0xbfebcd09	-1.8421947
146	0xbfb6cc4a	-1.4281094
147	0xbf93857e	-1.1525114
148	0x3fb7edd1	1.4369451
149	0x3c190288	0.009338982
150	0x3db20bfe	0.086936936
151	0x3eecd8f3	0.4625927
152	0x3c970ee5	0.01843972
153	0xbf8d7503	-1.1051334
154	0xbf6f7cf4	-0.9355004
155	0xbffc1454	-1.9693704
156	0x3d113327	0.035449173
157	0xbf219516	-0.6311811
158	0x3c2c3723	0.0105111925
159	0xbd7bb45c	-0.0614513
160	0xbe93221e	-0.28736967
161	0x3d8fd1de	0.07022451
162	0xc08fa6f9	-4.4891324
163	0x3fa0bbd7	1.2557324
164	0xbf84b35f	-1.036724
165	0xbddeae20	-0.108730555
166	0x3c9f7da4	0.01946909
167	0xbeb3be57	-0.35106155
168	0xbea9f99b	-0.33198246
169	0xbfa76f09	-1.308076
170	0xbf02fec2	-0.5116998
171	0xc02020b9	-2.5019972
172	0xc03a4046	-2.910173
173	0xbfbd136b	-1.4771551
174	0xbefb4a65	-0.49080196
175	0xbe0b1f4c	-0.13586158
176	0xbed6908c	-0.41907156
177	0xc06da866	-3.7134032
178	0xbf2d9bda	-0.67815936
179	0xbfd82eea	-1.6889317
180	0x3f62ca30	0.88589764
181	0xc02f3ec9	-2.738207
182	0x3ed494c4	0.4151975
183	0x3f31572e	0.6927365
184	0xbec09dce	-0.37620395
185	0x3e87e8b0	0.26544714
186	0xbd1dbfa3	-0.038512837
187	0xbe56edc1	-0.20989133
188	0xbf266472	-0.6499702
189	0xbccb56bb	-0.02482163
190	0xc009aeaa	-2.1512856
191	0x3f3c343e	0.73517215
192	0x3d45bba6	0.04827466
193	0x3c1f92db	0.009739603
194	0xbeb3931f	-0.35073182
195	0xbf720f56	-0.9455465
196	0xbe4c70f5	-0.19964965
197	0xbfca03e6	-1.578244
198	0xbeee909c	-0.46594703
199	0xc021da76	-2.5289588
200	0x3c9a8b93	0.018865382
201	0xbebea047	-0.37231657
202	0x3c450eb8	0.012027435
203	0x3f6be7c8	0.92150545
204	0xc0ae38b4	-5.444422
205	0xbc253262	-0.010082813
206	0x3d78f7b8	0.060783118
207	0xbfa3b15a	-1.2788498
208	0xbd8d1d53	-0.06890359
209	0x3d691647	0.05690601
210	0xbd0e6d9a	-0.034772493
211	0x3d585c8a	0.052822627
212	0xbd810889	-0.06300456
213	0xc0012686	-2.0179763
214	0x3f35fefd	0.71092206
215	0x3f5735e5	0.8406661
216	0xc0258381	-2.5861514
217	0xc03277f6	-2.7885718
218	0x3e0697aa	0.13143793
219	0xbfd92660	-1.6964836
220	0xbf150a5e	-0.58218944
221	0xbc8e6a83	-0.017384773
222	0xbf4bbb63	-0.79582804
223	0xbedf8354	-0.43654883
224	0xbfafa1dc	-1.372127
225	0x3f3dfe3b	0.7421605
226	0xbf66c8ca	-0.9015013
227	0xc02be00b	-2.6855495
228	0xbd17bea9	-0.037047062
229	0x3e5fb45a	0.21846142
230	0xbf37c71f	-0.7178821
231	0xbf873f0a	-1.0566113
232	0xbe9b263f	-0.30302617
233	0xbff3eaa9	-1.9055988
234	0x3eb608df	0.35553643
235	0xbd71fb29	-0.059077416
236	0x3d91d360	0.07120395
237	0x3ea4d65b	0.3219479
238	0xbe471508	-0.19441617
239	0xbd5fa81a	-0.054603674
240	0x3bf04642	0.007332594
241	0xbf42f0e9	-0.7614885
242	0x3e4649f5	0.1936415
243	0x3e5386ff	0.20656966
244	0xbd342896	-0.04398402
245	0x3e1a8f2c	0.15093678
246	0xbe79c9ec	-0.24393433
247	0x3f0cc45f	0.5498714
248	0xc0892729	-4.2860303
249	0xbd23debf	-0.04000735
250	0xbd287bb6	-0.041133605
251	0x3f13f478	0.57794905
252	0x3e2bb438	0.16767967
253	0x3d62592e	0.05526083
254	0xbefc24e1	-0.49246886
255	0xbfec45a0	-1.8458748

net.2.bias f4 [128]
0	0xbede7aa4	-0.43452942
1	0x3f972b1d	1.1810032
2	0xbeb4d588	-0.3531916
3	0x402fd167	2.747156
4	0xbe06c194	-0.13159782
5	0x3d4d86c8	0.050177366
6	0x3f8aeb06	1.0852973
7	0x3fa12c65	1.2591673
8	0xbdc83836	-0.097763464
9	0xbf0af282	-0.5427629
10	0xbe17bacd	-0.14817353
11	0xbde7df0b	-0.11321839
12	0xbd8e6ad7	-0.06953972
13	0x3f209ad5	0.62736255
14	0x3bc5e9a4	0.006039815
15	0x3f5fdd9a	0.8744751
16	0x3f5e497d	0.86830884
17	0xbd473d37	-0.048642363
18	0x40086716	2.1312919
19	0xbfcb1c0e	-1.5867937
20	0xbeabb891	-0.3353925
21	0xbe85b987	-0.2611811
22	0xbdff7c60	-0.124748945
23	0xbda42406	-0.080146834
24	0xbe7b09d2	-0.24515465
25	0xbde1c054	-0.11023012
26	0x3eb25d4f	0.34836814
27	0xbdf27c48	-0.11840111
28	0xbdbaef6d	-0.09127698
29	0xbfd2d1eb	-1.6470312
30	0xbd814706	-0.06312375
31	0xbe24ef89	-0.16107
32	0xbe04c9db	-0.12967627
33	0xbff71d90	-1.9305897
34	0xbf81fa45	-1.0154501
35	0xbe609d85	-0.21935089
36	0xbd94e117	-0.07269495
37	0x3f4df88a	0.80457366
38	0xbe10fd4f	-0.1415913
39	0xbdb27cb1	-0.08715189
40	0xbcd4345a	-0.02590387
41	0x3f177656	0.5916494
42	0xbd899d61	-0.06719471
43	0xbbd6ac03	-0.006551267
44	0xbd8165f1	-0.06318272
45	0xbda9b8b8	-0.082871854
46	0xbe15bc1c	-0.1462254
47	0xbf4ab422	-0.7918111
48	0xbf904881	-1.1272126
49	0x3c0697fc	0.008214947
50	0xbc853b85	-0.016263733
51	0xbe04f179	-0.1298274
52	0xbe07c7d0	-0.13259816
53	0xbe30c80a	-0.17263809
54	0x3bac74e4	0.005262958
55	0x3f390978	0.72280073
56	0xbd8da4ad	-0.06916175
57	0x3d8924d3	0.06696477
58	0xbeedbc51	-0.46432737
59	0xbe6b3503	-0.22969441
60	0xbe335172	-0.17511538
61	0xbe2f0011	-0.17089869
62	0x3df4e465	0.11957625
63	0xbf2644ff	-0.6494903
64	0xbcb0cdf5	-0.021582583
65	0xbd91cfdb	-0.071197234
66	0x3f99c060	1.2011833
67	0xbf5f1385	-0.8713916
68	0x3f144257	0.57913727
69	0x3e9e2227	0.3088543
70	0x3f06729a	0.5251862
71	0x3ef7f446	0.48428553
72	0x3f20307d	0.6257399
73	0xbdf67c1b	-0.1203539
74	0xbd6e1d7f	-0.0581336
75	0xbf29ebb7	-0.663753
76	0x3eeb6821	0.45977882
77	0xbd9462f7	-0.072454385
78	0xbb845321	-0.00403823
79	0x3f6e8002	0.93164074
80	0x3e04f3b4	0.1298359
81	0xbeada754	-0.33916724
82	0xbe93f97f	-0.28901288
83	0xbf5872e2	-0.845503
84	0xbca3a430	-0.019975752
85	0x3ec494db	0.38394818
86	0x3e5d2f06	0.2159997
87	0x3fcc2ea8	1.5951738
88	0xbc3e4a9f	-0.011614471
89	0xbd8db510	-0.069193006
90	0x3f0a7f96	0.5410093
91	0xbd7e9203	-0.062150966
92	0x3eaf82ed	0.34279576
93	0x3fbf359c	1.4938235
94	0xbe93ae4f	-0.28843924
95	0x40003582	2.0032659
96	0x3f9813ff	1.1881102
97	0xbe9640bd	-0.29346266
98	0xbe388e0f	-0.18022941
99	0x3f642bd3	0.8912937
100	0x3fc00d9b	1.5004152
101	0xbd98f577	-0.07468694
102	0x3f182589	0.59432274
103	0xbe1ae87e	-0.15127751
104	0x3fc025c5	1.5011526
105	0xbda6957d	-0.081339814
106	0x3df5fd2a	0.12011178
107	0x3f4786e7	0.7794022
108	0x3f63586f	0.88806814
109	0x3eda0c9f	0.42587754
110	0xbc83abbe	-0.016073104
111	0xbc87d7fe	-0.016582485
112	0xbe919a46	-0.28438014
113	0xbddc6817	-0.10762041
114	0x3e3412bb	0.1758527
115	0xbe1850dd	-0.14874597
116	0x3e43a90d	0.19107457
117	0xbda180c2	-0.07885887
118	0xbe689db8	-0.22716415
119	0x3f212265	0.62943107
120	0xbec19b5f	-0.3781385
121	0xbe9914de	-0.29898733
122	0x3f817083	1.0112461
123	0xbf6f1fa8	-0.9340768
124	0xbd8449b8	-0.06459373
125	0xbe0e8a6a	-0.13919988
126	0xbf20a033	-0.62744445
127	0xbd9785c9	-0.07398564

net.4.weight f4 [6, 128]
0	0x40068c43	2.102311
1	0x40487f26	3.1327605
2	0x401257c0	2.2866058
3	0xbf3a79e9	-0.7284227
4	0xba08c687	-0.0005217571
5	0x3f44f13e	0.76930606
6	0x40857860	4.170944
7	0x4041a50b	3.0256984
8	0x3d007aef	0.03136724
9	0x3f22635c	0.6343286
10	0x3d0ab4d0	0.033863842
11	0xbd5edce8	-0.05440989
12	0x40227c34	2.5388308
13	0x403ae3c8	2.9201527
14	0xbdb4accd	-0.08822022
15	0x404bf030	3.186535
16	0x3f6141d6	0.8799108
17	0xbc614245	-0.01374871
18	0x3f931c82	1.1493075
19	0xbf426e2c	-0.7594936
20	0xbf2fcad1	-0.6866885
21	0x406fb3ab	3.745341
22	0x3cf01736	0.029307943
23	0xbd480099	-0.048828695
24	0x404b01b8	3.17198
25	0x3d061d22	0.032742627
26	0x409a4a4f	4.821571
27	0x3cb1ffc3	0.021728402
28	0x3d5766ea	0.05258838
29	0xbebdd5a4	-0.37077057
30	0x3eddc415	0.4331366
31	0xbd1a363b	-0.037649374
32	0xbdcdc3fb	-0.10047146
33	0xbf69dfd8	-0.91357183
34	0x4081ad56	4.052409
35	0x403d89db	2.961539
36	0xbb9868b2	-0.0046511525
37	0x404616e3	3.095147
38	0x3bf279ac	0.0073997583
39	0xbc1a820f	-0.009430422
40	0x3c098f95	0.008396049
41	0x40806b93	4.0131316
42	0xbed54714	-0.4165579
43	0x404b6b2b	3.178416
44	0xbd7d81f4	-0.06189151
45	0xbc183594	-0.009290118
46	0x3cc641fa	0.024201382
47	0x40344d56	2.8172202
48	0xbf87ba14	-1.0603662
49	0x4078ef4d	3.8896058
50	0x3c46323f	0.012096941
51	0xbd099f2e	-0.03359907
52	0x3d8f2472	0.06989373
53	0x3faa8cc7	1.3324212
54	0xbcce6415	-0.025194207
55	0xbf7a7b1e	-0.9784411
56	0x3d6c30f1	0.05766386
57	0x3ffae9ce	1.9602602
58	0x401ef453	2.4836624
59	0x3e20362c	0.15645665
60	0x40030152	2.0469556
61	0x3ccd3759	0.025050806
62	0xbdaaa415	-0.083320774
63	0x40863081	4.193421
64	0x3cb3bd84	0.021940954
65	0x4085d3e6	4.1821165
66	0x4096e9c6	4.716037
67	0x40420dff	3.0321043
68	0x4065137a	3.5793138
69	0x400307a2	2.0473409
70	0xbf5087c1	-0.81457144
71	0x40047d62	2.0701528
72	0xbe87c7c5	-0.265196
73	0x3d6c1c7f	0.057644363
74	0xbd144b48	-0.036204606
75	0x3facb758	1.3493452
76	0x40672667	3.611719
77	0x3d5bc5f9	0.0536556
78	0x3e117c97	0.14207684
79	0x4023083f	2.5473783
80	0x3fc5a144	1.5439839
81	0x3ef5d64a	0.48015052
82	0x404e2357	3.220907
83	0x406c38d1	3.6909678
84	0x40535023	3.3017662
85	0x4013d6f1	2.309994
86	0x4059f494	3.4055529
87	0xbf828b75	-1.0198809
88	0x3cae8582	0.021303896
89	0x40262a47	2.5963304
90	0x40450d55	3.0789387
91	0x3c9c1c86	0.01905657
92	0x403c80a1	2.945351
93	0x4069df1c	3.6542425
94	0xbe73c441	-0.23805334
95	0x3f8012c1	1.0005723
96	0x3fd4dc21	1.6629678
97	0xbdf3173b	-0.11869665
98	0x3d8923d3	0.06696286
99	0x406deb76	3.7174964
100	0x40054083	2.0820625
101	0xbd055e41	-0.03256059
102	0xbf835674	-1.0260758
103	0x3b6d5c1e	0.0036218236
104	0x3fdcf2a1	1.7261544
105	0x3c2e6fdf	0.010646789
106	0x3ef3a125	0.4758388
107	0x4051297a	3.2681565
108	0x4098d6b1	4.7762074
109	0x4006a810	2.1040077
110	0x3b973f6d	0.0046157152
111	0xbc798a2e	-0.0152306985
112	0xbf2300fb	-0.6367337
113	0x3d735d54	0.059415177
114	0x4058fdb2	3.3904843
115	0xbc581d5a	-0.013190592
116	0x408af7ff	4.342773
117	0x4061e4d9	3.5295928
118	0x402bc2d1	2.6837656
119	0x402ac120	2.6680374
120	0x4042b649	3.0423758
121	0x4021fe63	2.5311515
122	0x4067d37d	3.6222832
123	0x3fee467c	1.861526
124	0x408da8c5	4.4268517
125	0x3d143746	0.036185525
126	0x404f35b4	3.2376528
127	0xbd9ef1c0	-0.07760954
128	0x401199ba	2.2750077
129	0x4019d03b	2.4033344
130	0x40189b6b	2.384486
131	0xbf438870	-0.7638006
132	0x3ec7e7e1	0.39044097
133	0x3f7c6cf2	0.9860374
134	0x40835a62	4.104783
135	0x40457108	3.0850239
136	0xbd6ecf42	-0.058303125
137	0x3f2c65e8	0.67342997
138	0x3c17c70a	0.009263763
139	0x3d2c4cdd	0.04206549
140	0x400eeb09	2.2330954
141	0x405f3bfc	3.4880362
142	0xbd004a41	-0.031320814
143	0x4052e2c8	3.2950916
144	0x3f6d8167	0.9277558
145	0xbc8d6dbc	-0.01726424
146	0x3f961b44	1.1727071
147	0xbf048e15	-0.517793
148	0xbf2987b9	-0.6622272
149	0x4060d1e4	3.5128107
150	0xbcc162c5	-0.023606667
151	0x3c8fdf7d	0.017562622
152	0x4072ec75	3.7956822
153	0x3ba5bfc3	0.00505826
154	0x4094b98c	4.64765
155	0x3c028059	0.007965171
156	0x3dd78894	0.10524097
157	0xbec55540	-0.38541603
158	0xbd86a808	-0.06575018
159	0xbce984e9	-0.02850576
160	0xbc8a0085	-0.01684595
161	0xbf7a0597	-0.9766478
162	0x408236ed	4.069205
163	0x403dd3bd	2.9660485
164	0xbd284c3c	-0.041088328
165	0x403699da	2.8531404
166	0x3d902142	0.070375934
167	0xbb0c855b	-0.002144179
168	0x3caf7541	0.021418216
169	0x40854c7d	4.165587
170	0xbf1b029e	-0.6055087
171	0x401cf9a9	2.452738
172	0x3b1f6d43	0.00243266
173	0xbd0b6dfa	-0.03404043
174	0x3c3b0454	0.011414606
175	0x4033d1d0	2.809681
176	0xbf86e07c	-1.0537257
177	0x406a8157	3.6641443
178	0xbc81950d	-0.015818143
179	0xbc4ee0d9	-0.01262685
180	0x3d292ee0	0.04130447
181	0x3fbb1a22	1.461735
182	0x3d20857c	0.0391898
183	0xbfe06c5b	-1.7533067
184	0xbd115f19	-0.035491083
185	0x403cdd19	2.9509947
186	0x4008332c	2.1281233
187	0x3f423fc9	0.7587858
188	0x3ffac913	1.9592613
189	0x3bf48cd9	0.0074630794
190	0xbf21fa0f	-0.63272184
191	0x4082094e	4.063636
192	0x3d9ffd2e	0.07811962
193	0x405da352	3.4630933
194	0x407fd313	3.997258
195	0x4055611d	3.3340523
196	0x404f89fb	3.2427967
197	0x3ffb4ab0	1.9632168
198	0xbf4ab15f	-0.79176897
199	0x3fde6927	1.737584
200	0xbe7e3052	-0.2482312
201	0x3d787fc1	0.06066871
202	0x3c0e6842	0.008691849
203	0x401064d6	2.2561545
204	0x405eb675	3.4798863
205	0x3d295e6f	0.041349825
206	0x3e697e05	0.22801979
207	0x402217f8	2.532713
208	0x3fbe8add	1.4886128
209	0x3f44c15b	0.7685754
210	0x406550a7	3.5830476
211	0x4076374a	3.8471246
212	0x405e0f52	3.469685
213	0x3fb9dc54	1.4520364
214	0x406b1cbe	3.6736293
215	0xbf87a825	-1.0598189
216	0xbe606323	-0.21912818
217	0x401a6ef4	2.413022
218	0x40688171	3.6329005
219	0x3ce1a6a4	0.02754528
220	0x40749fdf	3.8222578
221	0x40448e2d	3.0711777
222	0x3cc9b816	0.024623912
223	0x3f6f1c04	0.93402123
224	0x3fe61aea	1.7976964
225	0xbdb4af6f	-0.08822524
226	0x3d65bf75	0.05609079
227	0x405839b4	3.378522
228	0x4005f5e2	2.0931325
229	0x3d55bfc1	0.052184824
230	0xbe5dbf0b	-0.21654908
231	0xbd2eebde	-0.04270541
232	0x3fd8f275	1.6948992
233	0x3ce06253	0.027390635
234	0xbf837ef6	-1.027312
235	0x403ce2fc	2.951354
236	0x409907e6	4.782214
237	0x403ae915	2.9204762
238	0xbd9f2991	-0.077716
239	0xbc8ffc9f	-0.017576514
240	0xbed62490	-0.4182477
241	0x3b6ee6e7	0.0036453546
242	0x4045e5a3	3.092141
243	0xbd6d9de1	-0.058011893
244	0x4073d8f2	3.8101163
245	0x404f8687	3.242586
246	0x400305c2	2.0472264
247	0x40356bd1	2.8347056
248	0x403c83f1	2.945553
249	0x4028757a	2.6321702
250	0x405f8923	3.4927452
251	0x3fedb39a	1.8570435
252	0x40723967	3.7847536
253	0x3d03ee4a	0.032209672
254	0x406381b4	3.5547915
255	0x3c18c487	0.0093241995

net.4.bias f4 [6]
0	0x400b7189	2.1788046
1	0x401899a9	2.3843787
2	0x4023a2b8	2.5568066
3	0x401894ff	2.384094
4	0x402a65b4	2.6624575
5	0x4012186e	2.282741
