rl/dqn_asteroids.pth (torch, 79453 bytes, 6 tensors)

net.0.weight f4 [128, 13]
00000000: 51bd 8dbf fd84 96bf 0c2d 6dbf 1840 f3be
00000010: 3373 f53d f7f8 d63e 66b5 b63d abef 4e3e
00000020: 2be3 c9bd 6565 ecbe d432 87be 479b 24be
00000030: cb53 23bf e7a8 2f3f 6d75 323f 3f29 fb3f
00000040: 3b4b 29c0 a89c 533f 0bf3 f2be e76a 71bf
00000050: fcaa c03f 42d9 96c0 20af a3bf 7013 95bf
00000060: a1ea 433f 0576 10bf b716 fabd 3dce 8e3f
00000070: 2f85 8bc0 ba5c 123c 0077 313f 108b afbe
00000080: a473 d4bf 9e59 103e 674b e03f 027a 61bf
00000090: cecb 10bf 2494 5f3f b8c6 b0be 0dfd d83e
000000a0: c3fc aebc dde0 1dc0 9494 2c3f a7d3 0dbe
000000b0: d31e 36be ef90 843f b3f8 4bc0 3441 5c3f
000000c0: e61b cf3d 825a 143f 3081 6bbf b046 db3d
000000d0: f0d7 823e d74f 2b3e 06ce 0e3e 2460 5a3e
000000e0: 4b62 023c f36f 6f3e 4350 39be 3577 6fbe
000000f0: 8225 4fbe ddaf a7be f721 35be 1b76 b93d
00000100: 548f a2be 9dee 4ebf 3c6c 8d3f 79de 6d3e
00000110: 18a9 823f aaef 12c0 4792 d63f dd8a b2bd
00000120: 511d 1c3e d3b3 b23d 644a 3e3f 5b67 6bbe
00000130: 1b52 e2bf 4c12 cc3c fa6a ccbf 3880 c23e
00000140: 4dcd 00bf 224b e3bf ba86 12c0 cfb5 9abf
00000150: 1095 e3bf d6a5 9d3f 078e 973f 5f3e 843f
00000160: 6e68 87bf f8e4 81bf 680d d23f 5e5e acbd
00000170: 5d20 393e 04e2 163e 2ca0 ae3d a921 9fbe
00000180: ce52 92bd c0d8 20bd ed57 09be 0f94 20be
00000190: ff90 4e3e b2dc 33be bf7f b6bd 997e a8be
000001a0: 5c94 bdbe d60d 13bf 8cea e93f 3f4d 43bf
000001b0: 2f2f e2be dca4 7ebe 68c8 4dbd 827a f3bd
000001c0: cd3b a0bd 1c66 fc3d a677 2d3d f32a cabe
000001d0: 0d75 86be e984 c2bf 362f a23e c192 743f
000001e0: c87b 813f f0c0 9a3f f187 923f 93eb 67be
000001f0: 9b56 11c0 0f73 e4bf de21 f53f fabc aebf
00000200: cf53 d1bf 10f3 85bf 7806 04bf e017 893e
00000210: 8980 11bf 09d8 c13f ec8e 0d3f cb0d 003f
00000220: 555d 023d b038 c1bf cf00 e93f 6e1b 18be
00000230: 3e2f 763f 5c18 63bf c362 98bf a811 80bc
00000240: ca26 13be 0890 dabd 248e 1dbe b3bf 85be
00000250: b6f2 1fbe b859 1d3c fe67 693d 2dd1 9b3d
00000260: e7cb 93bc a1c4 18bc 0863 c23d 0198 a3be
00000270: 89b2 4cbf ff8f 873f 604e 04c0 2daf 08c0
00000280: 0338 c0bc 3000 00c0 bbbf 293e e091 9fbf
00000290: fb60 2fc0 1104 453f e97a 423f 6eb5 383f
000002a0: 89cf 633f bb3c f6be addb 353e 6a31 0bc0
000002b0: 903e 6f3f 7f6d 6bbf 9ab8 9abe 3501 f1be
000002c0: 70a0 cfbe 994c 5dbf 2007 edbe b6ed 00be
000002d0: a6d8 c2be ed37 18bf d297 6dbd 6f2c c8be
000002e0: 1a1e 923f 4651 aebf 3bce 77bf 948f 613e
000002f0: f825 58bf 962b 21bf 3576 3f3e 033a 18be
00000300: 7bcc 12c0 151a bdbe 2b6b 8f3b 7988 5d40
00000310: 70e6 6f3e 902c a13f 8a7d c23f b684 0dbf
00000320: 2307 d53e 8973 02bf 67d8 15bf 110b 0abf
00000330: 057c 47bf d08d d7be 5fab ff3e 4448 f0be
00000340: 0a60 81bf d6c8 183e f26f 9dbf cb9c 7e3f
00000350: b3be 72c0 bed0 4bbf 0674 ba3f 2c9f 91bf
00000360: 3e4f e63d ba9b a53e 7ee2 b1bd a7b4 6c3f
00000370: d979 3ebd 5406 19be ccc0 e43f 9d13 57bf
00000380: 756f d6bd 0385 833e 6d17 2dbf db5b a6bc
00000390: 3177 1040 1f00 06bf 618f bbbf db31 473e
000003a0: 6b23 1fc0 fc48 a5bf f3a0 34c0 05e0 433f
000003b0: a5d8 cdbf 724f 52c0 61c9 24c0 fa90 a53e
000003c0: 56f6 8abe 3574 1bc0 52ae 64bd ac28 da3f
000003d0: 8260 25bf cd30 b23e 1d8e 83bd 1712 bc3f
000003e0: b6df 4fbf e41f bc3f a0b2 1740 6f5e a93f
000003f0: 973c 9abf be48 7cbe f839 fd3e aaaa 143f
-1.10734 -1.1759335 -0.9264686 -0.47509837 0.11984863 0.4198682 0.08921318 0.20208614
-0.09857782 -0.46171108 -0.26405966 -0.16074859 -0.6379973 0.686171 0.6971043 1.9621962
-2.6452167 0.82660913 -0.47451052 -0.94303745 1.505218 -4.7140207 -1.2787819 -1.1646557
0.7652989 -0.56430084 -0.12211364 1.1156689 -4.360008 0.008933241 0.69322205 -0.34285784
-1.6597791 0.14096686 1.7523011 -0.88076794 -0.5656098 0.8733542 -0.3452661 0.42380562
-0.02136076 -2.4668496 0.6741421 -0.1385027 -0.17785196 1.035673 -3.1870544 0.8603699
0.10112743 0.57950604 -0.91994 0.10706842 0.25555372 0.16729675 0.13945779 0.21325737
0.007958005 0.23382549 -0.18097024 -0.23385318 -0.20229152 -0.3275136 -0.17688738 0.0905573
-0.31749976 -0.80832845 1.1048656 0.23229398 1.0207853 -2.295878 1.676339 -0.08717892
0.15245558 0.08725705 0.7433226 -0.22988646 -1.7681307 0.024911068 -1.5970147 0.37988448
-0.50313264 -1.7757304 -2.289473 -1.2086734 -1.7779865 1.2316234 1.1840218 1.0331534
-1.0578744 -1.0148001 1.6410341 -0.084164366 0.18078752 0.14734656 0.08526644 -0.31080368
-0.071447 -0.03926921 -0.13412447 -0.1568148 0.20172499 -0.17564657 -0.089110844 -0.32909086
-0.37027252 -0.57442987 1.8274703 -0.76289743 -0.44176623 -0.24867576 -0.05023995 -0.11888601
-0.07823906 0.12324163 0.042350434 -0.39485893 -0.26261178 -1.5196811 0.31676644 0.9553643
1.01159 1.209013 1.1447736 -0.22648458 -2.270911 -1.7847613 1.915096 -1.3651421
-1.6353701 -1.0464802 -0.5157237 0.26776028 -0.56836754 1.5144054 0.55296206 0.50021046
0.03182729 -1.5095425 1.8203372 -0.14854214 0.96165836 -0.88709044 -1.190514 -0.01563342
-0.14370266 -0.10672003 -0.15386254 -0.26122817 -0.1561993 0.00960391 0.05698394 0.076082565
-0.018041564 -0.009324224 0.09491545 -0.31951907 -0.79959923 1.0590819 -2.0672836 -2.135692
-0.023464208 -2.0000114 0.16577046 -1.2466393 -2.7402942 0.7695933 0.75968796 0.7215184
0.8898855 -0.4809321 0.17759581 -2.174891 0.9345484 -0.9196395 -0.30218965 -0.47071233
-0.40552092 -0.86445004 -0.46294498 -0.1259068 -0.38055915 -0.59460336 -0.058006115 -0.390964
1.1415436 -1.3618553 -0.9679906 0.22027427 -0.84432936 -0.6295713 0.18697436 -0.1486588
-2.2937305 -0.36933962 0.004376789 3.4614546 0.23427749 1.2591724 1.5194561 -0.55280626
0.41607007 -0.5095754 -0.5853333 -0.53923136 -0.77923614 -0.42100382 0.49935433 -0.46930134
-1.0107434 0.14920363 -1.2299788 0.99458 -3.7928894 -0.7961539 1.4566658 -1.13767
0.11245583 0.32345372 -0.08685778 0.92463154 -0.04650292 -0.1494382 1.7871337 -0.840143
-0.104704775 0.25687417 -0.6761387 -0.020307472 2.2572749 -0.52343935 -1.4653131 0.19452612
-2.4865367 -1.2912898 -2.8223236 0.765137 -1.608174 -3.286099 -2.5747912 0.3233717
-0.27141064 -2.4289677 -0.055830307 1.7043662 -0.64600384 0.34802857 -0.0642359 1.469302
-0.8120073 1.4697232 2.3702774 1.3231944 -1.204974 -0.24637124 0.4945829 0.5807291

net.0.bias f4 [128]
00000000: 161e c7be f7fe 3c3e 20d2 013f 2d8a 383f
00000010: ba01 8dbe ac31 10bf 39f3 3dbe 3229 50be
00000020: d71c f2be 311e c5be 8a78 aabe a011 88be
00000030: d71e bc3e 49ac dbbe 072a 7f3c 9c63 d93e
00000040: af33 143e c941 c83e 0a7f 853d 8ca9 3c3f
00000050: ce72 1dbf f949 013e 3ec5 46be 248d df3e
00000060: 7156 98be 2ee5 673f 14ec b33f 596d a0bf
00000070: 1cd6 24be a4c7 133d dadf 99be 6c57 b1bd
00000080: 7bfc ecbe ad5a 6bbc 573b 28be b6b7 e0be
00000090: c4f8 123f bb4c 093f cf53 08bf a68e edbe
000000a0: 3ed2 d53e c6c4 2f3f 1088 2dbe b061 edbe
000000b0: 3d05 9c3e 32c2 83be 87d4 2ebd 32b3 2e3e
000000c0: cb6b 4ebe aa0a 46be 02b6 4ebe 5bcc 203f
000000d0: b4e9 d1bc 8649 4d3f 8694 023f fea6 77bf
000000e0: 106a 193f 5263 773f c0f5 2bbf 3353 053e
000000f0: 54f7 efbc df76 c63d 0193 bc3c 3b43 92be
00000100: be81 ac3d 5d97 57be 92a1 8ebe fb2a f4bb
00000110: 4f45 89be 7ec4 ccbd 8261 263f 635a f2bd
00000120: cafc c4bd 5200 35be 2da1 8abe 55fe 26bd
00000130: dde0 de3e 4189 dd3c a24a b8bd 7e18 313f
00000140: 7149 48be 28a1 bdbb 824d 66bd d63e 57be
00000150: 30d5 31be 0df6 aebf ec05 e6be e57a 873e
00000160: 4a55 7abf d9d2 013f 7522 273f a438 cfbe
00000170: e90b 263f d7ef 6cbe b5ed e0be 3113 ac3e
00000180: e231 1e3e 2a72 1ebe 0e69 2c3f fb95 203f
00000190: 056f 78bc 0f51 a8be 26b4 ecbd dbbd bb3e
000001a0: 0d7f b2bd 197b 3ebd 4ad5 083d 12c8 45be
000001b0: 30f5 583d cc43 56bf 7e19 c73d fd3a a2be
000001c0: 7f2b 323e d91d 03be 9981 c9be dc27 07be
000001d0: 9e3f 8cbe f3d3 ca3c 21e7 e1be 2749 c8bd
000001e0: cbe7 e1bd 0d95 00bd 4453 82bf b59f 61bf
000001f0: effd 14be 63ba 10be c8b6 033f b1dd 47be
-0.3889014 0.18456636 0.5071125 0.7208584 -0.2754038 -0.56325793 -0.18549813 -0.20328215
-0.47287628 -0.38499597 -0.3329509 -0.26575947 0.3674228 -0.4290488 0.015573985 0.42458808
0.1447284 0.3911269 0.065183714 0.7369621 -0.61503303 0.12625875 -0.1941118 0.4366237
-0.2975345 0.90584075 1.405642 -1.253337 -0.16097301 0.036079064 -0.30053598 -0.086592525
-0.46286377 -0.0143648805 -0.16428886 -0.4389016 0.57410836 0.53632706 -0.5325288 -0.46397895
0.41761965 0.6865963 -0.16946435 -0.46363592 0.30472746 -0.25734097 -0.04268315 0.17060545
-0.20158307 -0.19340006 -0.20186618 0.6281182 -0.025624134 0.8019031 0.5100788 -0.96739185
0.59927464 0.96635926 -0.6717186 0.13020019 -0.02929274 0.096906416 0.023019316 -0.28566918
0.08423184 -0.21053834 -0.27857643 -0.0074514127 -0.2681069 -0.099984154 0.64992535 -0.11833646
-0.09618528 -0.17675903 -0.27076092 -0.040769894 0.43530932 0.027042987 -0.0899861 0.69178
-0.19559266 -0.0057870336 -0.05622626 -0.21020064 -0.17366481 -1.3668839 -0.44926393 0.2646095
-0.9778639 0.50712353 0.6528695 -0.404729 0.64861923 -0.23138367 -0.43931356 0.33608392
0.15448716 -0.15473238 0.673478 0.6272885 -0.015163188 -0.32874343 -0.11557798 0.36668286
-0.08715639 -0.046504114 0.033406533 -0.19314602 0.052968204 -0.836972 0.09721659 -0.3168563
0.17399405 -0.12804355 -0.39356688 -0.13198799 -0.27392286 0.024759268 -0.4412165 -0.09779578
-0.11030539 -0.031392146 -1.0181661 -0.8813432 -0.14549993 -0.14133601 0.5145078 -0.19518162

net.2.weight f4 [128, 128]
00000000: 2cba c4be d9ad 0940 1a78 473f 3ac8 6abf
00000010: a471 a4bd 74b7 25bf 27d1 c93f ccf0 0e3d
00000020: 1ca6 21be 4ed5 d2bf a25e e6be a9b9 963c
00000030: 81b2 73bd a40f b9bb b8eb a2be 8e22 8fbf
00000040: a0bc 20c0 7a5a f6bf 5605 1abf c0e2 bd3f
00000050: 2794 a2be 9ce4 a43d 3134 9bbd 7621 53bf
00000060: a17d 9e3c a4f2 54bf 8872 88bf 9f7e a23e
00000070: caa9 45bd 1bed 0ac0 4c60 013d 3992 b6bd
00000080: e67e 023f eb1e 4f3b 85d5 033f 3a59 b4bf
00000090: cfba 0fbe 0bbd 1abe be1d 8dbe d190 2a40
000000a0: 4ace 16bf 842b 25c0 fd5d c8bf 4ab1 4bc0
000000b0: dbb1 5fbf 8894 dd3e 4dae 8bbe 796a 373e
000000c0: e54f 27c0 d17e 8fbd db47 90bf 18dd a6bf
000000d0: 192d 88bc a826 56c0 16d1 7b3f 4670 51bf
000000e0: 1257 8e3f 389f 9abd 1963 08bf 9d83 aabd
000000f0: b188 69bc b663 173e dfe7 a3bf 594d c4be
00000100: 5622 b7bb 3252 c3bc 24be 7ebf 9309 81bf
00000110: 409e 56c0 5a68 fabe 7ea0 50bf 3afc 61bf
00000120: da55 35bd da12 26be 07ae bfbc 73b1 acbf
00000130: 0f3e 13be db41 7d3d e0ab 3ebb 434f d9bd
00000140: 5418 213d 3d43 833c 8af0 6c3e 8af3 58be
00000150: fe61 83bd a00c c3bf b528 68bf 9939 e9bf
00000160: c3f8 55bd cbe6 dbbe dcb1 2cbf f3a4 87be
00000170: 3874 21bf 2ed1 9fbd 9104 87be 116e 7bbf
00000180: a423 84bf e218 17bf ec9a a2bd c153 4ebd
00000190: d234 e1bc bbac 01bf 6009 b23e f4b3 d5bf
000001a0: fddc 3c3f 2aea c43e 0264 7b3e 4105 8bbd
000001b0: b9ee 5cbe 793b 27bf 73d4 833e 80f7 933d
000001c0: 0409 613e 8f2c 50c0 d882 87be 6288 1ac0
000001d0: 4968 5b3d 1057 63bc 5353 703f 8653 493e
000001e0: 10ba 24c0 24f9 a3bd bd41 7e3f 3bd0 0cbf
000001f0: 483d d5bd c3fd 39bd 2ec5 e2bd 728d f03e
00000200: c8cd d5be 9aec 09c0 bd33 1c3e e27a 34bf
00000210: d8bc 82bc 7a6a 57bf 4c24 cd3f 7737 80bd
00000220: 6636 3a3e b9d4 513f f8e6 32c0 f65f ae3c
00000230: 79e2 f73e ac3e 283e b728 f8bf df9c 3c3f
00000240: 4d13 8dbf 09cd ebbf 4acc b6bf 7e85 93bf
00000250: d1ed b73f 8802 193c fe0b b23d f3d8 ec3e
00000260: e50e 973c 0375 8dbf f47c 6fbf 5414 fcbf
00000270: 2733 113d 1695 21bf 2337 2c3c 5cb4 7bbd
00000280: 1e22 93be ded1 8f3d f9a6 8fc0 d7bb a03f
00000290: 5fb3 84bf 20ae debd a47d 9f3c 57be b3be
000002a0: 9bf9 a9be 096f a7bf c2fe 02bf b920 20c0
000002b0: 4640 3ac0 6b13 bdbf 654a fbbe 4c1f 0bbe
000002c0: 8c90 d6be 66a8 6dc0 da9b 2dbf ea2e d8bf
000002d0: 30ca 623f c93e 2fc0 c494 d43e 2e57 313f
000002e0: ce9d c0be b0e8 873e a3bf 1dbd c1ed 56be
000002f0: 7264 26bf bb56 cbbc aaae 09c0 3e34 3c3f
00000300: a6bb 453d db92 1f3c 1f93 b3be 560f 72bf
00000310: f570 4cbe e603 cabf 9c90 eebe 76da 21c0
00000320: 938b 9a3c 47a0 bebe b80e 453c c8e7 6b3f
00000330: b438 aec0 6232 25bc b8f7 783d 5ab1 a3bf
00000340: 531d 8dbd 4716 693d 9a6d 0ebd 8a5c 583d
00000350: 8908 81bd 8626 01c0 fdfe 353f e535 573f
00000360: 8183 25c0 f677 32c0 aa97 063e 6026 d9bf
00000370: 5e0a 15bf 836a 8ebc 63bb 4bbf 5483 dfbe
00000380: dca1 afbf 3bfe 3d3f cac8 66bf 0be0 2bc0
00000390: a9be 17bd 5ab4 5f3e 1fc7 37bf 0a3f 87bf
000003a0: 3f26 9bbe a9ea f3bf df08 b63e 29fb 71bd
000003b0: 60d3 913d 5bd6 a43e 0815 47be 1aa8 5fbd
000003c0: 4246 f03b e9f0 42bf f549 463e ff86 533e
000003d0: 9628 34bd 2c8f 1a3e ecc9 79be 5fc4 0c3f
000003e0: 2927 89c0 bfde 23bd b67b 28bd 78f4 133f
000003f0: 38b4 2b3e 2e59 623d e124 fcbe a045 ecbf
-0.38423288 2.1512358 0.77917635 -0.9171177 -0.08029488 -0.6473305 1.5766953 0.03489761
-0.15786022 -1.6471345 -0.44994074 0.018399077 -0.059496406 -0.0056476165 -0.31820464 -1.118242
-2.5115128 -1.9246361 -0.6016439 1.4834824 -0.31753656 0.08051416 -0.07578314 -0.8247293
0.019347014 -0.8318274 -1.0659952 0.3173723 -0.048257627 -2.1707218 0.031585976 -0.089146085
0.5097488 0.0031604122 0.5149768 -1.408973 -0.14036106 -0.15111177 -0.27561754 2.665089
-0.5890852 -2.580781 -1.5653683 -3.1826959 -0.8738076 0.43277383 -0.27281418 0.1791171
-2.6142514 -0.0700661 -1.1271929 -1.3036222 -0.016623067 -3.3461094 0.98365915 -0.8181194
1.1120322 -0.075499 -0.5327621 -0.083258845 -0.014253781 0.1478413 -1.2805136 -0.38340262
-0.00558881 -0.023842905 -0.9950888 -1.0081047 -3.3534088 -0.4890774 -0.8149489 -0.8827549
-0.044271328 -0.16218129 -0.023398412 -1.3491653 -0.14379142 0.061830383 -0.0029094145 -0.10610821
0.03932984 0.016023273 0.23138633 -0.21186653 -0.06415175 -1.5238228 -0.90687114 -1.8220702
-0.05223919 -0.4294952 -0.6745889 -0.26493034 -0.6306796 -0.0780357 -0.2637067 -0.98214823
-1.0323377 -0.59022343 -0.07939705 -0.050372843 -0.027491007 -0.5065419 0.34772778 -1.6695542
0.737747 0.38459903 0.24549869 -0.067881115 -0.2157544 -0.65325123 0.25748023 0.07224941
0.21976095 -3.2527196 -0.26467013 -2.4145741 0.05356625 -0.013875738 0.9387714 0.19660768
-2.5738564 -0.08006504 0.9931906 -0.55005234 -0.10412079 -0.04540802 -0.11072765 0.46982914
-0.4175856 -2.155066 0.15254112 -0.70500004 -0.015959188 -0.84146845 1.6026702 -0.06260579
0.18184814 0.81965214 -2.7953472 0.021285992 0.48414972 0.16430157 -1.9387425 0.73676866
-1.1021515 -1.8421947 -1.4281094 -1.1525114 1.4369451 0.009338982 0.086936936 0.4625927
0.01843972 -1.1051334 -0.9355004 -1.9693704 0.035449173 -0.6311811 0.0105111925 -0.0614513
-0.28736967 0.07022451 -4.4891324 1.2557324 -1.036724 -0.108730555 0.01946909 -0.35106155
-0.33198246 -1.308076 -0.5116998 -2.5019972 -2.910173 -1.4771551 -0.49080196 -0.13586158
-0.41907156 -3.7134032 -0.67815936 -1.6889317 0.88589764 -2.738207 0.4151975 0.6927365
-0.37620395 0.26544714 -0.038512837 -0.20989133 -0.6499702 -0.02482163 -2.1512856 0.73517215
0.04827466 0.009739603 -0.35073182 -0.9455465 -0.19964965 -1.578244 -0.46594703 -2.5289588
0.018865382 -0.37231657 0.012027435 0.92150545 -5.444422 -0.010082813 0.060783118 -1.2788498
-0.06890359 0.05690601 -0.034772493 0.052822627 -0.06300456 -2.0179763 0.71092206 0.8406661
-2.5861514 -2.7885718 0.13143793 -1.6964836 -0.58218944 -0.017384773 -0.79582804 -0.43654883
-1.372127 0.7421605 -0.9015013 -2.6855495 -0.037047062 0.21846142 -0.7178821 -1.0566113
-0.30302617 -1.9055988 0.35553643 -0.059077416 0.07120395 0.3219479 -0.19441617 -0.054603674
0.007332594 -0.7614885 0.1936415 0.20656966 -0.04398402 0.15093678 -0.24393433 0.5498714
-4.2860303 -0.04000735 -0.041133605 0.57794905 0.16767967 0.05526083 -0.49246886 -1.8458748

net.2.bias f4 [128]
00000000: a057 e2be 1d2b 973f f61f 4abe 57fa f33f
00000010: 94c1 06be c886 4d3d 43f0 f13f db47 903f
00000020: 3638 c8bd 82f2 0abf cdba 17be 0bdf e7bd
00000030: d76a 8ebd d59a 203f a4e9 c53b 9add 5f3f
00000040: d923 433f 373d 47bd 79ce ea3f cd57 75bf
00000050: 29af 963e 66f3 b2bd 607c ffbd 0624 a4bd
00000060: d209 7bbe 54c0 e1bd 55f5 4c3f 6d81 b1bd
00000070: 60d1 73bd 1c6b a7bf 0647 81bd 4a83 0fbe
00000080: dbc9 04be 5fe3 03c0 905c 65bf 1c72 08bf
00000090: 17e1 94bd 4f7c 593f 4ffd 10be b17c b2bd
000000a0: 5a34 d4bc eef5 86bd 2e04 06be c46d 09be
000000b0: f165 81bd fc6d 51bd 266d eabd efef 8fbe
000000c0: 6975 74bf 6835 723e 853b 85bc 79f1 04be
000000d0: d0c7 07be 2b5c 43bd e474 ac3b f7c7 633f
000000e0: ada4 8dbd 65ac ed3c 3996 c7be 0335 6bbe
000000f0: a5a4 89be 1100 2fbe 2b8a 053e f8f2 2abf
00000100: f5cd b0bc be5b 8e3e ebca d13f 03ba 12bf
00000110: 6f79 873d 14cc a83f 62f6 6d3d 7ee5 1c3f
00000120: eea9 173f 1b7c f6bd 7f1d 6ebd d9ad b7be
00000130: 1129 323f f762 94bd 2153 84bb e205 a33e
00000140: 64c1 75bc 54a7 adbe 2b14 803d 7c5d f1be
00000150: f338 79bc db94 c43e 0242 703c 1d14 1a3f
00000160: 9f4a 3ebc 1760 c0bc 967f 0a3f 0392 7ebd
00000170: ed82 af3e 4ac8 633f 4fae 93be 8809 813f
00000180: 60d3 793f 81fd 85be 0f8e 38be fe9c ff3e
00000190: d26f 723f 77f5 98bd 8366 1c3f 7ee8 1abe
000001a0: b32c d93f 7d95 a6bd 2afd f53d 89d4 633f
000001b0: 51cc 4d3f 0a06 c73e beab 83bc fed7 87bc
000001c0: 469a 91be 1768 dcbd 2d66 673e dd50 18be
000001d0: 2f28 913e c9e4 40bd b016 48be 2c4e b73d
000001e0: 8355 473e de14 99be 8370 813f 3446 dabe
000001f0: a1c3 ea3e 6a8a 0ebe 105d 10bf c985 97bd
-0.44207478 1.1810032 -0.19738755 1.9060773 -0.13159782 0.050177366 1.8901447 1.1271929
-0.097763464 -0.5427629 -0.14817353 -0.11321839 -0.06953972 0.62736255 0.006039815 0.8744751
0.76226574 -0.048642363 1.834426 -0.958371 0.29430512 -0.08737831 -0.124748945 -0.080146834
-0.24515465 -0.11023012 0.80061847 -0.08667264 -0.059525847 -1.3079562 -0.06312375 -0.14014927
-0.12967627 -2.0607526 -0.89594364 -0.5329912 -0.07269495 0.84955305 -0.1415913 -0.08715189
-0.02590387 -0.06589876 -0.13087532 -0.13420779 -0.06318272 -0.05113028 -0.114466 -0.28112742
-0.95491654 0.23653185 -0.016263733 -0.1298274 -0.13259816 -0.04769532 0.005262958 0.88977
-0.06916175 0.029012868 -0.38981798 -0.22969441 -0.26883426 -0.17089869 0.13040988 -0.6677699
-0.021582583 0.2780437 1.6390051 -0.5731508 0.066149585 1.318728 0.058096297 0.6128768
0.5924367 -0.1203539 -0.0581336 -0.35874823 0.6959391 -0.072454385 -0.00403823 0.31840426
-0.014999721 -0.33916724 0.06253847 -0.47141635 -0.015211332 0.38394818 0.014664175 0.6018694
-0.011614471 -0.02348332 0.5410093 -0.062150966 0.34279576 0.8897749 -0.28843924 1.0081034
0.9758816 -0.2616997 -0.18022941 0.49924463 0.94701874 -0.07468694 0.6109392 -0.15127751
1.6966766 -0.081339814 0.12011178 0.8899618 0.8038989 0.38871795 -0.016073104 -0.016582485
-0.28438014 -0.10762041 0.2259757 -0.14874597 0.2835097 -0.047093187 -0.19539905 0.08950457
0.19466214 -0.29898733 1.0112461 -0.42631686 0.45852378 -0.13919988 -0.56392 -0.07398564

net.4.weight f4 [6, 128]
00000000: 3ef5 1440 267f 4840 1999 1440 5ca5 9fbf
00000010: 87c6 08ba 3ef1 443f 142c 5f40 eae8 0240
00000020: ef7a 003d 5c63 223f d0b4 0a3d e8dc 5ebd
00000030: 347c 2240 c8e3 3a40 cdac b4bd 30f0 4b40
00000040: f816 923f 4542 61bc c265 963f 0275 a2bf
00000050: 6008 40bf fa46 3e40 3617 f03c 9900 48bd
00000060: b801 4b40 221d 063d 318b 5240 9fea 5a3d
00000070: ea66 573d 0603 8cbf 15c4 dd3e ec3c c1bb
00000080: fbc3 cdbd ca32 9ebf 3b2d 5740 3fa0 0040
00000090: b268 98bb e316 4640 ac79 f23b 0f82 1abc
000000a0: 958f 093c 21bf 2140 7b9c b53c 9d28 2040
000000b0: f481 7dbd 9435 18bc aa2a 653d adf5 7b3f
000000c0: 3472 c2bf f504 7f40 3f32 463c 2e9f 09bd
000000d0: 7224 8f3d c78c aa3f 1564 cebc 6131 90bf
000000e0: f130 6c3d afa4 f13f 53f4 1e40 2c36 203e
000000f0: 8ee9 0f40 5937 cd3c 15a4 aabd 5951 7840
00000100: 84bd b33c 463d 8940 eef0 9440 cfc6 3840
00000110: 09ce 0040 6483 b53f 7ae7 8abf 9685 0640
00000120: 8b02 61bf 7f1c 6c3d 484b 14bd cea2 b03f
00000130: 470f 8040 f9c5 5b3d 977c 113e 7b92 f53f
00000140: 9a9d 31bd 4ad6 f53e c650 9e3f ce4f 3f40
00000150: 4a52 3340 f1d6 1340 1c15 4140 55e5 84bf
00000160: 8285 ae3c d8b9 2740 550d 4540 861c 9c3c
00000170: a180 3c40 3df9 2040 41c4 73be 50b6 873f
00000180: ddad db3f 3b17 f3bd d323 893d c34c 3140
00000190: bf1d 1c40 415e 05bd 624f 87bf 1e5c 6d3b
000001a0: 3bb9 0640 df6f 2e3c 25a1 f33e 612b 5640
000001b0: ea80 6140 10a8 0640 6d3f 973b 2e8a 79bc
000001c0: fb00 23bf 545d 733d b2fd 5840 5a1d 58bc
000001d0: d2dd 2e40 d9e4 6140 d1c2 2b40 61cf a4bd
000001e0: 8741 3640 63fe 2140 7dd3 6740 61b6 e0be
000001f0: e08e 3940 4637 143d b435 4f40 c0f1 9ebd
00000200: 2fdf 2440 3bd0 1940 9293 2340 bb65 94bf
00000210: e1e7 c73e f26c 7c3f 63cb 6440 1902 0240
00000220: 42cf 6ebd e865 2c3f 0ac7 173c dd4c 2c3d
00000230: 09eb 0e40 fc3b 5f40 414a 00bd c8e2 5240
00000240: fc0b 8c3f bc6d 8dbc 4ccf 983f fb67 a0bf
00000250: e00b 49bf b9c2 2d40 c562 c1bc 7ddf 8f3c
00000260: 75ec 7240 c3bf a53b ba6c 4740 5980 023c
00000270: 9488 d73d 2180 86bf 08a8 86bd 2413 e1bb
00000280: 8500 8abc 468a 98bf 562b 5540 8bac 2e40
00000290: 3c4c 28bd da99 3640 4221 903d 5b85 0cbb
000002a0: 4175 af3c 6b41 2540 bb16 ae3b 6ac2 2240
000002b0: 436d 1f3b fa6d 0bbd 5404 3b3c fc85 8f3f
000002c0: dcc7 c6bf 5781 6a40 0d95 81bc d9e0 4ebc
000002d0: e02e 293d cc0a d13f 7c85 203d 5b6c e0bf
000002e0: 195f 11bd 08fb f33f c672 0e40 c93f 423f
000002f0: e088 1b40 d98c f43b d158 12bf 2f1b 9140
00000300: 2efd 9f3d 06a8 8640 9ff1 7a40 e30c 4f40
00000310: ee10 f43f 601f b73f 6b74 93bf 1136 e13f
00000320: 1674 46bf c17f 783d 4268 0e3c 386d 1240
00000330: 3648 5940 6f5e 293d 057e 693e 16b0 a43f
00000340: 43e9 eebb 5bc1 443f bb0c c03f 4fd4 4640
00000350: 6a15 2f40 54dc b93f 7976 3a40 3e86 91bf
00000360: 2363 60be f46e 1a40 7181 6840 a4a6 e13c
00000370: df9f 7440 1e14 1340 16b8 c93c eb3f 8a3f
00000380: 8f93 d63f 6faf b4bd 75bf 653d 995d 3240
00000390: d8ca 1940 c1bf 553d e117 b9be deeb 2ebd
000003a0: ee61 0b40 5362 e03c f67e 83bf 1124 3840
000003b0: dafe 5040 03fa 3940 9129 9fbd 9ffc 8fbc
000003c0: 9024 d6be e7e6 6e3b a3e5 4540 e19d 6dbd
000003d0: b45f 2240 8786 4f40 c205 0340 ed9a 77be
000003e0: d5ef 2f40 7a75 2840 2389 5f40 f69b c6be
000003f0: 7504 4e40 4aee 033d b481 6340 87c4 183c
2.3274684 3.1327605 2.3218443 -1.2472339 -0.0005217571 0.76930606 3.4870653 2.045466
0.03136724 0.6343286 0.033863842 -0.05440989 2.5388308 2.9201527 -0.08822022 3.186535
1.141326 -0.01374871 1.1749804 -1.2691958 -0.7501278 2.973082 0.029307943 -0.048828695
3.17198 0.032742627 3.2897456 0.05344641 0.05258838 -1.0938423 0.4331366 -0.005897155
-0.10047146 -1.235925 3.3621356 2.0097806 -0.0046511525 3.095147 0.0073997583 -0.009430422
0.008396049 2.5272906 0.022169342 2.5024788 -0.06189151 -0.009290118 0.05594889 0.98421746
-1.5191102 3.9846776 0.012096941 -0.03359907 0.06989373 1.3324212 -0.025194207 -1.1265069
0.05766386 1.8878382 2.4836624 0.15645665 2.24863 0.025050806 -0.083320774 3.879965
0.021940954 4.2887297 4.6544104 2.8871343 2.0125754 1.4180722 -1.0851891 2.1019034
-0.87894505 0.057644363 -0.036204606 1.3799684 4.001865 0.0536556 0.14207684 1.9185327
-0.04336319 0.48015052 1.23684 2.989246 2.8018975 2.309994 3.0169134 -1.0382487
0.021303896 2.620718 3.0789387 0.01905657 2.945351 2.5152123 -0.23805334 1.0602512
1.7162434 -0.11869665 0.06696286 2.7703102 2.4393156 -0.03256059 -1.0571101 0.0036218236
2.1050556 0.010646789 0.4758388 3.3463976 3.5234933 2.1040077 0.0046157152 -0.0152306985
-0.6367337 0.059415177 3.3904843 -0.013190592 2.7322888 3.5295928 2.6837656 -0.08047367
2.8477495 2.5311515 3.6222832 -0.43889144 2.8993454 0.036185525 3.2376528 -0.07760954
2.576122 2.4033344 2.555882 -1.1593546 0.39044097 0.9860374 3.5749137 2.031378
-0.058303125 0.67342997 0.009263763 0.04206549 2.2330954 3.4880362 -0.031320814 3.2950916
1.0941157 -0.01726424 1.1938262 -1.2531732 -0.78533745 2.71501 -0.023606667 0.017562622
3.7956822 0.00505826 3.1160111 0.007965171 0.10524097 -1.0507852 -0.06575018 -0.006868737
-0.01684595 -1.1917198 3.33077 2.7292812 -0.041088328 2.8531404 0.070375934 -0.002144179
0.021418216 2.5821178 0.0053127683 2.543116 0.00243266 -0.03404043 0.011414606 1.1212764
-1.5529742 3.6641443 -0.015818143 -0.01262685 0.04130447 1.633142 0.0391898 -1.7533067
-0.035491083 1.9060984 2.2257552 0.7587858 2.4302292 0.0074630794 -0.57166773 4.5345683
0.07811962 4.2080107 3.9209974 3.2351615 1.9067667 1.430645 -1.1519903 1.7594625
-0.77520883 0.06066871 0.008691849 2.2879162 3.3950324 0.041349825 0.22801979 1.2866237
-0.0072909906 0.7685754 1.5003885 3.1067083 2.735682 1.4520364 2.913481 -1.1369092
-0.21912818 2.413022 3.6329005 0.02754528 3.8222578 2.2981029 0.024623912 1.0800756
1.6763781 -0.08822524 0.05609079 2.7869627 2.4030056 0.052184824 -0.3615103 -0.04270541
2.1778522 0.027390635 -1.027312 2.8772013 3.265555 2.9058845 -0.077716 -0.017576514
-0.4182477 0.0036453546 3.092141 -0.058011893 2.5370913 3.242586 2.0472264 -0.24180193
2.7490132 2.6321702 3.4927452 -0.38790864 3.219022 0.032209672 3.5547915 0.0093241995

net.4.bias f4 [6]
00000000: fcfc e23f 948c fd3f fc4a 0340 dee9 0640
00000010: 9308 0340 cf7e e63f
1.7733455 1.9808526 2.0514517 2.1080241 2.0473983 1.8007449
